code/model/seed_1/QDANN_D_corn_2018.pth (torch, 32945 bytes, 14 tensors)

d_fc1.weight f4 [64, 32]
6.4384777e-13 -6.9348248e-15 2.5398562e-11 9.428277e-12 6.3250184e-07 -2.6492157e-14 8.716827e-16 -3.1565926e-12
-3.301879e-10 -8.4977347e-07 -1.7161366e-11 -3.9378484e-08 1.04002846e-13 1.2371578e-14 -4.2831966e-10 -5.1627617e-12
1.4481962e-16 -2.0336698e-15 -5.9027456e-14 -1.6943037e-10 5.8396327e-13 -4.63904e-08 6.8347194e-13 -8.7065194e-10
-1.2405569e-16 -1.5644631e-16 -4.596828e-09 9.775082e-14 -8.5965986e-08 -7.8839366e-13 3.4116043e-12 -3.3015431e-18
-1.5522739e-16 8.692328e-13 -2.5444983e-19 2.136475e-16 -1.6907271e-10 -1.2127782e-19 -5.1686445e-21 8.773688e-23
-2.44782e-15 -2.2255429e-09 1.9101384e-20 -6.8278517e-12 -3.1789375e-20 4.6671784e-18 6.144087e-22 -7.684528e-22
-5.058903e-22 -1.2369196e-16 -1.8264429e-17 5.1596114e-18 8.48335e-24 -2.8970577e-15 -7.0618994e-20 -5.1794237e-23
1.1800876e-21 6.711996e-22 9.862378e-17 1.9895967e-17 2.088841e-17 -1.5049316e-16 -5.282508e-19 -4.29311e-22
-3.4789648e-19 -5.7869026e-24 -3.653778e-14 -2.1014688e-19 -3.3170931e-18 -2.2312272e-17 1.1165585e-15 8.678172e-16
1.704371e-21 4.962012e-20 2.7592834e-16 9.499358e-25 -5.854156e-28 3.3351052e-17 1.6831886e-17 6.2188894e-17
4.9709975e-23 -1.0317176e-15 -2.3832119e-17 8.800134e-22 -5.209358e-24 -5.832891e-22 -2.85557e-24 4.0671475e-17
-3.3973956e-25 -3.0580125e-28 1.418708e-17 2.7086203e-17 7.453156e-20 1.19584095e-14 -2.662339e-14 4.7680786e-11
-5.053008e-16 1.4985136e-20 -2.5831242e-18 3.249306e-20 8.806532e-15 2.8496825e-16 -1.9224398e-13 -1.6876681e-22
-9.187256e-14 -1.6299179e-21 -1.0717715e-13 1.23809036e-14 3.31518e-20 -4.0673205e-17 -2.319475e-18 -2.4617987e-23
-3.5081957e-15 9.611334e-22 5.705943e-18 -9.095799e-13 6.1217803e-24 1.345656e-13 1.3232448e-21 2.6789218e-13
1.2552102e-10 8.2303935e-14 -1.8180959e-14 -2.0120721e-20 -3.2834274e-13 6.559334e-11 4.3804925e-18 8.2692387e-13
-2.7209536e-28 -7.7590115e-13 -6.131523e-20 2.8493927e-14 3.283478e-16 2.2092168e-23 -6.088383e-19 -8.063408e-14
-4.219534e-23 6.6114373e-16 -4.676001e-28 -4.926139e-19 2.1045197e-30 -1.7837823e-14 -6.4797e-35 -6.375934e-20
-1.1796604e-23 3.3735318e-18 2.2324203e-22 -8.5440675e-11 1.1378066e-20 -1.811588e-18 6.211149e-21 -9.582577e-27
3.976839e-13 3.168424e-17 -6.9867516e-19 -2.8506812e-29 -1.6020367e-15 -3.147923e-26 1.1886038e-27 5.00938e-19
2.2046186e-14 1.531832e-10 -2.4841088e-13 4.0800675e-11 1.3984314e-08 4.3430558e-11 -2.6178595e-10 -1.542197e-14
-1.7353433e-11 3.52606e-11 -1.2355645e-12 -8.9401425e-13 1.2943392e-14 -2.189153e-14 1.8525092e-16 -5.536769e-13
-1.8187622e-13 3.5691743e-13 3.0336835e-08 -1.7932452e-08 9.825721e-10 -2.286888e-12 8.003253e-15 -1.3465025e-13
1.1716097e-11 4.9052273e-11 5.3239448e-11 -1.8525397e-09 -2.6902106e-11 -4.4341072e-10 8.437584e-11 -6.8384637e-15
5.5333805e-18 -4.5610028e-18 -5.285868e-18 -2.0213205e-15 -7.2714742e-12 4.1889415e-14 -3.920953e-13 1.7096397e-12
2.9660288e-11 2.3742985e-17 -8.558235e-12 -1.5530506e-15 -5.4219403e-21 2.8112047e-17 -9.322693e-16 -5.0042977e-16
-1.3993061e-16 -1.4502458e-14 1.0684085e-11 -2.0833414e-13 -3.1322888e-24 3.0851748e-16 5.1753497e-15 1.0430689e-24
-2.7693707e-14 7.195801e-15 -3.97169e-13 -8.681565e-12 2.7232243e-15 1.0250408e-18 1.6952736e-13 -7.683922e-18
1.085964e-07 8.2563026e-11 -1.4241369e-09 2.2681813e-10 7.708612e-09 6.066552e-11 -4.806944e-10 -1.1013212e-15
-4.8510352e-11 1.6134208e-12 3.679134e-16 1.0745523e-14 -1.340109e-15 -8.816406e-10 2.4914231e-13 7.006598e-17
-8.945182e-11 -2.5551043e-13 2.8579432e-08 -2.751446e-09 -1.4713958e-18 9.985968e-16 1.8506965e-12 3.6276422e-15
1.7968965e-11 -2.8388897e-14 -4.7102105e-12 -1.804826e-11 -4.7086446e-10 9.545309e-13 2.2763243e-12 1.5486787e-13
00000000: 1f3a 352b 78da f9a7 7a68 df2d 2fdd 252d
00000010: 32c9 2935 c19e eea8 d53e 7b26 1e20 5eac
00000020: d185 b5af fd1b 64b5 f6f3 96ad 1a21 29b3
00000030: 8f31 ea29 d5dd 5e28 a278 ebaf 06a6 b5ac
00000040: 35f7 2625 968a 12a7 03eb 84a9 694a 3aaf
00000050: fd5e 242b c93e 47b3 5861 402b af52 6fb0
00000060: c706 0fa5 cd5e 34a5 20f2 9db1 831d dc29
00000070: 4d9c b8b3 c0e9 5dab 0012 702c 639c 73a2
00000080: 0af7 32a5 d3aa 742b 5f33 96a0 9d51 7625
00000090: bde5 39af f92d 0fa0 1044 c39d 8022 d41a
000000a0: 4f62 30a7 2af0 18b1 5068 b41e d23b f0ac
000000b0: ff1e 169f 4130 ac22 92b1 391c 2840 689c
000000c0: 5ee5 189c 6c9b 0ea5 aa75 a8a3 275b be22
000000d0: 8417 2419 48c1 50a7 90be a69f 2976 7a9a
000000e0: 6e54 b21c 8edb 4a1c 3469 e324 0682 b723
000000f0: 5da9 c023 be81 2da5 81e9 1ba1 54c0 019c
00000100: a15c cda0 b5de df98 318d 24a9 ff18 78a0
00000110: 1ec2 74a2 5dcb cda3 bde9 a026 9b21 7a26
00000120: 54c7 001d 0b53 6a1f d60f 9f25 d5fe 9217
00000130: 8e86 3992 f9cd 1924 2b3f 9b23 d865 8f24
00000140: f861 701a a9af 94a6 00d0 dba3 dffb 841c
00000150: fc86 c998 cf49 309c 64f0 5c98 6790 3b24
00000160: e249 d296 17d3 c191 4cda 8223 7dd3 f923
00000170: 90fb af1f 6e6c 5728 5ccd efa8 cbb3 512e
00000180: 9ea4 11a6 d687 8d1e d699 3ea2 b371 191f
00000190: f6a4 1e28 e445 a425 8e72 58aa cc06 4c9b
000001a0: ede0 cea9 654e f69c 6c57 f1a9 d708 5f28
000001b0: 118e 1c1f 7292 3ba4 a525 2ba2 2f17 ee99
000001c0: caca 7ca7 0c3e 911c 1c83 d222 1203 80ab
000001d0: 2dd3 ec18 e581 172a 8ef6 c71c 55cf 962a
000001e0: 0703 0a2f fd54 b929 70c2 a3a8 eb08 be9e
000001f0: 2dd7 b8aa c53d 902e 959c a122 25c2 682b
00000200: ff75 ac91 9265 5aab c8c6 909f 4353 0029
00000210: 9547 bd25 8fa9 d519 85b2 33a1 6292 b5a9
00000220: 4d0b 4c9a cc8f 3e26 3a30 1492 db64 11a1
00000230: 2abd 2a0e 38ab a0a8 8e42 ac86 288c 969f
00000240: f42d 6499 37ec 7822 08f1 861b d3e2 bbae
00000250: f3ec 561e eeab 05a2 8ca6 ea1d 70cd 3d94
00000260: 4ae0 df2a 261e 1224 6736 4ea1 f58b 1090
00000270: b9e0 e6a6 aae0 1b95 8057 bc12 ced9 1321
00000280: 0b93 c628 3d6d 282f c8d7 8baa 7a71 332e
00000290: aa3f 7032 7602 3f2e 19eb 8faf a4e8 8aa8
000002a0: 75a4 98ad e813 1b2e e7e3 adab 84a4 7bab
000002b0: dc2a 6928 6e2e c5a8 6c94 5525 a0d8 1bab
000002c0: 40c6 4caa 39ed c82a b44b 0233 e109 9ab2
000002d0: 2f0b 8730 e9ec 20ac 7d2c 1028 4b9a 17aa
000002e0: 9c1c 4e2d f3bb 572e 4a26 6a2e 729c feb0
000002f0: 28a2 ecad 83c4 f3af 608b b92e b261 f6a7
00000300: 4d25 cc22 7445 a8a2 9d03 c3a2 c8a6 11a7
00000310: 9ed7 ffac 35a7 3c29 e3ba dcaa 439c f02b
00000320: 8472 022e 8afd da23 dd8e 16ad 74d1 dfa6
00000330: cad5 cc9d d9a4 0124 ab5a 86a6 333d 10a6
00000340: 3a54 21a5 64a0 82a8 d7f4 3b2d 3a90 6aaa
00000350: 5f59 7298 25d9 b125 2d76 ba27 3768 a117
00000360: 5771 f9a8 c6a0 0128 1696 dfaa 4bba 18ad
00000370: 9f3a 4427 f244 9721 efde 3e2a 4cbe 0da3
00000380: 8135 e933 da8e b52e 5dbb c3b0 a163 792f
00000390: d66e 0432 a767 852e dc21 04b0 95b7 9ea6
000003a0: cd59 55ae 9c11 e32b 6f16 d425 fa92 4128
000003b0: 4c21 c1a6 f157 72b0 3141 8c2a a88f a124
000003c0: e6b4 c4ae efd6 8faa d67e f532 f313 3db1
000003d0: c323 d9a1 b8e9 8f26 2f3b 022c 18b3 8227
000003e0: 830e 9e2d 57b4 ffa8 ceb9 a5ac 12c1 9ead
000003f0: 246e 01b0 9a56 862b 9d2e 202c a05d 2e2a

d_fc1.bias f4 [64]
-1.4003649e-22 1.063e-41 -1.0626e-41 1.0740382e-29 6.7e-44 2.9455317e-25 -9.8e-44 6.35e-43
-1.2602692e-13 -5.5152096e-22 -7e-44 -1.682086e-17 -1.6343727e-26 3.78e-43 5.21e-43 -4.3771e-41
8.3682256e-17 -4.74e-43 -1.2806999e-32 -2.4323548e-27 -2.2e-44 1.327e-42 2.58e-43 1.47e-43
-1.185e-42 2.6893154e-19 -4.669e-42 -6.1e-43 -8.17e-43 -1.789391e-21 -6.154748e-26 -4.893564e-25
4.9e-44 -6.42e-43 5e-43 5e-44 4.41e-43 -2.09e-43 -6e-44 5.47e-43
-4.5e-43 8.434593e-29 5.86e-43 -1.166e-42 -5.3e-43 -5.82e-43 3.8476877e-23 3.1244056e-28
-5.14e-43 -4.75e-43 4.72e-43 -4.9e-43 -4.152393e-31 9.11703e-30 9.54e-43 -2.7e-43
2.018e-42 1.1921251e-20 -4.08e-43 1.222e-42 4.51e-43 9.29e-43 -5.266e-42 -6.01e-43
00000000: 324b 299b a21d 0000 9f1d 0080 40d7 590f
00000010: 3000 0000 d051 b616 4600 0080 c501 0000
00000020: c9e4 0daa deaf 269c 3200 0080 2225 9ba3
00000030: 45dc a194 0e01 0000 7401 0000 047a 0080
00000040: 49f5 c024 5201 0080 d8fe 848a 04b6 4093
00000050: 1000 0080 b303 0000 b800 0000 6900 0000
00000060: 4e03 0080 c9bf 9e20 040d 0080 b301 0080
00000070: 4702 0080 db33 079d 5a62 9895 cf72 1797
00000080: 2300 0000 ca01 0080 6501 0000 2400 0000
00000090: 3b01 0000 9500 0080 2b00 0080 8601 0000
000000a0: 4101 0080 a3d7 d510 a201 0000 4003 0080
000000b0: 7a01 0080 9f01 0080 1110 3a1a 6108 c611
000000c0: 6f01 0080 5301 0080 5101 0000 5e01 0080
000000d0: bbc0 068d 54ea 380f a902 0000 c100 0080
000000e0: a005 0000 a22f 611e 2301 0080 6803 0000
000000f0: 4201 0000 9702 0000 ae0e 0080 ad01 0080

d_bn1.weight f4 [64]
5.3872923e-06 1.8416463e-07 8.514788e-09 4.5291195e-08 2.2208856e-10 1.861887e-06 3.0253655e-06 1.2158412e-06
0.0015924174 1.4466748e-07 3.2538822e-11 8.941653e-05 6.511434e-08 1.6874079e-08 3.6321688e-07 1.455787e-08
9.356916e-05 7.0077777e-10 5.255339e-10 6.244708e-09 3.67404e-11 1.0513729e-07 0.0005252157 6.888654e-09
2.7797864e-06 -9.708399e-05 3.8762286e-07 6.995686e-05 5.9340335e-05 1.0363863e-06 1.2193966e-07 4.2147395e-08
9.648691e-06 3.501475e-07 8.380703e-12 6.92723e-07 2.4073763e-09 3.982415e-06 3.1416397e-07 7.4211215e-08
8.9214694e-08 1.5668547e-08 9.308038e-08 2.622913e-07 3.763584e-09 4.7511225e-05 6.6740506e-07 9.708985e-09
1.1087067e-06 1.0721794e-06 6.3618805e-05 3.450067e-09 5.5014913e-09 9.40977e-10 -1.0788993e-12 5.3916707e-09
8.272029e-08 2.6280425e-06 2.3127756e-08 4.436403e-08 1.5722045e-06 3.133029e-06 1.8036347e-06 3.1057954e-09
00000000: 7dc4 b436 cabe 4534 6f48 1232 3286 4233
00000010: 5f30 742f f3e5 f935 6207 4b36 fc2f a335
00000020: a9b8 d03a e555 1b34 751b 0f2e 2285 bb38
00000030: fdd4 8b33 7ef2 9032 2600 c334 301a 7a32
00000040: 8f3a c438 daa0 4030 2975 1030 0891 d631
00000050: 0396 212e d6c7 e133 a1ae 093a 3eb1 ec31
00000060: 5e8c 3a36 9299 cbb8 7b1a d034 ceb5 9238
00000070: 33e4 7838 f619 8b35 85ee 0234 8d05 3533
00000080: d0e0 2137 e8fb bb34 556f 132d 90f3 3935
00000090: 036f 2531 afa0 8536 5eaa a834 0c5e 9f33
000000a0: 4c96 bf33 8097 8632 7be3 c733 0bd1 8c34
000000b0: d650 8131 ca46 4738 ba27 3335 91cc 2632
000000c0: dfce 9435 cee7 8f35 166b 8538 3816 6d31
000000d0: a107 bd31 af53 8130 72d7 97ab a341 b931
000000e0: f6a3 b133 6d5d 3036 79aa c632 c48a 3e33
000000f0: 8904 d335 0741 5236 6b14 f235 bb6d 5531

d_bn1.bias f4 [64]
-1.9974976e-10 -5.874444e-14 -1.2424564e-19 -1.2346054e-17 -8.0386286e-14 -4.7804143e-11 -1.5653208e-10 -2.110049e-08
2.5200638e-05 2.0720993e-08 -4.5083448e-21 -1.3624106e-09 -2.459221e-14 -4.3672738e-18 -2.3915382e-14 -9.120868e-17
-3.4205613e-08 -8.993419e-22 -1.3668849e-18 1.0568638e-15 -3.9402997e-19 -3.456169e-14 -1.28748525e-05 -3.5475722e-17
-2.397331e-09 -1.681778e-07 -1.5105106e-15 -1.9836813e-07 -3.067042e-08 -2.8296473e-10 -2.207973e-13 -2.0261417e-13
-2.3791475e-08 -3.018167e-12 -4.2613082e-20 -6.514545e-14 -3.2929415e-14 -3.0969105e-10 -1.111581e-13 -2.527008e-15
-1.12176e-18 -3.7876162e-15 -7.878482e-12 -2.7097363e-10 -2.3332393e-16 -7.220986e-07 -6.3912493e-13 -4.6292138e-15
-1.8448246e-10 -4.4010134e-10 -2.5875343e-07 -2.6817526e-16 -3.826114e-18 -1.5341272e-17 -1.5714216e-17 -5.946474e-15
-3.2426383e-14 -1.6724094e-10 -8.7371234e-13 -6.699242e-16 -1.3893893e-11 -8.314543e-09 -5.548568e-13 -7.1313477e-16
00000000: 8fa0 5baf dd47 84a9 f1ae 12a0 97be 63a3
00000010: 8a03 b5a9 ae3e 52ae dd1b 2caf 7840 b5b2
00000020: f565 d337 f2fd b132 0952 aa9d 903f bbb0
00000030: c781 dda8 bc1f a1a2 1e69 d7a8 1a50 d2a4
00000040: 78e9 12b3 9be7 879c 74b7 c9a1 644f 9826
00000050: 2098 e8a0 eaa6 1ba9 1201 58b7 579a 23a4
00000060: 4bbe 24b1 5d94 34b4 01b0 d9a6 04ff 54b4
00000070: 7cba 03b3 bf8f 9baf 7d98 78aa 8f1f 64aa
00000080: 025e ccb2 7762 54ac 0e3c 499f ccb1 92a9
00000090: 084d 14a9 2441 aaaf 484e faa9 1217 36a7
000000a0: e58a a5a1 9876 88a7 8799 0aad 26f8 94af
000000b0: 8980 86a5 3dd6 41b5 cee5 33ab f6c8 a6a7
000000c0: 32d7 4aaf c2f2 f1af cdea 8ab4 af97 9aa5
000000d0: a028 8da2 8e7f 8da3 25f0 90a3 8b3e d6a7
000000e0: 1309 12a9 24e2 37af 9ced 75ab ae17 41a6
000000f0: 886c 74ad bfd7 0eb2 a52d 1cab 0f8c 4da6

d_bn1.running_mean f4 [64]
-5.1025677e-09 -7.4080395e-12 4.8886404e-17 7.7161964e-14 -7.022443e-14 -5.189851e-10 -1.4036309e-13 -4.5682272e-10
-2.660056e-06 -1.33741676e-08 5.879978e-15 -1.1489749e-08 8.916969e-11 5.0247913e-20 -4.9692024e-16 -4.444926e-15
-6.260572e-08 8.2936146e-20 9.5259846e-14 2.2073347e-11 -1.3618343e-14 3.970034e-14 1.6934314e-07 7.3795035e-15
-1.6584233e-12 -1.0207532e-07 -2.6332656e-15 1.5764628e-12 4.300983e-11 -2.1610203e-09 3.5778278e-15 2.6404862e-10
-1.6365969e-14 -2.5509837e-14 1.270526e-15 -3.6851223e-15 -1.3463476e-13 -2.090564e-16 1.1060358e-14 -5.0714648e-14
1.0351024e-17 -7.7396755e-15 9.27455e-17 1.28145905e-11 2.8498238e-16 3.640298e-09 -8.685596e-11 1.1180763e-11
-3.180373e-15 2.932039e-12 -8.761641e-11 6.780129e-17 -3.5555526e-14 -3.530041e-11 -1.8431181e-14 -3.5595333e-13
1.966715e-12 3.873855e-09 -3.0126272e-17 8.860965e-17 2.1547334e-12 1.6423092e-12 -2.7453508e-12 -5.1367856e-13
00000000: a952 afb1 d852 02ad e172 6124 d8c0 ad29
00000010: a121 9ea9 54a8 0eb0 e808 1eaa 1524 fbaf
00000020: 6a83 32b6 36c4 65b2 3ad9 d327 7364 45b2
00000030: 1316 c42e 004a 6d1f 3e3a 0fa6 3525 a0a7
00000040: dc71 86b3 d3d3 c31f 9081 d629 c228 c22d
00000050: 8653 75a8 60cb 3229 b0d4 3534 f4ef 0428
00000060: ff66 e9ab 8034 dbb3 2dbf 3da7 0fde dd2b
00000070: c328 3d2e 1281 14b1 a3e7 8027 8a29 912f
00000080: 5b69 93a8 aec5 e5a8 231a b726 41c5 84a7
00000090: d495 17aa 8f06 71a5 e63e 4728 0266 64a9
000000a0: 54f1 3e23 f46c 0ba8 48db d524 c96f 612d
000000b0: fa47 a425 cd28 7a31 8fff beae aeb1 442d
000000c0: 872b 65a7 eb52 4e2c a7ab c0ae d156 9c24
000000d0: bb20 20a9 ba40 1bae 6903 a6a8 4862 c8aa
000000e0: 3065 0a2c ca1a 8531 d3ee 0aa4 e851 cc24
000000f0: 3aa0 172c 6d22 e72b d82f 41ac 7196 10ab

d_bn1.running_var f4 [64]
1.3222306e-15 3.3152434e-22 3.2549312e-32 6.8868136e-26 6.5124755e-24 2.1833718e-17 9.955461e-25 1.4564354e-17
3.758652e-10 1.8454214e-15 3.328826e-28 1.17383986e-14 1.3647878e-18 5.556044e-36 1.2933822e-29 1.3603841e-27
5.69657e-13 6.1665643e-37 9.030446e-25 3.643775e-20 8.808003e-27 1.3186102e-24 3.4496726e-12 5.4306918e-27
2.2725298e-22 8.227189e-14 5.9852664e-26 3.2781985e-22 1.9295373e-19 2.9635888e-13 2.478304e-27 1.2812327e-17
4.4706276e-26 9.713579e-26 3.4895624e-28 5.236684e-28 1.1207727e-24 4.6334543e-29 2.3015864e-26 6.1744676e-25
4.975296e-34 3.1838207e-27 7.217065e-31 3.266892e-20 2.263955e-28 5.8677924e-15 9.278126e-18 2.2263432e-20
1.8430502e-27 5.6307094e-22 1.1285031e-18 5.6531867e-30 2.2762998e-25 2.5876963e-19 6.883852e-26 2.6064494e-23
2.4030784e-21 2.7718154e-15 6.835868e-32 5.0587296e-31 6.977967e-23 2.1731742e-22 4.929787e-22 2.6386518e-23
00000000: b38d be26 e864 c81b 7501 290b 5e82 aa15
00000010: 6ff0 fb18 6961 c923 a50d 9a17 1c55 8623
00000020: 53a2 ce2f 04fa 0427 4afd d211 cf75 5328
00000030: 3a68 c921 f653 ec04 1f2a 830f bc8f d712
00000040: 1d58 202b 5ad6 5103 48bd 8b17 8912 2c1f
00000050: e275 2e14 880b cc17 c7bf 722c c221 d713
00000060: b25d 891b 8442 b929 2230 9415 aa27 c61b
00000070: b0cc 6320 d1d5 a62a fa59 4413 8158 6c23
00000080: f05f 5d15 1f7f f015 632d dd11 07f5 2512
00000090: 616e ad17 adf1 6a10 26f0 e314 2c17 3f17
000000a0: 2355 2508 8e3f 7c13 0835 6a0d 4d46 1a1f
000000b0: c57e 8f11 d568 d327 b626 2b23 ad45 d21e
000000c0: 8005 1213 812d 2a1c a489 a621 0c52 e50e
000000d0: 69e5 8c16 29c0 9820 986f aa15 9014 fc19
000000e0: 4c92 351d f8ba 4727 2378 b10b 482a 240d
000000f0: 86b7 a81a 3e5c 831b 61fe 141c db31 ff19

d_fc2.weight f4 [64, 64]
1.6864308e-19 -7.089957e-17 2.3383232e-32 -9.0026524e-27 -2.6808835e-14 7.047352e-16 1.6360935e-19 7.298514e-17
-9.6222516e-11 1.0417612e-18 -3.9072546e-15 9.85023e-14 -1.8593423e-31 1.3045348e-27 3.4427912e-15 -2.7745825e-29
2.0880719e-11 -1.7808318e-34 -4.1768395e-25 -7.913928e-27 -1.9725084e-16 -5.210159e-28 -2.959442e-12 1.1065e-41
2.41002e-26 1.7559366e-16 -2.7200343e-25 4.6215537e-19 -1.529763e-14 1.4625461e-17 1.924759e-22 -3.2459845e-28
-5.678763e-22 5.9200295e-26 -5.359e-42 7.5916445e-27 4.7760063e-22 4.3229397e-34 -5.312688e-22 3.9042792e-33
-1.7969854e-23 -1.7231059e-31 -1.0006588e-22 -9.599798e-12 -9.128947e-28 1.2816947e-13 -4.7568454e-13 -9.970909e-31
2.2335185e-27 1.6496334e-19 1.3026656e-14 4.4985905e-28 2.5423322e-28 -1.0081331e-34 -1.5119624e-32 -1.6673208e-26
-3.741336e-18 -2.2396726e-16 2.7416334e-26 3.4178852e-19 -4.843944e-25 -4.1585895e-24 -2.7947928e-22 -2.1562994e-23
-2.6200118e-11 1.237037e-26 -1.6031804e-30 -5.563932e-21 -6.4144146e-38 -8.197594e-24 -6.151511e-14 -2.2687669e-31
-8.995077e-12 2.172312e-28 -5.2832314e-27 -4.8974536e-10 -5.6252606e-32 3.772762e-28 1.3011657e-20 -1.8296349e-28
-3.5678993e-10 -6.5562187e-38 -2.8437048e-21 -1.9486181e-35 4.2865685e-26 -3.894585e-25 -8.925857e-16 -3.584818e-17
-5.890136e-20 -7.6528646e-17 -1.2034622e-16 -1.3607298e-18 1.2300803e-17 -3.2633403e-16 -5.324767e-22 1.2019676e-29
-4.0862758e-23 -7.019727e-24 -5.97975e-40 5.27146e-29 2.4111733e-33 -2.3239038e-24 1.6465337e-24 -2.1633016e-29
-4.5721147e-18 -1.9029034e-28 -1.343902e-26 7.3704124e-19 -5.2871e-25 -6.652501e-16 3.4735345e-18 -4.080406e-23
6.5872493e-24 -4.5401952e-17 -5.712887e-10 5.0951504e-30 -3.5943765e-31 -8.952e-41 -1.0248923e-27 -5.055599e-32
-6.1432093e-20 -1.833497e-15 -2.037121e-26 5.839238e-27 5.521672e-22 6.913532e-21 -3.8264635e-20 -3.150937e-20
3.5433693e-22 2.640759e-25 -1.1171247e-21 -1.2139409e-35 -2.695e-42 8.61093e-22 -4.320594e-18 3.0105129e-18
1.0231125e-11 6.0444135e-25 5.361e-42 5.727744e-15 2.3827804e-21 -1.89913e-25 1.3300787e-36 1.2942002e-24
-1.1863716e-15 -2.4842014e-26 2.477043e-30 1.0740036e-26 6.1360246e-31 5.580378e-24 -1.6879306e-10 -1.1063e-41
2.0729748e-24 -3.8485554e-17 5.0296337e-37 5.0549283e-22 -2.3837153e-25 2.2909016e-14 2.2880156e-25 1.9409926e-27
4.610279e-22 -4.4713398e-29 6.077859e-39 1.4369767e-26 -6.711731e-27 6.9822534e-17 -4.3903687e-26 -2.5298627e-27
2.3056285e-20 -4.2517273e-31 3.835052e-26 3.64628e-18 -2.8494418e-32 3.7794727e-16 8.1640865e-20 5.5161794e-25
9.427669e-38 -3.9261987e-18 3.0732284e-22 3.3324568e-28 1.7742252e-30 1.1523914e-26 2.2345e-41 1.3024814e-32
2.4576958e-28 8.4928275e-20 4.3333563e-28 -2.6202446e-21 1.5198842e-22 -2.906563e-20 2.0413845e-20 2.3539363e-16
-5.6866643e-11 -3.514287e-16 9.859321e-14 1.4936767e-21 -4.291652e-11 7.1120444e-14 1.7810767e-11 -2.5503336e-15
-2.8668646e-06 -8.716866e-12 -7.557072e-21 2.2436948e-09 -1.7465363e-15 6.344414e-15 -3.0077577e-17 -4.2534682e-13
8.912958e-09 -4.1798902e-17 -3.4551427e-16 3.5438712e-13 -4.5294104e-21 -1.267852e-11 2.0842761e-07 -1.0543896e-20
-7.737724e-12 3.0347065e-09 8.289856e-14 3.6163905e-11 -1.1524023e-09 1.08767535e-11 1.9807326e-13 -5.3984204e-12
-1.7895622e-12 2.4251445e-15 -1.3238827e-13 -1.7485905e-11 2.2015143e-21 -1.9103528e-15 1.2945299e-15 1.103883e-18
2.9994294e-14 -1.7048598e-14 -4.55017e-14 1.4371629e-11 -1.8998444e-17 -3.471896e-09 5.122694e-13 3.576734e-17
9.106241e-14 7.4164416e-16 -1.8298701e-09 3.9513575e-19 1.897599e-15 -2.5518737e-20 -7.3918355e-17 1.23521855e-20
-5.7625833e-13 -3.6567967e-11 -4.4174643e-11 -3.0825998e-13 3.2293383e-15 1.2698178e-11 -7.3173625e-14 -4.4429009e-13
00000000: 3e19 4720 b87b a3a4 4bd3 f20a df50 3294
00000010: f778 f1a8 4820 4b26 e427 4120 d34a a824
00000020: 7698 d3ae a0bc 9921 10c6 8ca7 b6ce dd29
00000030: 3f5b 718c 38b6 ce12 4a14 7827 24b0 0c90
00000040: 33ab b72d 91b6 6c87 5544 0197 62c0 1c94
00000050: 2c6a 63a5 d51d 2592 9140 50ac d81e 0000
00000060: 44ad ee14 1a72 4a25 aa5c a896 7967 0821
00000070: efc9 89a8 65e5 8623 68b0 681b 1cbd cd91
00000080: 4da1 2b9c a592 9215 f00e 0080 365e 1614
00000090: 8f58 101c 81a7 0f08 ef90 209c 6b2d a209
000000a0: 34cb ad99 04ac 5f8c c8f1 f19a a6e1 28ad
000000b0: 69a7 9092 564e 102a afe4 05ab 89c9 a18d
000000c0: 23f5 3013 1cc1 4220 d9aa 6a28 e790 0e12
000000d0: b323 a111 fe00 0687 db02 9d8a 9b1f a594
000000e0: eb07 8aa2 bc1b 81a5 55c2 0715 9fc1 c920
000000f0: aee9 1597 ade0 a098 53ef a89b 638b d099
00000100: 6c75 e6ad 3a05 7514 c110 028e 0c33 d29d
00000110: f29d ae81 8590 1e99 0c85 8aa9 5b40 938c
00000120: 3a3e 1ead c7af 8911 554a d193 c49e 06b0
00000130: 450a 928b 9020 ef11 83c8 751e 0cef 6791
00000140: b825 c4af 2d7a b281 40dd 569d 6e36 cf85
00000150: b642 5415 2a10 f196 9aa2 80a6 1052 25a4
00000160: b013 8b9f 8a76 b0a4 efbf 0aa5 ebce c8a1
00000170: e6e8 6223 671e bca5 64ee 209c bac9 730f
00000180: a599 459a 01c8 0799 e982 0680 bba5 8510
00000190: fc4f 4809 a8cd 3398 ebc9 fe17 8562 db8f
000001a0: 67ae a8a2 bf38 7191 f717 8594 4389 5921
000001b0: b9a0 2397 cbbe 3fa6 9b26 8022 fb50 459a
000001c0: f5d4 fe18 2a61 51a4 de08 1db0 11af ce0e
000001d0: d349 e98c 8cf9 0080 9266 a292 3840 838b
000001e0: 6c0d 919f 0d1e 04a7 27bf c994 e950 e713
000001f0: dee1 261c ca97 021e 1bb3 349f 7ecc 149f
00000200: fc2e d61b 7f74 a316 abd0 a89c 9d16 8185
00000210: 8307 0080 ec1f 821c db66 9fa2 fb22 5e22
00000220: e4fc 332d c710 3b17 f20e 0000 1d5d ce27
00000230: ad09 341d d519 6b96 194d e203 8d44 c817
00000240: 63f9 aaa6 fd05 f694 2cf6 480e 74ba 5414
00000250: 1920 470d 63e1 d718 0697 39af d71e 0080
00000260: 7f63 2018 b97b 31a4 4a26 2b03 9dc6 181c
00000270: 7a8b 9396 9858 ce28 0e9f 8d16 02c8 1913
00000280: 4e56 0b1c 4fb9 6290 992e 4200 b04f 8e14
00000290: 85f0 0494 f3ff a024 8966 5995 b66f 4893
000002a0: adc2 d91e f8f9 098d 0fe7 3d15 2486 8622
000002b0: 94f3 138b 2cdf d925 e0c4 c01f adb7 2a17
000002c0: a252 0002 e6d9 90a2 e8c3 b91b 3438 d311
000002d0: 37f1 0f0e 3041 6414 4a3e 0000 e541 870a
000002e0: 65c6 9b11 fe87 c81f 5d54 0912 e7fa 459d
000002f0: 23be 371b 3142 099f a6cd c01e f8b1 8725
00000300: 261a 7aae b995 caa5 1e03 de29 d2b7 e11c
00000310: b5bf 3cae 2526 a029 48aa 9c2d 5ac5 37a7
00000320: 5c64 40b6 4659 19ad c2bf 0e9e 7f2f 1a31
00000330: d1b3 fba6 e494 e427 56b5 0aa4 f072 efaa
00000340: 9b1f 1932 6fc3 40a4 e82c c7a5 9180 c72a
00000350: c51d ab9d fa0a 5fad 25cc 5f34 272b 479e
00000360: 9c1f 08ad 1f8b 5031 c4ab ba29 f00c 1f2e
00000370: 8d62 9eb0 8b58 3f2d bb02 5f2a a6f0 bdac
00000380: c6db fbab 05c0 2e27 520e 15aa c2ce 99ad
00000390: 7b57 261d caa7 09a7 b98f ba26 85e7 a221
000003a0: 1115 0729 648f 99a8 e3eb 4ca9 10d4 7c2d
000003b0: cf3a afa3 3e96 6eb1 e730 102b 9ff2 2424
000003c0: e80d cd29 aec3 5526 d57e fbb0 3a3f e920
000003d0: 86bc 0827 8504 f19e b271 aaa4 8153 691e
000003e0: ca33 22ab dfd3 20ae 3a48 42ae f288 adaa
000003f0: c7b2 6827 8263 5f2d b9c5 a4a9 f31c faaa

d_fc2.bias f4 [64]
3.57e-43 8.88e-43 -7.37e-43 -1.6934243e-09 -2.405055e-09 -2.58e-43 5.126e-42 6.8e-43
-1.3879184e-10 -5.96e-43 2.55e-42 3.35e-43 4.06e-43 -1.12e-43 -2.2472475e-08 -9.5e-44
-4.1583e-09 9.2e-44 -7.31e-43 1.668181e-11 -3.1e-44 3.63e-43 -1.36251455e-08 -8.45e-43
-2.5e-43 1.996615e-10 -1.67e-43 9.33e-43 5.03e-43 2.54e-43 -6.01e-43 -1.115e-42
-1.77e-43 1.045e-42 -7.17e-43 -7.72e-43 6.53e-43 -2.9e-43 1.43e-43 -9.5e-44
-1.47e-43 6.2e-43 -1.3616733e-09 2.37e-43 6.85e-43 -2.89e-43 1.92e-43 -1.078285e-09
-9.32e-43 -2.34e-43 -8.35e-43 7.23e-43 -1.442588e-09 8.44e-43 7.22e-43 -6.12e-43
2.73e-43 0.0 -1.12e-43 -6.9e-43 1.052e-42 6.05e-43 4.89e-43 -3.91e-43
00000000: ff00 0000 7a02 0000 0e02 0080 12be e8b0
00000010: 2d46 25b1 b800 0080 4a0e 0000 e501 0000
00000020: 6e9a 18af a901 0080 1c07 0000 ef00 0000
00000030: 2201 0000 5000 0080 7f09 c1b2 4400 0080
00000040: cbe0 8eb1 4200 0000 0a02 0080 19bc 922d
00000050: 1600 0080 0301 0000 0614 6ab2 5b02 0080
00000060: b200 0080 b787 5b2f 7700 0080 9a02 0000
00000070: 6701 0000 b500 0000 ad01 0080 1c03 0080
00000080: 7e00 0080 ea02 0000 0002 0080 2702 0080
00000090: d201 0000 cf00 0080 6600 0000 4400 0080
000000a0: 6900 0080 ba01 0000 9f25 bbb0 a900 0000
000000b0: e901 0000 ce00 0080 8900 0000 c832 94b0
000000c0: 9902 0080 a700 0080 5402 0080 0402 0000
000000d0: 8e44 c6b0 5a02 0000 0302 0000 b501 0080
000000e0: c300 0000 0000 0000 5000 0080 ec01 0080
000000f0: ef02 0000 b001 0000 5d01 0000 1701 0080

d_bn2.weight f4 [64]
0.0013871165 2.2735976e-05 4.206528e-05 0.005179221 0.0011580887 6.486537e-05 6.289483e-05 0.0005313579
0.00049523416 4.94255e-05 0.0037760653 0.00034987065 7.9308964e-05 0.00024421368 0.006643254 0.010552401
0.0015662797 8.059093e-05 0.000106137195 0.00019907454 0.00015621725 1.4602241e-05 0.016274404 4.5261262e-05
0.014042329 0.004315521 0.006227968 0.00011105062 6.6630324e-05 0.0005666325 2.0148496e-05 1.990535e-05
0.00042320733 0.009696888 0.00078001036 0.0037431917 1.4807717e-05 0.0023010513 3.959925e-05 0.00014918823
8.348545e-05 7.5167394e-05 0.0031639035 0.0010302259 0.0005306409 2.4299803e-05 0.00078793353 0.0022617376
0.005905154 0.007713753 0.0013346322 9.75832e-06 0.00030163545 0.0017663722 0.005676856 0.00069212937
0.015031507 0.0018618003 3.584148e-05 5.861384e-05 9.892431e-05 1.373469e-05 7.621437e-05 0.00019342877
00000000: e8cf b53a 23b9 be37 406f 3038 74b6 a93b
00000010: 02cb 973a 5508 8838 68e6 8338 d34a 0b3a
00000020: 9ad2 013a 3a4e 4f38 dd77 773b d86e b739
00000030: ad52 a638 ce09 8039 a7af d93b fae3 2c3c
00000040: a04b cd3a ed02 a938 f995 de38 aabe 5039
00000050: 40ce 2339 26fc 7437 e651 853c e9d6 3d38
00000060: cc11 663c 3769 8d3b fb13 cc3b d9e3 e838
00000070: e2bb 8b38 108a 143a 9104 a937 6afa a637
00000080: ede1 dd39 b2df 1e3c 9c79 4c3a 5650 753b
00000090: a96e 7837 3ccd 163b 5f17 2638 696f 1c39
000000a0: e914 af38 30a3 9d38 7e59 4f3b a508 873a
000000b0: b51a 0b3a 6ed7 cb37 538d 4e3a a939 143b
000000c0: 0680 c13b a6c3 fc3b d3ee ae3a aab7 2337
000000d0: d324 9e39 9e85 e73a eb04 ba3b 0470 353a
000000e0: b646 763c a707 f43a 7f54 1638 22d8 7538
000000f0: 9675 cf38 0b6e 6637 47d5 9f38 24d3 4a39

d_bn2.bias f4 [64]
-9.303459e-06 -2.2110968e-05 -4.772471e-07 0.0005557029 0.0024012383 -4.2713928e-06 -1.3705045e-06 -1.5105468e-05
0.002438954 -6.9314974e-06 -1.1932196e-05 -2.0238129e-07 -2.7997037e-05 -0.0001142676 0.00783764 -0.0021716708
0.0022451582 -5.3215203e-08 -1.25414135e-05 0.001429932 -2.4059951e-05 -5.2758776e-07 0.0005868158 -5.4200723e-07
-0.0008896273 0.00016615319 -0.00020290939 -2.0342544e-05 -7.935735e-07 -7.667229e-05 -6.2836634e-08 -4.9780497e-06
-2.7680788e-05 -0.0008987822 -0.00014050005 -6.551934e-05 -1.2325436e-08 -0.0002671914 -1.2331429e-06 -3.650046e-05
-5.8901594e-05 -2.3421728e-07 0.0012896389 -0.00019161685 -2.3568418e-05 -1.7016097e-06 -0.00011967487 0.004168553
-0.00017319834 -0.00086585875 -1.6645532e-05 -6.847824e-08 0.0064458656 -7.646775e-05 -0.0006861983 -3.784591e-06
-0.001079871 -9.116369e-06 -3.5129235e-06 -3.274563e-05 -6.752253e-05 -2.9923406e-08 -3.3650701e-07 -7.788452e-05
00000000: 0d16 1cb7 f17a b9b7 2c1c 00b5 97ac 113a
00000010: 185e 1d3b fc52 8fb6 2df2 b7b5 7e6d 7db7
00000020: dcd6 1f3b 1c95 e8b6 6430 48b7 254e 59b4
00000030: 2edb eab7 f3a2 efb8 7269 003c 9752 0ebb
00000040: 8123 133b bc8e 64b3 f668 52b7 8e6c bb3a
00000050: 5ad4 c9b7 8e9f 0db5 8bd4 193a 747e 11b5
00000060: e135 69ba 6839 2e39 13c4 54b9 48a5 aab7
00000070: f505 55b5 1fcb a0b8 cef0 86b3 1f09 a7b6
00000080: 0a34 e8b7 419c 6bba 3253 13b9 6e67 89b8
00000090: d7bf 53b2 d315 8cb9 7882 a5b5 1218 19b8
000000a0: 1b0d 77b8 287d 7bb4 1a09 a93a c2ec 48b9
000000b0: cbb4 c5b7 dd62 e4b5 f5f9 fab8 5b98 883b
000000c0: 939c 35b9 ccfa 62ba 02a2 8bb7 500e 93b3
000000d0: d737 d33b 505d a0b8 fde1 33ba c7fa 7db6
000000e0: 758a 8dba 82f2 18b7 91bf 6bb6 5a58 09b8
000000f0: e29a 8db8 2285 00b3 2ca9 b4b4 ef55 a3b8

d_bn2.running_mean f4 [64]
-2.4799759e-15 -2.32501e-16 2.6368676e-16 -2.0371764e-09 -2.629478e-09 -2.651427e-15 -1.00661745e-11 -5.7791896e-12
-1.6357045e-10 -9.689307e-18 -2.021289e-10 -6.213729e-15 -2.90064e-20 -1.9599901e-12 -2.5313344e-08 -1.608845e-10
-3.9968433e-09 -7.592019e-14 -1.1817556e-15 1.5142245e-11 -1.3591771e-15 -6.6803413e-16 -1.3859947e-08 -2.913415e-11
-4.83143e-11 2.3599933e-10 -5.302193e-13 7.389733e-14 -5.713441e-14 -5.9608635e-15 1.0882288e-15 -6.7031007e-18
1.4060417e-12 8.535183e-12 -6.842963e-19 -3.3467207e-13 -1.0386821e-14 -1.40702216e-11 -2.8437138e-16 -9.081704e-14
2.0301943e-10 -2.6079899e-15 -1.3061483e-09 5.58025e-11 -1.4644124e-13 8.022351e-18 -3.664206e-13 -5.321947e-10
-2.1443083e-10 -1.2433747e-13 2.1308584e-12 -5.6440384e-15 -9.471485e-10 1.6867948e-14 2.1846771e-11 -1.20048615e-11
-1.9936863e-09 -8.518728e-12 -4.1789007e-18 -3.2941442e-16 -7.768312e-13 -2.0361151e-16 -2.420666e-16 -6.0306654e-15
00000000: 7bb3 32a7 1707 86a5 4c01 9825 63fe 0bb1
00000010: 44b2 34b1 320e 3fa7 0516 31ad 5056 cbac
00000020: fdd8 33af 75bc 32a3 3a3e 5eaf 89df dfa7
00000030: 96fa 089f 0bec 09ac a270 d9b2 f6e4 30af
00000040: 9b54 89b1 03f5 aaa9 164f aaa6 4e31 852d
00000050: c9e0 c3a6 388c 40a6 b11c 6eb2 2322 00ae
00000060: 117d 54ae f4bd 812f 543e 15ab e966 a629
00000070: bfa7 80a9 43c3 d6a7 8ed4 9c26 ff4c f7a2
00000080: fee1 c52b 0c27 162d f7f7 49a1 5467 bcaa
00000090: c21c 3ba8 a586 77ad cfed a3a5 7680 cca9
000000a0: e438 5f2f ecec 3ba7 0284 b3b0 086c 752e
000000b0: d0e0 24aa 7bfc 1323 c646 ceaa df49 12b0
000000c0: eac4 6baf d6fd 0baa 22f2 152c 1159 cba7
000000d0: d32c 82b0 d7ee 9728 8e2a c02d 1731 53ad
000000e0: 4d01 09b1 f1dc 15ad 9a2c 9aa2 fde4 bda5
000000f0: 96a8 5aab 83bf 6aa5 ba8a 8ba5 1247 d9a7

d_bn2.running_var f4 [64]
7.651726e-30 6.738313e-32 8.6506105e-32 6.785714e-21 5.100185e-20 8.7464025e-30 1.2606674e-22 4.1553318e-23
3.8746382e-25 1.1680316e-34 5.0830982e-20 4.8045873e-29 1.04678e-39 4.7794625e-24 4.1671064e-18 3.2203324e-20
9.431301e-21 7.171095e-27 1.7374982e-30 3.309519e-24 2.2983824e-30 5.5522233e-31 1.6561227e-18 1.0560305e-21
2.9043305e-21 5.766255e-21 3.4976941e-25 6.794038e-27 4.0583477e-27 4.4190884e-29 1.4733656e-30 5.59011e-35
2.4596156e-24 9.0648777e-23 1.5460477e-36 1.3935207e-25 1.3424328e-28 2.463056e-22 1.0060987e-31 1.0261376e-26
5.1279996e-20 8.4621916e-30 3.069822e-21 3.8741727e-21 2.6680736e-26 8.0070577e-35 1.670439e-25 1.5583741e-22
5.720663e-20 1.95149e-26 5.649129e-24 3.963233e-29 2.3588327e-19 3.539959e-28 5.9380804e-22 1.7930152e-22
4.945225e-18 9.028582e-23 2.172662e-35 1.3500669e-31 7.508013e-25 5.157916e-32 7.2901673e-32 4.5248045e-29
00000000: 0832 1b0f c5ef ae0b 2b95 e00b b32d 001e
00000010: 74d9 701f eb65 310f c467 181b 84f0 481a
00000020: 18d4 ef16 0e42 1b07 e30a 701f 1c9f 7310
00000030: ff65 0b00 81e5 b818 35bd 9922 6e13 181f
00000040: f926 321e c609 0e14 6df6 0c0e e307 8018
00000050: 8977 3a0e 112e 340d 8c66 f421 3495 9f1c
00000060: ec71 5b1d ccd7 d91d 2d7f d816 de91 0614
00000070: 89c4 a013 0c13 6010 3611 ef0d 519c 9406
00000080: b54d 3e18 e02c db1a f085 0304 6f82 2c16
00000090: 6f2c 2a11 f2e1 941b 5d99 020c 5c3f 4b14
000000a0: b629 721f 36a2 2b0f fef2 671d b35c 921d
000000b0: da1d 0415 36dd d406 53ca 4e16 5865 3c1b
000000c0: 4913 871f 2644 c114 448a da18 b5f5 4810
000000d0: ac3d 8b20 1e5f e011 ac77 331c 22c3 581b
000000e0: 5472 b622 374c da1a 7c09 e705 ab3f 2f0c
000000f0: 9b5c 6817 3be8 850b 7943 bd0b 526f 6510

d_fc3.weight f4 [2, 64]
-0.022631276 0.0020662819 0.015542908 0.009967654 -0.001262258 0.0044801706 -0.0036821747 0.014687468
0.013633141 0.0049802177 -0.012326222 0.000813827 0.009893942 0.010654198 0.01343204 0.0018771362
-0.0006224866 -0.0005382831 0.012262844 -0.00467685 0.0051559163 0.004458591 -0.0003852257 0.009426653
0.00030062068 -0.0044821436 -0.0021296828 -0.015435599 2.2225344e-05 -0.010774897 0.004590463 -0.0049210335
0.002898749 0.0017312592 0.0013387672 0.0043891817 0.0040484476 0.0084077325 0.01102777 -0.007272221
-0.0019091206 -0.008926552 0.010249124 0.004040674 0.01621961 0.0025231035 0.0033720015 0.014272389
0.0029667758 -0.0028086677 0.009169115 -0.0036072193 0.0074757375 0.007732963 -0.0015027408 -0.0025092
-0.008668445 -0.00056600256 0.00022170345 0.001427749 0.007827546 -0.0034546086 0.004326029 -0.0033716548
-0.023594154 -0.003998959 0.009144784 0.006941195 -0.00959215 0.0042200238 0.0016787971 0.01658398
0.00875876 0.00855314 -0.0046004504 0.008020809 0.0024798848 0.023267666 -0.0089031765 0.0015957684
-0.018648924 -0.0017684798 0.004656881 -0.011721037 0.0053883046 0.00079885894 -0.0036214509 -0.002082332
-0.0010945568 -0.005621557 -0.0010615628 -0.009629395 -0.005730972 -0.014004335 0.004159953 -0.0058127786
0.008317802 -0.0009078747 0.00094231917 0.008459996 0.0073968135 0.0002518191 0.0075610317 -0.012108298
0.011502678 -0.011311473 0.0053943065 0.015935916 0.013506948 0.002486293 -0.002198866 0.0032476825
0.016796824 -0.004768939 0.0065033096 -0.007196229 -0.0074192183 0.0077526984 -0.005302146 0.007047159
0.0117766755 0.0028419613 -0.0009665981 -0.0065129567 0.0012923413 -0.0005245762 0.0056762593 0.0050010295
00000000: 3a65 b9bc 756a 073b aea7 7e3c 5f4f 233c
00000010: 5a72 a5ba 65ce 923b a450 71bb b5a3 703c
00000020: 8a5d 5f3c 1831 a33b ecf3 49bc 0157 553a
00000030: 331a 223c f28e 2e3c 0f12 5c3c 3d0a f63a
00000040: 5e2e 23ba 911b 0dba 18ea 483c 4340 99bb
00000050: f6f2 a83b 5f19 923b 1ef8 c9b9 4072 1a3c
00000060: a09c 9d39 f2de 92bb 2692 0bbb 98e5 7cbc
00000070: 9070 ba37 3289 30bc 986b 963b 9f40 a1bb
00000080: f0f8 3d3b 6beb e23a 9379 af3a 20d3 8f3b
00000090: d7a8 843b 96c0 093c d2ad 343c d04b eebb
000000a0: 753b faba ac40 12bc f1eb 273c a167 843b
000000b0: fdde 843c a75a 253b ccfc 5c3b bdd6 693c
000000c0: 3d6e 423b a011 38bb 0e3a 163c 1967 6cbb
000000d0: 08f7 f43b cc64 fd3b 9df7 c4ba 6471 24bb
000000e0: 1806 0ebc ca5f 14ba 1179 6839 4f23 bb3a
000000f0: 1c3f 003c b766 62bb 5dc1 8d3b fbf6 5cbb
00000100: 8748 c1bc b309 83bb 01d4 153c f772 e33b
00000110: 6528 1dbc 2048 8a3b 150b dc3a 20db 873c
00000120: e780 0f3c 7822 0c3c 60bf 96bb b669 033c
00000130: 9085 223b d59b be3c a1de 11bc 1a29 d13a
00000140: a1c5 98bc 56cc e7ba c098 983b 9809 40bc
00000150: 6090 b03b 846a 513a dd55 6dbb bc77 08bb
00000160: 3b77 8fba 0a35 b8bb 2324 8bba 9cc4 1dbc
00000170: e1ca bbbb 7072 65bc 3750 883b 1f79 bebb
00000180: 6447 083c 71fe 6dba f805 773a cc9b 0a3c
00000190: f860 f23b 9606 8439 88c2 f73b e261 46bc
000001a0: ba75 3c3c c253 39bc b9c2 b03b 0a8c 823c
000001b0: 3f4c 5d3c 13f1 223b da1a 10bb 12d7 543b
000001c0: 7e99 893c c344 9cbb b719 d53b 58ce ebbb
000001d0: ea1c f3bb 590a fe3b a0bd adbb dbeb e63b
000001e0: f5f2 403c 3340 3a3b 4d63 7dba a46a d5bb
000001f0: c763 a93a b683 09ba eaff b93b addf a33b

d_fc3.bias f4 [2]
0.2433232 -0.22051117
00000000: b829 793e aecd 61be
