code/model/seed_1/QDANN_E_corn_2018.pth (torch, 81090 bytes, 30 tensors)

fc_1.weight f4 [64, 27]
000000 7a a9 1c bc 3e f4 45 3d 24 55 08 bd 2b 92 21 bb
       -0.009561891 0.04832863 -0.03328432 -0.0024653773
000010 7f 2b c7 3b 56 28 91 bd a4 46 3d 3c 7d 9e 7d bd
       0.006078183 -0.070877716 0.011552487 -0.061918724
000020 9e 9b 7d bc 25 0d 57 3c d8 28 7c bd 7a 4e 17 3d
       -0.015478997 0.0131256925 -0.06156239 0.036940075
000030 4b 22 5b bc a6 00 a7 bd 8a 47 0c bb eb 46 eb 3b
       -0.013374875 -0.081544206 -0.0021404945 0.007180085
000040 16 cc 45 3c 80 8e ca 3c 37 c4 72 bc 37 ca 5b 3d
       0.012072584 0.024726152 -0.014817289 0.053659644
000050 a2 b3 2a 3d 70 2a a5 bc 46 70 09 3d 35 3d fd bb
       0.041675217 -0.020161837 0.033554338 -0.0077282437
000060 fb 1e 80 3d 0a 14 bf 3c 43 b2 ad 3c 4a 78 b6 3c
       0.06255909 0.023324985 0.021203166 0.022274155
000070 cd 43 31 bd f9 bd 56 3d b2 67 6d bd 0e 1d 2a bd
       -0.04327755 0.052427266 -0.05796022 -0.041531615
000080 5e f8 f7 3c dc db 5b bd c3 bc 97 bc e3 65 45 3c
       0.030269798 -0.05367647 -0.018522626 0.0120482175
000090 9f e8 40 bd 0c e9 11 3d 5a 92 83 3d 1b ba 59 39
       -0.047096845 0.03562264 0.06424399 0.00020764062
0000a0 df f3 27 3d 01 86 21 3d f4 fa 39 3d a7 7a c7 3c
       0.041004058 0.039434437 0.045405343 0.024350477
0000b0 81 7b 3e bb 1d 90 51 3b a2 e9 9a bd af e4 8b bc
       -0.0029065313 0.0031976767 -0.07564093 -0.017076818
0000c0 10 08 0d 3d 96 c8 99 bb 1a c9 39 3c 69 70 90 bd
       0.034431517 -0.004693101 0.01133945 -0.070526905
0000d0 9a 76 bd bc 95 fa a9 b9 67 0a 00 3d 43 24 1a 39
       -0.023127843 -0.0003242089 0.03125992 0.00014700093
0000e0 e7 1d 4f 3d 6c 19 8d bd 23 e5 e4 3a 62 d0 33 3d
       0.050565626 -0.068896145 0.0017463308 0.0438999
0000f0 8a 1b 71 3b e0 b2 84 bd dc 76 99 3c 25 f2 f1 bc
       0.0036790096 -0.0647943 0.018733434 -0.029534409
000100 20 43 e0 3d c5 1f 3f 3d 24 42 ae 3b 4d 0f 52 3d
       0.10950303 0.046661157 0.005317943 0.051284123
000110 b1 5f 91 3b 78 78 22 bd 0b 71 6f 3a 88 cd 3f 3d
       0.004436456 -0.03966567 0.0009133971 0.04682687
000120 2e 1c ad bb 20 a9 f5 bd 43 58 20 bd 59 14 a0 3d
       -0.0052829003 -0.11995149 -0.039146673 0.07816381
000130 20 16 f7 bb 49 b6 5f 3d 0f 71 4d bd 9e 50 48 39
       -0.0075404793 0.0546172 -0.05015665 0.00019103519
000140 4c 23 95 3b 36 57 a9 bc c4 98 43 3d e4 3c 05 bd
       0.004551327 -0.020671468 0.04775311 -0.032528773
000150 c7 eb a6 3c 31 4c ff 3c 13 d0 9c bd a9 ab ce 3c
       0.0203761 0.03116426 -0.076568745 0.025228338
000160 4b 55 07 bc 52 bc c4 bc 5d f8 e6 3b b0 56 5b bd
       -0.0082600815 -0.02401558 0.00704865 -0.05354947
000170 e3 39 92 b9 0a d1 19 3c b8 36 82 bd 22 b8 be 3c
       -0.0002789042 0.009388218 -0.06358093 0.02328116
000180 c0 ab bf 3c c1 2c 8c bc c0 fb 0a 3d 20 7e 32 bb
       0.023397326 -0.017111184 0.033931494 -0.002723582
000190 4d 59 04 3d 10 a9 b5 bb 0b 72 37 bd 43 f9 84 3d
       0.032311726 -0.0055438355 -0.044786494 0.064928554
0001a0 be 1c 03 bd ec 73 25 3d c5 61 a7 3c bb 7a 35 3c
       -0.032009833 0.040393755 0.020432362 0.0110766245
0001b0 0b f4 e2 bd 94 36 b6 3d 1c c3 2b bd fd e8 d0 bb
       -0.11081704 0.08897129 -0.041934118 -0.0063754306
0001c0 9f 89 b9 3d 5a 7f 97 bd 7f 13 72 3d 4c 5f 0c 3c
       0.09059452 -0.07397337 0.059100624 0.008567642
0001d0 05 ee a5 3b 85 c2 26 3d 46 d9 fe bc b1 cc 9a bb
       0.0050637745 0.040712852 -0.031109463 -0.004724108
0001e0 31 ab 15 3c 39 75 a1 bd a8 99 64 3c 21 3f 84 3d
       0.0091350535 -0.078836866 0.01395265 0.064573534
0001f0 93 28 3c bc 7d bb b6 3c 9d 49 74 bd 4a 3d 18 bc
       -0.011484283 0.022306198 -0.059640516 -0.009291956
000200 5a 61 d5 3c 16 e6 0f 3d ad ec 4f 3d b6 8b 21 bd
       0.026047397 0.035131536 0.05076282 -0.03943988
000210 bc d3 28 3c 2d 61 1d 3b 9a 61 f2 bc 7b de 31 b7
       0.010304388 0.002401422 -0.029587556 -1.0601822e-05
000220 e0 f3 00 37 82 d7 3c 36 81 16 28 37 20 2b 48 36
       7.686176e-06 2.8139625e-06 1.001882e-05 2.9827424e-06
000230 a2 3a fa b7 c5 f2 be 36 e3 26 56 b8 08 ae 1c 38
       -2.9829625e-05 5.6907033e-06 -5.1057792e-05 3.7355378e-05
000240 3b a9 98 38 3e d8 88 38 19 1c e9 38 e5 f1 19 38
       7.2794464e-05 6.5252636e-05 0.000111155394 3.6703324e-05
000250 46 56 e0 35 69 bf a0 b6 39 e7 f1 b7 67 f7 92 35
       1.6714409e-06 -4.7906547e-06 -2.883711e-05 1.0949851e-06
000260 66 05 e2 38 11 90 ae 38 10 cf ed 37 b0 be 45 b5
       0.00010777525 8.323801e-05 2.8349023e-05 -7.3665706e-07
000270 72 e5 cd b7 38 1d 16 b9 cd 14 99 37 52 c6 70 37
       -2.4544748e-05 -0.00014316 1.8248707e-05 1.435129e-05
000280 4c 1b a6 b5 c3 8f a2 38 54 b0 11 3c 9f c8 46 bd
       -1.2375908e-06 7.75154e-05 0.008892138 -0.04853117
000290 17 69 4c 3d 70 f0 60 bc 34 73 33 bd e8 91 fc 3c
       0.04990491 -0.0137292 -0.043811038 0.030831292
0002a0 29 c3 68 bc 1d 76 7d 3c 0c b9 f0 3b 1f aa ba bc
       -0.014206686 0.015470055 0.007346278 -0.022786198
0002b0 8c 45 23 3c b6 09 40 bb d6 be 1a bb d6 64 c9 3c
       0.009965312 -0.0029302663 -0.0023612282 0.024584215
0002c0 1b 0d 23 3d fb 4c d2 3c 29 60 10 3d c7 1e 17 3c
       0.03980742 0.025671473 0.035247955 0.0092236465
0002d0 e5 5c 80 bc 6d df 50 bc 77 65 ad bc 16 30 14 3d
       -0.015669296 -0.012748581 -0.021166546 0.03617867
0002e0 28 c4 61 3c 2f 4c c7 bc b6 3f d2 bc d9 87 31 3a
       0.013779677 -0.02432832 -0.025665145 0.0006772257
0002f0 d8 a1 4f bc b5 fb 0d bd f5 d5 7d 3d 9b 5f 84 bc
       -0.012672864 -0.034663875 0.061971623 -0.01615887
000300 1a 6e 41 3c bb 90 18 3d 23 43 5e bd 6c 64 cd 3c
       0.011806035 0.0372474 -0.054263245 0.025072299
000310 34 29 9d bd a5 07 96 bc 6d 9b 8a 3c 71 4c cc bc
       -0.076738745 -0.018314192 0.016919816 -0.024938794
000320 49 a0 e4 3c 48 9d 2d 3c fd 3d 6f bd 7d e1 c0 3c
       0.027908461 0.010596581 -0.058408726 0.023545021
000330 e1 7c 0f 3d 3d f7 4d 3c b6 e1 22 3d 7f 96 2c 3c
       0.035031203 0.012571153 0.039766036 0.010533928
000340 11 7d 0c 3d a4 03 d9 39 fe 20 54 bd 3a 63 85 3d
       0.03429896 0.00041392178 -0.051789276 0.065130666
000350 7b a9 0e 3c df 74 48 3d ef 96 02 3c 24 1d 88 3c
       0.0087073995 0.048939582 0.007970556 0.016615458
000360 e3 41 28 bd f3 f4 81 3d f1 de 8d bd fd 15 46 3b
       -0.04107846 0.063455485 -0.06927288 0.0030225508
000370 da c0 dc 3c a3 46 98 bd 39 9a 07 3c ae f4 20 3c
       0.026947428 -0.07435348 0.008276516 0.009823961
000380 44 be 23 3c b1 92 a3 3c f2 70 72 bd f3 03 2a 3c
       0.009994093 0.019967409 -0.059189744 0.010376918
000390 a5 5a 0c 3d e6 2d 16 3c f0 62 b4 3c 84 a2 e4 bc
       0.034266133 0.0091662165 0.022019833 -0.027909525
0003a0 66 a7 26 3d 1e 1d bb bb 6e ac d7 3c de 37 a6 3c
       0.040686987 -0.005710258 0.026327338 0.020290311
0003b0 dc d4 9b bc 54 c6 7a 3c 5f 86 bd 3b 45 b0 83 3c
       -0.019022398 0.015306074 0.0057838405 0.016075263
0003c0 15 ab dc 3c b4 3c 17 3b 76 f7 88 3b f8 ac 27 3c
       0.026937047 0.0023076953 0.0041798903 0.01023411
0003d0 4b ba 51 3d ea 30 65 bd af ca a4 3c 69 ac 26 3d
       0.051203053 -0.05595485 0.020116178 0.040691767
0003e0 01 a5 d1 bd ad f1 70 bc 23 13 b9 3c 3e 41 50 bc
       -0.1023655 -0.0147060575 0.022592133 -0.012710867
0003f0 c8 1d f1 3c 00 57 4f bd 05 4a 6e 3c 97 d6 86 3b
       0.029433146 -0.05062008 0.014544015 0.0041149366

fc_1.bias f4 [64]
000000 46 33 86 31 d0 d8 3f 32 36 28 87 32 34 ae 33 32
       3.9057424e-09 1.1166961e-08 1.5734354e-08 1.04587805e-08
000010 a3 1e cc b1 c0 1b 00 80 a0 9a 08 32 e5 f9 cd b0
       -5.9406644e-09 -9.955e-42 7.9513995e-09 -1.4986737e-09
000020 0d 8d 18 b2 e1 5e 63 b2 be ff c6 31 63 f0 c1 31
       -8.879636e-09 -1.3234712e-08 5.791633e-09 5.644368e-09
000030 49 4d cd 31 c2 a7 2d b2 3e c6 2b 32 99 5f 83 12
       5.9750715e-09 -1.0108069e-08 9.998585e-09 8.290829e-28
000040 b5 89 d2 31 e4 5f a2 b2 cd 10 b7 31 4b 60 0e 33
       6.12746e-09 -1.8902888e-08 5.327911e-09 3.314953e-08
000050 77 7a 82 b2 e4 e8 fa 31 ab c6 fa b1 d6 64 13 30
       -1.5189682e-08 7.302434e-09 -7.2985435e-09 5.3621585e-10
000060 7b 82 66 32 f7 a2 95 32 3c bf 05 32 d0 01 00 80
       1.341743e-08 1.741999e-08 7.785101e-09 -6.5e-43
000070 5c f2 21 b3 c6 31 ca 32 76 27 a5 94 6c 25 64 30
       -3.7706158e-08 2.353853e-08 -1.6676307e-26 8.2999096e-10
000080 07 e7 89 b1 94 55 60 b2 e0 f6 09 32 fe a6 8b 31
       -4.0134895e-09 -1.3057974e-08 8.030582e-09 4.0644172e-09
000090 05 65 bf b2 69 8b 76 32 09 72 2f b1 d7 0e 75 32
       -2.2281265e-08 1.4350783e-08 -2.5530673e-09 1.4264251e-08
0000a0 9f 61 71 30 75 c8 12 32 2c 7c 8b b2 54 2d 04 32
       8.7814017e-10 8.543897e-09 -1.6238197e-08 7.693718e-09
0000b0 3e 08 13 33 18 3d 00 00 ab e4 7e 32 ba bf 17 b2
       3.42336e-08 2.1916e-41 1.4836739e-08 -8.83295e-09
0000c0 75 a3 8d 32 9f 11 ba b2 cf 3d 3b 31 f9 11 dd 98
       1.6488892e-08 -2.1661263e-08 2.7247216e-09 -5.714531e-24
0000d0 8c 6a f2 31 d9 2c ab 32 04 f0 ca 32 da 52 26 32
       7.05524e-09 1.9927414e-08 2.3625041e-08 9.68131e-09
0000e0 ac b2 31 b1 47 16 c9 b1 24 22 dc 32 10 a3 85 32
       -2.5858453e-09 -5.8524026e-09 2.5626896e-08 1.555739e-08
0000f0 8d cf 79 b2 92 e8 02 33 8e d9 b8 32 97 8c 5c b3
       -1.4540899e-08 3.0479505e-08 2.1519352e-08 -5.1350607e-08

f_bn1.weight f4 [64]
000000 19 80 94 3d db 2f d1 3d 04 2b fe 3d c3 fd 89 3d
       0.07250995 0.10214206 0.12410548 0.06737854
000010 73 8a ff 3d 39 c3 7e b9 77 3c 62 3d d7 9f 93 3d
       0.12477579 -0.00024296054 0.055233445 0.072082214
000020 7b be 45 3d 3c 07 30 3d 4f d0 77 3d ca 8c cf 3d
       0.04827736 0.04297565 0.060501393 0.10134275
000030 f6 f6 93 3d 05 c2 86 3d c2 09 ef 3d 67 db 96 3a
       0.072248384 0.06579975 0.11671783 0.0011509479
000040 2d 4b 75 3d 8f 2f be 3d 1d 0f ba 3d 57 b7 ff 3c
       0.059886146 0.09286415 0.09084914 0.031215353
000050 1c 9d 95 3d c0 9a b3 3d b5 23 da 3d ea cd 8f 3d
       0.07305357 0.087697506 0.10651342 0.07021697
000060 02 34 15 3e 59 20 e5 3d 0c ec f4 3d 5f 70 9a 38
       0.1457062 0.111878105 0.11959085 7.364223e-05
000070 43 7c 81 3d 12 01 ed 3c cd 18 07 39 cb 4c 5d 3d
       0.06322529 0.028931174 0.00012883842 0.054028314
000080 22 75 87 3d 02 e5 8a 3d 88 a3 af 3d a3 4e e0 3d
       0.06614138 0.06781961 0.08576113 0.10952499
000090 b7 8f cb 3d 91 16 c1 3d 04 c8 e5 3d 2f 87 b3 3d
       0.09939521 0.09428132 0.112197906 0.087660186
0000a0 a1 0d d3 3d ff 1e 5a 3d ef 50 82 3d 35 c8 d1 3d
       0.10305334 0.053252216 0.06363093 0.102432646
0000b0 9c 41 89 3d 2c 3b 02 39 4d 0a a9 3d 41 e4 66 3d
       0.06701967 0.0001241981 0.08253918 0.056370024
0000c0 04 06 53 3d 4c ca b8 3d ab 25 d3 3d 28 56 9d 39
       0.05151941 0.0902296 0.10309919 0.00030009565
0000d0 d9 34 42 3d 75 1d 96 3d 45 4b c6 3d ae ef c1 3d
       0.04741368 0.07329837 0.09682325 0.094695434
0000e0 bd c8 c4 3d 40 78 e1 3d 3d 3c c7 3d 53 61 9f 3d
       0.096086 0.11009264 0.097282864 0.07782235
0000f0 b7 d3 c7 3d a9 f8 30 3d a5 0f 9e 3d e4 5c d7 3d
       0.09757178 0.04320589 0.07717828 0.10515764

f_bn1.bias f4 [64]
000000 05 26 f7 bc 14 51 d2 bd 14 ca 29 be 91 50 b4 bc
       -0.030169496 -0.10269371 -0.16580993 -0.022011073
000010 52 1d 45 be 35 a5 b0 b9 92 97 03 bd 5c 92 81 bd
       -0.19249466 -0.00033692425 -0.03212697 -0.06326744
000020 b1 61 e5 3b d6 11 20 3c 57 54 dc bc 98 03 f1 bd
       0.007000171 0.009769877 -0.026895685 -0.117682636
000030 9e ce 2b bd e9 98 d8 ba f5 a2 f7 bd 3c bc 87 bb
       -0.041945092 -0.0016525063 -0.120916285 -0.0041423123
000040 57 3f d3 bb 65 5f d7 bd 7c 57 19 bd 6f 13 1a 3b
       -0.0064467597 -0.10516242 -0.037436947 0.0023510118
000050 22 69 4d bc 6b d1 b0 bd af 35 89 bd 15 32 10 bd
       -0.012537273 -0.08633693 -0.066996925 -0.035204012
000060 c9 42 15 be bb 17 c6 bd a3 a7 e7 bd fb fa 9d ba
       -0.14576258 -0.09672495 -0.11311271 -0.0012052947
000070 61 2f 0c bb cd 64 29 bc f7 12 1a b9 2e 26 7f bb
       -0.0021390545 -0.010338974 -0.0001469365 -0.003893267
000080 cf 51 89 bd bc a3 35 bc df 32 55 bd 2e 58 47 bd
       -0.06705057 -0.011086401 -0.052050468 -0.04866808
000090 85 c7 1f bd be fd b3 bd 6d de d9 bd 5c d8 70 bd
       -0.039008636 -0.08788632 -0.106381275 -0.058800086
0000a0 7f ed e0 bd b2 f5 b1 bd 52 f0 87 bb d1 13 b0 bd
       -0.10982799 -0.08689441 -0.0041485215 -0.0859753
0000b0 52 73 89 bc 86 88 25 ba 01 2c e8 bc 56 35 36 3b
       -0.016778622 -0.0006314594 -0.028341295 0.0027802787
0000c0 8a ed e8 bb 4b 14 3c bd 70 84 ed bd 2c 87 94 ba
       -0.007108395 -0.04591779 -0.11597526 -0.0011331788
0000d0 eb 8d c0 bc 60 b3 5b bd 4c 41 86 bd 30 1c 95 bd
       -0.023505172 -0.053637862 -0.06555423 -0.07280767
0000e0 80 34 b5 bd 90 c4 dc bd cb 75 84 bd 45 97 9a bd
       -0.08847904 -0.10779679 -0.0646778 -0.075483836
0000f0 a0 b2 6d bd 73 ec 21 3c 49 b5 14 bd 3d 3b c1 bd
       -0.05803168 0.009883034 -0.0363057 -0.09435127

f_bn1.running_mean f4 [64]
000000 c0 c0 8e bd 07 a8 e6 3d bd 20 36 3e 32 eb c8 bd
       -0.06970358 0.112625174 0.17785926 -0.09810485
000010 90 1e 38 bd 75 cd 28 39 92 88 4b 3d ad 72 a9 bc
       -0.04495102 0.00016098267 0.04969079 -0.020684564
000020 f0 28 01 bd e1 9f 26 bd c5 de af bd 2f 71 1d 3e
       -0.03153318 -0.040679816 -0.08587412 0.15375207
000030 e9 75 32 bd 8c 13 95 bd f0 5c 73 bd b0 f6 49 3b
       -0.04356948 -0.07279119 -0.059414804 0.0030817203
000040 0d a0 96 bd c6 64 c2 bd c8 bf 40 3d 12 cc 59 bd
       -0.07354746 -0.09491877 0.047057897 -0.053173132
000050 07 c6 6a bd be 1c c7 bc 4b 82 ea 3d b8 50 f4 bd
       -0.05731776 -0.024305698 0.11450633 -0.119294584
000060 a6 fa 3b 3e e6 a9 01 bd ed ef 2a 3e 88 e5 8c 3a
       0.18357334 -0.03165617 0.16693087 0.0010749558
000070 1c 78 9a 3d ae e1 be bc 25 8a b8 b8 1e ec 94 bd
       0.0754244 -0.023300972 -8.799535e-05 -0.07271598
000080 84 78 3e bc fd 42 57 bd 82 4d ed bc 22 fe d5 3d
       -0.011625413 -0.05255412 -0.028967623 0.104488626
000090 e2 83 b8 bd b7 a9 f7 bd d6 c1 d1 bd be 93 64 bc
       -0.0900953 -0.120929174 -0.102420494 -0.01395124
0000a0 cd d2 09 3e 82 ec 2d 3d 68 0e 12 bd 2b 19 f6 bd
       0.1345932 0.04246188 -0.03565827 -0.12016519
0000b0 0b 72 09 3d ff 16 87 39 f5 c8 54 3d 58 98 93 bd
       0.033556025 0.0002576634 0.05194946 -0.07206792
0000c0 18 24 93 3d 63 6d ba bc 0b e6 ba bd 9d 7b 86 ba
       0.07184619 -0.022757238 -0.091259085 -0.0010260228
0000d0 e6 a8 14 bc 56 2c 5e 3c 8f 66 17 3e ed 92 db bd
       -0.009073472 0.013560375 0.14785217 -0.10721383
0000e0 4d 55 01 3e 71 26 20 3e 34 0a e3 bc e9 ae eb 3c
       0.12630196 0.15639664 -0.027714826 0.028769927
0000f0 9e c2 d5 bc 63 ff 86 bd 94 22 0b 3e 78 35 fb bc
       -0.026093777 -0.0659168 0.1358741 -0.030665144

f_bn1.running_var f4 [64]
000000 e0 30 42 3d f1 2c 63 3d df f5 a3 3d 22 6c 0d 3d
       0.047409892 0.05546278 0.080058806 0.03452695
000010 8e 94 d3 3d d1 2a 38 34 19 3f d9 3c 7e 58 4f 3d
       0.10331069 1.7151912e-07 0.026519345 0.050621502
000020 0e 30 4b 3d 0c c5 19 3d 3f 50 9d 3c 31 ea 90 3d
       0.049606375 0.037541434 0.019203303 0.070759185
000030 0e fd 57 3d 64 e3 3b 3d 61 58 ad 3d 1b d7 fa 37
       0.052731566 0.045871153 0.084641226 2.9902489e-05
000040 82 81 0e 3d 0f 09 37 3d c6 fe 35 3d ff 29 29 3c
       0.034791477 0.044686373 0.044432424 0.010324954
000050 93 d9 72 3d 00 81 68 3d 6a 9b c1 3d da df eb 3c
       0.059289526 0.05676365 0.09453471 0.028793264
000060 fa 7e dd 3d a8 9b 61 3d 22 71 bf 3d 38 bf d5 36
       0.108152345 0.055080086 0.0934775 6.3701555e-06
000070 be 56 61 3d de 72 8b 3b 7f 30 1d 33 16 1c f2 3c
       0.055014364 0.0042556366 3.6598518e-08 0.029554408
000080 d9 0f ec 3c a2 07 01 3d d7 4a 00 3d 67 fd 8f 3d
       0.02881615 0.03150142 0.031321373 0.070307545
000090 b3 5c 04 3d 95 ae 43 3d ea dc 38 3d 39 a7 82 3d
       0.032314967 0.047773916 0.045132555 0.063795514
0000a0 60 b0 73 3d e2 af 0e 3d 49 7d 8b 3d a7 90 52 3d
       0.059494376 0.034835704 0.068110056 0.051407482
0000b0 97 f6 04 3d 58 b1 87 34 5d 8a 25 3d d1 76 06 3d
       0.03246173 2.5274744e-07 0.040415157 0.032828156
0000c0 5a 2e 22 3d 67 86 74 3d 59 ce 5c 3d 15 8f b5 36
       0.039594986 0.05969849 0.053907726 5.4108773e-06
0000d0 63 cd 84 3c b1 4d 5a 3c cd 9f ad 3d ac bc 32 3d
       0.016211217 0.013324187 0.08477745 0.043636963
0000e0 bf 79 63 3d 13 95 aa 3d d4 3b c6 3c 53 5b eb 3c
       0.055536028 0.08329215 0.02419845 0.02873007
0000f0 f4 a7 07 3d aa 1e 02 3d e0 56 a4 3d 5a 2e 28 3d
       0.033119157 0.031767525 0.080243826 0.04105983

fc_2.weight f4 [64, 64]
000000 f6 c5 67 bb 5e ed db 3c f0 9a ea 3c 1f b3 10 bc
       -0.0035365797 0.026846584 0.028638333 -0.008831768
000010 0f e0 08 3b 95 ef 19 b6 1b 73 7e 3c 81 c0 be 3b
       0.0020885502 -2.2938232e-06 0.015530373 0.005821288
000020 da 83 44 bc d2 17 e7 bc a9 6a b4 bb b1 a3 aa 3c
       -0.0119943265 -0.0282096 -0.005505879 0.020830007
000030 05 83 5b bc f9 5a 81 bc c9 08 4f 3c ab 9e 3a 35
       -0.013397937 -0.01579045 0.012636372 6.952129e-07
000040 0e c3 7b bc e4 3f 87 ba 32 21 aa ba 8f da 44 bc
       -0.015366329 -0.0010318724 -0.0012979864 -0.012014999
000050 ac d0 c3 bc 2a df 01 3c 4f 94 f3 3c a8 24 97 bb
       -0.023903213 0.007926742 0.029733805 -0.004612524
000060 a9 62 77 3c db 91 80 bb a5 c8 f3 3c 83 aa ee 38
       0.015099206 -0.0039236373 0.02975876 0.00011380485
000070 f6 6c 2c bc 5d 83 a4 3b a2 21 a3 b1 5d 08 7e bb
       -0.010524025 0.0050205425 -4.747748e-09 -0.003876231
000080 c9 54 ab bb ac 32 90 bc 3e b2 8d bc 60 2d dc 3a
       -0.005228613 -0.017602287 -0.017296907 0.0016798191
000090 ab cf c9 bc 7c a7 73 ba 8a 37 ba bb 39 05 93 bc
       -0.024635157 -0.00092946715 -0.0056828903 -0.017946826
0000a0 99 48 c7 3c eb 12 f4 bb 9a f5 c2 bc ec 49 1e 3a
       0.02432661 -0.0074485443 -0.023798753 0.0006038237
0000b0 28 d0 18 3c 58 f6 f1 31 76 97 31 3c 96 8b 03 b9
       0.009326972 7.042029e-09 0.010839334 -0.00012545133
0000c0 bc e1 06 bb b1 1a ea bb 13 99 97 3b 8c ca 6e 37
       -0.0020581326 -0.007144295 0.004626402 1.4233065e-05
0000d0 02 b9 89 3c ba d0 b2 bc bb 18 8f 3c e0 be b5 bb
       0.016811851 -0.021828044 0.017467847 -0.0055464357
0000e0 93 ea da 3c 4f 7b ad 3c ff 08 ae bc 2d 65 bf bb
       0.026723182 0.021176962 -0.021244524 -0.0058409185
0000f0 8a 8d 91 3b 97 1f 64 bc a1 6f 85 3c e3 4f 32 bc
       0.0044419216 -0.013923547 0.01628858 -0.010883304
000100 fb e1 bf bb b0 70 8a bb ee 8e b8 3c 75 94 13 bc
       -0.0058557964 -0.004224859 0.022529092 -0.009007563
000110 ee aa 69 ba c1 f9 7f b3 5d 12 18 3b f7 03 2c bc
       -0.0008913715 -5.9598964e-08 0.0023204305 -0.010498992
000120 49 18 a7 bc 71 10 d6 bc 87 71 6b bc 40 98 ef 3b
       -0.020397322 -0.026130887 -0.014370329 0.007311851
000130 fa f3 19 bc 25 bd 11 bc fb 38 f4 3b 73 4d 5e b6
       -0.009396547 -0.008895193 0.0074530817 -3.312566e-06
000140 2b fe 3e bc 90 80 1b bc 13 bd 84 3c 71 8a 06 bc
       -0.011657278 -0.009491101 0.016203439 -0.008211718
000150 df b9 bf bc 1d 39 63 3a 7a 60 b6 3c a3 dc 34 bc
       -0.02340406 0.00086678733 0.0222628 -0.011038932
000160 17 bd a2 3c 92 a9 05 bc 49 25 eb 3c 93 32 49 38
       0.019865556 -0.0081581045 0.028704302 4.7969235e-05
000170 2b f3 2d bc 9b 14 eb ba 72 11 04 33 fb 01 d2 bb
       -0.010617058 -0.0017935218 3.074951e-08 -0.0064089275
000180 5f 11 33 3c 31 4a 87 bc c6 53 b2 bc e7 5a df bb
       0.010929435 -0.01651487 -0.021768462 -0.0068162563
000190 36 94 92 bc ad 74 72 3b d2 5f c7 ba 17 61 b2 bc
       -0.017892938 0.0036995814 -0.0015211052 -0.021774812
0001a0 36 23 84 3c 37 7f 10 bc 98 6e 00 bd b8 32 66 3b
       0.016130071 -0.008819393 -0.03135547 0.0035125446
0001b0 4d c9 75 3c 70 b4 30 b5 e8 17 6d 3c fe 53 9c bc
       0.015001607 -6.582768e-07 0.014471032 -0.01908302
0001c0 4b 39 67 3c ce 59 bf b9 6c d0 b2 bb ac 58 66 b7
       0.014112781 -0.0003649727 -0.0054569747 -1.3729714e-05
0001d0 87 ba a1 3a cf 58 bc bc b7 c7 5f 3c b2 1f 64 bb
       0.0012338915 -0.022991566 0.013658456 -0.003480893
0001e0 81 e6 8a 3c 4a b1 05 3d 6a 7e 9f bc d3 de cb bc
       0.016955616 0.03263978 -0.019469459 -0.024886524
0001f0 75 06 7f 39 73 f7 b3 bc f2 be b9 bb 9b 2c bc bc
       0.000243211 -0.021968579 -0.0056685144 -0.022970488
000200 9e c6 8d 3c 79 8d 20 bb 2d a8 16 bc ec c5 27 bc
       0.017306622 -0.0024498387 -0.00919537 -0.010240059
000210 7c fa 82 3c 42 60 1a b5 01 72 35 3b 96 39 f8 ba
       0.01598858 -5.7509544e-07 0.002768636 -0.001893806
000220 bd 96 ab 3b 57 a5 ec b9 4f 48 d4 3c 38 8f 67 3b
       0.0052364753 -0.00045136616 0.025913386 0.0035333168
000230 73 18 83 3c 4c 9d 2c ba b2 18 0c 3c dd c2 e8 b5
       0.01600287 -0.00065847184 0.00855081 -1.734206e-06
000240 27 8b 1e bc b6 2d 52 3c 78 62 33 bb de 45 0c 3a
       -0.009676731 0.012828281 -0.0027371924 0.0005350987
000250 87 1e 76 3c ef 4c a1 3c 88 d7 8b 3a 92 53 b8 3c
       0.015021927 0.019690005 0.0010669092 0.022500787
000260 32 91 17 bc be d4 f4 bb 64 d0 12 bc 46 69 1f 2d
       -0.009250926 -0.00747165 -0.008960817 9.061479e-12
000270 a2 0d df 3b f6 84 2c bc b3 5a 52 af fb 7e 8c 3c
       0.006807045 -0.010529747 -1.9131612e-10 0.017150393
000280 76 7b dc bc 1f 05 56 bc 1e 2d 41 bd fc 90 0e bc
       -0.02691434 -0.013062744 -0.047162168 -0.008701559
000290 5b 60 74 3c 7e 92 83 3c 21 ce f7 3b e3 4b 98 3a
       0.014915551 0.016061064 0.0075624143 0.0011619296
0002a0 db b2 2f bc 9d b8 1e 3d 48 2e cd 3a 0e 8b b5 3c
       -0.010723795 0.03875028 0.0015654052 0.022161033
0002b0 12 33 10 bc 0c b3 b0 b4 a3 e7 3c bc 75 03 24 bb
       -0.008801239 -3.2912828e-07 -0.011529836 -0.0025026475
0002c0 b7 02 ac bb 38 c9 88 3b 90 68 26 3c 8f ad 96 b5
       -0.005249347 0.004174378 0.010156766 -1.1226383e-06
0002d0 aa c8 87 3b 7c 8c 37 3c 02 77 61 bc 28 05 e7 bb
       0.004143794 0.011202928 -0.013761284 -0.007050175
0002e0 34 ae c1 3b 5c 1b cd bb f9 8e b4 bc 0c 4f a8 bc
       0.005910659 -0.006259365 -0.02204083 -0.020545505
0002f0 82 4d ae bc d9 62 60 3c cf 73 11 bc b7 31 90 bb
       -0.021277193 0.013695442 -0.008877709 -0.0044004577
000300 2d 95 07 3b d9 a2 9d bb b4 3f 80 bc 87 7d 37 3c
       0.002068828 -0.0048106727 -0.015655376 0.011199362
000310 d1 e3 a7 3c a5 53 f0 b6 86 6e 82 bb 8f 22 32 3c
       0.020494374 -7.162295e-06 -0.0039804606 0.010872497
000320 9f a2 9d bb 9d 72 80 3c 79 73 b8 3b 6c 38 82 bb
       -0.0048106457 0.015679652 0.005629 -0.003974011
000330 58 54 7d bb 1c 7f f8 3b e2 2f 3e 3c 72 67 b9 b9
       -0.003865501 0.007583512 0.011608096 -0.00035363022
000340 29 3c bd 3a db db 8f 3b fe 35 d5 bc 90 7b d2 bb
       0.0014437485 0.0043902225 -0.026026722 -0.006423421
000350 6d 85 1b 3c b5 f6 1c 3c ed 24 2a bc ee 8e 14 3c
       0.00949226 0.009580304 -0.01038478 0.00906728
000360 5f 54 55 bc 47 c7 a8 3b 36 97 61 bc 8c c0 be b8
       -0.013020604 0.005150709 -0.013768962 -9.095771e-05
000370 9f f3 8c bc 91 93 42 bc 35 cd da b3 c7 91 82 3b
       -0.017206011 -0.011876003 -1.0188743e-07 0.003984663
000380 1f df a6 bc bc 4d 92 3a 7d 30 51 3c b9 a5 8f bc
       -0.020370064 0.0011162083 0.012767908 -0.017535077
000390 40 c3 03 3c 21 92 4f 3c 6c 5b 40 3c 8a e5 25 3c
       0.008042157 0.012669117 0.011740547 0.010125527
0003a0 00 8f 3a bc ae dc 27 3c df 95 bd 3b 99 62 ab 3b
       -0.011386633 0.010245485 0.0057856883 0.0052302596
0003b0 4f 32 de bb 90 86 04 37 77 89 4e bc 07 0e 7b 3c
       -0.0067808996 7.899143e-06 -0.012606016 0.015323169
0003c0 6f 58 50 bc a1 70 be 3b df c0 13 3c 0c 9e 84 38
       -0.012716397 0.0058117663 0.009018152 6.323689e-05
0003d0 5a ae 04 3c 2c ee 2b 3c b3 74 95 bc 55 94 1b 3c
       0.008098209 0.010493796 -0.018244123 0.009495814
0003e0 cf 6d e2 b7 cb ba 3e 39 5f 17 3b 3c a4 54 e8 3a
       -2.6992433e-05 0.00018189398 0.011419146 0.001772542
0003f0 8b 6e 88 bc 3b c5 59 3b 03 aa 4d bc e9 9a 85 3c
       -0.016654273 0.003322913 -0.012552741 0.016309218

fc_2.bias f4 [64]
000000 2d 77 f0 b4 8a 2f e5 b4 54 74 0f b4 04 f2 8d b2
       -4.4790195e-07 -4.2689163e-07 -1.3360233e-07 -1.6524616e-08
000010 dd 61 33 b4 13 aa 8a b4 a7 15 7c 33 46 72 5c 34
       -1.6706277e-07 -2.5828248e-07 5.8693015e-08 2.0530669e-07
000020 6a 6c 24 34 df e4 18 35 22 5d 59 b4 32 51 b1 33
       1.5313131e-07 5.6957464e-07 -2.0243581e-07 8.256974e-08
000030 af 6b 05 b4 3e f8 7d 33 b2 cb f3 b4 bc 04 00 00
       -1.2425765e-07 5.9131928e-08 -4.5410485e-07 1.698e-42
000040 d8 ce 2b 34 54 67 85 35 85 04 00 00 74 55 a0 34
       1.6000865e-07 9.939345e-07 1.621e-42 2.9864498e-07
000050 ee f5 84 b4 76 a8 3c b4 f0 e1 19 34 42 f5 e9 33
       -2.4765853e-07 -1.757015e-07 1.4331431e-07 1.089452e-07
000060 62 d1 4e 32 08 9f 59 34 06 ef b3 b2 90 76 06 35
       1.2038386e-08 2.0267555e-07 -2.0947038e-08 5.009142e-07
000070 cf 04 1d b4 51 c1 09 33 29 54 dd b3 b7 e4 e4 34
       -1.4623514e-07 3.207362e-08 -1.0306423e-07 4.263472e-07
000080 f5 4a 95 b4 54 a6 b3 b1 d9 29 16 b4 f1 06 00 80
       -2.780795e-07 -5.228495e-09 -1.3985063e-07 -2.49e-42
000090 ab 57 b9 34 91 27 60 b4 cc a5 b2 33 55 01 2e 35
       3.4522722e-07 -2.087602e-07 8.318929e-08 6.482199e-07
0000a0 d9 3a b4 34 67 ee 0d 33 cb 80 1e 35 68 ef 4a b3
       3.357043e-07 3.3045946e-08 5.9047005e-07 -4.724953e-08
0000b0 7a d7 1f b4 51 e8 bd b3 eb 42 4c 34 65 97 f0 b4
       -1.4886419e-07 -8.8432564e-08 1.9023325e-07 -4.4813638e-07
0000c0 a3 a8 31 b4 da dc e5 b2 3c 19 33 b3 1e bc 30 33
       -1.6545759e-07 -2.675954e-08 -4.1699636e-08 4.1149285e-08
0000d0 10 d7 43 b5 78 ab f3 b1 04 f8 99 34 aa 82 86 33
       -7.295612e-07 -7.0917245e-09 2.8678926e-07 6.263629e-08
0000e0 13 99 9e b3 bd b2 a7 b4 aa c3 22 34 06 38 a1 b3
       -7.3852924e-08 -3.1236223e-07 1.5158608e-07 -7.507337e-08
0000f0 02 78 29 b4 4c c8 7e b2 bc 11 d9 34 7e 32 4e b2
       -1.578301e-07 -1.4830288e-08 4.0432303e-07 -1.2002259e-08

f_bn2.weight f4 [64]
000000 73 92 95 3d 8c 48 9a 3d fd 92 61 3d 4f d5 6b 3d
       0.073033236 0.075333685 0.05507182 0.057576474
000010 ed 9f 8c 3d 66 74 85 3d 35 4e bd 3d e0 c4 86 3d
       0.06866441 0.06516342 0.092434324 0.0658052
000020 56 eb 9b 3d 4b 13 38 3d 89 72 3d 3d 36 c7 91 3d
       0.07613246 0.044940274 0.046251807 0.071180746
000030 3e fd a1 3d 0d c7 89 3d c5 05 82 3d ff e7 4b 38
       0.0790963 0.06727419 0.06348757 4.8615035e-05
000040 70 eb a9 3d 3e d2 a3 3d a4 4e 19 38 69 83 b2 3d
       0.08296859 0.07999085 3.6551282e-05 0.08716471
000050 18 ee 6b 3d bf d3 8a 3d cd 60 ad 3d 9c e0 92 3d
       0.05760011 0.067786686 0.08465729 0.07171747
000060 04 dc ae 3d 36 6a 51 3d 4e 63 5a 3d f5 4b b0 3d
       0.085380584 0.05112668 0.05331736 0.08608238
000070 6c f6 84 3d f0 75 84 3d 04 ff 5e 3d 53 56 63 3d
       0.06492314 0.06467807 0.05444242 0.055502247
000080 a7 b5 a5 3d 25 e5 8d 3d c4 5a ba 3d 43 5d 1e 38
       0.08091288 0.069284715 0.090993434 3.7756992e-05
000090 b7 fb 92 3d a2 a7 5f 3d 83 44 7c 3d 19 ae 96 3d
       0.07176917 0.054603226 0.061588775 0.07357425
0000a0 ee f8 67 3d 45 c5 b0 3d d0 58 8e 3d 14 31 8b 3d
       0.056633882 0.08631376 0.069505334 0.0679647
0000b0 eb 2d 8f 3d 0c 86 c2 3d be 69 4a 3d 89 dc 78 3d
       0.0699118 0.09498224 0.04941725 0.060757194
0000c0 33 17 8c 3d b1 70 a5 3d 84 b7 81 3d fb d8 74 3d
       0.068403624 0.08078135 0.06333831 0.05977724
0000d0 b5 08 84 3d 1c 06 a2 3d 1a cd 6d 3d 3f ff 89 3d
       0.06446973 0.079113215 0.05805693 0.067381375
0000e0 28 20 1e 3d e3 e0 7d 3d 53 71 95 3d 30 0a 5d 3d
       0.038604885 0.061982047 0.072970055 0.053964794
0000f0 c2 fe a3 3d 26 c8 48 3d 7f e2 75 3d 59 fa 83 3d
       0.080075756 0.049019 0.060030457 0.064442344

f_bn2.bias f4 [64]
000000 e6 72 1c bc e6 c6 a1 bc 15 ec 0d bb 70 bb 58 3b
       -0.009548878 -0.019748162 -0.0021655608 0.0033070706
000010 dc 08 29 bc f2 a3 ac 3c d7 a7 93 bc bd 21 3d bc
       -0.010317054 0.021074269 -0.018024368 -0.011543688
000020 3b 1d 8c bc be 65 90 3b 49 d4 6e 3b 23 8a 5d ba
       -0.017103782 0.00440666 0.003644245 -0.0008451065
000030 19 8b c7 bc eb 63 1b bc 5b 1c 86 bc f5 db f3 b8
       -0.02435832 -0.0094842715 -0.016370943 -0.00011628113
000040 c7 c4 a7 bc cb ec b5 bc 51 9b d3 b5 4e 54 e6 bc
       -0.020479573 -0.022207638 -1.5765928e-06 -0.028116371
000050 cc 35 5d bc 59 84 db ba 48 31 6f bc 5e f5 8a bc
       -0.013501596 -0.0016747817 -0.014599152 -0.016962703
000060 ff f6 bb bc 1c ff 0d 3c 73 d9 73 ba cf 15 6b bc
       -0.022944925 0.00866678 -0.0009302117 -0.014348461
000070 06 e5 de 3b 60 ec 52 bc b7 9c 78 3c f5 83 29 3c
       0.006802204 -0.012873739 0.0151740825 0.010346402
000080 b4 a2 b4 bc c9 d1 46 bb 14 54 32 bc c9 d5 b1 b5
       -0.02205024 -0.0030337444 -0.010884304 -1.3249747e-06
000090 de 8e 40 bc b9 55 8a bb 5e c2 02 3b 6e 3c ed bb
       -0.011752812 -0.0042216447 0.0019952278 -0.00723987
0000a0 e2 94 77 3c b7 9e e5 bc 0c 88 58 bb f7 2d fa ba
       0.01511118 -0.028029783 -0.0033040075 -0.0019087185
0000b0 89 50 42 bc d8 24 12 bd 89 a9 2c 3c 31 59 94 3a
       -0.011860021 -0.03567967 0.010538467 0.0011318085
0000c0 d1 47 54 bc 57 ac 8b bc dc fb 4d bb e3 dc 1e bc
       -0.0129565755 -0.017049951 -0.0031430637 -0.009696218
0000d0 19 f3 f7 bb fd 63 8d bc cd 60 79 bc 50 1b d9 bb
       -0.0075668213 -0.017259592 -0.015220833 -0.0066255704
0000e0 45 a6 bf 3b 7e 48 f9 3b d3 55 57 bc 8a 7a 93 39
       0.0058486783 0.0076075187 -0.013143021 0.00028129324
0000f0 c9 41 64 bc ea 44 80 3a d9 be 9a 3c 9b 93 37 3b
       -0.0139317 0.0009786163 0.018889831 0.0028011564

f_bn2.running_mean f4 [64]
000000 1b a0 3c bb cc df 9a bb 56 59 30 39 63 0a 78 39
       -0.0028781954 -0.0047263857 0.00016817948 0.00023654992
000010 b3 8d 5b bb 9d 8a 87 3b c4 eb 90 bb 64 32 aa ba
       -0.0033501207 0.004136397 -0.0044226367 -0.0012984988
000020 0b c1 8c bb f2 57 84 b9 55 9a ae b7 40 0e 05 ba
       -0.0042954735 -0.00025242526 -2.0814283e-05 -0.0005075671
000030 ba 87 9d bb ca 32 ce ba b9 c7 d8 ba da c4 24 b7
       -0.0048074396 -0.0015731689 -0.0016539014 -9.820995e-06
000040 d3 7d 72 bb 77 d6 7c bb 3e 0d 0c 35 20 a2 b7 bb
       -0.0037001267 -0.003857998 5.2173334e-07 -0.0056040436
000050 f2 95 eb ba b0 1d 81 ba 8b a1 8f bb 03 da 5a bb
       -0.0017973764 -0.0009850767 -0.004383271 -0.0033394105
000060 fe 5e c0 bb ef 1f 2c 3a ac 72 f6 b9 1b 90 d2 ba
       -0.005870699 0.0006566038 -0.00047006214 -0.0016064675
000070 34 10 a8 3a f2 66 06 bb 1c 4f 62 3b 7b 6c 15 3b
       0.0012822212 -0.0020508138 0.0034532016 0.0022800255
000080 1e fb ab bb 30 dc 7c b9 4c 49 ce ba ec bb 1f b4
       -0.0052484414 -0.00024114619 -0.0015738397 -1.4876395e-07
000090 23 5a 03 bb b5 e0 6b ba 28 fa 70 b9 ef d2 8c bb
       -0.002004274 -0.00089980225 -0.00022981374 -0.004297606
0000a0 71 64 e1 3a e8 ee 5e bb fd 06 49 bb e8 15 99 b9
       0.0017196072 -0.003401691 -0.0030674331 -0.00029198756
0000b0 72 97 9d ba 2d a2 5c bb 56 bf 07 3b 5a b9 86 b8
       -0.0012023284 -0.0033666 0.002071341 -6.424142e-05
0000c0 10 3e f4 ba 80 dc 71 bb 20 de 5e ba 72 cc e7 ba
       -0.0018634219 -0.003690511 -0.0008501727 -0.0017684831
0000d0 1e 5e bb ba 90 19 94 bb 57 b9 4e ba 4c fc 74 ba
       -0.0014295017 -0.004519649 -0.0007885894 -0.00093454565
0000e0 24 92 32 3a 3e d3 75 3a 8d 0b 8b bb 18 40 ca 38
       0.0006811938 0.0009377486 -0.0042433203 9.644049e-05
0000f0 aa 04 03 bb 24 5c 28 3a aa af 57 3b ab 86 13 bb
       -0.0019991794 0.00064224214 0.00329111 -0.0022510688

f_bn2.running_var f4 [64]
000000 82 62 1c 39 5f cb 24 39 5a 24 36 38 06 b6 ce 38
       0.00014914016 0.0001571602 4.3426036e-05 9.85675e-05
000010 eb ce 12 39 2e f8 1a 39 bb fc 60 39 45 59 cb 38
       0.00014000728 0.00014779039 0.00021456454 9.696422e-05
000020 c3 2e f4 38 b8 fd 93 38 5d d6 8b 38 13 5c 19 39
       0.00011643537 7.056765e-05 6.667965e-05 0.00014625517
000030 0b 72 0b 39 81 73 f5 38 59 d0 78 38 e9 b2 10 31
       0.00013298557 0.00011704025 5.9321846e-05 2.1056457e-09
000040 7c 86 37 39 44 9f c5 38 02 84 35 2c 11 4d 26 39
       0.0001750234 9.4233576e-05 2.5794926e-12 0.00015859703
000050 40 5f 07 38 68 e4 da 38 42 d2 3e 39 a0 75 e7 38
       3.2275217e-05 0.00010437594 0.00018198139 0.00011036848
000060 83 61 45 39 61 73 ad 38 7e 8f 89 38 92 ef 03 39
       0.0001882371 8.270774e-05 6.5593966e-05 0.0001258238
000070 e8 4e 19 39 f0 e7 ce 38 b2 89 fc 38 db 86 01 39
       0.00014620612 9.866047e-05 0.00012041944 0.00012352636
000080 dc 34 48 39 c8 bb 57 39 fd 76 42 39 d0 f6 56 2b
       0.00019093178 0.00020573952 0.00018545608 7.6370594e-13
000090 dc fa f5 38 f4 db 9d 38 d7 e5 e6 38 64 8e 2e 39
       0.000117292366 7.527313e-05 0.00011010066 0.00016646978
0000a0 c9 0e cd 38 bf 56 0d 39 0b 85 13 39 7f 7e c3 38
       9.777916e-05 0.00013479123 0.00014068575 9.321886e-05
0000b0 d0 36 c1 38 91 58 fe 38 ba 27 d5 38 4d b8 ea 38
       9.213167e-05 0.000121281606 0.00010164031 0.00011192318
0000c0 15 0b cd 38 c5 6c 0d 39 f3 96 ac 38 dd 81 a7 38
       9.777226e-05 0.00013487328 8.2297156e-05 7.9873695e-05
0000d0 5f 75 b3 38 21 4c 42 39 f0 b5 01 38 6a 34 d8 38
       8.557247e-05 0.00018529642 3.092544e-05 0.000103094455
0000e0 a9 e4 5c 38 39 a4 08 39 e5 e4 24 39 1d 13 da 38
       5.2665044e-05 0.00013031148 0.00015725529 0.0001039861
0000f0 72 67 e3 38 db b9 3a 38 0a 96 18 39 03 53 19 39
       0.00010843472 4.4518947e-05 0.00014551744 0.00014622141

fc_3.weight f4 [64, 64]
000000 74 be d4 3c 06 fc 0b 3c 75 b9 7c bb 71 3d 22 bc
       0.025969721 0.008543974 -0.003856269 -0.009902344
000010 22 ec e7 3b 79 8e ff bb 76 7a a8 3c 41 55 3c 39
       0.00707771 -0.0077989665 0.020566206 0.00017960837
000020 05 9a f8 3c 4c fa 1f bc 8e 4c 21 bc 50 b6 f4 bb
       0.03034688 -0.009764265 -0.009844912 -0.0074680224
000030 f3 36 2d 3c ec f6 23 3a 71 ca 36 3b 68 13 b8 b4
       0.010572183 0.0006254751 0.002789166 -3.428679e-07
000040 fb ff 1c 3c 30 ec 98 3c 65 ed 30 b3 de b7 ce 3c
       0.009582515 0.01866731 -4.1194102e-08 0.02523416
000050 65 44 a9 3c 22 ef 71 39 7e aa ae 3c f4 37 29 3c
       0.020662496 0.00023072635 0.021321531 0.010328282
000060 28 7e 5a 3c 26 c9 45 bc 43 b4 d8 3a 29 33 46 38
       0.013335742 -0.012071883 0.0016533214 4.7254525e-05
000070 25 8d e3 bb c2 dc 97 3a 14 3c 13 bc 78 d9 35 bc
       -0.006944316 0.0011586177 -0.008986492 -0.011099212
000080 2f 6b ad 3b 13 dd b9 37 07 eb 03 bc a4 16 ef b3
       0.0052923183 2.2156664e-05 -0.00805164 -1.1133423e-07
000090 74 32 0e ba 99 eb 3a bb ef 83 09 bc 1b 0b 73 bc
       -0.0005424388 -0.0028521775 -0.008393272 -0.014834191
0000a0 e7 d7 02 bc 6a 62 a1 3c e9 8e 4e bc e6 0a e1 bb
       -0.007986045 0.019700248 -0.012607315 -0.0068677543
0000b0 63 17 da bb f7 76 b9 3c d1 1f b9 bb 74 5f 5a bb
       -0.00665562 0.022639735 -0.0056495448 -0.0033321055
0000c0 31 cb 6d bb 57 38 40 3c 9a 72 ae bb 48 15 d1 3c
       -0.0036284442 0.011732182 -0.00532372 0.025522843
0000d0 89 79 81 bb c4 5c 5d 3c 3d bf 2f 3c 40 d5 5b bb
       -0.0039512557 0.013510887 0.010726747 -0.0033543855
0000e0 33 d5 00 bc 92 38 00 bc 33 2b f4 3c c3 6b f9 ba
       -0.007863331 -0.007825987 0.029805755 -0.0019029308
0000f0 fc db 84 bb ad 0f bf bb 82 87 ae bc 0c d7 42 3c
       -0.0040545445 -0.005830726 -0.02130485 0.0118920915
000100 62 4a 9d bb 70 23 3a bc 38 e5 57 3c 57 e6 92 3b
       -0.004800127 -0.011360988 0.013177209 0.004483025
000110 13 0d 1f bb ae 63 5d 3b ae 98 21 bc 2a fe 4d 3c
       -0.0024269267 0.0033781338 -0.009863062 0.0125728045
000120 3a 5d 05 bb b5 48 18 3c bd 98 a8 3b eb 82 4e 3c
       -0.0020349757 0.009294678 0.005145161 0.012604455
000130 47 1f 07 bc 60 d1 e4 3b 66 fc 12 3c 9e 39 66 34
       -0.008247203 0.0069829673 0.008971309 2.144138e-07
000140 b5 34 8a bb a6 a4 f2 bb ca 0e a3 b3 99 a9 7e bb
       -0.004217709 -0.0074048815 -7.592969e-08 -0.0038858412
000150 50 03 24 bb 72 62 21 3c e8 1c a9 bb 16 93 f4 b9
       -0.0025026388 0.009850131 -0.0051609166 -0.00046648894
000160 a5 d7 07 bc 34 66 e6 3a e2 d6 3a 3a 97 3d 16 3c
       -0.00829116 0.0017578066 0.0007127357 0.009169958
000170 86 c4 0a 3c 62 58 aa 3b 12 84 b7 3b 98 e2 ee 3b
       0.008469706 0.0051985243 0.005600461 0.0072901957
000180 f8 92 05 bc c1 75 0c 3c 4b 99 51 3c 41 d6 54 37
       -0.008152716 0.008572997 0.012792896 1.268607e-05
000190 a8 35 1d 3c cc 34 64 3c 0d 27 2b 3c 8f 1c 11 bc
       0.009595312 0.013928603 0.010446322 -0.008856907
0001a0 59 3e 24 3c 96 b3 78 bb 43 15 24 bc 14 c4 5d 3c
       0.01002463 -0.0037948838 -0.010014835 0.013535518
0001b0 ed 34 01 3c fe 2d e5 b8 07 99 02 3c a8 c2 15 3c
       0.007886154 -0.000109281376 0.007971055 0.009140648
0001c0 36 cb 83 3b 59 1b 9f bb b5 e6 b3 3b 9b c8 46 b9
       0.0040220274 -0.004855555 0.005490149 -0.00018957483
0001d0 fa 5b 51 3c 25 98 5c bb 01 74 9e 3b 42 07 a0 3b
       0.012778277 -0.003366002 0.004835606 0.0048836777
0001e0 65 01 69 3b eb 5d 7f 3c fe 31 ae bb 37 77 0c 3c
       0.003555381 0.015586357 -0.005316018 0.008573345
0001f0 dc 48 90 39 bc 93 2d 3c 56 35 82 bb e5 e7 6e bb
       0.00027520105 0.010594305 -0.0039736433 -0.0036454138
000200 ce 62 3d b1 5c 26 30 ae 36 60 2d 2e ff 08 cc b0
       -2.7559284e-09 -4.0051837e-11 3.94211e-11 -1.484551e-09
000210 1b ed 82 a5 0d 73 e8 30 fd 10 3b ad 2f 17 1d af
       -2.2712074e-16 1.6912921e-09 -1.06334915e-11 -1.4287303e-10
000220 11 ea 4e ac 2e a7 8f ac 66 28 c5 2a 90 b3 88 b2
       -2.9404294e-12 -4.082865e-12 3.5022262e-13 -1.591414e-08
000230 ab 8e 96 a9 c4 3c 98 b0 39 fc 39 2d 76 83 ca a5
       -6.686087e-14 -1.1076726e-09 1.0572037e-11 -3.5130496e-16
000240 c8 4a e9 ac 86 48 45 ab 0c 34 be 22 3a 76 1a ac
       -6.6305607e-12 -7.0089106e-13 5.155471e-18 -2.1950345e-12
000250 2a 94 7c a8 3a e6 30 30 77 9b 46 33 2f dd 92 21
       -1.4020938e-14 6.43556e-10 4.6241862e-08 9.951892e-19
000260 0a a3 84 b1 1a f8 88 b0 80 48 7b 2d 93 be 36 35
       -3.860241e-09 -9.965817e-10 1.4283796e-11 6.8077605e-07
000270 7f 86 e3 af e8 b4 b8 2a 21 fc 8a 2e 7a e8 e0 2c
       -4.1386625e-10 3.2810495e-13 6.3203005e-11 6.392273e-12
000280 04 fb 77 b2 36 36 96 28 9a 48 98 b4 04 c3 9a 29
       -1.4434367e-08 1.6676856e-14 -2.836503e-07 6.8728036e-14
000290 44 34 95 b3 9e c2 70 2c 85 48 cf b4 19 c8 fe 31
       -6.94786e-08 3.4214086e-12 -3.860952e-07 7.4151214e-09
0002a0 9e 05 2e b4 f0 95 f4 a9 5b 1a 9c b2 a0 c7 ed 31
       -1.6207056e-07 -1.0861787e-13 -1.8172775e-08 6.9203026e-09
0002b0 97 07 2f 2e 13 8f 97 a8 e6 2c e2 2f e6 d1 a8 b1
       3.9797134e-11 -1.6826416e-14 4.1141063e-10 -4.913306e-09
0002c0 d4 a2 1d 33 20 85 48 b5 75 3d 9f b0 49 ba aa aa
       3.6702502e-08 -7.469953e-07 -1.158624e-09 -3.0327328e-13
0002d0 f6 21 7e b1 52 43 63 af 72 3e d4 b1 af 4d 38 30
       -3.698117e-09 -2.0669447e-10 -6.1771113e-09 6.7049205e-10
0002e0 66 d6 3d 30 80 15 14 b0 1e 82 c1 ac e0 b7 a8 ae
       6.906248e-10 -5.387264e-10 -5.499836e-12 -7.672418e-11
0002f0 c5 bf 5b 36 78 eb 22 b1 b4 a4 92 2d 8a 19 13 ab
       3.2745168e-06 -2.3707951e-09 1.6671421e-11 -5.2260334e-13
000300 8a bb 03 bc 70 c9 9f bb ca cb 4a 3c 47 33 49 3c
       -0.008040318 -0.004876308 0.012377689 0.012280292
000310 c4 e6 a9 ba bb 70 8c 3a 81 b4 83 bb f7 d2 2f 3c
       -0.001296245 0.0010714749 -0.0040193205 0.01073145
000320 b9 24 9a bb 51 98 01 3c 8e 6c cd 3b 39 0f 27 3a
       -0.0047040847 0.00790985 0.0062690442 0.0006372813
000330 b4 df 70 ba ee 19 fe 3b d6 85 79 3a a1 8f b5 33
       -0.0009188608 0.007754556 0.00095185393 8.454595e-08
000340 38 6b 6c bb 86 54 f6 bb ea 1e 87 b4 52 89 66 bb
       -0.003607465 -0.0075174 -2.5168202e-07 -0.0035177064
000350 23 41 e6 ba a1 51 67 3c 9e 19 31 bc a0 42 11 ba
       -0.001756702 0.014118583 -0.01080933 -0.0005541239
000360 2e 8c 1f bb aa 40 a8 3b 0b f0 8c 3b e2 58 a3 3b
       -0.0024345028 0.0051346617 0.0043010763 0.004984961
000370 28 e3 ce 3b ae 03 af 3b 2a 17 b2 3b a8 a1 0f 3c
       0.0063137 0.005341015 0.0054348903 0.008766569
000380 ba a0 8e bb 64 cb 72 3c a0 1a 8b 3c 20 72 e1 ae
       -0.004352656 0.014819 0.01698047 -1.0252088e-10
000390 83 55 4a 3c f1 6a 74 3c 31 92 9f 3a b6 27 29 bc
       0.012349489 0.014918075 0.0012174306 -0.010324409
0003a0 ea 88 31 3c 54 45 c6 ba 32 0b f6 bb e4 97 86 3c
       0.0108358655 -0.0015126863 -0.007508659 0.016429849
0003b0 1d 68 31 3b a9 22 1c ba 87 81 ad 39 71 65 4b 3c
       0.0027070113 -0.00059560925 0.00033093637 0.012414322
0003c0 d3 1e 22 3c 14 94 91 bb c7 f8 0f 3c cf a0 eb ba
       0.009895044 -0.004442701 0.0087873405 -0.0017977002
0003d0 91 71 53 3c 48 c1 95 bb c9 6b ad b9 a3 0b 91 3c
       0.012905494 -0.00457016 -0.00033077438 0.017705744
0003e0 58 44 2f ba 58 c4 4b 3b 04 20 28 bb 28 bf 30 3c
       -0.0006685904 0.0031092372 -0.0025653848 0.010787763
0003f0 5a 59 8d bb ae ea 0f 3c 06 e1 a7 3b 1f 40 29 bc
       -0.00431363 0.008783979 0.0051232604 -0.010330229

fc_3.bias f4 [64]
000000 76 5c 30 b4 40 15 b1 b2 35 00 00 80 66 2b 0c b4
       -1.6424914e-07 -2.0615175e-08 -7.4e-44 -1.3054304e-07
000010 3d 39 cf 34 b2 04 39 33 40 ee 09 b3 3e d7 95 b3
       3.85984e-07 4.307794e-08 -3.2114485e-08 -6.9775055e-08
000020 b0 0e 00 80 c5 e2 39 34 91 26 90 b3 a8 3a 08 34
       -5.269e-42 1.7311966e-07 -6.712538e-08 1.2687326e-07
000030 9a 15 14 b2 a6 10 9c 34 81 60 8a b3 1e be 8e 34
       -8.619645e-09 2.9069378e-07 -6.44368e-08 2.658789e-07
000040 08 52 2f 33 ce 8e e9 34 d1 27 7b 33 df 0d 4c 34
       4.081997e-08 4.3503536e-07 5.8476704e-08 1.9004027e-07
000050 c4 b5 00 31 20 48 1c 34 04 4f 10 b5 ff de 1a 33
       1.8729773e-09 1.4554871e-07 -5.3759163e-07 3.6058733e-08
000060 8a 55 51 b3 10 3f ac b4 b8 5a 3f 34 e0 0f b1 b4
       -4.8739402e-08 -3.208338e-07 1.7821264e-07 -3.298037e-07
000070 0c 87 28 b4 85 c0 61 b4 79 4f 5f b3 52 d0 60 33
       -1.5695349e-07 -2.1024796e-07 -5.1993513e-08 5.234353e-08
000080 b6 b6 f0 32 7e 9a 2e b3 0e 6a 1d 34 e3 7d 3c 33
       2.8022765e-08 -4.0653042e-08 1.4660347e-07 4.3886654e-08
000090 1a 55 e3 b4 b6 ed 03 b4 08 4b f4 32 10 3c a0 34
       -4.2343964e-07 -1.2286804e-07 2.8439459e-08 2.9846024e-07
0000a0 8d b6 a5 ab 81 db 45 34 09 b1 a4 33 34 9d b2 b4
       -1.1774623e-12 1.842691e-07 7.6690476e-08 -3.3269464e-07
0000b0 55 1d d4 34 2a c9 d0 b3 c2 9f fc b3 7c 8b ae 33
       3.950942e-07 -9.722346e-08 -1.1763724e-07 8.1278785e-08
0000c0 d0 b4 29 34 14 8d 85 33 2b 43 e9 32 78 e1 62 b4
       1.5805131e-07 6.218957e-08 2.7155314e-08 -2.1129915e-07
0000d0 6b d5 94 b1 0e 9c d9 31 b2 d9 67 b4 45 73 9a b3
       -4.3316297e-09 6.3332726e-09 -2.1592749e-07 -7.192151e-08
0000e0 40 01 00 80 9f a5 5b b3 26 95 6a b4 6c 4e 42 b4
       -4.48e-43 -5.1140542e-08 -2.1847208e-07 -1.8096188e-07
0000f0 40 0d 74 34 c6 81 c4 b3 05 89 a4 b3 b6 33 b5 34
       2.2729091e-07 -9.150567e-08 -7.661769e-08 3.3751502e-07

f_bn3.weight f4 [64]
000000 ac 11 a1 3d 6f 38 74 3d db 54 ff 38 a4 20 58 3d
       0.07864699 0.05962413 0.00012175153 0.052765504
000010 1f 0e 90 3d c2 2e 85 3d 8d 33 a0 3d 1d 86 a2 3d
       0.070339434 0.06503059 0.078223325 0.07935736
000020 83 1a 98 3a a8 a3 94 3d 25 28 8e 3d f7 0e 8f 3d
       0.0011604581 0.072577775 0.06941251 0.06985276
000030 45 02 51 3d 27 83 83 3d d3 68 8e 3d f1 ca 7a 3d
       0.051027555 0.064215 0.069535874 0.061228696
000040 51 73 6b 3d 47 74 30 3d 76 6a b6 3d 69 64 88 3d
       0.05748302 0.04307964 0.089070246 0.06659777
000050 06 f4 6e 3d 2e 61 80 3d f1 97 96 3d 7d 93 4d 3d
       0.058338188 0.062685356 0.07353199 0.050189484
000060 75 03 99 3d ae b7 a2 3d 7f aa 5c 3d 40 34 98 3d
       0.074713625 0.0794519 0.053873535 0.07431841
000070 0a 63 7d 3d 73 14 8b 3d 78 cd 80 3d 1e 15 5c 3d
       0.06186203 0.0679101 0.0628919 0.053731076
000080 b4 30 8a 3d 51 c2 7a 3d 42 89 4e 3d 66 d1 7d 3d
       0.06747571 0.06122047 0.050423868 0.061967276
000090 f3 00 36 3d af 3c 6e 3d da af 82 3d d6 75 8e 3d
       0.0444345 0.05816334 0.06381197 0.06956069
0000a0 23 06 79 39 0c 2c 55 3d ca f0 9f 3d 4f 24 a6 3d
       0.00023748777 0.05204396 0.07809599 0.08112394
0000b0 3c ae 7c 3d 14 a2 98 3d 28 35 9b 3d a3 d1 80 3d
       0.0616896 0.07452789 0.07578498 0.06289985
0000c0 b8 b1 61 3d b5 05 76 3d 76 84 62 3d 29 a2 63 3d
       0.055101126 0.060064036 0.055302106 0.05557457
0000d0 f1 ca 86 3d b4 3d 7f 3d b4 97 7f 3d 29 44 a5 3d
       0.06581677 0.062314704 0.062400535 0.08069641
0000e0 07 a4 09 38 23 f1 6e 3d 8b fb 3d 3d 79 ac 6c 3d
       3.2816108e-05 0.058335435 0.04638247 0.05778167
0000f0 21 28 90 3d 90 78 90 3d 39 83 76 3d 28 fc 87 3d
       0.07038904 0.070542455 0.060183737 0.06639892

f_bn3.bias f4 [64]
000000 c6 fa 43 3c fd 86 89 3c 95 c3 5e b6 37 af 99 3c
       0.0119616445 0.016788 -3.3194422e-06 0.018760307
000010 a0 76 5c 3c 75 2f 94 3c a0 ed 4d 3c 6c 06 26 3c
       0.013456017 0.018089036 0.012568861 0.010133367
000020 46 70 05 ba f7 3e c8 3c 62 6d 38 3c 89 8b b3 3c
       -0.00050902774 0.024444086 0.011256548 0.021917121
000030 b4 9e 63 3c 76 5c ab 3c 27 85 54 3c ef 63 25 3c
       0.013892818 0.020918112 0.012971199 0.010094627
000040 63 69 83 3c 12 16 5e 3c 24 73 fd 3b d7 4d 97 3c
       0.016041463 0.013555067 0.007734673 0.018469734
000050 2b cf 89 3c 45 4b 9b 3c 27 15 b1 3b f8 69 48 3c
       0.016822418 0.01895679 0.005404133 0.012232296
000060 2d f7 9d 3b 48 eb 34 3c 6e 74 89 3c 28 21 c4 3c
       0.0048207254 0.011042424 0.01677915 0.023941591
000070 e7 ed bc 3c 55 6f 6e 3c 2a 61 8c 3c 89 a9 77 3c
       0.02306266 0.014552911 0.017136175 0.015116104
000080 98 f3 9b 3b e8 0b 76 3c 00 c7 44 3c ef a3 5c 3b
       0.0047592632 0.015017487 0.012010336 0.0033667048
000090 e1 f9 83 3c 3e d9 ad 3c d9 69 8f 3c 65 bb 44 3c
       0.016110362 0.021221753 0.017506527 0.012007569
0000a0 f2 da 9d 35 98 6f 7a 3c 2a 3d 36 3c 95 b6 9a 3b
       1.1761133e-06 0.015285395 0.011122981 0.0047214725
0000b0 61 ac 63 3c 8b af 96 3b 5c eb 81 3c 0d 93 aa 3c
       0.013896079 0.004598563 0.015859298 0.020822072
0000c0 a5 9d 89 3c 31 73 ba 3c d0 60 78 3c 32 96 8a 3c
       0.016798804 0.022760006 0.015159801 0.016917322
0000d0 97 5d 8a 3c e1 cf 85 3c c8 46 d3 3b 26 89 99 ba
       0.01689033 0.016334476 0.0064476468 -0.0011713847
0000e0 f5 09 35 b8 71 a5 9e 3c 4b c3 56 3c aa 8b 8f 3c
       -4.3163036e-05 0.019365998 0.013108085 0.017522652
0000f0 e8 9e b7 3c 2c dd 54 3c 8b b8 a3 3c 71 ff 95 3c
       0.02241464 0.012992185 0.019985458 0.01831028

f_bn3.running_mean f4 [64]
000000 1d d8 b1 3a 46 df 5c 3b 37 45 30 33 32 f5 67 3b
       0.0013568435 0.0033702417 4.1041144e-08 0.003539395
000010 98 e2 34 3a a6 04 5c 3b c6 a3 b8 3a c2 95 e5 3a
       0.000690022 0.0033572107 0.0014086894 0.0017515945
000020 e1 2d c3 b6 e3 ae 79 3b 70 c9 d2 3a 48 4a 84 3b
       -5.816794e-06 0.0038098625 0.0016081762 0.0040371753
000030 40 fa 03 3b 2c ab 3d 3b 31 98 37 3b 2d 6c d0 3a
       0.0020138174 0.0028941138 0.0028014297 0.001590138
000040 1a 31 38 3b b1 ec 13 3b b0 73 f0 39 cf 7c 58 3b
       0.0028105439 0.00225715 0.0004586256 0.0033033376
000050 6b 23 27 3b 92 44 85 3b 07 4f 03 3a cc f0 03 3b
       0.0025503288 0.004067012 0.00050090294 0.002013254
000060 9e 16 8f 3b 8c af 05 3b 34 59 48 3b 80 f7 82 3b
       0.00436671 0.0020398824 0.0030570747 0.0039967895
000070 32 d1 09 3b 8d 19 1e 3b b7 09 54 3b 22 da 4c 3b
       0.002102923 0.0024124116 0.0032354423 0.0031257947
000080 1e 15 0f 3b bf 0e 2f 3b 67 db 14 3b 76 6b 48 3b
       0.0021832655 0.002671167 0.0022713782 0.003058163
000090 b7 f7 35 3b 35 5e 5e 3b a8 a1 3f 3b 82 14 6e 39
       0.0027766058 0.0033930663 0.0029240642 0.00022705088
0000a0 29 e8 13 36 b1 43 46 3b 6c 02 e6 38 f9 7e c4 b9
       2.2039842e-06 0.003025275 0.00010967706 -0.00037478635
0000b0 b1 18 fe 3a 71 30 5a 3b 4b 2b ec 3a fc 68 33 3b
       0.0019386021 0.0033293033 0.0018018273 0.0027375808
0000c0 56 4b 53 3b ea 88 8a 3b 0d 10 4d 3b bf dc 58 3b
       0.0032240949 0.004227747 0.0031290085 0.003309056
0000d0 c7 eb 46 3b d2 83 57 3b 55 af 90 3a 9a 13 d9 3b
       0.0030352937 0.0032884968 0.0011038581 0.006624651
0000e0 b8 1d 12 b5 52 96 55 3b f2 ee 1a 3b f0 23 4d 3b
       -5.4432485e-07 0.0032590819 0.0023640958 0.0031301938
0000f0 47 b1 62 3b 04 6f 12 3b 93 e8 9a 3b 6c 84 09 3b
       0.0034590529 0.0022344003 0.004727432 0.002098347

f_bn3.running_var f4 [64]
000000 92 10 96 39 a4 15 27 39 f6 91 5f 29 5d ff 24 39
       0.00028622575 0.00015934423 4.9642548e-14 0.00015735389
000010 1e 0b 63 39 a5 b8 34 39 98 f5 99 39 a1 fa a5 39
       0.00021652548 0.00017234923 0.00029365416 0.00031657986
000020 19 be de 2f c7 04 77 39 93 c2 0d 39 85 da 7a 39
       4.0516637e-10 0.00023557535 0.00013519292 0.00023923263
000030 2b 2d b4 38 0d 9e 36 39 78 29 3c 39 d3 4f 46 39
       8.591482e-05 0.00017415751 0.00017944525 0.00018912488
000040 ae 1f 13 39 a7 5a 9e 38 44 0c bd 39 36 55 40 39
       0.00014030814 7.5509124e-05 0.00036058028 0.0001834229
000050 68 34 21 39 5c e3 3d 39 62 81 86 39 f9 7d b8 38
       0.0001537368 0.00018109143 0.0002565487 8.797268e-05
000060 dc 51 36 39 78 98 a6 39 41 02 07 39 10 bf 72 39
       0.00017387368 0.00031775585 0.00012875443 0.00023150095
000070 5d 84 23 39 5e a9 2b 39 0e 6d 4f 39 ce 67 e6 38
       0.000155942 0.00016370925 0.00019781684 0.0001098659
000080 96 32 40 39 7c c0 0f 39 97 ee e1 38 5e dc 0b 39
       0.00018329392 0.00013709249 0.00010773277 0.00013338166
000090 e6 37 ca 38 23 ca fa 38 cd ba 22 39 4a e0 3c 39
       9.6425225e-05 0.0001195858 0.00015519113 0.00018012631
0000a0 1e 86 b4 2e 8e e7 0c 39 fd a0 82 39 c5 46 a8 39
       8.209276e-11 0.00013437701 0.00024915478 0.00032096184
0000b0 55 83 2d 39 bd 8f 64 39 21 86 5e 39 7c 1b 3d 39
       0.0001654749 0.00021797321 0.00021221537 0.00018034683
0000c0 f7 77 fb 38 f1 c7 46 39 03 d3 18 39 36 42 3a 39
       0.00011990958 0.00018957235 0.00014574458 0.00017763008
0000d0 b3 8f 48 39 3a 90 1a 39 ad d6 f0 38 f7 08 47 39
       0.00019127018 0.00014740313 0.00011484078 0.00018981459
0000e0 42 1f 59 2c 9a 12 3c 39 b0 f0 d8 38 ca 14 26 39
       3.0854906e-12 0.00017936007 0.00010344514 0.00015838738
0000f0 83 5a 3c 39 f0 c0 7a 39 51 81 3d 39 97 7c 33 39
       0.00017962795 0.00023913733 0.00018072619 0.00017117184
