code/model/seed_920/QDANN_P_corn_2018.pth (torch, 34664 bytes, 17 tensors)

r_bn0.weight f4 [32]
0	0x39cd8588	0.00039200136
1	0x3d7d6e5e	0.061872832
2	0x3a974b23	0.0011542778
3	0x3a013df9	0.0004930194
4	0x3d3420e8	0.043976694
5	0x3bb74bc7	0.00559375
6	0x3a4d4718	0.0007830723
7	0xb7459301	-1.1776342e-05
8	0x3aa1d6ad	0.0012347304
9	0x3c7812e4	0.015141223
10	0x39f659be	0.0004698764
11	0x3ce2a504	0.027666576
12	0x3a1ae580	0.0005908832
13	0x3b2b57d0	0.002614487
14	0x3962720a	0.00021595522
15	0x392e7162	0.00016636171
16	0x3942861f	0.00018551246
17	0x3b9fd16a	0.004877259
18	0x3e34f392	0.1767104
19	0x3d0ffad0	0.035151303
20	0x38979365	7.2276955e-05
21	0x39142ed4	0.00014131825
22	0x39ae50c3	0.00033248038
23	0x3920ec57	0.00015346833
24	0x39ab7830	0.00032705208
25	0x38efb8e3	0.00011430846
26	0x3c277875	0.01022159
27	0x3c306bfa	0.010767931
28	0x3b3baa8e	0.0028635594
29	0x3bc02dca	0.0058648335
30	0x3a3c2c9e	0.00071782793
31	0xb73a7f9c	-1.1116175e-05

r_bn0.bias f4 [32]
0	0x303e4055	6.921302e-10
1	0x31ef07c2	6.9566974e-09
2	0xb113dbdf	-2.1516298e-09
3	0x3066d704	8.397907e-10
4	0x332a529c	3.9656342e-08
5	0x311b1558	2.2567601e-09
6	0xb0bb1260	-1.3611263e-09
7	0x2e9d876e	7.1635906e-11
8	0x30c208b9	1.4117837e-09
9	0x32b9b995	2.1621227e-08
10	0x2f4611db	1.8014339e-10
11	0x32979d64	1.7650287e-08
12	0xaf220eab	-1.4739025e-10
13	0xb100ad81	-1.8725077e-09
14	0x2d644327	1.297521e-11
15	0xaf1c6cea	-1.4226811e-10
16	0xaff1911d	-4.3940754e-10
17	0x3107a83d	1.9740718e-09
18	0xb4b14788	-3.3020865e-07
19	0xb2d5062c	-2.479927e-08
20	0x2eab2db5	7.784299e-11
21	0xaf30d4bc	-1.6082685e-10
22	0x2fdee04c	4.0540937e-10
23	0x2ea5b1fc	7.534948e-11
24	0xad596662	-1.23577554e-11
25	0x308df534	1.0328791e-09
26	0xb2d34749	-2.459605e-08
27	0xb280772c	-1.4955354e-08
28	0x3114f4c3	2.1675965e-09
29	0xb0888080	-9.931824e-10
30	0x2fa59cde	3.0124786e-10
31	0xaf06d13b	-1.2261563e-10

r_bn0.running_mean f4 [32]
0	0x32013b95	7.522336e-09
1	0xbba42ef6	-0.005010481
2	0xb9c951d0	-0.00038398663
3	0xb80dea79	-3.383539e-05
4	0xbb62d0ea	-0.0034609386
5	0xba2710e7	-0.0006373063
6	0xb8ddf5c8	-0.000105838815
7	0x35dfb1fe	1.6666597e-06
8	0x392a3113	0.00016230745
9	0x3b6ed966	0.0036445498
10	0xb7220ac7	-9.658462e-06
11	0x3b1ef0ee	0.0024252492
12	0xb873698e	-5.803402e-05
13	0x39e824f7	0.0004427803
14	0x36d0cdec	6.2228555e-06
15	0x37a7dc17	2.0010439e-05
16	0x34ccb747	3.8131313e-07
17	0xba027303	-0.00049762445
18	0xbc83d9a4	-0.01609499
19	0x3a96a8d9	0.0011494412
20	0xb52f1b33	-6.523216e-07
21	0x376815dc	1.3833367e-05
22	0x36f5b917	7.3231163e-06
23	0xb5a468be	-1.2249436e-06
24	0xb804f50c	-3.169947e-05
25	0x36b06c3a	5.257808e-06
26	0x3a40e330	0.00073580723
27	0x3a437839	0.0007456574
28	0x39c6e985	0.00037939489
29	0x3aa8efb8	0.0012888825
30	0xb89bdea5	-7.432447e-05
31	0x3493c78a	2.7526067e-07

r_bn0.running_var f4 [32]
0	0x352cb470	6.4337564e-07
1	0x3b0b76e5	0.0021280583
2	0x3524d654	6.140665e-07
3	0x3437d107	1.7119247e-07
4	0x3ae2250c	0.0017253472
5	0x37d43195	2.5295458e-05
6	0x35c2ea79	1.4522367e-06
7	0x2d8e6876	1.6189921e-11
8	0x35f17825	1.7990866e-06
9	0x38fa0505	0.00011921864
10	0x33692e85	5.429185e-08
11	0x3a06a2f6	0.00051359774
12	0x33865549	6.2553745e-08
13	0x360dd4ef	2.113458e-06
14	0x3025809a	6.0209404e-10
15	0x31dc73a7	6.415991e-09
16	0x32034da4	7.642857e-09
17	0x378c9ee8	1.6763297e-05
18	0x3c5ed3ad	0.013600272
19	0x3a7360ac	0.00092841196
20	0x2f6eb09f	2.1708722e-10
21	0x30df6bd6	1.6256034e-09
22	0x3331a425	4.1360313e-08
23	0x325859a6	1.25932385e-08
24	0x332d2213	4.031069e-08
25	0x31189bb7	2.2207425e-09
26	0x38bd6831	9.0316295e-05
27	0x38b8d095	8.812655e-05
28	0x370e2605	8.472712e-06
29	0x37befb1a	2.2766693e-05
30	0x34c1761a	3.6034982e-07
31	0x2df96768	2.8353944e-11

r_fc1.weight f4 [64, 32]
0	0xb79b6ca5	-1.8528031e-05
1	0xbb8d7337	-0.004316713
2	0x36ac477a	5.1343204e-06
3	0xb84747d5	-4.7512196e-05
4	0xbbfb173c	-0.007662682
5	0xb9aee715	-0.00033360036
6	0x39d7f5a7	0.0004119102
7	0x36a21e04	4.8314705e-06
8	0x381d51f4	3.750804e-05
9	0x3a6526d4	0.00087414426
10	0x37f378e3	2.902415e-05
11	0x3aaa4e98	0.0012993393
12	0xb6a5c67f	-4.940491e-06
13	0xb9a81852	-0.00032061577
14	0xb62c5e82	-2.5685008e-06
15	0x367150fe	3.5958942e-06
16	0x3810be9e	3.45098e-05
17	0xb9fac777	-0.0004783233
18	0xbcc68d36	-0.024237256
19	0x3b978ec5	0.0046251738
20	0xb5661341	-8.5709695e-07
21	0x375ef570	1.32893765e-05
22	0xb8c07d9f	-9.178672e-05
23	0xb55efeaa	-8.307203e-07
24	0xb5cbef74	-1.5194369e-06
25	0xb684e91c	-3.961044e-06
26	0x3a689116	0.0008871717
27	0x3a391902	0.00070609164
28	0x3976bbde	0.00023530374
29	0x39f2e1ee	0.00046326168
30	0xb79aef30	-1.8469611e-05
31	0x35a97df2	1.2628136e-06
32	0xba0e03ad	-0.0005417418
33	0xbbf32880	-0.0074205995
34	0xb903642c	-0.0001253045
35	0xb813ee35	-3.526938e-05
36	0xbbe4a34d	-0.006977475
37	0xb9f2cf47	-0.0004631227
38	0x397546ff	0.00023391469
39	0x35ca882a	1.5089802e-06
40	0x38f01a6c	0.00011449013
41	0x3b1ddda8	0.0024088416
42	0x37aa6a8b	2.0315192e-05
43	0x3b421c35	0.0029618863
44	0x352dbcc7	6.472223e-07
45	0xb84d973b	-4.9016653e-05
46	0x36378281	2.7345088e-06
47	0x378b0294	1.6571292e-05
48	0x38147a86	3.540006e-05
49	0xba0542b6	-0.0005083488
50	0xbcd1d1d4	-0.02561275
51	0x3bee69af	0.007275782
52	0xb65a5126	-3.2531766e-06
53	0x38031618	3.125341e-05
54	0xb8a5d6d7	-7.90783e-05
55	0x37b4c5c6	2.1549768e-05
56	0xb7b48984	-2.1521708e-05
57	0xb62407f8	-2.4442543e-06
58	0x3a9153f8	0.0011087647
59	0x3aa43599	0.001252818
60	0x3a053956	0.0005082091
61	0xb9a33b0c	-0.00031133776
62	0xb8b1828e	-8.4643354e-05
63	0x36feac76	7.589867e-06
64	0x34180a47	1.4159842e-07
65	0xb70d4199	-8.419528e-06
66	0xb27dfa66	-1.4783472e-08
67	0xb1d1ba24	-6.1038623e-09
68	0xb60124b3	-1.924386e-06
69	0xb3c43e44	-9.138287e-08
70	0xb3f34837	-1.1328705e-07
71	0xaf9bbff0	-2.8330716e-10
72	0x345d0c01	2.0586596e-07
73	0x348052f9	2.3902228e-07
74	0x32c8a180	2.3356506e-08
75	0x35add90d	1.2952675e-06
76	0xb2d60790	-2.4916318e-08
77	0x339367ca	6.8641e-08
78	0x30dd7164	1.6112094e-09
79	0x31321370	2.5913458e-09
80	0xb14c8daf	-2.9766445e-09
81	0xb50757f7	-5.0419425e-07
82	0xb63d1e70	-2.8180912e-06
83	0xb801aa2a	-3.0914474e-05
84	0x33cc939a	9.526339e-08
85	0x2f8fb90c	2.6143032e-10
86	0x2fc5a037	3.594793e-10
87	0x31a5f2de	4.829743e-09
88	0xb3456443	-4.5958824e-08
89	0xb15c784d	-3.2082597e-09
90	0x367dcb5f	3.7818315e-06
91	0xb69cebb4	-4.6766017e-06
92	0x35dedb75	1.6604159e-06
93	0x33a7c968	7.813179e-08
94	0x359f81c6	1.1884192e-06
95	0xaf23794c	-1.4867857e-10
96	0xb8b0092a	-8.394041e-05
97	0xbbead090	-0.007165976
98	0xb8bddec5	-9.053716e-05
99	0x36687a43	3.464186e-06
100	0xbbe40e53	-0.0069597154
101	0xb967f39a	-0.00022120625
102	0x39d2948c	0.00040164997
103	0x354eecce	7.7085576e-07
104	0x37abc166	2.0474847e-05
105	0x39b0e1cb	0.00033737565
106	0xb72e0f24	-1.0374733e-05
107	0x3b060982	0.0020452444
108	0x375a7123	1.3020154e-05
109	0xb9383189	-0.0001756606
110	0xb6ed6651	-7.0750616e-06
111	0xb7262235	-9.9023355e-06
112	0x38246687	3.9196133e-05
113	0xb9d46282	-0.00040509185
114	0xbcd44e0a	-0.025916118
115	0x3bd1a5c7	0.006397936
116	0x37b17130	2.1152751e-05
117	0xb6ce9570	-6.156675e-06
118	0x37866c01	1.6024338e-05
119	0xb73915c9	-1.10319315e-05
120	0xb79817bb	-1.8130862e-05
121	0xb720cff5	-9.585162e-06
122	0x3aa29c54	0.0012406209
123	0x39c5c020	0.00037717912
124	0x3923f1e5	0.00015635004
125	0x394fcae6	0.00019816644
126	0xb9023d47	-0.00012420594
127	0x364f6bc5	3.0908134e-06
128	0x34951fe2	2.777661e-07
129	0xb60b922d	-2.07977e-06
130	0xb4f793c2	-4.6114843e-07
131	0x33f7bfe9	1.1536742e-07
132	0xb5a39306	-1.2187236e-06
133	0x352dba6d	6.471881e-07
134	0xb38f283a	-6.6662736e-08
135	0xae947610	-6.751233e-11
136	0xb553e7fa	-7.8941196e-07
137	0x36dcd8a4	6.581731e-06
138	0xb406f02a	-1.2567094e-07
139	0xb6532c21	-3.1467137e-06
140	0x31af6701	5.1048805e-09
141	0xb5b651d1	-1.3583868e-06
142	0x2fc6f86b	3.6192502e-10
143	0x2fbf105f	3.475433e-10
144	0xb0df65a9	-1.6254279e-09
145	0xb58a5d68	-1.0308986e-06
146	0xb51630fb	-5.595063e-07
147	0xb7b5fa79	-2.1693517e-05
148	0x3127b18d	2.4402624e-09
149	0x3380a2ee	5.990101e-08
150	0x3412757a	1.3640047e-07
151	0xb0bca07d	-1.3724414e-09
152	0x35018980	4.8256334e-07
153	0xb1925dbb	-4.259815e-09
154	0x35df5247	1.6638741e-06
155	0xb351cd15	-4.8848126e-08
156	0x340cdfbc	1.311991e-07
157	0xb6795e3e	-3.7158748e-06
158	0x2f59f4c8	1.9822999e-10
159	0x32641fe3	1.3278597e-08
160	0xb77c5d11	-1.5042039e-05
161	0xbb2a044d	-0.0025942505
162	0xb7e911d3	-2.7784065e-05
163	0xb75fe3dd	-1.3344889e-05
164	0xbb016cc4	-0.0019748667
165	0xb9bfa7d6	-0.00036555406
166	0x3844c29f	4.6911297e-05
167	0x356a384d	8.725372e-07
168	0x387e284e	6.0595856e-05
169	0x3a25ebcd	0.00063293875
170	0x3781e8ec	1.5486461e-05
171	0x3aaba498	0.0013095317
172	0xb73f7c4c	-1.1413427e-05
173	0x391ac2dc	0.00014759175
174	0x355d952d	8.2545995e-07
175	0x35c3ad47	1.4579063e-06
176	0x378844f1	1.6244567e-05
177	0xb9908f63	-0.00027572652
178	0xbbdbec71	-0.0067115356
179	0x3af1ad62	0.0018438513
180	0xb685045e	-3.9642173e-06
181	0x349cadf1	2.9183823e-07
182	0xb72daaee	-1.0351401e-05
183	0x38063f2e	3.200693e-05
184	0xb7229c22	-9.692305e-06
185	0xb569f70e	-8.7158776e-07
186	0x3a110288	0.0005531688
187	0x3a3e80d7	0.00072671234
188	0x392594f9	0.00015791123
189	0x3a08b353	0.00052147097
190	0xb83c4422	-4.4886146e-05
191	0xb4b1b8e7	-3.3103353e-07
192	0x37e26ae3	2.6991072e-05
193	0xbbfcf301	-0.007719398
194	0x38f0280a	0.0001145155
195	0xb845931a	-4.710546e-05
196	0xbbefe47f	-0.00732094
197	0xba0c35d6	-0.00053485984
198	0xb867c66b	-5.5259483e-05
199	0xb67fe2cc	-3.8129974e-06
200	0x38fae55b	0.0001196365
201	0xba65cf4c	-0.00087665464
202	0x387e8c1c	6.0688806e-05
203	0x3b426af1	0.0029665793
204	0xb7f6ea5c	-2.9434617e-05
205	0x39602056	0.00021374351
206	0x35dba40a	1.6364513e-06
207	0x368d9d1c	4.2204174e-06
208	0xb8b04586	-8.405284e-05
209	0x38b5147c	8.634568e-05
210	0xbcdded88	-0.027090803
211	0xb855931e	-5.092017e-05
212	0x351d6718	5.863708e-07
213	0x3613c28c	2.2017948e-06
214	0xb712fb28	-8.760755e-06
215	0x36cd2bde	6.114583e-06
216	0xb75b6416	-1.307672e-05
217	0xb6557a69	-3.1810725e-06
218	0x3a26bee6	0.00063608435
219	0x3a28afe4	0.0006434901
220	0x392b0366	0.00016309097
221	0xb7ac525f	-2.0542355e-05
222	0xb90d20e1	-0.00013459056
223	0x3640094f	2.8615648e-06
224	0xb21afd24	-9.021537e-09
225	0xb2ca1b9c	-2.352845e-08
226	0x35a119d5	1.2002953e-06
227	0xb1453ddd	-2.8702438e-09
228	0xb3a8dc9e	-7.86324e-08
229	0xb3fd2195	-1.1787339e-07
230	0x3429a89d	1.5800693e-07
231	0x30e5d73f	1.672312e-09
232	0x2fff3cf4	4.642754e-10
233	0xb5122d1b	-5.4454875e-07
234	0x3342e540	4.5377647e-08
235	0x333c0024	4.377229e-08
236	0xb1992bf7	-4.4578843e-09
237	0x3505f8d9	4.990848e-07
238	0xa97d91db	-5.6303794e-14
239	0x30d8fe20	1.5788295e-09
240	0x35839257	9.802851e-07
241	0x329a26ed	1.7945661e-08
242	0xb38ca9bf	-6.550135e-08
243	0x373b16e9	1.1151403e-05
244	0xb03598f2	-6.6064765e-10
245	0x3135aaa2	2.643596e-09
246	0xb41dab15	-1.4684004e-07
247	0x32d44edb	2.4715908e-08
248	0xb1839dde	-3.830549e-09
249	0xb2b0dc3a	-2.0589244e-08
250	0xb2f28e76	-2.8237292e-08
251	0x34257fec	1.541336e-07
252	0x3290bad4	1.6848766e-08
253	0x36ecceef	7.0574383e-06
254	0xb387d345	-6.324857e-08
255	0xb09fc550	-1.1624852e-09

r_fc1.bias f4 [64]
0	0xb514a48c	-5.5373744e-07
1	0x33c088f4	8.965608e-08
2	0x00000295	9.26e-43
3	0xb2c0cd7c	-2.2445185e-08
4	0x800001b6	-6.14e-43
5	0xb01a1603	-5.6056154e-10
6	0xb54a5bdc	-7.5384537e-07
7	0x8000022c	-7.79e-43
8	0xb4446ac3	-1.8292762e-07
9	0x0000004d	1.08e-43
10	0xb519842e	-5.718929e-07
11	0xb4943bde	-2.7610707e-07
12	0x340e5c44	1.3258347e-07
13	0xae058a0a	-3.0363302e-11
14	0xb17ec5b4	-3.7074246e-09
15	0xb4bbdcb2	-3.499204e-07
16	0xb5776ac5	-9.217004e-07
17	0x32b24709	2.075423e-08
18	0x34c66ce1	3.6959594e-07
19	0x2ad2665a	3.7374514e-13
20	0xb48aa722	-2.5826108e-07
21	0xb48e7efd	-2.6541957e-07
22	0x34b6de13	3.4061722e-07
23	0xb4d9b02c	-4.0547582e-07
24	0x3320f358	3.7474223e-08
25	0xb0b7fd07	-1.3386917e-09
26	0xb46d2ca6	-2.2088588e-07
27	0x318eed69	4.1597343e-09
28	0x34c0c1d6	3.590382e-07
29	0x00000cbc	4.568e-42
30	0xb543ac0d	-7.289353e-07
31	0xb3695e84	-5.43355e-08
32	0x3534731e	6.7222743e-07
33	0x349b1858	2.8888712e-07
34	0xb3ef6f52	-1.1149554e-07
35	0x33da2ea8	1.0159903e-07
36	0x31b7ebe7	5.35282e-09
37	0x33936501	6.8635934e-08
38	0x349aca13	2.8831764e-07
39	0x154f43b5	4.185673e-26
40	0x34b31a71	3.3360587e-07
41	0x31860b2b	3.901183e-09
42	0x00003d17	2.1915e-41
43	0x358663d4	1.0012832e-06
44	0x00003c66	2.1667e-41
45	0xb536823c	-6.79898e-07
46	0xb4b3b372	-3.3471912e-07
47	0x32262cf0	9.672689e-09
48	0xb57a0c76	-9.315039e-07
49	0x31a800c8	4.8895323e-09
50	0x3507195d	5.032833e-07
51	0x2fff76d6	4.6468668e-10
52	0x00000013	2.7e-44
53	0x32163699	8.743563e-09
54	0x353196f4	6.6157304e-07
55	0xb3d54596	-9.931243e-08
56	0x8000029b	-9.35e-43
57	0x35376e30	6.8333156e-07
58	0xb49d1bf0	-2.9263856e-07
59	0x3341aae6	4.5091745e-08
60	0xb3ab40f9	-7.9746265e-08
61	0x31c1a1c8	5.6354317e-09
62	0xb3a2e4a8	-7.585305e-08
63	0x3481b87a	2.4162347e-07

r_bn1.weight f4 [64]
0	0x3dacf56d	0.08445249
1	0x3daa6855	0.08320681
2	0x3b71c466	0.0036890744
3	0x3da00f25	0.078153886
4	0x3aead1d9	0.0017915323
5	0x3c51a562	0.012795778
6	0x3daaaf35	0.08334199
7	0x3933d911	0.00017151634
8	0x3da43add	0.0801904
9	0x39a907e2	0.00032240065
10	0x3d9b477c	0.07581994
11	0x3df864a1	0.121285684
12	0x3d9ab655	0.07554308
13	0x3b92cb8a	0.00447983
14	0x3d06c91e	0.032906644
15	0x3db6d033	0.089264296
16	0x3de09b79	0.10967154
17	0x3d83887b	0.06422516
18	0x3dc7b2d5	0.097509064
19	0x3b88476e	0.0041589057
20	0x3d9c04ce	0.07618104
21	0x3da3fd6f	0.08007323
22	0x3da1523d	0.07877014
23	0x3d98ba7c	0.07457444
24	0x3e6297df	0.22128247
25	0x3c2b2653	0.010446149
26	0x3d8af255	0.067845024
27	0x3cb36e8c	0.021903299
28	0x3ddb13b2	0.10697116
29	0x3a864837	0.001024491
30	0x3dbb433e	0.09143685
31	0x3dd439a6	0.10362558
32	0x3dac462e	0.08411823
33	0x3dab2231	0.08356131
34	0x3da2920d	0.07938013
35	0x3d90a298	0.07062262
36	0x3d09212d	0.033478905
37	0x3d86cc2d	0.06581912
38	0x3dfcb1d0	0.123386025
39	0x3bcf4838	0.006325748
40	0x3e3e63fd	0.1859283
41	0x3c96c806	0.018405925
42	0x3b5d7ff6	0.0033798194
43	0x3dfe48c7	0.12416225
44	0x3be78d83	0.00706643
45	0x3d9b6509	0.0758763
46	0x3df7d68c	0.121014684
47	0x3d1f1920	0.03884232
48	0x3db2c729	0.08729393
49	0x3d9317ef	0.07182299
50	0x3d98d60d	0.07462702
51	0x3c67321a	0.014111066
52	0x3c87284d	0.01649871
53	0x3ce77a6a	0.028256614
54	0x3da08f4b	0.07839831
55	0x3d8c8b74	0.06862536
56	0x3b5237a4	0.0032076621
57	0x3d975cbf	0.07390737
58	0x3d9a0c44	0.07521871
59	0x3da85d83	0.08220961
60	0xbdb70b3d	-0.089376904
61	0x3d8f1ccd	0.06987915
62	0x3da33647	0.07969337
63	0x3dd7570f	0.10514652

r_bn1.bias f4 [64]
0	0x3d20613d	0.039155234
1	0x3d37271a	0.044715025
2	0xbb2b6f11	-0.002615873
3	0x3d46b8e9	0.048516188
4	0xbb8d1b32	-0.0043062204
5	0xbbdc252c	-0.0067182984
6	0x3d1bdbdd	0.038051475
7	0xb96b860d	-0.00022461284
8	0x3d30a167	0.043122675
9	0xb8c642f1	-9.4538445e-05
10	0x3d3a6dc0	0.045514822
11	0x3c6353e6	0.013874983
12	0x3d5ab87f	0.053398605
13	0xba24139f	-0.0006259027
14	0xbcb94220	-0.022614539
15	0x3d1bb40c	0.038013503
16	0x3c7611bd	0.015018878
17	0xbd3ac361	-0.045596484
18	0x3c5f55fb	0.013631339
19	0xbb9722d5	-0.0046123066
20	0x3d2a6238	0.041597575
21	0x3d1a18dd	0.037621368
22	0x3d38109b	0.04493771
23	0x3d1e80f9	0.038697217
24	0x3d89c0d2	0.06726231
25	0xbb43fac4	-0.0029904107
26	0x3d317887	0.043327834
27	0xbc472544	-0.012154881
28	0x3d81445b	0.06311866
29	0xb987750c	-0.00025836413
30	0x3d29ebb7	0.04148456
31	0x3d53dad2	0.051722355
32	0x3d132cc8	0.03593138
33	0x3d4bb05d	0.04972874
34	0x3d30d14a	0.043168344
35	0x3d1c9947	0.038232114
36	0xbcc33870	-0.023830622
37	0x3d369913	0.044579577
38	0x3c8f021e	0.017457064
39	0xbc4b8eed	-0.012424213
40	0x3d40c597	0.047063436
41	0xbc203987	-0.009779341
42	0xbba94f86	-0.0051669506
43	0x3c836061	0.016037168
44	0xbc3efa55	-0.0116563635
45	0x3d4237fb	0.04741667
46	0x3c7f474e	0.015580965
47	0xbce52222	-0.027970377
48	0x3d3370bf	0.043808695
49	0x3d242e64	0.040083304
50	0x3d4bad64	0.049725905
51	0xbbff427e	-0.007789909
52	0xbc3fa85b	-0.011697854
53	0xbc8c128c	-0.017098688
54	0x3d344ef0	0.044020593
55	0x3d384116	0.044983946
56	0xbbc16041	-0.005901367
57	0x3d3053bc	0.043048605
58	0x3d2ba44f	0.041904744
59	0x3d2cc966	0.042184256
60	0x3d0884d7	0.03332981
61	0x3d3f7e54	0.046751335
62	0x3d1580aa	0.036499657
63	0x3c750eb0	0.014957115

r_bn1.running_mean f4 [64]
0	0xb519dd8b	-5.731933e-07
1	0x33e3e3c1	1.06119394e-07
2	0x2c0969d1	1.952761e-12
3	0xb313bb52	-3.439647e-08
4	0x2b83a3ff	9.353628e-13
5	0x310317e9	1.90766e-09
6	0xb53cc70f	-7.0325126e-07
7	0xaad2f5c8	-3.7474039e-13
8	0xb402a3a2	-1.2166723e-07
9	0x2c703257	3.4133996e-12
10	0xb4e13525	-4.1948184e-07
11	0xb4883614	-2.537132e-07
12	0xb3c39ca8	-9.108891e-08
13	0x301e8c76	5.767967e-10
14	0x3092a2f9	1.0669218e-09
15	0xb4c066ab	-3.5837488e-07
16	0xb54a4589	-7.535205e-07
17	0x3310b129	3.368874e-08
18	0x34b5fc55	3.3897473e-07
19	0x303f3827	6.956519e-10
20	0xb4882ede	-2.5366074e-07
21	0xb417de2d	-1.4143798e-07
22	0x34cff68b	3.8736138e-07
23	0xb4df7bb1	-4.1626984e-07
24	0xb320d8ab	-3.744996e-08
25	0x30335387	6.523852e-10
26	0xb45641ce	-1.9954243e-07
27	0x32241558	9.550909e-09
28	0x34c40ef0	3.6518713e-07
29	0x2e1ca030	3.561257e-11
30	0xb52ba0ec	-6.3936636e-07
31	0xb26b55a7	-1.3698275e-08
32	0x353304eb	6.6689853e-07
33	0x348de2cb	2.642831e-07
34	0xb4043f5b	-1.2316507e-07
35	0x3446d8aa	1.8519009e-07
36	0x323d5fcc	1.102303e-08
37	0xb33879f2	-4.2951747e-08
38	0x342916f2	1.5747699e-07
39	0x2ffb20f3	4.5680046e-10
40	0x35028271	4.861859e-07
41	0x31cfc88d	6.047293e-09
42	0x2fc0c564	3.506485e-10
43	0x3541f4ca	7.225432e-07
44	0x2fdf74b0	4.0646375e-10
45	0xb5358aa1	-6.7629486e-07
46	0xb4c0bb89	-3.5899237e-07
47	0x328ff313	1.6757928e-08
48	0xb55a21a4	-8.126028e-07
49	0xb340bfb1	-4.4877826e-08
50	0x34fe004c	4.7311403e-07
51	0x31499f09	2.933975e-09
52	0x2dc7781b	2.2677018e-11
53	0x32591a09	1.2636982e-08
54	0x35554e60	7.9462734e-07
55	0xb3bd0613	-8.802103e-08
56	0x2bdb7c24	1.5595342e-12
57	0x3528fbb3	6.295115e-07
58	0xb4bdb63d	-3.533659e-07
59	0x34085e0a	1.2700198e-07
60	0xb42b4617	-1.5951115e-07
61	0x337936dd	5.8024728e-08
62	0x32320367	1.0361737e-08
63	0x34accbb5	3.2185713e-07

r_bn1.running_var f4 [64]
0	0x37db6cd4	2.6157511e-05
1	0x38079ebd	3.2334345e-05
2	0x290789ed	3.0095653e-14
3	0x38060b43	3.1958578e-05
4	0x2a846b12	2.3522205e-13
5	0x36246182	2.4494661e-06
6	0x380708d0	3.2194715e-05
7	0x2a561ec1	1.9017688e-13
8	0x381f3720	3.7959893e-05
9	0x2d486e45	1.13931685e-11
10	0x37dcc16d	2.6316115e-05
11	0x3831146b	4.2219104e-05
12	0x379c0c77	1.8602454e-05
13	0x340cc2fc	1.3109451e-07
14	0x37a11f28	1.9207204e-05
15	0x383a84a0	4.4469372e-05
16	0x3847087f	4.745321e-05
17	0x37d0be86	2.4884252e-05
18	0x38762269	5.8683017e-05
19	0x346ca29f	2.2038374e-07
20	0x3817fd48	3.6237092e-05
21	0x382c0588	4.1013147e-05
22	0x3822c928	3.881115e-05
23	0x381f5668	3.7989026e-05
24	0x37a5d7b0	1.976997e-05
25	0x35931197	1.0957473e-06
26	0x38063952	3.2001473e-05
27	0x36de5959	6.626517e-06
28	0x380294ff	3.113318e-05
29	0x2fdc1da7	4.0038836e-10
30	0x38482537	4.7718375e-05
31	0x37d41026	2.5279889e-05
32	0x384bc2c0	4.8580347e-05
33	0x38011513	3.0775624e-05
34	0x38208800	3.8273633e-05
35	0x380e7111	3.396074e-05
36	0x37678197	1.3798845e-05
37	0x3809ba74	3.2836993e-05
38	0x386776ac	5.5185214e-05
39	0x33c570a7	9.194019e-08
40	0x37235ffc	9.737905e-06
41	0x36b770cc	5.4669563e-06
42	0x334a5a0b	4.7113684e-08
43	0x387210e0	5.7713012e-05
44	0x339206bb	6.799879e-08
45	0x380748c0	3.2254262e-05
46	0x3841f108	4.6239264e-05
47	0x378699fd	1.6045751e-05
48	0x381859b4	3.6323167e-05
49	0x38007bdf	3.0632942e-05
50	0x37fc4973	3.0074943e-05
51	0x36211b1d	2.4006652e-06
52	0x2f26d467	1.5173073e-10
53	0x37151c39	8.887663e-06
54	0x381f034a	3.7911617e-05
55	0x37f5b323	2.9289693e-05
56	0x2b863175	9.535e-13
57	0x37ba74e2	2.2227356e-05
58	0x37e37418	2.711457e-05
59	0x3837e02b	4.3839373e-05
60	0x3830aaa1	4.212058e-05
61	0x3804aab3	3.163023e-05
62	0x3814f984	3.551833e-05
63	0x388769fe	6.457044e-05

r_fc2.weight f4 [64, 64]
0	0xbc59260f	-0.013253703
1	0xbca46e0e	-0.02007201
2	0x38124b2e	3.487913e-05
3	0xbcb27271	-0.021783086
4	0xb9287dcb	-0.0001606859
5	0x380405b0	3.147655e-05
6	0xbc9a6453	-0.018846666
7	0x3557a886	8.0338975e-07
8	0xbcf329a3	-0.02968294
9	0x323a5904	1.0846865e-08
10	0xbca283fa	-0.019838322
11	0x3b819f4d	0.0039557577
12	0xbc476b25	-0.012171541
13	0x386fce3e	5.717412e-05
14	0xbb27b600	-0.0025590658
15	0xbcead99d	-0.02866822
16	0x3c30295d	0.010752049
17	0xbbe2116b	-0.006899049
18	0xbc7f7e76	-0.0155941155
19	0x3a16ca38	0.0005752179
20	0xbcb459ca	-0.022015471
21	0x3b231d45	0.0024889272
22	0xbcd74192	-0.026276384
23	0xba67731d	-0.0008829104
24	0xbd15b5ef	-0.03655046
25	0xb97b433b	-0.0002396227
26	0xbb6afc0e	-0.0035855803
27	0x3a249554	0.0006278355
28	0xbc4b9974	-0.012426723
29	0xb85911fc	-5.175358e-05
30	0xbce70269	-0.028199391
31	0xbd4d579e	-0.050132386
32	0xbc74c310	-0.014939085
33	0xbb5680a4	-0.0032730484
34	0xbc6f4e00	-0.014605999
35	0xbc9045fb	-0.017611494
36	0x3a17c9ae	0.00057902455
37	0xbc168afb	-0.009188409
38	0xbbec2f33	-0.007207775
39	0xba8fec02	-0.001098037
40	0x3d0fe8c8	0.035134107
41	0x3a1ae0bc	0.0005908122
42	0x381e926d	3.7806505e-05
43	0x3c8c9eaa	0.0171655
44	0xba4ee11c	-0.000789182
45	0xbc8523fe	-0.016252514
46	0x3be44be4	0.0069670547
47	0xbb308472	-0.0026934412
48	0xbc924f89	-0.017860191
49	0xbc73c4cd	-0.014878464
50	0x3c1eaa0f	0.0096841
51	0x39657a59	0.0002188472
52	0xb977359a	-0.00023575724
53	0xb916f0ad	-0.00014394773
54	0xbc968325	-0.018373081
55	0xbce1c989	-0.02756192
56	0xb84f651c	-4.944681e-05
57	0xbbef0e38	-0.007295396
58	0xbcbf29f6	-0.023335438
59	0xbc9129ea	-0.017720181
60	0xbca160b2	-0.019699428
61	0xbcb7aa84	-0.022420175
62	0xbcfe520c	-0.031044982
63	0x3acfed66	0.0015863597
64	0x39b05dab	0.00033639124
65	0xbc12f22c	-0.008968871
66	0x36a12c1d	4.8033094e-06
67	0xbad6dcb2	-0.0016392677
68	0x386d3567	5.6554938e-05
69	0x3a36dadf	0.00069753634
70	0xbc58023f	-0.013184129
71	0x35023447	4.850485e-07
72	0x3b83ea0e	0.004025704
73	0xaff0290f	-4.368492e-10
74	0xbbd557b0	-0.0065106973
75	0x3d06c46c	0.032902166
76	0xbc3d4fac	-0.01155464
77	0x3927eb7e	0.00016014089
78	0x3b6cbb40	0.0036122352
79	0xbc039059	-0.008030021
80	0x3d3466bb	0.044043284
81	0x3b274e3e	0.0025528814
82	0x3c502999	0.01270523
83	0xb92480cf	-0.00015688244
84	0xbb3ca519	-0.002878493
85	0xbc118cd2	-0.008883672
86	0xbc5f640e	-0.013634695
87	0xbaa1c553	-0.0012342132
88	0x3c010f80	0.007877231
89	0x39f03728	0.00045817462
90	0x3b820208	0.0039675273
91	0x3ac7b952	0.0015237725
92	0xbb146987	-0.0022645907
93	0xb6dbf5bb	-6.5553154e-06
94	0xbb51c216	-0.0032006553
95	0x3c4cffb6	0.012512138
96	0xbc25388c	-0.010084283
97	0xbab52b0b	-0.0013822032
98	0xbb3fc659	-0.0029262512
99	0xbc327267	-0.010891533
100	0x3b44a448	0.0030005146
101	0xbaa92f17	-0.0012907711
102	0x3cf3d804	0.02976609
103	0xb8a05f13	-7.6471035e-05
104	0xbc613954	-0.013746578
105	0x3af3e3ff	0.0018607377
106	0xb8e7f925	-0.00011061345
107	0x3cc09424	0.023508139
108	0xb7bd80e7	-2.259058e-05
109	0xbc285aa1	-0.010275514
110	0x3c3cfb1b	0.011534478
111	0x3b60beab	0.0034293334
112	0x3b3e740f	0.0029060876
113	0x3b26bbbc	0.0025441488
114	0xbbc9fdbe	-0.0061642816
115	0x39ff8c3b	0.0004874187
116	0xb800b9b4	-3.0690528e-05
117	0x3a4696f7	0.0007575596
118	0xbc52afa0	-0.012859255
119	0xbc7dcab2	-0.015490221
120	0x33d93712	1.0114867e-07
121	0xbc30d342	-0.010792555
122	0xbc3bb3e9	-0.011456468
123	0xbc0ac4ff	-0.008469819
124	0xbaf6c42b	-0.0018826773
125	0xbb8b2bc1	-0.004247159
126	0xbc03da52	-0.008047657
127	0x3c8e7b19	0.017392682
128	0xbc2fcc94	-0.010729928
129	0xbbf324ad	-0.0074201436
130	0xb57e500b	-9.473885e-07
131	0xbc8ee89a	-0.017444897
132	0xb3cdd2e3	-9.5844165e-08
133	0xb9ff99ec	-0.0004875207
134	0xbcb80b8d	-0.022466445
135	0xb4938eb4	-2.7484714e-07
136	0xbcce3066	-0.025169563
137	0xaef82fea	-1.12862455e-10
138	0xbbb8f84c	-0.0056448337
139	0x3c88c89e	0.016697224
140	0x3a85e62d	0.0010215692
141	0xb7785b43	-1.48032e-05
142	0x393c4bb9	0.00017957286
143	0xbc49ee67	-0.012324906
144	0x3cb9010b	0.022583505
145	0xbb689f48	-0.003549533
146	0x3c1da775	0.009622444
147	0xb6ef912e	-7.139656e-06
148	0xbc9a233b	-0.018815627
149	0xbcf3e972	-0.029774401
150	0xbc81888a	-0.015812177
151	0xbc24efc3	-0.010066929
152	0x3d31dea2	0.04342521
153	0xb8372615	-4.3666067e-05
154	0xbc3dcdf7	-0.01158475
155	0xb9b37a06	-0.00034232455
156	0xbcbc5ab1	-0.022992464
157	0xb4dd6614	-4.123873e-07
158	0xbc42dfc7	-0.011894173
159	0xbca9d3e9	-0.02073093
160	0xbc306fa3	-0.010768804
161	0xbcada2bd	-0.021195764
162	0xbc99e940	-0.01878798
163	0xbbda3711	-0.0066593965
164	0xba1409a8	-0.0005647191
165	0xbc2a059e	-0.010377316
166	0x3befdc07	0.0073199305
167	0x379da8c4	1.8794446e-05
168	0xb9579c32	-0.00020562185
169	0xb91a0816	-0.00014689597
170	0xb74d550b	-1.2238753e-05
171	0x3c504d30	0.012713715
172	0xb8a683d5	-7.9400525e-05
173	0xbd1a5690	-0.03768021
174	0x3c9c6869	0.019092755
175	0x3a417996	0.00073804834
176	0xbc6e392a	-0.014539996
177	0xbc7fd957	-0.015615783
178	0xbbf17f47	-0.007369909
179	0x37d97e7e	2.5927318e-05
180	0x3713ae46	8.802459e-06
181	0xb8f241ee	-0.000115517396
182	0xbc659845	-0.014013355
183	0xb9a68664	-0.00031762116
184	0xb64f2c38	-3.0871142e-06
185	0xbc2414fd	-0.01001477
186	0xbbb5ab78	-0.0055441223
187	0xbc83c7ef	-0.016086547
188	0xbcd66e4e	-0.026175644
189	0xbca15710	-0.019694835
190	0xbc85baf9	-0.016324507
191	0x3be5a2f2	0.00700795
192	0xbb04065a	-0.0020145387
193	0xbb10f2ec	-0.002211745
194	0xaff66aff	-4.4823165e-10
195	0x3bfcd1df	0.0077154483
196	0x32e16072	2.6237306e-08
197	0xba86ecd3	-0.0010293968
198	0x3bb4a88f	0.005513258
199	0xae8afa85	-6.3200147e-11
200	0x3b081c85	0.0020768952
201	0xa13b9c9c	-6.3565335e-19
202	0x3bddee63	0.0067728027
203	0xbc97bc32	-0.018522356
204	0xba0016cb	-0.0004886209
205	0xb93082cb	-0.00016833392
206	0xbb699fc3	-0.0035648204
207	0x3b39f4d5	0.002837469
208	0xbc6169d8	-0.013758145
209	0xbbac3959	-0.00525586
210	0xbca1100e	-0.019660976
211	0xb7797f20	-1.4871155e-05
212	0x3c1a2433	0.009408045
213	0xba84b043	-0.0010123331
214	0xbbd00f55	-0.006349484
215	0x3b795b8e	0.0038048956
216	0x3bc1d347	0.005915079
217	0xba2e7fde	-0.0006656627
218	0x3be8476b	0.007088592
219	0xbb1d4b91	-0.002400134
220	0xb812359e	-3.4859047e-05
221	0xb33f0116	-4.447164e-08
222	0xbbc8ce74	-0.0061281268
223	0xb9bd97fc	-0.00036162126
224	0x3bad6552	0.0052916193
225	0x3bc943d4	0.006142119
226	0x3b22ef7d	0.0024861984
227	0x3b9bb2c4	0.004751535
228	0xbb8bc604	-0.0042655487
229	0x3bfc9d6f	0.0077091972
230	0xbca780c8	-0.02044715
231	0xb4931894	-2.7398767e-07
232	0x3c3068ba	0.010767156
233	0xbb3f0b75	-0.0029151116
234	0xb5fbc022	-1.8756875e-06
235	0xbc5a909b	-0.013340141
236	0xb6b87183	-5.496842e-06
237	0x3b2e5c7a	0.0026605413
238	0xbce3dd3d	-0.027815456
239	0xbbb795c4	-0.0056025703
240	0x3c1e9a78	0.009680383
241	0x3beff808	0.007323269
242	0x3bcf2078	0.0063210092
243	0xba8991b8	-0.0010495698
244	0xb385e1fc	-6.2344014e-08
245	0xbb1c5437	-0.0023853907
246	0x3bb21f78	0.0054358803
247	0x3be2f5fa	0.0069262953
248	0xb1829baf	-3.801197e-09
249	0x3c075f22	0.0082624275
250	0x3bd9eb48	0.006650362
251	0x3bd40ec1	0.0064714854
252	0x3c2d9461	0.010594458
253	0x3bc085eb	0.0058753393
254	0x3bdc7ace	0.0067285066
255	0xbcb6e621	-0.02232653

r_fc2.bias f4 [64]
0	0xb40a6f37	-1.2892711e-07
1	0xb210a0c4	-8.418457e-09
2	0x33a7386d	7.786807e-08
3	0xb2d6deda	-2.501422e-08
4	0xb41c98e9	-1.458426e-07
5	0xb367821c	-5.3902212e-08
6	0x3397e0c9	7.0723736e-08
7	0x33d0e490	9.72733e-08
8	0xb30917f3	-3.191958e-08
9	0xb4437f99	-1.820721e-07
10	0xb3365160	-4.2449187e-08
11	0xb387dc21	-6.3264686e-08
12	0x34890df6	2.5528396e-07
13	0xb2e425e1	-2.6559919e-08
14	0xb31ac509	-3.603512e-08
15	0xb3355898	-4.2222922e-08
16	0xb26a6588	-1.3643678e-08
17	0xb40b1421	-1.2952707e-07
18	0x31577b62	3.1356753e-09
19	0x338403ee	6.147444e-08
20	0xb38cb06f	-6.551351e-08
21	0xb48d427c	-2.631167e-07
22	0x330024fd	2.9835963e-08
23	0x341524ee	1.3890141e-07
24	0x335d585e	5.153594e-08
25	0xb35aaee8	-5.0916157e-08
26	0xb40229d1	-1.2122406e-07
27	0x3383ae1e	6.1318346e-08
28	0xb36f7e90	-5.576163e-08
29	0x31e1daee	6.5732513e-09
30	0x336bcc30	5.490091e-08
31	0xb3a9dd6b	-7.9099514e-08
32	0x31ac9f68	5.0239812e-09
33	0xb3058fcc	-3.1097258e-08
34	0xb34b0a1f	-4.7273826e-08
35	0x347f148d	2.3756202e-07
36	0x33d45b76	9.888656e-08
37	0x33161967	3.49477e-08
38	0xb3ea12f6	-1.0899923e-07
39	0x3234ef21	1.0531751e-08
40	0xb3c41b3c	-9.131915e-08
41	0xb333cff0	-4.1865803e-08
42	0xb26b4c9d	-1.369622e-08
43	0x346d536e	2.2102697e-07
44	0x3184af42	3.86163e-09
45	0x33fdf3d0	1.182558e-07
46	0xb2a380c5	-1.9034255e-08
47	0x30f0867a	1.7500519e-09
48	0x3266a2de	1.3424794e-08
49	0xb2ee2304	-2.772277e-08
50	0x32bb611a	2.1813822e-08
51	0xb24fd376	-1.20970665e-08
52	0x31a92f26	4.9239075e-09
53	0xb36f28ba	-5.5683564e-08
54	0xb3f68f46	-1.1481329e-07
55	0x329aa9fb	1.8005258e-08
56	0xb353352b	-4.9175622e-08
57	0xb3019e4e	-3.017913e-08
58	0x3359f021	5.0742646e-08
59	0x33b96d95	8.634667e-08
60	0xb3486fbc	-4.666775e-08
61	0x33214890	3.755173e-08
62	0xb4200b8e	-1.4905365e-07
63	0xb2ba4d92	-2.1688525e-08

r_bn2.weight f4 [64]
0	0x3e438f5c	0.19097656
1	0x3d86e50b	0.06586655
2	0x3dfcf35f	0.12351107
3	0xbd3d9861	-0.046287898
4	0x3e56d881	0.20981027
5	0x3d403d45	0.04693343
6	0x3d38e93a	0.045144297
7	0x3d2a152d	0.0415241
8	0x3d7e215f	0.062043544
9	0x3e36188e	0.17782804
10	0xbc890827	-0.01672752
11	0x3d0b1d51	0.033963505
12	0x3e551a59	0.20810832
13	0x3d1abe8c	0.037779376
14	0xbd37b578	-0.044850796
15	0xbc93e76c	-0.018054686
16	0x3d5b0526	0.053471707
17	0x3e5d4a6f	0.21610425
18	0x3d2170ff	0.039414402
19	0x3ec9cd36	0.39414376
20	0x3da60027	0.08105498
21	0x3eb006bb	0.34380135
22	0x3e3b9359	0.18317927
23	0x3e29a156	0.16565451
24	0x3d1d4983	0.038400184
25	0x3d3ba67a	0.04581306
26	0x3d24ef66	0.04026737
27	0x3d08ac73	0.033367585
28	0x3d353642	0.044241197
29	0x3c973fce	0.018463042
30	0x3d305ffe	0.043060295
31	0x3d4b3ba6	0.049617432
32	0xbd3c9097	-0.04603633
33	0x3e8be3c9	0.27322224
34	0x3ce507a1	0.02795774
35	0x3eb26787	0.3484461
36	0x3d74e54d	0.05978899
37	0x3d10bea8	0.035338074
38	0xbd164e8d	-0.036696006
39	0x3d48a570	0.0489859
40	0x3d1b1d42	0.0378697
41	0x3dc223b1	0.09479464
42	0x3d139c6a	0.03603784
43	0x3e09407b	0.13403504
44	0x3d2e7d39	0.04259989
45	0x3e027d2e	0.12743065
46	0x3d30e2af	0.043184932
47	0x3d0e5fdd	0.03475939
48	0x3d26f448	0.04076031
49	0x3d3fa153	0.04678471
50	0x3d39e6da	0.045386173
51	0x3cd00eb2	0.025397632
52	0x3d08d48a	0.033405818
53	0x3d0a931b	0.033831697
54	0xbd034630	-0.032049358
55	0x3d6a5d6a	0.057217993
56	0x3cc37fc2	0.02386463
57	0x3d336605	0.043798465
58	0x3d1c4e18	0.038160414
59	0x3d003f6a	0.031310476
60	0xbd117877	-0.035515275
61	0x3e73678a	0.23769966
62	0x3e90f005	0.2830812
63	0xbd15432f	-0.036441024

r_bn2.bias f4 [64]
0	0x3ecfbe71	0.40574983
1	0x3ee3a574	0.44462168
2	0x3edf0c4f	0.43564078
3	0x3ee145b6	0.43998498
4	0x3ecea3bb	0.4035929
5	0x3ee3dd0e	0.4450459
6	0x3eecb2f1	0.4623027
7	0x3edb1f4c	0.42797315
8	0x3ee5a5b6	0.4485299
9	0x3ed2f7d2	0.41204697
10	0x3ede3ade	0.43404287
11	0x3ee707b7	0.45123073
12	0x3ecb6bcd	0.39730683
13	0x3edce04b	0.43139872
14	0x3ee2d847	0.44305632
15	0x3ee0c9bb	0.43903908
16	0x3ee60410	0.44924974
17	0x3ec6b867	0.38812563
18	0x3edee21a	0.43531877
19	0x3e97a1de	0.29615682
20	0x3ee188cb	0.44049677
21	0x3ea903aa	0.33010608
22	0x3ecf9f44	0.40551198
23	0x3ed64db5	0.4185616
24	0x3ee0d3a5	0.43911472
25	0x3edf4fb1	0.43615487
26	0x3edf43c8	0.436064
27	0x3eee5813	0.4655157
28	0x3ee71423	0.4513255
29	0x3ee3e699	0.4451187
30	0x3eeb81c9	0.45997456
31	0x3ee2397d	0.44184485
32	0x3edc6310	0.4304433
33	0x3ebebbca	0.37252647
34	0x3ee0a890	0.43878603
35	0x3ea940a8	0.3305714
36	0x3ee6055d	0.44925967
37	0x3ee118a4	0.43964112
38	0x3ee1d3a8	0.44106793
39	0x3ee49881	0.446476
40	0x3edf0f32	0.4356628
41	0x3ee3c5d9	0.44486883
42	0x3edb714d	0.4285988
43	0x3ed92525	0.42411152
44	0x3ee1f41d	0.44131556
45	0x3ed5c1a0	0.41749287
46	0x3edf2a98	0.43587184
47	0x3ee1a2e9	0.44069603
48	0x3ee24b55	0.441981
49	0x3ee5ec6a	0.44906932
50	0x3ee5ecb9	0.44907168
51	0x3eded6ec	0.43523347
52	0x3ee05dc0	0.43821526
53	0x3ee448b8	0.4458673
54	0x3ee20a8d	0.44148675
55	0x3ee9930f	0.4562001
56	0x3edf24af	0.43582675
57	0x3ee61cc7	0.4494383
58	0x3edd57fd	0.43231192
59	0x3ee1c6ed	0.4409708
60	0x3edcbe7f	0.43114087
61	0x3ec80f0b	0.39073977
62	0x3ebd35bd	0.36955062
63	0x3edf6e0f	0.43638656

r_bn2.running_mean f4 [64]
0	0xbcfce716	-0.03087191
1	0xbb003e53	-0.0019568398
2	0xbc92b502	-0.017908577
3	0x3b2fea25	0.0026842442
4	0xbcfb9f77	-0.030715687
5	0xba43ff7d	-0.00074767304
6	0xbb2a3a47	-0.0025974677
7	0xb9ed1aed	-0.00045224224
8	0xb842436f	-4.6316007e-05
9	0xbcdf1f5a	-0.02723663
10	0x3b426adc	0.0029665744
11	0x3b330246	0.0027314587
12	0xbcf516e4	-0.029918142
13	0x3a9aa8bb	0.0011799553
14	0x3a6cf356	0.00090389454
15	0x3a4b6ace	0.00077597506
16	0x3b474b4f	0.0030409878
17	0xbd08913d	-0.033341635
18	0x39a0b941	0.00030655603
19	0xbd26e9d0	-0.040750325
20	0xbc0b8474	-0.008515466
21	0xbd1fb5a7	-0.038991597
22	0xbce6d1c9	-0.028176205
23	0xbce5aa24	-0.028035231
24	0xba5be654	-0.00083885086
25	0x38b514d0	8.634629e-05
26	0xb99b433d	-0.00029614
27	0x3b2a3cb1	0.0025976116
28	0xbada5aed	-0.0016659178
29	0xba660b4a	-0.0008775486
30	0x3a5c3215	0.0008399797
31	0xbbb4d009	-0.005517964
32	0xbaf2aefb	-0.0018515283
33	0xbd0e5b56	-0.034755073
34	0xbadb7ebb	-0.0016746143
35	0xbd279156	-0.040910088
36	0x3a12d1ef	0.00056007406
37	0xba8b88fe	-0.0010645685
38	0x3b4dd2fa	0.003140627
39	0x3a112569	0.00055368856
40	0xbb9f19af	-0.0048553566
41	0xbc2d33d8	-0.010571443
42	0x3b614f26	0.0034379452
43	0xbcce9593	-0.025217807
44	0x3a99a6f7	0.0011722733
45	0xbca5979a	-0.02021389
46	0xbac33f07	-0.0014896103
47	0xbabafa42	-0.0014265256
48	0x3b307b50	0.0026928969
49	0x3acbaf6a	0.0015539948
50	0x3b871c6c	0.004123261
51	0x3b2b1eb8	0.002611084
52	0x3a22d4ad	0.0006211501
53	0xbb703e81	-0.003665835
54	0x38692b4f	5.5591863e-05
55	0x3a3127a7	0.0006757923
56	0x3a7b4852	0.00095856667
57	0x3af5d358	0.0018755002
58	0x3b0487e8	0.0020222608
59	0x3a2d7371	0.00066166284
60	0x3ba539ab	0.005042275
61	0xbd0bb12d	-0.034104515
62	0xbd173198	-0.03691253
63	0x3abe2b3f	0.0014508738

r_bn2.running_var f4 [64]
0	0x3aa3d895	0.001250046
1	0x39c30cef	0.00037202935
2	0x3a387a81	0.00070372975
3	0x39875c62	0.00025818037
4	0x3a82909f	0.0009961313
5	0x397f5a2f	0.00024352291
6	0x395319f8	0.00020132202
7	0x398477ca	0.00025266252
8	0x39aaf0d3	0.00032604355
9	0x3a8364d8	0.0010024561
10	0x38a6684f	7.934926e-05
11	0x3920f3fd	0.00015349682
12	0x3a55b759	0.0008152626
13	0x39174bcd	0.0001442872
14	0x3958fa2e	0.00020692564
15	0x387e3254	6.060519e-05
16	0x398eedd6	0.00027261552
17	0x3a9b3ac0	0.001184307
18	0x3909e297	0.0001314975
19	0x3aadf962	0.0013273174
20	0x39f35a67	0.00046415927
21	0x3aa66790	0.0012695659
22	0x3a94727f	0.0011325626
23	0x3a530068	0.0008049072
24	0x391555ec	0.00014241756
25	0x398a279e	0.00026350928
26	0x3926011a	0.00015831404
27	0x38c9a3a5	9.614908e-05
28	0x3970f798	0.0002298042
29	0x388a3591	6.59033e-05
30	0x393cb072	0.00017994808
31	0x397fff3c	0.00024413777
32	0x3983d7f9	0.0002514718
33	0x3a86e678	0.0010292074
34	0x390ef72f	0.00013634258
35	0x3ac096a1	0.0014693328
36	0x398f439a	0.00027325453
37	0x392affa4	0.00016307697
38	0x391812dd	0.00014502877
39	0x392fae1c	0.00016754161
40	0x392d23e9	0.00016511943
41	0x3a3701e1	0.0006981176
42	0x39252242	0.00015748388
43	0x3a3ef14c	0.0007283881
44	0x39501752	0.00019845113
45	0x3a3d4f8d	0.0007221632
46	0x39765e67	0.00023495556
47	0x38ba476d	8.882475e-05
48	0x3924853a	0.0001568989
49	0x39702618	0.00022902375
50	0x3973177a	0.00023183032
51	0x38a404ab	7.820999e-05
52	0x391b3cf7	0.00014804663
53	0x39414c40	0.0001843432
54	0x38dee060	0.00010627578
55	0x39901e84	0.00027488556
56	0x38dc4667	0.00010503531
57	0x3933701a	0.00017112531
58	0x3910e99b	0.00013819935
59	0x38cc1bdb	9.7326665e-05
60	0x3974a700	0.00023331866
61	0x3a85917d	0.0010190454
62	0x3a953ed2	0.001138652
63	0x390dc3f0	0.000135198

r_fc3.weight f4 [1, 64]
0	0x3eb7313a	0.35779744
1	0x3ebd54aa	0.36978656
2	0x3eb6a2a0	0.35670948
3	0x3ec40d35	0.38291326
4	0x3eb7afc4	0.35876286
5	0x3eb48e84	0.3526498
6	0x3eb9a182	0.36256033
7	0x3ebe4365	0.37160793
8	0x3eb80a0f	0.35945174
9	0x3ebb61a9	0.36597946
10	0x3ec0dc8f	0.37668273
11	0x3ebbdd5b	0.36692318
12	0x3eb3a196	0.35084218
13	0x3ec29280	0.38002396
14	0x3ec44043	0.38330278
15	0x3ec1c002	0.37841803
16	0x3eb73a8e	0.3578686
17	0x3eb8ad32	0.36069638
18	0x3ec01165	0.3751327
19	0x3ebd8d8c	0.37022054
20	0x3eb7b938	0.35883498
21	0x3ec20633	0.37895355
22	0x3eb94bb7	0.36190578
23	0x3eb6989e	0.35663313
24	0x3ebfb716	0.3744437
25	0x3ec19012	0.3780523
26	0x3ec1046d	0.3769869
27	0x3eb96eb5	0.36217275
28	0x3eba677d	0.3640708
29	0x3ec00e33	0.37510833
30	0x3ebd1093	0.36926708
31	0x3eba3082	0.36365134
32	0x3ec1f27d	0.37880316
33	0x3eb85e01	0.3600922
34	0x3ec51779	0.3849447
35	0x3ebecc86	0.37265414
36	0x3ebf5017	0.3736579
37	0x3ec63fbf	0.3872051
38	0x3ebe5842	0.3717671
39	0x3eb87448	0.36026216
40	0x3ec149ce	0.3775162
41	0x3eb7a191	0.35865453
42	0x3ec2734f	0.37978598
43	0x3eb990a4	0.36243165
44	0x3eb827a1	0.35967734
45	0x3eb4d13b	0.3531588
46	0x3ec26807	0.37969992
47	0x3ec05254	0.3756281
48	0x3ec10395	0.37698045
49	0x3ec4ad6b	0.38413557
50	0x3ebb0823	0.36529645
51	0x3ebec1e5	0.37257305
52	0x3ebf4ea5	0.3736469
53	0x3eb9589b	0.36200413
54	0x3ebd23a5	0.36941257
55	0x3eb92e78	0.36168265
56	0x3ec112d3	0.37709674
57	0x3eba135c	0.36342895
58	0x3ec08920	0.37604618
59	0x3ec4cfc7	0.38439772
60	0x3ec24dd7	0.37950012
61	0x3ebaa2a5	0.36452213
62	0x3ebfdb14	0.3747183
63	0x3ebc28d3	0.36749896
