code/model/seed_922/QDANN_E_corn_2018.pth (torch, 81090 bytes, 30 tensors)

fc_1.weight f4 [64, 27]
0	0xb5280080	-6.2585605e-07
1	0x322bc08c	9.99729e-09
2	0xb4d6c219	-4.000183e-07
3	0xb1168a34	-2.1906432e-09
4	0x34aac7c3	3.1810313e-07
5	0x300e50fd	5.177439e-10
6	0x327811d7	1.4439556e-08
7	0x314aca91	2.9510014e-09
8	0xb1bd9d45	-5.5185034e-09
9	0xb2982c4b	-1.7715271e-08
10	0xb4dcfe7c	-4.1163355e-07
11	0xb2a8055e	-1.9560215e-08
12	0x31080ba4	1.9797222e-09
13	0x317c293d	3.6694268e-09
14	0x322731fe	9.732046e-09
15	0x32b5df8d	2.1172832e-08
16	0x318d72db	4.1166976e-09
17	0xb2a38fc1	-1.904107e-08
18	0x332238ec	3.7770334e-08
19	0x30a99635	1.233906e-09
20	0x32046e56	7.708499e-09
21	0x2d87e543	1.5449536e-11
22	0xb26f0827	-1.3913485e-08
23	0x334c959b	4.7633517e-08
24	0x331e0e60	3.6800316e-08
25	0x332b2fcc	3.985751e-08
26	0x3385650f	6.2116776e-08
27	0xbc3b314f	-0.01142533
28	0x3d016e01	0.03159905
29	0xbca7d9fa	-0.020489682
30	0xbd45380a	-0.048149146
31	0x3c84fe4f	0.016234545
32	0xbcad28d3	-0.02113763
33	0x3cb1e175	0.021713952
34	0xbd84641c	-0.06464407
35	0x3bc93b04	0.0061410684
36	0x3d0fffff	0.035156246
37	0x3a755867	0.0009359181
38	0x3b06c711	0.002056543
39	0xbd80d275	-0.062901415
40	0xbd105757	-0.035239544
41	0x3b526486	0.0032103374
42	0x3c178f40	0.009250462
43	0x3c0040a4	0.0078279115
44	0xbca448cd	-0.020054245
45	0xbd26d256	-0.040727936
46	0x3c92dcff	0.017927645
47	0x3d1ad515	0.037800867
48	0xbc25be9e	-0.010116247
49	0x3cfa1586	0.030527841
50	0xbc712652	-0.014718609
51	0x3c8b8419	0.017030763
52	0xbc5afbdd	-0.013365713
53	0x3cd7bd3b	0.02633535
54	0xbd95f01f	-0.0732119
55	0x3da84022	0.08215357
56	0xbd227735	-0.039664466
57	0xbc5ce114	-0.013481397
58	0x3d61aeb7	0.05509826
59	0xbd995356	-0.07486598
60	0x3ae4e1bf	0.0017462297
61	0xbc96f70f	-0.018428354
62	0x3c255703	0.010091546
63	0x3c2e75b2	0.010648178
64	0xbd1dcf09	-0.038527522
65	0xbcc2a985	-0.023762474
66	0x3cf5422c	0.02993878
67	0xbc3ae317	-0.0114066815
68	0x3c226314	0.009911317
69	0x3cfa65af	0.030566065
70	0x3adf9452	0.0017057753
71	0xbbbdbb88	-0.0057901777
72	0x3c6cd424	0.014454875
73	0x3d22662c	0.03964822
74	0x3c8beb03	0.017079836
75	0xbcbc1c83	-0.022962814
76	0x3ac019d9	0.0014656141
77	0xbcccf006	-0.025016796
78	0x3c7679c7	0.015043682
79	0xbc63b702	-0.013898613
80	0x3a2965ca	0.0006462006
81	0xbcd958d1	-0.026531609
82	0x3d9f7f0c	0.07787904
83	0xbd74b1bd	-0.059739817
84	0xbb6c89ca	-0.003609287
85	0x3cde7486	0.027155172
86	0xbdc4d180	-0.096102715
87	0x3d058d1c	0.032605276
88	0x3cc59648	0.024119511
89	0xbca018b4	-0.01954303
90	0x3c37418f	0.011185064
91	0xbd33aba5	-0.043864865
92	0x3bd636db	0.006537301
93	0x3c7eefc4	0.015560094
94	0xbd27560a	-0.040853538
95	0x3adbc2cd	0.0016766429
96	0xbc993380	-0.018701315
97	0x3c7e8230	0.015533969
98	0x3bf6b872	0.007529312
99	0xbb417231	-0.0029517526
100	0x3cd0e63e	0.025500413
101	0x3c241a9e	0.010016112
102	0xbc90d1db	-0.017678192
103	0x3d323c6d	0.043514658
104	0xbb6521e9	-0.003496284
105	0x3d103334	0.03520508
106	0x3cfd6f85	0.030936966
107	0xbd3fa66e	-0.04678958
108	0xbd624dce	-0.05524998
109	0x3d550337	0.05200502
110	0xbd4a6d78	-0.049420804
111	0x3cf6986f	0.030101983
112	0x3d43d419	0.047809694
113	0xbd61cd2f	-0.05512732
114	0xb9b0b0ea	-0.00033701147
115	0x3c5d5c7d	0.01351082
116	0xbd341381	-0.043963913
117	0xbcc0f337	-0.023553474
118	0xbd428465	-0.047489543
119	0xba752578	-0.00093515916
120	0x3ab9f956	0.0014188688
121	0xbb5dcaee	-0.003384288
122	0x3cc37cba	0.023863185
123	0xbcd5adc4	-0.026083834
124	0xbd05dcb3	-0.03268118
125	0x3cedc7eb	0.029025992
126	0x3b84ac8a	0.0040488886
127	0xbd014d34	-0.031567767
128	0x3cbe3594	0.023218907
129	0xbbb3f72d	-0.005492112
130	0x3cd6261d	0.02614122
131	0x3d1169b4	0.035501197
132	0xbb7ee323	-0.0038892708
133	0xbcb8dd55	-0.022566477
134	0x3d713eea	0.05889789
135	0xbcae0ff4	-0.021247841
136	0xbb2af042	-0.0026083146
137	0xbc67b913	-0.014143246
138	0x3c419446	0.011815136
139	0xbceea749	-0.029132502
140	0x3cc763ad	0.024339521
141	0x3d1f8d6f	0.03895324
142	0x3ca33130	0.019920915
143	0xbbf8c185	-0.0075914287
144	0xba8a8cb6	-0.00105705
145	0x3c0e5f0a	0.008689651
146	0x3c49afb5	0.012309958
147	0xbb862736	-0.00409403
148	0x3b7f3a5b	0.0038944695
149	0x3be19d0b	0.006885176
150	0x3c8ca2b1	0.017167421
151	0xbc9e581e	-0.019329127
152	0xbb6e4670	-0.0036357902
153	0xbb2acee0	-0.0026063249
154	0x3c4f7c97	0.012663982
155	0x3cb0cb94	0.021581449
156	0x3c4e24ab	0.0125819845
157	0x3b0bb7a8	0.0021319184
158	0x3a85cd83	0.0010208342
159	0x3a0733ca	0.00051575585
160	0xbb57c21c	-0.0032922095
161	0xba706614	-0.0009170484
162	0x3cded660	0.027201831
163	0x3d3a8d0a	0.04554466
164	0xbd1fd685	-0.03902294
165	0x3cee5c24	0.02909667
166	0xbc6b7800	-0.014371872
167	0xbc3a10c1	-0.0113565335
168	0x3c8e9519	0.01740508
169	0x3785ebb9	1.5964602e-05
170	0x3d21be0f	0.039487895
171	0x3d023f7c	0.031798825
172	0xbd39a70b	-0.04532532
173	0x3bac2a54	0.0052540693
174	0xbb8f1d6f	-0.0043675224
175	0xba47fe2e	-0.0007629123
176	0x3c88532f	0.016641228
177	0xbd0545b7	-0.03253719
178	0x3d3e14d7	0.046406593
179	0xbcb6b33b	-0.02230226
180	0x3c77de2b	0.015128653
181	0xbb29f9bd	-0.002593621
182	0xbcddae92	-0.02706078
183	0x3d34e8fe	0.04416751
184	0x3c92fda9	0.01794322
185	0x3ca501a7	0.02014239
186	0xb96aadd2	-0.00022380732
187	0x3b8688c4	0.004105659
188	0x3cbb9056	0.022895973
189	0x3c166cf4	0.00918125
190	0xbcaea271	-0.021317692
191	0x3ccd507a	0.025062788
192	0x3c010635	0.007875015
193	0xbcf06e62	-0.02934951
194	0x3ca9aa28	0.02071102
195	0x3bc0b765	0.0058812373
196	0x3cb1edcc	0.021719836
197	0xbcbef338	-0.023309335
198	0xbd0ec3e4	-0.034854785
199	0x3b6cbc30	0.003612291
200	0xbc2e4f3d	-0.010639009
201	0x3cd14890	0.025547296
202	0x3c1def5e	0.009639589
203	0x3cacc057	0.021087809
204	0x3d84fb97	0.064932995
205	0x3ad6c4bc	0.0016385536
206	0x3a634dab	0.0008670936
207	0x3d3e5d3b	0.04647563
208	0x3d2c658d	0.042089034
209	0xbcf0439c	-0.029329114
210	0x3ce5db18	0.028058574
211	0xbb0903bc	-0.0020906767
212	0xbd9bbf96	-0.076049015
213	0xbd03aa4a	-0.032144822
214	0xbd664215	-0.056215364
215	0xbcafbfb0	-0.021453708
216	0xbdad1a62	-0.08452298
217	0x3d5c3581	0.053761963
218	0xbd021870	-0.031761587
219	0x3b8a4f06	0.004220846
220	0x3dab8949	0.083757944
221	0xbdaae945	-0.08345274
222	0x3d0d52e6	0.034502886
223	0x3cb51099	0.022102641
224	0xbc52d917	-0.012869141
225	0xbc62483a	-0.0138111655
226	0xbc51d146	-0.012806242
227	0xbcdafefe	-0.026732918
228	0x3cfb124c	0.030648373
229	0xbc856966	-0.01628561
230	0x3c4e5660	0.012593836
231	0x3c8e7a6b	0.017392358
232	0xb91dd22f	-0.00015050986
233	0x3b177e37	0.0023116001
234	0xbca30d27	-0.019903732
235	0x3b205988	0.0024467427
236	0x3d02686e	0.031837873
237	0x3cafc484	0.02145601
238	0x3cbd772f	0.02312812
239	0xbcbfe6a5	-0.02342541
240	0x3b647bb0	0.0034863763
241	0xbbd97876	-0.0066366745
242	0xbd16619a	-0.036714174
243	0x3c81252e	0.015764799
244	0x3cfb6785	0.03068901
245	0xbd53128b	-0.051531356
246	0x3c4205af	0.011842175
247	0x3cd956e2	0.026530687
248	0xbe0028bb	-0.12515537
249	0x3d463b94	0.048396662
250	0x3c0d3351	0.008618192
251	0xbb2e8592	-0.0026629907
252	0x3d27cf73	0.040969323
253	0xbd7aa9d2	-0.06119711
254	0x3b4a9dbf	0.0030916778
255	0xbb215d0e	-0.0024622115

fc_1.bias f4 [64]
0	0x0000008a	1.93e-43
1	0x2ff39362	4.4306164e-10
2	0x31ceef76	6.0226126e-09
3	0x30bac545	1.3589349e-09
4	0x319401ca	4.3075703e-09
5	0xb1b719cf	-5.328935e-09
6	0xb21fb6b6	-9.296562e-09
7	0x31741d80	3.5523442e-09
8	0xb18ebe96	-4.154411e-09
9	0x32e401b3	2.6543466e-08
10	0x32b0a3ad	2.0563528e-08
11	0xb2dfc6ec	-2.6051076e-08
12	0x31bc6263	5.4827054e-09
13	0x000001e5	6.8e-43
14	0x80000003	-4e-45
15	0xb212b84e	-8.5402245e-09
16	0x30bfff6b	1.3969673e-09
17	0x32322eee	1.0371634e-08
18	0xb1c2c2e2	-5.6682987e-09
19	0xb28c51f0	-1.6335406e-08
20	0xb27606c6	-1.4320625e-08
21	0x32874719	1.57484e-08
22	0xb32851e1	-3.9190017e-08
23	0x3265aeee	1.3369329e-08
24	0x3268de73	1.3554756e-08
25	0xb19f51ac	-4.636794e-09
26	0x31d2f953	6.1401493e-09
27	0xb0966b53	-1.094444e-09
28	0x328c25bb	1.6315303e-08
29	0xb2827f3b	-1.519185e-08
30	0x3289616c	1.5993201e-08
31	0x314c8dd5	2.976653e-09
32	0x3302a330	3.0416402e-08
33	0x325bd026	1.2794805e-08
34	0xb2526722	-1.22470585e-08
35	0x31259a32	2.409831e-09
36	0xb31b49d3	-3.6155893e-08
37	0xb12df710	-2.5315252e-09
38	0x32754fa2	1.4278983e-08
39	0xb2fdd8a4	-2.9551593e-08
40	0x32890fd7	1.5956102e-08
41	0x325c51e9	1.282431e-08
42	0xb1972bc8	-4.3996558e-09
43	0x328d164e	1.6424703e-08
44	0xb30cc170	-3.277222e-08
45	0x326f9a98	1.39467815e-08
46	0xb18da92c	-4.1228727e-09
47	0x32f541be	2.855165e-08
48	0x321e18b9	9.202432e-09
49	0xb2532a98	-1.2291501e-08
50	0x31121912	2.1260047e-09
51	0x30e96c30	1.698373e-09
52	0xb1ea1219	-6.812354e-09
53	0x32b65f82	2.123102e-08
54	0xb2827e55	-1.5191441e-08
55	0xb1d516f3	-6.201725e-09
56	0xb13b1221	-2.7222387e-09
57	0x9634c114	-1.4601209e-25
58	0x800006d4	-2.45e-42
59	0x2ee7b188	1.05362e-10
60	0x3296b484	1.7544387e-08
61	0xb282abfe	-1.5212205e-08
62	0x3296c9e7	1.7554113e-08
63	0x324f523f	1.2067686e-08

f_bn1.weight f4 [64]
0	0x37164667	8.9570885e-06
1	0x3d8c658c	0.06855306
2	0x3da40e39	0.08010525
3	0x3d559b4e	0.052150063
4	0x3dd41bd4	0.1035687
5	0xbd2cf4eb	-0.04222576
6	0x3d7d8b89	0.06190065
7	0x3db7eb09	0.08980376
8	0x3dccd707	0.10001951
9	0x3d331528	0.043721348
10	0x3dbef2f5	0.09323684
11	0x3d9590a1	0.073029764
12	0x3d42af0f	0.04753023
13	0x3796cf3c	1.7977894e-05
14	0xb61e984e	-2.3632488e-06
15	0x3daee4fa	0.085397676
16	0x3d9da468	0.07697374
17	0x3d685bd5	0.056728203
18	0x3d9698d5	0.07353369
19	0x3df657c8	0.12028462
20	0x3daed8ff	0.085374825
21	0x3dc75fd4	0.09735075
22	0x3dba5251	0.09097732
23	0x3da67efd	0.0812969
24	0x3df996e5	0.12186984
25	0x3dfe0517	0.124033146
26	0x3db89ba9	0.09014065
27	0x3db0676f	0.086134784
28	0x3dd1a58d	0.102366544
29	0x3dac567a	0.084149316
30	0x3d8f9fe4	0.070129186
31	0x3da8e728	0.082472146
32	0x3db0ef87	0.08639436
33	0x3d837e2a	0.06420548
34	0x3d84ffb1	0.06494082
35	0x3dd892a7	0.10574847
36	0x3d833197	0.06405943
37	0x3db969d2	0.09053387
38	0xbcdf2cc0	-0.027243018
39	0x3d9e5a88	0.07732111
40	0x3d85f57f	0.06540965
41	0x3d885b6a	0.06658061
42	0x3da90692	0.08253206
43	0x3dad6671	0.08466805
44	0x3de4868c	0.11158475
45	0x3e019873	0.12655811
46	0x3db22f97	0.08700483
47	0x3d66b22f	0.056322273
48	0x3dc4f3bf	0.096168034
49	0x3da2afe6	0.07943706
50	0x3dc4e1f4	0.0961341
51	0x3daa3791	0.0831138
52	0x3d899c82	0.067193046
53	0x3de11bee	0.10991655
54	0x3d9539df	0.07286429
55	0x3d89d790	0.067305684
56	0x3d9600da	0.07324381
57	0x39e87695	0.0004433884
58	0x3841b42c	4.6182584e-05
59	0x3dc09046	0.09402518
60	0x3dfa664a	0.12226541
61	0x3d908487	0.070565276
62	0x3dc5e881	0.09663487
63	0x3db271cb	0.087131105

f_bn1.bias f4 [64]
0	0xb69aa3e6	-4.608638e-06
1	0xbe0eea1b	-0.13956492
2	0xbce47eeb	-0.02789255
3	0x3b1d0e3c	0.0023964783
4	0xbda4eccc	-0.08052978
5	0xbccd8fed	-0.025093043
6	0xbd291fe0	-0.041290164
7	0xbd5b265c	-0.05350338
8	0xbdd4d226	-0.10391645
9	0x3c5aa118	0.013344072
10	0xbe049a82	-0.12949565
11	0xbd600995	-0.054696638
12	0xbb3dbd8a	-0.0028952085
13	0xb6e44e6f	-6.8040604e-06
14	0xb622a01d	-2.423308e-06
15	0xbda52572	-0.08063783
16	0xbcfd4d5d	-0.030920679
17	0xbc5bbeac	-0.013412159
18	0xbd2d62f7	-0.04233071
19	0xbe09e2c1	-0.13465406
20	0xbd9c101b	-0.076202594
21	0xbe1c6de1	-0.1527629
22	0xbd918998	-0.07106322
23	0xbd81e530	-0.06342542
24	0xbdc640c2	-0.0968032
25	0xbdf1f962	-0.11815144
26	0xbd4a845d	-0.049442638
27	0xbd038a69	-0.03211442
28	0xbdb10a87	-0.08644586
29	0xbdb5c9db	-0.088763915
30	0xbcf412d8	-0.029794142
31	0xbe189832	-0.14901808
32	0xbd1b177e	-0.0378642
33	0xbd1f405c	-0.038879737
34	0xbd691d0c	-0.056912467
35	0xbe10a7ba	-0.14126483
36	0xbd0873c2	-0.03331352
37	0xbd5ae0d8	-0.053437084
38	0x3bdc30ff	0.006719708
39	0xbd7bcac4	-0.06147267
40	0xbd7213ed	-0.059101034
41	0xbd2def8e	-0.042464785
42	0xbce8791f	-0.028378068
43	0xbd392247	-0.045198705
44	0xbe052ec1	-0.13006116
45	0xbdcba532	-0.09943618
46	0xbdcc2076	-0.09967129
47	0xbc507b2c	-0.012724679
48	0xbd585fbb	-0.05282567
49	0xbd63468f	-0.05548721
50	0xbdaaa40a	-0.08332069
51	0xbca41427	-0.02002914
52	0xbd3d0959	-0.046151493
53	0xbd9a14e3	-0.07523515
54	0xbccd3680	-0.025050402
55	0x3b033e2c	0.002002607
56	0xbcaf56ef	-0.021403758
57	0xbb1f819d	-0.002433873
58	0xb79ba176	-1.8552626e-05
59	0xbda39d6c	-0.0798901
60	0xbdb4706d	-0.08810506
61	0xbc691e0e	-0.014228357
62	0xbdcf2bc6	-0.10115771
63	0xbd788e1b	-0.060682397

f_bn1.running_mean f4 [64]
0	0xb52edf9c	-6.5145446e-07
1	0x3d3300c4	0.043701902
2	0xbd4f1cac	-0.050564453
3	0xbd95db6e	-0.073172435
4	0xbe077d85	-0.13231476
5	0xb9e59e88	-0.000437964
6	0x3bfc3d7c	0.007697759
7	0xbcba8fcb	-0.022773644
8	0xbd6a172c	-0.057151005
9	0xbca4f38c	-0.020135663
10	0x3d41fddb	0.047361236
11	0xbdc7b3c7	-0.09751087
12	0xbdc31c57	-0.0952689
13	0xb30606cc	-3.1205488e-08
14	0x346d7684	2.2115461e-07
15	0xbd1bf876	-0.038078748
16	0xbdabb6b4	-0.08384457
17	0xbd68f57c	-0.056874737
18	0x3cac9e2e	0.02107152
19	0xbdda75fe	-0.106670365
20	0x3e1ba52b	0.15199725
21	0x3c96158f	0.018320827
22	0x3df76934	0.12080613
23	0x3e01c076	0.12671074
24	0x3c2222fe	0.009896038
25	0xbdf8d2c7	-0.121495776
26	0xbd0c2599	-0.034215543
27	0x3d62e519	0.055394266
28	0xbd9aa218	-0.07550448
29	0x3e1dc079	0.15405454
30	0xbd5b7870	-0.053581655
31	0x3d54a06f	0.051910814
32	0x3dbce081	0.09222508
33	0xbd5f4f9e	-0.05451929
34	0x3cb3bb17	0.021939797
35	0x3deb391d	0.11485503
36	0xbc0fe983	-0.008783701
37	0x3de0a092	0.10968126
38	0x3d1cb88d	0.03826194
39	0xbdda9796	-0.10673444
40	0xbd14fbdf	-0.036373015
41	0xbbe2cd60	-0.0069214553
42	0xbdd98319	-0.10620708
43	0xbc958773	-0.018253064
44	0x3e24b01e	0.16082808
45	0xbd7ac35a	-0.061221458
46	0xbdaeff80	-0.085448265
47	0xbdc24029	-0.09484894
48	0x3bbd6db9	0.005780902
49	0x3df47ff9	0.11938471
50	0x3de8f5f3	0.11375036
51	0xbda8cf86	-0.08242707
52	0x3d0e6462	0.0347637
53	0x3de386ba	0.111096814
54	0x3d5aa812	0.05338294
55	0x3dab0de1	0.083522566
56	0xbd56e714	-0.052466467
57	0x3a6f943d	0.00091392157
58	0x3583efb1	9.83002e-07
59	0xbd90cc18	-0.07070178
60	0x3e03bb5a	0.12864438
61	0x3db1670c	0.08662233
62	0x3dede031	0.11615027
63	0x3dd26166	0.102724835

f_bn1.running_var f4 [64]
0	0x2be325c1	1.6139799e-12
1	0x3d2b7f07	0.04186919
2	0x3d723b48	0.059138566
3	0x3d64666e	0.055761747
4	0x3d39bbcb	0.04534511
5	0x3c096339	0.008385473
6	0x3cad2461	0.02113551
7	0x3cc6a218	0.024247214
8	0x3d8cdc51	0.068779595
9	0x3d38b29d	0.045092214
10	0x3d41933d	0.047259558
11	0x3cf373e7	0.029718352
12	0x3d1fe9dd	0.03904139
13	0x2b5d57cf	7.863683e-13
14	0x2cc0045a	5.4574513e-12
15	0x3d33446c	0.043766424
16	0x3d06e770	0.03293556
17	0x3cfc2152	0.030777607
18	0x3d6c2593	0.05765302
19	0x3d6e6761	0.05820406
20	0x3d8e4bf7	0.06948083
21	0x3d7eea8a	0.062235393
22	0x3d7765a0	0.06039965
23	0x3d89f4d4	0.067361504
24	0x3d9715a7	0.07377177
25	0x3d86be28	0.06579238
26	0x3cfdecb0	0.03099665
27	0x3d2a3e48	0.041563302
28	0x3d266c95	0.040630896
29	0x3d6be379	0.05758998
30	0x3cebb1db	0.028771332
31	0x3d4d3276	0.05009695
32	0x3d71c913	0.05902965
33	0x3ccc9537	0.024973495
34	0x3cf53481	0.029932262
35	0x3d190577	0.037358727
36	0x3d009126	0.031388424
37	0x3d825250	0.06363356
38	0x3c5c7b56	0.01345714
39	0x3cfae889	0.03062846
40	0x3cad4bd6	0.021154325
41	0x3c875892	0.016521726
42	0x3d5b827f	0.053591248
43	0x3d5f1102	0.05445958
44	0x3daa8fd6	0.08328216
45	0x3d477298	0.04869327
46	0x3d2d864c	0.042364404
47	0x3cf5d7e3	0.03001017
48	0x3d261d28	0.04055515
49	0x3d775fcf	0.060394105
50	0x3d660159	0.05615363
51	0x3d74d3eb	0.059772413
52	0x3d19c4d0	0.03754121
53	0x3d9c3f27	0.07629233
54	0x3d2cb893	0.04216821
55	0x3d852f19	0.06503124
56	0x3d13d6ff	0.036093708
57	0x361cf848	2.339033e-06
58	0x2d094919	7.803779e-12
59	0x3d873598	0.06602019
60	0x3db32bd3	0.08748593
61	0x3d837322	0.06418444
62	0x3d333a96	0.043757044
63	0x3d37238a	0.044711627

fc_2.weight f4 [64, 64]
0	0xae99b03d	-6.988941e-11
1	0xbc3a20a6	-0.011360323
2	0xbc48ea94	-0.012262959
3	0xbca0cc11	-0.019628556
4	0xbbf8cb9f	-0.007592633
5	0x3b832d08	0.004003171
6	0xbac772b1	-0.0015216676
7	0x3b5bf543	0.0033562935
8	0x3a932075	0.0011224883
9	0xbcf40b07	-0.029790414
10	0xbcac8e91	-0.021064075
11	0xbcb4b8f9	-0.022060858
12	0xbb8ca596	-0.0042922003
13	0xa998e6c1	-6.7901854e-14
14	0x2fa775aa	3.0460728e-10
15	0xbc617928	-0.013761796
16	0xbc3d3067	-0.011547185
17	0xbb71d00e	-0.0036897692
18	0xbcabf828	-0.020992354
19	0xbc1f3f7b	-0.009719725
20	0x3cb47a7e	0.022031065
21	0xbc751464	-0.014958475
22	0x3c326032	0.010887193
23	0x3cb20873	0.021732545
24	0xbc1a6ff1	-0.009426103
25	0x3ad8c359	0.001653771
26	0xbc162acb	-0.009165476
27	0x3c669922	0.014074596
28	0xbc67ca67	-0.014147378
29	0x3c9339f4	0.01797197
30	0xbc85e81f	-0.016346036
31	0xbc450e3d	-0.01202732
32	0x3a6e641a	0.0009093896
33	0xbbf281a3	-0.007400708
34	0xbcaa5ba0	-0.020795643
35	0x3ce8fb11	0.02844003
36	0xbcadda8e	-0.021222379
37	0x3c8ba9f7	0.017048819
38	0xbbeefb9b	-0.0072931773
39	0xbbfa05c9	-0.007630084
40	0xbc58cb60	-0.013232082
41	0xbca6510f	-0.020302324
42	0xbc0d0c4a	-0.008608887
43	0xbccee2c9	-0.025254624
44	0x3abd8c5f	0.001446139
45	0xbcad3904	-0.021145351
46	0xbacc5ba2	-0.0015591274
47	0xbc4546f5	-0.012040843
48	0x3c158dad	0.009128016
49	0xbbf2d6c8	-0.007410858
50	0x3c1620f6	0.009163132
51	0xbc716fe6	-0.014736151
52	0xbcbc0d2b	-0.022955498
53	0x3b944559	0.0045248684
54	0x3ce9d61f	0.028544484
55	0x3b784d67	0.0037887932
56	0xbc33c4d6	-0.010972222
57	0x3970f5ad	0.00022979705
58	0x316b1fdd	3.4215113e-09
59	0xbc6fa5fe	-0.014626978
60	0x3cdb20bf	0.026749013
61	0x3c5b721a	0.013393903
62	0x3bc9a676	0.006153877
63	0x3c165095	0.009174486
64	0xab7fc8f5	-9.0873083e-13
65	0x3cad5b9d	0.021161849
66	0x3b863ae1	0.0040963744
67	0xbbc3cd7e	-0.0059754243
68	0x3b438b4a	0.0029837661
69	0xbc4eef85	-0.012630348
70	0x39d9f567	0.00041572304
71	0xbc2a96b5	-0.010411908
72	0x3c83b7ce	0.016078856
73	0xbba94731	-0.0051659574
74	0x3bd87cc8	0.006606672
75	0x3c6daa8b	0.014505993
76	0x3b9a73a2	0.0047134915
77	0x2ca25d95	4.6147066e-12
78	0xaa05bd3f	-1.1878431e-13
79	0xb7c0c8e4	-2.298173e-05
80	0xbb50ed74	-0.0031879814
81	0x3a597ab7	0.0008296179
82	0x3c9bd3bc	0.019021861
83	0x3cbab394	0.022790708
84	0xbb84a529	-0.004048009
85	0x3cf2193b	0.029553046
86	0xbcae9b56	-0.021314304
87	0xbbb5cea0	-0.0055483133
88	0x3c6c28fd	0.014414069
89	0x3c84bdd2	0.016203795
90	0x3af4b11d	0.0018668507
91	0xbcb3a0f5	-0.021927336
92	0x3cdf36ac	0.02724775
93	0xbc7a5b35	-0.0152805345
94	0x3c5fd869	0.013662436
95	0x3cfbf5ac	0.030756794
96	0xbbfdb432	-0.007742428
97	0x3c2ee822	0.010675462
98	0xbc986d7f	-0.0186069
99	0xbc12df7e	-0.0089644175
100	0x3cc0b05c	0.023521595
101	0xbcadfc33	-0.021238422
102	0x3c4d9674	0.012548078
103	0x3c3e8ad8	0.011629783
104	0xbcf2c731	-0.029635997
105	0x3c59b43b	0.013287599
106	0x3caeb060	0.021324337
107	0xbc444710	-0.011979833
108	0xbbf9837c	-0.007614551
109	0x3a6d5aa1	0.0009054337
110	0x3c621cbd	0.013800797
111	0x3c38669b	0.011254932
112	0xbcd980fa	-0.026550759
113	0xbccba068	-0.024856761
114	0xb9aa6eca	-0.0003250747
115	0x3bd2b3ff	0.0064301486
116	0x3be26b80	0.0069097877
117	0xbc81e316	-0.015855353
118	0xbc592225	-0.01325277
119	0xbc87e390	-0.016588002
120	0x3b25f89e	0.002532519
121	0xb538fb0e	-6.8910674e-07
122	0xae3937b2	-4.2113597e-11
123	0x3cc2bc22	0.02377135
124	0x3a1477c4	0.00056635984
125	0xbc5957a5	-0.013265525
126	0xbca5f633	-0.020258998
127	0xbc2fbf04	-0.010726694
128	0xafa117e2	-2.93027e-10
129	0x3d003ce4	0.03130807
130	0x3b92d606	0.00448108
131	0x3b127def	0.0022352894
132	0x3ca52ca8	0.020162895
133	0xbc73dce2	-0.014884206
134	0x3ba94dca	0.005166744
135	0xbcaefffc	-0.021362297
136	0x3c9d8149	0.019226687
137	0x3c3817f1	0.011236177
138	0x3ccca25d	0.024979765
139	0x3c169bf6	0.009192457
140	0x3bcbcda4	0.0062195826
141	0xb44e375d	-1.9205386e-07
142	0xac25bda5	-2.3553184e-12
143	0x3c945cb1	0.018110605
144	0x3c2d15d8	0.01056429
145	0x3b936ad2	0.004498818
146	0x3b65dc03	0.0035073764
147	0x3cc802d9	0.02441542
148	0x3bd2ce3b	0.006433276
149	0x3ca13715	0.019679585
150	0xbc4e2c3c	-0.0125837885
151	0xbbc80c84	-0.0061050076
152	0x3c11da34	0.008902121
153	0x3c8fc4c7	0.017549885
154	0xbbe8a099	-0.007099223
155	0xbca68e48	-0.020331517
156	0x3c0bc9c3	0.00853199
157	0xbc149e03	-0.009070876
158	0x3a4e65fd	0.0007873474
159	0x3cc9c00e	0.024627712
160	0xbcb37de8	-0.021910623
161	0xbc126a6d	-0.008936507
162	0xbbea7b05	-0.0071557784
163	0xbb9938aa	-0.0046759443
164	0xbc0181fa	-0.007904524
165	0xbc934fe4	-0.01798243
166	0xba977aa4	-0.0011556935
167	0x3c93454d	0.017977381
168	0xbced70b6	-0.028984409
169	0x3c11af1d	0.008891848
170	0xbab57b0b	-0.0013845874
171	0x3c8f7aef	0.017514674
172	0xbc12ecc6	-0.008967584
173	0x3bb3260e	0.005467183
174	0x3c7a05b1	0.015260146
175	0x3c809e7e	0.015700575
176	0xbd1e6d46	-0.03867843
177	0xbcaf861c	-0.021426253
178	0xbbd62abf	-0.0065358575
179	0x3b63d547	0.0034764574
180	0xbca265df	-0.019823967
181	0xbc4fc5cc	-0.012681436
182	0xbbacfff3	-0.005279535
183	0xbcf215a2	-0.029551331
184	0x3bc9fd89	0.006164257
185	0x37b27f75	2.1278605e-05
186	0xacfa7ea3	-7.119487e-12
187	0x3d039603	0.032125484
188	0x3b809bd0	0.0039248243
189	0xbd0603a6	-0.032718323
190	0xbc8c5c6f	-0.01713392
191	0xbc9b9e45	-0.018996367
192	0xb2090b7d	-7.977062e-09
193	0xbb7b36f3	-0.0038332313
194	0x3af46e0c	0.0018648519
195	0xbc35078d	-0.0110491635
196	0xbc29c554	-0.010361988
197	0x3bc7257a	0.0060774656
198	0xbc1aec48	-0.009455748
199	0xba374d82	-0.00069924456
200	0x3b26ede3	0.0025471381
201	0xbc9651a2	-0.018349472
202	0xbc862084	-0.016372927
203	0xbc2d701b	-0.01058581
204	0xbc23e6da	-0.01000377
205	0xb5a446f9	-1.2239608e-06
206	0xad3fed71	-1.0909816e-11
207	0xbc2fd689	-0.0107323015
208	0xbc72d371	-0.014820919
209	0xbc9b0757	-0.018924398
210	0xbca0c6f6	-0.019626122
211	0xbb14296b	-0.0022607695
212	0x3c0d3f45	0.008621042
213	0xbc24597d	-0.010031101
214	0x3c8a51f0	0.016884774
215	0x3984e463	0.00025347163
216	0xbb9c4ef7	-0.0047701555
217	0x3c0604f8	0.008179896
218	0xbcaa1533	-0.020762062
219	0xbaacdf55	-0.0013189117
220	0xbc3724f6	-0.011178246
221	0x3c4d264a	0.012521336
222	0xbcbc53b2	-0.022989128
223	0xbc282d16	-0.010264656
224	0x3c2d1f6c	0.010566574
225	0xbc95add4	-0.018271364
226	0xbbfe7888	-0.0077658333
227	0x3d251336	0.040301524
228	0xbc8c0c69	-0.017095761
229	0xbb0d4d89	-0.0021561107
230	0xbc8643c4	-0.016389735
231	0xbb8de05c	-0.0043297242
232	0xbc932d86	-0.017966043
233	0xbc85cd48	-0.016333237
234	0xbbdfc2b6	-0.0068286313
235	0xbce086c9	-0.02740802
236	0x3cafd150	0.021462113
237	0xbc445851	-0.011983947
238	0xbb8fdb7f	-0.0043901796
239	0xbc79dc72	-0.015250312
240	0x3c83fff2	0.016113255
241	0x3c780eb5	0.015140225
242	0x3c74cfda	0.014942134
243	0xbc77f406	-0.015133863
244	0xbc818af1	-0.015813323
245	0x3c6015fb	0.013677116
246	0x3c8c5b12	0.01713327
247	0xbc93c311	-0.01803735
248	0xbc0690bd	-0.008213219
249	0x37dbf857	2.6222477e-05
250	0x36016549	1.9281454e-06
251	0xb87f4a7e	-6.0866114e-05
252	0x3b53fe68	0.0032347683
253	0x3c2a1890	0.010381833
254	0x3c097797	0.008390329
255	0x3c5e69e6	0.013575053

fc_2.bias f4 [64]
0	0xb36fdb68	-5.5846073e-08
1	0x34be392b	3.5431853e-07
2	0xb3a7f5c8	-7.821251e-08
3	0xb4e23752	-4.213603e-07
4	0xb47ed65e	-2.373358e-07
5	0x34817584	2.4113626e-07
6	0x350a78d7	5.158485e-07
7	0x3397b34e	7.064101e-08
8	0xb519d9f4	-5.7314105e-07
9	0xb4306da7	-1.6431169e-07
10	0x33f6c97d	1.1491918e-07
11	0x34211d4a	1.5004949e-07
12	0x34b9e2f0	3.4624054e-07
13	0x33fe60b1	1.1845385e-07
14	0x34ec0d46	4.3968083e-07
15	0xb51c41dc	-5.8210367e-07
16	0xb2db9872	-2.556428e-08
17	0xb2b4a817	-2.1031196e-08
18	0x340b9c18	1.300217e-07
19	0xb13d3e6c	-2.7538603e-09
20	0x33dc4240	1.0256599e-07
21	0xb467daff	-2.1593222e-07
22	0x34cdf7a4	3.8364408e-07
23	0x34de6b69	4.1428873e-07
24	0xb4bb5554	-3.489355e-07
25	0xb40f854c	-1.3366406e-07
26	0xb3b93626	-8.6245834e-08
27	0x34f703d3	4.6010118e-07
28	0xb4718435	-2.249297e-07
29	0xb3efd190	-1.1167424e-07
30	0x3461281b	2.0969348e-07
31	0x35510b7a	7.787527e-07
32	0x34a93f2a	3.152466e-07
33	0xb495a3a7	-2.7872485e-07
34	0xb429225d	-1.5751853e-07
35	0x33535b72	4.9210435e-08
36	0x34e63d05	4.2885236e-07
37	0x33a8f903	7.8684046e-08
38	0x34840bc7	2.4595485e-07
39	0x33d278f0	9.8008854e-08
40	0xb49116a7	-2.7024836e-07
41	0xb4508714	-1.942065e-07
42	0x34865e31	2.5027978e-07
43	0x334827aa	4.6602203e-08
44	0xb2cdf216	-2.3975229e-08
45	0xb2d26507	-2.449316e-08
46	0x34a81d64	3.1313823e-07
47	0x35217ade	6.015597e-07
48	0xb50a5484	-5.153199e-07
49	0xb407e617	-1.2656561e-07
50	0x33ddd39d	1.0329607e-07
51	0x3369b09a	5.4410158e-08
52	0x34aab7c9	3.179869e-07
53	0x34373a97	1.7064518e-07
54	0x34ead3b9	4.3739945e-07
55	0xb461c563	-2.1026567e-07
56	0xb4b2c753	-3.330011e-07
57	0x8000011a	-3.95e-43
58	0x34c9989a	3.75502e-07
59	0x34b5aee3	3.3841124e-07
60	0x00000ccc	4.59e-42
61	0xb4407e02	-1.7927235e-07
62	0xb3dab2ba	-1.0183926e-07
63	0x3501dc89	4.8377166e-07

f_bn2.weight f4 [64]
0	0x3d994b8f	0.07485115
1	0x3d91c75f	0.07118105
2	0x3d9fa943	0.07795956
3	0x3d984490	0.07434952
4	0x3d687cfc	0.05675982
5	0x3d8b7e98	0.06811255
6	0x3da8b187	0.08236986
7	0x3d720976	0.059091054
8	0x3d9d4bd2	0.07680477
9	0x3d9de98e	0.07710563
10	0x3d9b6f3a	0.07589574
11	0x3d94eabe	0.07271336
12	0x3d94936e	0.072546825
13	0x3d7cc76f	0.061713632
14	0x3d826688	0.063672125
15	0x3d8a985b	0.06767341
16	0x3d8dfb7e	0.06932734
17	0x3d708a85	0.058725853
18	0x3d2f1e5e	0.04275357
19	0x3dbdb1be	0.09262417
20	0x3d229c5f	0.03969991
21	0x3d822ded	0.06356416
22	0x3da78f3c	0.08181617
23	0x3dac6d21	0.08419252
24	0x3d710b89	0.05884889
25	0x3d8b99d6	0.06816451
26	0x3db3d349	0.08780534
27	0x3d949839	0.07255597
28	0x3d782608	0.060583144
29	0x3dcaa318	0.09894389
30	0x3da8ac61	0.08236004
31	0x3d4c3276	0.04985281
32	0x3d764b35	0.060130317
33	0x3da350f3	0.07974424
34	0x3d588d01	0.052868847
35	0x3da4cb7c	0.08046624
36	0x3d860a5b	0.06544944
37	0x3d83fe73	0.06445017
38	0x3d74d953	0.05977757
39	0x3d3a03d4	0.045413807
40	0x3d9bc2f4	0.07605544
41	0x3d91ff56	0.071287796
42	0x3d94ed07	0.07271772
43	0x3d649a6d	0.055811334
44	0x3d92746e	0.071511135
45	0x3dc5e3a0	0.09662557
46	0x3d8ca98e	0.068682775
47	0x3d7def2a	0.061995663
48	0x3d872f58	0.06600827
49	0x3d617e1c	0.055051908
50	0x3d120340	0.03564763
51	0x3d840e07	0.06447988
52	0x3d918106	0.071046874
53	0x3d6d099a	0.057870485
54	0x3d8d6724	0.06904438
55	0x3d530ef6	0.05152794
56	0x3da75d05	0.08172039
57	0xb5c52c5b	-1.4690553e-06
58	0x3d823a9c	0.06358835
59	0x3dad2184	0.08453658
60	0x3a3aa41d	0.00071197917
61	0x3d97124c	0.07376537
62	0x3d84aaca	0.06477888
63	0x3d895f6c	0.067076534

f_bn2.bias f4 [64]
0	0xbc483cf4	-0.012221564
1	0xbb88c4a2	-0.004173831
2	0xbc435cf2	-0.011924015
3	0xbc80a79b	-0.01570492
4	0xbbd5dddf	-0.0065266932
5	0xbbf6666b	-0.0075195334
6	0xbbd45b82	-0.006480635
7	0xba93f47a	-0.001128807
8	0xbc5b15c4	-0.013371889
9	0xbc3929b6	-0.011301449
10	0xbcc5a0c9	-0.02412452
11	0xbd001703	-0.031271946
12	0xbc609172	-0.013706552
13	0xbbb58d57	-0.0055405307
14	0x3c1e83d1	0.009674982
15	0x3953b3a7	0.00020189454
16	0x3baa0b94	0.0051893685
17	0x3bea8d26	0.0071579395
18	0xb9369036	-0.00017410595
19	0xbcfc51a1	-0.030800642
20	0x3a9307ce	0.0011217536
21	0xbc401f5b	-0.011726226
22	0xbc5b1089	-0.0133706415
23	0xbcb9e938	-0.022694215
24	0x3c2db679	0.010602587
25	0xbc40b0fd	-0.011760947
26	0xbccdc3eb	-0.025117835
27	0xbc2b09ec	-0.010439377
28	0xbc04f444	-0.008114878
29	0xbcf2cbb3	-0.029638147
30	0xbc7c10ae	-0.015384836
31	0xbba15a7d	-0.004924117
32	0xbc4963bb	-0.012291844
33	0xbc134e5b	-0.008990849
34	0x3b892f68	0.0041865595
35	0xbc4576e9	-0.012052276
36	0xbba44bfa	-0.00501394
37	0xbc022ec1	-0.007945717
38	0xbbe9a470	-0.007130198
39	0xbb9e026a	-0.004822065
40	0xbcc5ad39	-0.02413045
41	0xbc87af3c	-0.01656305
42	0xbc2144c0	-0.009843051
43	0x3ba1839d	0.0049290196
44	0xbb933e65	-0.004493522
45	0xbd9c972d	-0.07646022
46	0xbb03c240	-0.0020104796
47	0xb9fd99cc	-0.00048370508
48	0xbc4918e8	-0.0122740045
49	0xbba61b62	-0.0050691823
50	0xbb545031	-0.003239643
51	0xbc1773b6	-0.009243896
52	0xbc08e6c9	-0.008355805
53	0xbc1abed7	-0.009444914
54	0xbc0f0487	-0.008729107
55	0x3c046010	0.008079544
56	0xbcbdee60	-0.023184955
57	0xb90e57fe	-0.00013574955
58	0xbc102cdf	-0.008799761
59	0xbc4d2472	-0.012520896
60	0xb89fdc49	-7.622742e-05
61	0xbc42d17f	-0.011890768
62	0xbc880dc7	-0.016608132
63	0xb9d726d7	-0.00041036934

f_bn2.running_mean f4 [64]
0	0xbb5dbb1f	-0.0033833457
1	0xb9c2c9bb	-0.00037152864
2	0xbacb6f12	-0.0015520772
3	0xbb7930a4	-0.0038023377
4	0xba981f8b	-0.001160608
5	0xb9668595	-0.00021984272
6	0xbb69b3aa	-0.0035660067
7	0x3982861f	0.0002489546
8	0xbb211084	-0.0024576494
9	0xbb1167c5	-0.0022187096
10	0xbb359508	-0.0027707238
11	0xba7bcbd3	-0.00096052623
12	0xbafce743	-0.0019294996
13	0xba128854	-0.00055897725
14	0x3a879dd7	0.0010346723
15	0xb9ec6443	-0.00045088129
16	0x3a8241fa	0.0009937875
17	0x3b125ed1	0.0022334347
18	0xb9b94655	-0.0003533835
19	0xbb2886b2	-0.002571505
20	0x3ad29080	0.0016064793
21	0x38c42b46	9.3540686e-05
22	0xbb281777	-0.0025648752
23	0xbb8dd8ab	-0.0043288074
24	0x3aca3163	0.0015426095
25	0xbb1abddc	-0.00236117
26	0xbb8cd474	-0.0042977873
27	0xbab24dd9	-0.0013603523
28	0xbaca432c	-0.0015431396
29	0xbb96da73	-0.004603678
30	0xbb4d4eb2	-0.0031327424
31	0xbaf9ee77	-0.001906826
32	0xbaff1247	-0.0019460403
33	0xbb04c01a	-0.0020256103
34	0xb88beba8	-6.671931e-05
35	0xbb03924e	-0.0020076218
36	0xbaecaf0f	-0.0018057543
37	0xb9cb8f4d	-0.00038825945
38	0xba7640ab	-0.00093937916
39	0xbab08d38	-0.0013469821
40	0xba60b14f	-0.0008571343
41	0xbb5d0bd9	-0.0033728986
42	0xbb4edee4	-0.0031565959
43	0x3ac1e438	0.0014792746
44	0xb7b761a3	-2.1860766e-05
45	0x3abf8062	0.0014610405
46	0xb9818dc2	-0.00024710415
47	0xb96d97f5	-0.0002265869
48	0xbaeb938b	-0.0017973048
49	0xbaf77ff7	-0.0018882741
50	0x3a7b6c48	0.00095910253
51	0xbaf3643e	-0.0018569303
52	0xbb339689	-0.0027402958
53	0xbb34241a	-0.0027487339
54	0xbb223efd	-0.0024756782
55	0x3ab5f98d	0.0013883576
56	0xbb880be9	-0.0041518104
57	0x35682116	8.647488e-07
58	0xbafe366e	-0.0019394883
59	0xbb3493fd	-0.0027554028
60	0xb5e5888f	-1.7101573e-06
61	0xbb2fe785	-0.0026840877
62	0xbb5cc26e	-0.0033685225
63	0xba0987c7	-0.00052463677

f_bn2.running_var f4 [64]
0	0x39569e65	0.00020467637
1	0x390c4c85	0.00013379946
2	0x391b8787	0.0001483244
3	0x390e901f	0.00013595865
4	0x38c4927e	9.3732946e-05
5	0x38f4affe	0.00011667608
6	0x3974b62c	0.00023337518
7	0x38878b03	6.4631946e-05
8	0x392284e0	0.00015499024
9	0x3924599c	0.00015673641
10	0x3896c770	7.1897055e-05
11	0x38a84a73	8.0247315e-05
12	0x38de7b0f	0.00010608706
13	0x38dcb5d6	0.00010524287
14	0x3905892b	0.00012734967
15	0x390f48da	0.00013664682
16	0x39199f10	0.00014650472
17	0x391b84f9	0.00014831488
18	0x385b4c4d	5.228473e-05
19	0x38a72896	7.97074e-05
20	0x3842b318	4.642e-05
21	0x38330c70	4.268851e-05
22	0x39001a4a	0.00012216825
23	0x395aef09	0.00020879148
24	0x38daa711	0.000104261686
25	0x38dbbcdb	0.00010477911
26	0x39376e1b	0.00017493257
27	0x38d6f5e3	0.00010250115
28	0x38d103c8	9.966601e-05
29	0x391f1ae8	0.00015173445
30	0x3955a055	0.00020372991
31	0x3883dd00	6.287731e-05
32	0x38986dcc	7.268376e-05
33	0x39196526	0.00014628898
34	0x38d179de	9.988596e-05
35	0x39210fe0	0.0001536007
36	0x390237f2	0.00012418607
37	0x38a4d72a	7.860207e-05
38	0x38593064	5.17819e-05
39	0x388341b3	6.258804e-05
40	0x386d6d7d	5.6607172e-05
41	0x391f2b28	0.00015179499
42	0x390b8580	0.00013305806
43	0x38b51ccb	8.636116e-05
44	0x3913e7ac	0.00014105317
45	0x391bc02e	0.00014853544
46	0x3931c091	0.00016951772
47	0x38bd7023	9.0331094e-05
48	0x38b09827	8.4206746e-05
49	0x38dd65e6	0.00010557081
50	0x380bd8fd	3.334227e-05
51	0x38dfdc9b	0.000106745596
52	0x390fe89e	0.000137242
53	0x38df1122	0.0001063666
54	0x390ef613	0.00013633845
55	0x38dc9ed4	0.000105200015
56	0x392fa183	0.00016749468
57	0x2c7d0afb	3.5959558e-12
58	0x390a9784	0.0001321715
59	0x3939e86b	0.00017729557
60	0x2fc3bdc6	3.5605136e-10
61	0x39392afb	0.00017658986
62	0x38f2c5aa	0.00011576277
63	0x391fa832	0.00015226079

fc_3.weight f4 [64, 64]
0	0x3c8eb7fc	0.017421715
1	0x3ab0f018	0.0013499288
2	0x3b2634a6	0.002536097
3	0x3c86da9f	0.016461669
4	0x3a2ef122	0.0006673505
5	0x3b03c5f5	0.0020107005
6	0x3bb30df8	0.0054643117
7	0xbb04f6a4	-0.002028861
8	0x3c33f0ad	0.010982675
9	0x38daa204	0.00010425228
10	0x3b9c536e	0.004770688
11	0x3ccdff23	0.025146073
12	0xb98eeab8	-0.0002725923
13	0xbb3c3e86	-0.002872379
14	0x3895ab01	7.1367256e-05
15	0xbb22c45a	-0.0024836273
16	0xba639459	-0.00086814683
17	0xbbda2d68	-0.006658245
18	0xba6db432	-0.0009067684
19	0x3adcca77	0.0016845007
20	0x3bb65a9a	0.0055649998
21	0xba2d5b08	-0.0006612991
22	0x3ae91643	0.0017783124
23	0x3ca59a23	0.0202151
24	0xbb206ccd	-0.0024478913
25	0x3b58758a	0.0033029043
26	0x3c1305a3	0.008973512
27	0xbad662bd	-0.0016356331
28	0x3c121f3a	0.008918578
29	0x3c869064	0.016426273
30	0x3bde4028	0.0067825504
31	0x3ae144b0	0.0017186608
32	0x3c94be37	0.018157108
33	0x3aad46ec	0.0013219989
34	0x3a0a5dc1	0.00052782526
35	0x3a793263	0.00095061044
36	0x3c35bb56	0.011092028
37	0xba2dab43	-0.0006624946
38	0xbbaeda85	-0.005336108
39	0x3c74099f	0.014894872
40	0x3baee067	0.0053368094
41	0x3c914cf9	0.017736899
42	0x3b4029fa	0.0029321895
43	0x39c608c2	0.00037772028
44	0xbbf9aa3b	-0.00761917
45	0x3b0f4511	0.0021861235
46	0xba89145b	-0.0010458337
47	0xbb1e3cfe	-0.002414524
48	0xbaad6d58	-0.001323144
49	0x3c58a63e	0.013223229
50	0xbb347d45	-0.0027540487
51	0x3b010bbd	0.0019690834
52	0x3b868898	0.0041056387
53	0xbbc6fd7e	-0.006072699
54	0x3c87dacb	0.01658382
55	0x3a64547a	0.0008710098
56	0x3c474d2d	0.012164396
57	0xb6c59d29	-5.8893534e-06
58	0x3c182461	0.009286017
59	0x3c91abe1	0.017782154
60	0xb65f3f42	-3.326641e-06
61	0x3c1aabe2	0.009440394
62	0x3c10e62a	0.008843938
63	0xbb7953a1	-0.0038044231
64	0x399a77a5	0.0002946231
65	0x3afa2a34	0.0019086064
66	0x3baab8ff	0.0052100415
67	0xb9a990b1	-0.00032341995
68	0x39a4d70d	0.00031440743
69	0x3c959655	0.01826016
70	0xbba0b399	-0.004904222
71	0x3c8dd4f9	0.017313467
72	0xbb22b326	-0.002482602
73	0x3b143739	0.0022615923
74	0xbb4b78a4	-0.003104725
75	0xbad5b682	-0.0016305002
76	0x3c2fd0de	0.01073095
77	0x3bde7ae6	0.006789553
78	0x3c2d9213	0.010593909
79	0xbc9f29cf	-0.019429116
80	0x3c7c8a72	0.015413867
81	0xbbd61352	-0.006533065
82	0x3c0a3dfc	0.00843763
83	0x3c49c124	0.012314115
84	0xbbc1ea26	-0.0059178052
85	0x3c5a8763	0.013337943
86	0x3bf72083	0.0075417175
87	0x3b2f4379	0.0026743098
88	0x3b95ec31	0.0045752754
89	0x3aaa83bc	0.0013009231
90	0xbab7ff4d	-0.0014037878
91	0x3c586b02	0.013209106
92	0xbb939b80	-0.004504621
93	0xbb62d688	-0.0034612734
94	0x3ada05c7	0.0016633802
95	0xbb84d469	-0.0040536416
96	0x3b43767c	0.002982526
97	0x3baab5fb	0.005209682
98	0x3c3ae56f	0.01140724
99	0x3c141576	0.00903832
100	0xb933b91a	-0.00017139726
101	0x3c1d3fe8	0.009597756
102	0x3c75f5b3	0.015012193
103	0xbac7fff0	-0.001525877
104	0xb9e93c72	-0.00044486258
105	0xbb4ef548	-0.0031579304
106	0xbafdc015	-0.0019359613
107	0x3b0af92f	0.0021205654
108	0x3c01a3a2	0.007912548
109	0x3bd56038	0.0065117143
110	0x3c0bc882	0.0085316915
111	0x3bd2c3c8	0.0064320303
112	0x3c41aaac	0.0118204765
113	0xbb4f9202	-0.003167272
114	0x3bbe72df	0.0058120335
115	0x3a909331	0.0011030195
116	0xbbba3cb3	-0.0056835054
117	0xbb0c1084	-0.0021372149
118	0xbb46b7cf	-0.003032196
119	0x3bab1acd	0.0052217008
120	0xbb1d8caf	-0.0024040153
121	0x2c2c757d	2.450789e-12
122	0xbb3ecfa3	-0.002911546
123	0xbb2df988	-0.0026546437
124	0xb254024b	-1.23405455e-08
125	0xbb7616da	-0.0037550242
126	0xbb4f1c50	-0.003160257
127	0x3b27efae	0.0025625038
128	0x3b93c2dd	0.0045093135
129	0xbba30970	-0.0049754903
130	0xbaf7e9ee	-0.0018914321
131	0x3bb21db2	0.005435669
132	0x3c4c2d5f	0.012461989
133	0x3b110e48	0.0022133756
134	0x3b83eba1	0.004025892
135	0x3a543821	0.0008095522
136	0x3bbd5cf6	0.005778904
137	0x3a82b620	0.000997249
138	0x3bf82c1b	0.007573617
139	0x3bb220e7	0.005436051
140	0xbb53dd00	-0.0032327771
141	0xbb1f28f2	-0.002428588
142	0xbbdab43f	-0.006674319
143	0xbb625611	-0.0034536163
144	0xbb6b3d25	-0.00358946
145	0xbb8e0297	-0.004333805
146	0xbac31a39	-0.0014885134
147	0x3a4ceeb0	0.00078175496
148	0x3bd68295	0.0065463283
149	0x3b5bb68e	0.003352556
150	0xbb1a6855	-0.0023560722
151	0x3af5df84	0.001875863
152	0xbbaacc15	-0.0052123168
153	0x3c18b718	0.009320997
154	0x3c1ce5bd	0.009576258
155	0xba99b184	-0.0011725877
156	0x3c1d499b	0.009600068
157	0x3be84779	0.0070885983
158	0x3c426044	0.011863772
159	0x3c5b5e27	0.013389147
160	0x3bacc08f	0.005271978
161	0xbb9fa449	-0.0048718792
162	0xbb7eae59	-0.0038861244
163	0x3a5350bc	0.00080610416
164	0x3c6d5358	0.014485203
165	0xb9c8f99c	-0.00038332946
166	0xbb922d42	-0.0044609616
167	0x3b76c475	0.0037653719
168	0xbac2d1d2	-0.0014863557
169	0x3c86e052	0.016464386
170	0x3c69ae07	0.014262683
171	0xba2cd959	-0.00065936666
172	0xbb78b2d3	-0.0037948384
173	0x3b325974	0.0027213963
174	0xbba2ceff	-0.0049685235
175	0xbb3cc9dd	-0.0028806843
176	0xba93c7d1	-0.001127476
177	0x3b0bbab9	0.0021321012
178	0xbaf33efc	-0.00185582
179	0xba8a02ac	-0.0010529361
180	0x3c7bbcac	0.015364807
181	0x3b46e9bc	0.003035172
182	0x3c301d84	0.010749225
183	0xbb81441d	-0.0039448873
184	0x3b562762	0.0032677283
185	0x314f4dd9	3.0166716e-09
186	0x3c9a4b71	0.018834801
187	0x3b87169a	0.0041225674
188	0x316c7c58	3.4413201e-09
189	0x3b642170	0.003480997
190	0x3be36da5	0.006940561
191	0xbbbabce6	-0.005698788
192	0x3c37ac33	0.011210489
193	0xbbf32e8e	-0.0074213212
194	0xbbae8736	-0.005326177
195	0x3c6eade5	0.014567827
196	0x3b98be32	0.004661345
197	0xbb216d2c	-0.0024631722
198	0xbbb9846f	-0.0056615393
199	0xb984f356	-0.000253583
200	0x3c43b41d	0.011944798
201	0xbaf698a7	-0.0018813804
202	0x3c38b877	0.011274449
203	0x3c88a4e9	0.016680198
204	0xbaa788c0	-0.0012781844
205	0xbb84ee50	-0.0040567294
206	0xbbbfe405	-0.0058560395
207	0xbbcb89fa	-0.0062115164
208	0xbbc8e684	-0.006130995
209	0xbc1f18f8	-0.009710543
210	0xbb76bc96	-0.0037649027
211	0xbb0adf9c	-0.002119041
212	0x3ba49fc8	0.00502393
213	0xbaf70418	-0.0018845825
214	0xbb3ccd37	-0.002880884
215	0x3ba900e2	0.005157576
216	0xbc3a249e	-0.011361269
217	0x3c23b2f9	0.009991401
218	0x3cd954cb	0.02652969
219	0xbb3fcc68	-0.0029266123
220	0x3c8552a9	0.016274767
221	0x3c50840c	0.012726795
222	0x3c96cf09	0.018409269
223	0x3c6276a2	0.01382223
224	0x3c38589d	0.011251596
225	0xbac7601c	-0.0015211138
226	0xbbbb9e7a	-0.005725679
227	0xbb983f9f	-0.004646256
228	0xba581993	-0.0008243557
229	0xbb8dbb8d	-0.0043253363
230	0xbb349d26	-0.0027559488
231	0x3bf68753	0.007523456
232	0x3c1c0020	0.009521514
233	0x3bdcfcb3	0.0067439913
234	0x3b2f8603	0.0026782758
235	0xbbbeb50f	-0.0058199237
236	0xbacca2e8	-0.0015612515
237	0xbaf0918a	-0.0018353921
238	0xbbe743be	-0.007057636
239	0xbb557c9a	-0.003257549
240	0xba5263c6	-0.00080257317
241	0x3c9ccd9f	0.019141017
242	0xbbd5c6d9	-0.0065239486
243	0xbb1d9838	-0.0024047028
244	0x3c82c193	0.015961444
245	0xb9adef95	-0.00033175634
246	0x3bf1aa38	0.007375028
247	0xbbd360ab	-0.0064507327
248	0x3c9ba9e4	0.019001909
249	0xadb5b33e	-2.0656917e-11
250	0x3c57d451	0.013173179
251	0xbbbb2918	-0.005711686
252	0x327383c5	1.41744225e-08
253	0x3c97a264	0.018510051
254	0x3c6b335e	0.014355509
255	0xbbb1a49d	-0.0054212348

fc_3.bias f4 [64]
0	0x31eddc9c	6.922688e-09
1	0x34130761	1.3693126e-07
2	0xb4fa4921	-4.6619337e-07
3	0x33d11931	9.736903e-08
4	0x333bd806	4.3735803e-08
5	0xb3196548	-3.5715203e-08
6	0xb490127c	-2.683554e-07
7	0xb306e40f	-3.1406724e-08
8	0xb4b93ef3	-3.4504737e-07
9	0xb2037da5	-7.653772e-09
10	0x3410c17b	1.3481433e-07
11	0xb40b3a6d	-1.2966639e-07
12	0x336ed880	5.56106e-08
13	0xb4806279	-2.3913506e-07
14	0xb427508b	-1.5582388e-07
15	0x33289f00	3.9260158e-08
16	0xb4ef0ed2	-4.4528002e-07
17	0xb32daf92	-4.043938e-08
18	0xb4a04c50	-2.9857847e-07
19	0xb2b2e830	-2.0827514e-08
20	0x336de267	5.5386774e-08
21	0x341c235a	1.4541493e-07
22	0x33f3c05c	1.1350559e-07
23	0x349044ee	2.6872243e-07
24	0xb440ee5d	-1.796811e-07
25	0xb4227bdf	-1.513249e-07
26	0x321e4a45	9.213697e-09
27	0x33ac6c02	8.029021e-08
28	0x328b64a2	1.6227492e-08
29	0xb3331cfe	-4.1703053e-08
30	0x34be14e5	3.540546e-07
31	0x3474fbdc	2.2815897e-07
32	0xb320af64	-3.741242e-08
33	0x33da3114	1.0160343e-07
34	0x34cd6185	3.825518e-07
35	0xb32f803a	-4.0861984e-08
36	0xb468dce6	-2.1687046e-07
37	0x34afce69	3.2746473e-07
38	0x338815fa	6.336991e-08
39	0xb3831400	-6.103801e-08
40	0xb3cea63b	-9.62286e-08
41	0xb3939624	-6.872531e-08
42	0x33cc8feb	9.525669e-08
43	0xb330b36a	-4.114137e-08
44	0xb3edf413	-1.1080569e-07
45	0xb400dc54	-1.2001084e-07
46	0x32a74528	1.9472807e-08
47	0x3510b2bd	5.390428e-07
48	0xb48ef826	-2.6630113e-07
49	0x341d6aec	1.4660662e-07
50	0x339d9583	7.338078e-08
51	0xb48781b0	-2.524007e-07
52	0x33b23400	8.29823e-08
53	0x336c4dd1	5.5018806e-08
54	0x34534671	1.9676533e-07
55	0x323635b5	1.0606006e-08
56	0xb4091a5a	-1.2768706e-07
57	0x316d8948	3.4566074e-09
58	0x3223a176	9.524561e-09
59	0x33685286	5.4091764e-08
60	0x34d2cb8f	3.9263657e-07
61	0xb41f103a	-1.4813932e-07
62	0x339ab821	7.204677e-08
63	0x34900dc5	2.683211e-07

f_bn3.weight f4 [64]
0	0x3d921e8b	0.07134732
1	0x3d35bf33	0.044371795
2	0x3d4329c8	0.047647268
3	0x3d835cc7	0.0641418
4	0x3d72704a	0.05918912
5	0x3d683540	0.05669141
6	0x3da21128	0.079134285
7	0x3d8a8d92	0.06765284
8	0x3d8e5273	0.0694932
9	0x3c089341	0.008335889
10	0x3d8825f2	0.066478625
11	0x3d692aa6	0.05692544
12	0x3d4b75a6	0.049672745
13	0x3d7fc112	0.062439986
14	0x3d9fe95e	0.07808183
15	0x3d626ec8	0.05528143
16	0x3d3ff890	0.046867907
17	0x3d8e77c7	0.069564395
18	0x3d7ac434	0.06122227
19	0x3d8f89d7	0.07008713
20	0x3d90e287	0.07074457
21	0x3d86a840	0.0657506
22	0x3d819b81	0.06328488
23	0x3d8976d3	0.06712117
24	0x3d9e862d	0.07740436
25	0x3d9be953	0.076128624
26	0x3d6d27dd	0.057899345
27	0x3d7d39d5	0.06182273
28	0x3dbd6e47	0.09249549
29	0x3d9cffa2	0.076659456
30	0x3da1b9b7	0.078967504
31	0x3d9db155	0.07699839
32	0x3d8706c4	0.06593087
33	0x3d1c8446	0.038212083
34	0x3d7531fb	0.05986212
35	0x3d7a812f	0.061158355
36	0x3d69a198	0.057038873
37	0x3d9a44fd	0.0753269
38	0x3d803c41	0.062614925
39	0x3d6c8e14	0.057752684
40	0x3d6ffc24	0.05859007
41	0x3d91aa1c	0.07112524
42	0xbd65c391	-0.05609471
43	0x3d387e68	0.045042425
44	0x3d841d74	0.0645093
45	0x3d840600	0.06446457
46	0x3d9a37cc	0.07530174
47	0x3d6da72c	0.058020756
48	0x3d8112e1	0.06302429
49	0x3d7186b1	0.058966342
50	0x3d578a88	0.052622348
51	0x3d6ec2b5	0.058291156
52	0x3d5293df	0.051410552
53	0x3d6a372a	0.057181515
54	0x3d79b3d8	0.060962528
55	0x3d97c0a2	0.07409789
56	0x3d4722e2	0.04861725
57	0x3d9883fc	0.07447049
58	0x3d8dd4d0	0.069253564
59	0x3d5a6140	0.0533154
60	0x3d300d7b	0.042981606
61	0x3d88f62b	0.06687578
62	0x3d84ccc9	0.06484372
63	0x3d8ed92e	0.069750175

f_bn3.bias f4 [64]
0	0xba0ee79e	-0.0005451384
1	0x3c536eaf	0.012904807
2	0x3c6f711e	0.014614372
3	0x3c25d8ef	0.010122522
4	0x3c44cf14	0.012012262
5	0x3c8c18c3	0.017101651
6	0x3c9b2363	0.018937772
7	0x3c839c74	0.016065814
8	0x3c27f20d	0.0102505805
9	0x3a2b9906	0.00065459346
10	0x3c7f2429	0.015572586
11	0x3c52e313	0.0128715215
12	0x3c785b39	0.015158468
13	0x3ba3076e	0.004975251
14	0x3c8f58b9	0.017498361
15	0x3c8fc393	0.017549312
16	0x3c69b3a0	0.014264017
17	0x3ca11b4d	0.019666338
18	0x3c74c333	0.014939117
19	0x3c591ff2	0.013252245
20	0x3b7ad3c0	0.0038273185
21	0x3c9b93d1	0.018991383
22	0x3ca6e812	0.020374332
23	0x3c7acfac	0.015308302
24	0x3c8be1e3	0.017075485
25	0x3c40c6e2	0.011766167
26	0x3c90e968	0.017689422
27	0x3c865cc4	0.016401656
28	0xbbf536c5	-0.0074833357
29	0x3c7fc45a	0.015610779
30	0x3c1a0bc4	0.009402219
31	0x3c6f95a8	0.014623083
32	0x3c98f486	0.018671285
33	0x3c6df4bd	0.014523682
34	0x3c6c2289	0.014412531
35	0x3c4a46ac	0.012345951
36	0x3c750276	0.0149542
37	0x3c94e43f	0.018175242
38	0x3c846e17	0.016165776
39	0x3c7fbe1f	0.015609293
40	0x3c954fca	0.018226523
41	0x3c66601b	0.014060999
42	0x3cb6bbbb	0.022306314
43	0x3c5645e6	0.0130781885
44	0x3c204284	0.009781484
45	0x3cac8f57	0.021064444
46	0x3c8d6d85	0.017264137
47	0x3c3f0de4	0.011661027
48	0x3c49e1ff	0.012321948
49	0x3c803b7a	0.01565336
50	0x3c2fc0ef	0.010727151
51	0x3c572547	0.013131446
52	0x3c6c337d	0.014416573
53	0x3c6d3782	0.014478566
54	0x3c510a40	0.012758791
55	0x3c6c0ebc	0.01440781
56	0x3c2fec0c	0.01073743
57	0x3c995e51	0.018721731
58	0x3c367153	0.011135417
59	0x3c661b91	0.014044658
60	0x3c4bf271	0.012447939
61	0x3c981fb5	0.018569807
62	0x3c6f4e1b	0.014606024
63	0x3c657919	0.014005923

f_bn3.running_mean f4 [64]
0	0x3b817668	0.0039508827
1	0x3b3cc8ce	0.0028806212
2	0x3b0d4d36	0.0021560914
3	0x3afb35fa	0.0019165867
4	0x3b2d12f7	0.002640901
5	0x3b496682	0.0030731265
6	0x3b482370	0.00305387
7	0x3b65a905	0.003504337
8	0x3a9c7214	0.0011935853
9	0x39811095	0.00024617152
10	0x3b6d2658	0.0036186185
11	0x3ad3675b	0.0016128825
12	0x3b24abd2	0.0025126827
13	0x3b0b3124	0.0021239007
14	0x3b30a23a	0.0026952163
15	0x3b6ca7dd	0.0036110796
16	0x3b49f827	0.0030818076
17	0x3b8c83c4	0.0042881686
18	0x3b41f1ca	0.002959358
19	0x3acbad37	0.0015539293
20	0x3accaedd	0.0015616078
21	0x3b78bc7e	0.0037954147
22	0x3b68a689	0.0035499653
23	0x3ae26d94	0.0017275088
24	0x3b2e78c3	0.0026622273
25	0x3ac378eb	0.0014913356
26	0x3b4bd668	0.0031103138
27	0x3b5261cf	0.0032101755
28	0xba5998af	-0.00083006447
29	0x3b00d6d5	0.00196593
30	0x39fcab3f	0.00048192774
31	0x3b2d8aa0	0.0026480332
32	0x3b868ce6	0.004106152
33	0x3b20614d	0.0024472058
34	0x3ad9c920	0.0016615726
35	0x3b65fc50	0.0035093017
36	0x3b6cb2d8	0.0036117341
37	0x3b0ddf32	0.0021647927
38	0x3b71b936	0.0036884076
39	0x3b46f744	0.0030359784
40	0x3b683876	0.0035434044
41	0x3b06fe2c	0.0020598276
42	0xbba357f1	-0.0049848487
43	0x3b065f80	0.00205037
44	0x3a6a9b4b	0.0008949532
45	0x3b45d565	0.0030187008
46	0x3b83b3bf	0.00401923
47	0x3affece7	0.0019525558
48	0x3a9c55fc	0.0011927481
49	0x3b27a6d7	0.0025581622
50	0x399a8154	0.00029469526
51	0x3b0a5163	0.002110564
52	0x3b0adbb6	0.0021188087
53	0x3b69dec7	0.0035685764
54	0x3a9e945e	0.001209866
55	0x3afd1bc3	0.0019310642
56	0x3acbf0fe	0.0015559492
57	0x3b0d19b6	0.0021530217
58	0x3acd46be	0.0015661342
59	0x3b17395e	0.0023074965
60	0x3b0ac539	0.0021174683
61	0x3b4e028c	0.0031434624
62	0x3ae99969	0.0017822209
63	0x3af92894	0.0019009286

f_bn3.running_var f4 [64]
0	0x392eb1c0	0.0001666015
1	0x38c7ec57	9.533081e-05
2	0x38f2e6ac	0.00011582425
3	0x395c95ec	0.00021036685
4	0x39399658	0.00017698982
5	0x3927ff7b	0.00016021535
6	0x39b6779f	0.0003480287
7	0x3958571a	0.00020631813
8	0x3936312c	0.0001737519
9	0x35db2323	1.6326998e-06
10	0x393b0893	0.00017836904
11	0x393b351a	0.00017853492
12	0x3908508b	0.00012999975
13	0x390842d1	0.00012994862
14	0x39b5e116	0.00034690712
15	0x3924c212	0.00015712556
16	0x38de5e71	0.00010603376
17	0x39841bc0	0.00025197677
18	0x394a5edf	0.00019299563
19	0x3982bd10	0.00024936395
20	0x3923944e	0.00015600139
21	0x394e2e7a	0.00019663005
22	0x393da736	0.00018086736
23	0x39782a4a	0.00023666877
24	0x3993c7bf	0.00028186847
25	0x39812482	0.00024631998
26	0x39596eda	0.00020736028
27	0x39485537	0.00019105231
28	0x391f65aa	0.00015201294
29	0x398fdcd0	0.00027439604
30	0x399ecf44	0.00030290533
31	0x39b38653	0.0003424162
32	0x3973af70	0.00023239641
33	0x38c9193c	9.589127e-05
34	0x39230132	0.00015545337
35	0x39389ff7	0.00017607199
36	0x39442876	0.0001870709
37	0x398d65d9	0.00026969498
38	0x39648e0e	0.00021796694
39	0x39385f3e	0.00017583088
40	0x39143c98	0.00014136953
41	0x3990e316	0.00027635013
42	0x38bdfc96	9.05927e-05
43	0x38d4b29b	0.000101422156
44	0x392ef956	0.00016686818
45	0x393324a9	0.00017084427
46	0x398a66d0	0.00026398012
47	0x39232aa7	0.0001556078
48	0x39632f1f	0.00021665961
49	0x3951494b	0.00019959097
50	0x390b5fee	0.0001329181
51	0x394743d5	0.00019003388
52	0x391ceec3	0.00014966265
53	0x392990f4	0.00016171095
54	0x396bdfc2	0.00022494703
55	0x39a808f4	0.00032050128
56	0x3917e59a	0.00014486015
57	0x39ad8c3b	0.0003310161
58	0x398e560d	0.00027148463
59	0x391eadaf	0.00015132756
60	0x38955a9a	7.1217495e-05
61	0x3942fac7	0.00018594704
62	0x395c17b0	0.00020989659
63	0x398744b5	0.00025800397
