code/model/seed_922/QDANN_P_corn_2018.pth (torch, 34664 bytes, 17 tensors)

r_bn0.weight f4 [32]
00000000: 9cbc 083a c8a7 ed3b 8c06 b63b b7db 1c3b
00000010: a55c a137 58fa 963e 3985 da38 0155 b639
00000020: e27e 3b39 bb34 0439 7708 173c f798 7f3a
00000030: 5412 4b39 b032 5139 0907 0c3a 86b6 0d39
00000040: 1234 403b d755 f639 eada af3b a142 043a
00000050: 28a2 353a e640 f83c c49f 2b3a 5713 a13a
00000060: 8bde bc38 7e06 bd38 4c45 5a3b 249c 453a
00000070: 4240 7d3a b34f c338 5829 f03b 86d9 8b3b
0.0005216093 0.007252667 0.0055549797 0.0023934671 1.9235837e-05 0.29487872 0.00010419865 0.00034777078
0.00017880977 0.00012608145 0.009218327 0.00097502716 0.00019366416 0.00019950676 0.00053416245 0.00013514803
0.0029327911 0.00046984732 0.0053666728 0.0005045329 0.0006928765 0.030304383 0.0006546939 0.0012289089
9.0059904e-05 9.0134316e-05 0.0033305464 0.00075382204 0.0009660759 9.31317e-05 0.0073291473 0.004267874

r_bn0.bias f4 [32]
00000000: d926 35b0 35af 9ab1 09a2 2230 797c 0031
00000010: d247 19ac f8b2 f4b2 c565 4e2d 64bd c1af
00000020: b27d 9daf f806 edae 8ce0 1431 1a25 a7af
00000030: 2371 862d c984 fdaf 62f7 b930 0f41 f22f
00000040: 74c2 9130 cc39 50b0 439f 9eb1 ea89 ffad
00000050: d221 74ae 51b7 a232 a6d1 ad2f e298 8daf
00000060: 7c7e e02e a4b4 602e 1d3b f631 38dc 12b0
00000070: abaa 17b0 203c edae 971b 2731 a6d8 e22f
-6.590262e-10 -4.5019086e-09 5.916552e-10 1.8697206e-09 -2.1782476e-12 -2.8486724e-08 1.1732342e-11 -3.5241066e-10
-2.8647446e-10 -1.077875e-10 2.1664475e-09 -3.0403485e-10 1.5284279e-11 -4.6114781e-10 1.3530832e-09 4.406577e-10
1.0605405e-09 -7.5752093e-10 -4.616511e-09 -2.905139e-11 -5.5509215e-11 1.8942645e-08 3.161748e-10 -2.575638e-10
1.0208809e-10 5.1092144e-11 7.1662627e-09 -5.342744e-10 -5.5176014e-10 -1.07881926e-10 2.4317381e-09 4.1263098e-10

r_bn0.running_mean f4 [32]
00000000: 8ab1 4e37 48d3 9e39 b571 3d3a 1b0d c139
00000010: d2a9 d6b4 1216 dc3c 2bd0 f6b5 dab5 0a37
00000020: 4b6c b2b7 83aa 1937 25cd 88ba 9429 18b8
00000030: 2a65 c636 13e8 48b7 aa1d d737 239d 1239
00000040: bc03 b6b9 0728 e3b7 4ccd 4f3a d279 1437
00000050: 52fe 3b37 c421 72bb f5f9 3f37 2a1b 8038
00000060: 9e54 7037 39ab 83b6 2794 9439 6b64 2f38
00000070: ca33 a738 d1c6 8a36 4c3a 803a 7fab 04ba
1.2319893e-05 0.00030293525 0.00072267215 0.00036821593 -3.9984167e-07 0.026865993 -1.8389013e-06 8.267782e-06
-2.1269681e-05 9.159211e-06 -0.0010437114 -3.6278347e-05 5.912637e-06 -1.1974963e-05 2.564381e-05 0.00013982183
-0.00034716527 -2.7079148e-05 0.0007927015 8.849851e-06 1.1205282e-05 -0.0036946395 1.1442685e-05 6.108575e-05
1.4324816e-05 -3.924037e-06 0.00028339142 4.1816773e-05 7.972827e-05 4.1358658e-06 0.0009782999 -0.00050609553

r_bn0.running_var f4 [32]
00000000: 55d4 8933 b4c1 0636 eaa8 f536 c13c 1836
00000010: 511e 122c dd4a b03c a1d6 db2e daeb 6332
00000020: 4943 9932 042e 9d30 4aa2 3237 cc49 5b34
00000030: ca19 1e31 aa20 de30 00b2 1b34 cb43 8c34
00000040: 6698 1236 6399 6a33 25ac 3437 93eb f232
00000050: a8d3 4433 dc80 1239 18d1 1c34 2922 0c35
00000060: a801 c930 8601 1d30 8d9f 1a37 77e6 1633
00000070: d310 3b34 128f 6630 2f77 3c37 f15d 8836
6.4181826e-08 2.0080306e-06 7.321233e-06 2.2685128e-06 2.0764677e-12 0.021520073 9.997093e-11 1.32667655e-08
1.7842142e-08 1.1436332e-09 1.0647413e-05 2.0422812e-07 2.3006685e-09 1.616191e-09 1.4500256e-07 2.6126358e-07
2.1844403e-06 5.4621875e-08 1.0768917e-05 2.8279635e-08 4.5827306e-08 0.00013971649 1.46047e-07 5.2203774e-07
1.4625146e-09 5.711843e-10 9.216264e-06 3.5134203e-08 1.7421853e-07 8.387683e-10 1.1233423e-05 4.064052e-06

r_fc1.weight f4 [64, 32]
00000000: 8af7 1eb8 071b 50ba c514 64b9 02a0 1cb8
00000010: 2b13 53b2 4aee d5bc c1ba 25b4 d7ed 0e39
00000020: d54d 01b7 fd28 19b8 6f6a ec39 a719 0d39
00000030: 384f 2636 99c9 54b7 9819 3cb8 4576 cc37
00000040: de02 99ba 6dad 8036 8f1b cfb9 e280 20b8
00000050: 3795 56b7 f9cf 953a 496e bdb7 6847 cab9
00000060: 4328 a735 acbe fd36 25f9 a4b9 2a31 bbb7
00000070: e997 a9b6 ce28 c835 9ac5 99b9 06b5 ca38
00000080: 7b87 3534 a105 8e32 3332 1237 d4c5 9b33
00000090: 406f cf2b 7f94 fb37 275a d32c 20c9 a7ae
000000a0: 5533 4932 d9c6 0bac 4523 ceb2 a09a ceb2
000000b0: df36 c2b1 537b 8eb1 1a75 f834 1746 b8b2
000000c0: 3430 87b5 db79 1434 477e 0337 ead4 b834
000000d0: ee2c 9b33 d706 24b5 af35 4934 3c93 ab34
000000e0: a682 76b0 0cd6 5f31 2bfd c735 6916 8830
000000f0: 8735 e632 db9e b1ae ac2c de32 4a10 9db1
00000100: ef12 c3b5 a596 bbb9 0c83 1db8 be44 5a39
00000110: 8e0a a832 9c8c c5bc 0ee2 3234 021e d135
00000120: 6d45 3836 d037 e5b3 c89e 1dba 584e 4336
00000130: c776 f234 ab85 11b5 5110 0235 69c4 1cb8
00000140: 4661 93b7 d284 4fb5 3505 f238 44db e5b5
00000150: be55 b835 dedd 60b9 f875 8937 b849 c7b7
00000160: e55b 8cb5 c681 a734 f9f6 3e39 2b34 da37
00000170: f858 6736 e7cf 19b3 2ee1 5f39 3a91 59b8
00000180: 81d0 a036 8979 0cba 71b5 8ab9 7269 3539
00000190: 4b1c 7834 7571 cebc 2b10 2935 c621 bd36
000001a0: e934 5e37 59a8 c6b6 252b 4a38 a470 9b38
000001b0: 7359 e0b6 b222 a1b6 365b 4bb7 39ae b0b7
000001c0: fa3d 5d38 8a36 ff36 2ffc 98b9 20b9 a1b7
000001d0: c6c4 6737 fd4c 053b 7392 6d37 b113 ccb8
000001e0: 93fa b0b6 5ddc e635 9588 bdb8 fe3c 2538
000001f0: f58f 32b8 7adf cb34 d150 51b9 d240 8b39
00000200: 912e 4fb9 877a fab7 4fcd c3b9 cd4e 80b9
00000210: 3106 96b6 cd41 56ba a734 2835 7a4a e736
00000220: 9ab5 04b8 3456 3238 d6f1 ae39 e3af eeb8
00000230: fc11 ca36 9daa e833 3b9b 60b8 cd8c 0d37
00000240: 3004 1039 037a 8137 c06e 1eba 74aa 05b6
00000250: 2ff6 13b7 3a05 f23a 6025 8ab8 a4b6 55b8
00000260: 9565 9436 f0a2 26b6 76c0 8e3a fd02 ddb6
00000270: cbf6 37b8 582a 9736 237f 2e38 0c1f a038
00000280: e144 b8b7 de4c d9b9 407b 0aba 848b c4b8
00000290: 0c61 3bb5 76e1 5ebc 4484 49b4 98e0 5437
000002a0: 76ac aeb6 0dab 4435 43b4 ad39 3c79 8e38
000002b0: ed0d 9435 7951 3f33 dcfb 0fb8 5d8c 6437
000002c0: 6586 5839 ad77 5537 e1b9 6cba 0b70 d8b7
000002d0: 2761 bcb7 7ab3 013b 0628 f2b7 8d96 09b9
000002e0: 97ac 7f35 32a0 02b5 b6ea 21ba 59bb 7ab7
000002f0: 83f7 0db8 48da fc34 7137 2dba d9a0 f139
00000300: cd3c c6b7 80f9 98b8 d945 50b8 9a40 e2b8
00000310: 772b e9b3 60e6 b7bc 6958 0335 c60f df37
00000320: daef dbb7 54af d536 b545 0d39 f75a 72b9
00000330: dac5 1737 469b 3136 ea8f 3cb8 bf03 5738
00000340: 2c8f 053a 5dc2 8537 ef98 abb8 9b4c 8138
00000350: be39 c137 52c1 843a a9c4 d3b7 1001 9f37
00000360: a949 e535 fcbf 7db6 0100 96b9 97bd 34b7
00000370: 8e20 94b8 177a 8d35 4d02 163a a490 04ba
00000380: 70bd d9b6 58df b7b9 8219 e5b8 979e f137
00000390: 61a3 8cb2 f760 bfbc 4fb2 39b4 b558 1137
000003a0: 704f 81b7 7063 0038 5acf 92b9 991d 42b8
000003b0: 489a f936 859b 0e37 4645 b4b6 5369 3238
000003c0: 74cc 1638 6acb dc37 e224 8fb9 acc3 40b7
000003d0: bb7d b1b7 eae1 b83a bce3 07b8 2ce0 bbb7
000003e0: 622c 49b6 776d ccb4 c599 95b9 28a5 96b7
000003f0: 782f fcb8 9469 0d37 55ea afb9 c91c 2238
-3.7900674e-05 -0.00079385977 -0.00021751512 -3.7342317e-05 -1.2286175e-08 -0.026114602 -1.5434763e-07 0.00013630778
-7.707121e-06 -3.6516216e-05 0.00045092727 0.00013456364 2.478204e-06 -1.2683123e-05 -4.484653e-05 2.4373769e-05
-0.0011673828 3.8348867e-06 -0.0003950265 -3.8267004e-05 -1.2790136e-05 0.0011429779 -2.2581911e-05 -0.00038581644
1.2454187e-06 7.5621847e-06 -0.00031466145 -2.2315031e-05 -5.054277e-06 1.4913037e-06 -0.0002932966 9.665829e-05
1.6906226e-07 1.6533535e-08 8.713966e-06 7.253735e-08 1.4739113e-12 2.999068e-05 6.0069896e-12 -7.630008e-11
1.1711411e-08 -1.986347e-12 -2.3997595e-08 -2.4051872e-08 -5.6523812e-09 -4.1467643e-09 4.6278802e-07 -2.1452292e-08
-1.0072313e-06 1.3827905e-07 7.83761e-06 3.4427586e-07 7.2259226e-08 -6.1104714e-07 1.8739114e-07 3.195836e-07
-8.967994e-10 3.2572443e-09 1.4900337e-06 9.901672e-10 2.6799865e-08 -8.0772465e-11 2.5864516e-08 -4.5711532e-09
-1.4534143e-06 -0.00035779658 -3.7553764e-05 0.00020815709 1.9562574e-08 -0.0241149 1.665978e-07 1.5580447e-06
2.7458548e-06 -1.0673796e-07 -0.0006012735 2.9102866e-06 4.5162435e-07 -5.421122e-07 4.845252e-07 -3.737622e-05
-1.7569062e-05 -7.730679e-07 0.00011540429 -1.7125644e-06 1.3734023e-06 -0.00021444957 1.6386606e-05 -2.3756977e-05
-1.0457558e-06 3.1200597e-07 0.00018211816 2.6011918e-05 3.447347e-06 -3.5812175e-08 0.00021350823 -5.1872084e-05
4.7926446e-06 -0.00053586863 -0.00026456596 0.00017300787 2.3107093e-07 -0.025200585 6.2980934e-07 5.6365707e-06
1.324455e-05 -5.920458e-06 4.8200734e-05 7.411957e-05 -6.6861335e-06 -4.802213e-06 -1.212098e-05 -2.1061964e-05
5.2748226e-05 7.6059414e-06 -0.0002917959 -1.9278901e-05 1.3814488e-05 0.0020340078 1.4160399e-05 -9.731146e-05
-5.2743794e-06 1.720047e-06 -9.037663e-05 3.939587e-05 -4.2572578e-05 3.7974297e-07 -0.000199619 0.0002656044
-0.00019758406 -2.9859379e-05 -0.00037346265 -0.00024472774 -4.471069e-06 -0.0008173257 6.2661496e-07 6.8930067e-06
-3.1640382e-05 4.251879e-05 0.00033368048 -0.00011381486 6.022163e-06 1.0834376e-07 -5.355033e-05 8.437038e-06
0.0001373447 1.5434814e-05 -0.0006043725 -1.9917761e-06 -8.819202e-06 0.0018464692 -6.5873144e-05 -5.0953255e-05
4.4225694e-06 -2.483077e-06 0.0010891098 -6.586661e-06 -4.3860444e-05 4.50508e-06 4.1603238e-05 7.6351775e-05
-2.1966584e-05 -0.00041446736 -0.0005282648 -9.371995e-05 -6.980415e-07 -0.013603559 -1.8767702e-07 1.2688477e-05
-5.205681e-06 7.32646e-07 0.00033131437 6.793669e-05 1.1030912e-06 4.4544752e-08 -3.432842e-05 1.362254e-05
0.00020649431 1.27236535e-05 -0.00090303837 -2.580138e-05 -2.2456587e-05 0.0019790814 -2.8867285e-05 -0.00013121423
9.5246054e-07 -4.866189e-07 -0.0006176637 -1.49447815e-05 -3.3847533e-05 4.7097478e-07 -0.00066076877 0.00046086943
-2.3631752e-05 -7.294398e-05 -4.9656115e-05 -0.00010788553 -1.0857814e-07 -0.022448719 4.8929957e-07 2.6591017e-05
-2.6218524e-05 6.3683055e-06 0.00013472776 -0.00023112806 9.046367e-06 2.6465436e-06 -4.4956723e-05 5.1263483e-05
0.00050948816 1.5945343e-05 -8.1824015e-05 6.165468e-05 2.3034281e-05 0.0010128415 -2.5244737e-05 1.8954772e-05
1.7083267e-06 -3.7811687e-06 -0.00028610232 -1.0772978e-05 -7.063254e-05 1.0540851e-06 0.0005722389 -0.00050569535
-6.4891574e-06 -0.00035070884 -0.00010924322 2.8803288e-05 -1.6372441e-08 -0.023361666 -1.7294336e-07 8.663327e-06
-1.541499e-05 3.0610187e-05 -0.0002800178 -4.628077e-05 7.438739e-06 8.500069e-06 -5.3724825e-06 4.2536598e-05
3.59532e-05 2.6320766e-05 -0.00027302565 -1.148965e-05 -2.1158592e-05 0.0014105414 -3.2398602e-05 -2.2396525e-05
-2.9977168e-06 -3.8077607e-07 -0.00028534062 -1.79583e-05 -0.00012025138 8.428837e-06 -0.00033553192 3.8650618e-05

r_fc1.bias f4 [64]
00000000: 1c3f 8434 e400 0080 3d1d 87b4 5fa7 4934
00000010: 4320 2f2d 3f38 13b2 0f06 3cb4 89ce 85b4
00000020: f47c 3b34 e09e a0b2 7601 0080 2d84 30ac
00000030: 31f6 1e35 d406 0000 1ad0 d0b3 4c6e a733
00000040: 2923 7e34 c6f6 01b5 0df4 8234 e8c0 c633
00000050: 6dd2 f532 4625 deb4 c504 0080 8410 9b23
00000060: ac45 f0b0 51d0 e9b4 6830 0eb3 9fe3 71b4
00000070: 8178 7235 b9c2 a72f a7e0 7f34 ca90 2f34
00000080: 86f8 fcb3 2b3a 0e35 64cf cc34 5127 92b2
00000090: 556b b6b2 13b3 cf34 9cae 01b2 0457 1934
000000a0: a1fe 67b3 3bf3 0c35 5517 0ab5 7266 d432
000000b0: aeaa 1d9c 945f 7933 ddd6 6534 d867 a8b4
000000c0: 088e 76af 97bf 3cb5 b306 0080 7407 0080
000000d0: e01e 6eb4 f423 7db3 0088 1a35 f950 0eb5
000000e0: ddf2 b7b4 cf98 9ab5 f22e bc33 31b5 7334
000000f0: dd3e 20b3 215d 13ab 3442 8bb3 709b 72b5
2.4632834e-07 -3.2e-43 -2.5166983e-07 1.8780473e-07 9.954762e-12 -8.569315e-09 -1.7511069e-07 -2.4923455e-07
1.746119e-07 -1.86987e-08 -5.24e-43 -2.5084477e-12 5.921784e-07 2.45e-42 -9.723608e-08 7.7966064e-08
2.3668385e-07 -4.841535e-07 2.4391957e-07 9.255183e-08 2.8617444e-08 -4.1377842e-07 -1.711e-42 1.6812128e-17
-1.74821e-09 -4.3551202e-07 -3.3105977e-08 -2.2527682e-07 9.032738e-07 3.0515482e-10 2.3830454e-07 1.6350819e-07
-1.17798706e-07 5.298377e-07 3.8148858e-07 -1.7014516e-08 -2.1236398e-08 3.8687048e-07 -7.54849e-09 1.4280891e-07
-5.4015462e-08 5.250801e-07 -5.144296e-07 2.4726635e-08 -5.216754e-22 5.8061758e-08 2.1405454e-07 -3.1367995e-07
-2.2424029e-10 -7.031426e-07 -2.403e-42 -2.674e-42 -2.217671e-07 -5.8938852e-08 5.7567377e-07 -5.3016953e-07
-3.4263113e-07 -1.1518367e-06 8.7629715e-08 2.2697056e-07 -3.7310077e-08 -5.2354133e-13 -6.484734e-08 -9.0378217e-07

r_bn1.weight f4 [64]
00000000: 54c8 823d 1400 4039 bc81 643d 4ab3 993d
00000010: a972 603c a04c ef3c 1496 893d 81d4 953d
00000020: aeaa 913d a383 9a3d 07f0 1139 41a8 f33b
00000030: 0722 e33d d650 7937 3dce c03d 2f6b 773d
00000040: 9bb0 693d ff68 c23d c4aa b23d f6e7 af3d
00000050: 48b9 863d 1f8a 803d 523d 9b3a f766 e63b
00000060: 6d11 4c3d a221 9d3d b0e1 483d 4547 ac3d
00000070: 664e f43d 1ca0 c13d 3345 d83d 37b2 863d
00000080: 9f35 8c3d f7f7 813d 8fec 8e3d cef5 c63d
00000090: 9f8a 813d ad06 c93d 01c5 173d f830 c73d
000000a0: 15a5 e83d 90e9 a53d 4a15 2f3e 9c57 a73d
000000b0: adc4 cc3b 81c4 813d f92c a43d 53af b63d
000000c0: bbf6 c73c 00f1 5a3d 56ea 053b e499 393c
000000d0: 56cb a23d 846b 963d 6827 813d acbf 983d
000000e0: 77be a93d 1939 c03d 8b45 753d ff62 a83d
000000f0: 4def 273d bb85 c43b a3f3 673d abf2 9b3d
0.06385866 0.00018310576 0.055787787 0.075049 0.013699212 0.029211342 0.06718078 0.073159225
0.07112633 0.07544639 0.00013917695 0.007435829 0.110904746 1.4860378e-05 0.09414337 0.060404953
0.05705319 0.09492683 0.08723977 0.08589165 0.06578308 0.062763445 0.0011843836 0.0070313173
0.049821306 0.076724306 0.049043357 0.08412031 0.11929016 0.094543666 0.10560074 0.065769605
0.06846165 0.06346124 0.06978714 0.09714852 0.06325268 0.098157264 0.037053112 0.09726137
0.11359612 0.08101189 0.17097965 0.08171007 0.0062490315 0.06336308 0.0801639 0.08920159
0.024409642 0.05345249 0.0020433865 0.011328194 0.079489395 0.07344726 0.06306344 0.074584335
0.082882814 0.093858905 0.059880774 0.08222007 0.0409997 0.005997387 0.056628834 0.076146446

r_bn1.bias f4 [64]
00000000: 5c72 133d a039 94ba 938c 183d 5aae 013d
00000010: 47c9 99bb cad6 a2bc 155a 113d 8799 f43c
00000020: eae3 d43c ea82 023d 5490 edba ebfd 28bc
00000030: ff78 813c 49d2 02b7 cf26 cf3c 1b90 363d
00000040: 7b10 363d 003f 853c 40d6 b93c d4f8 e53c
00000050: de8d 023d 04b8 093d a38f 12ba e040 9bbb
00000060: 66d3 f1bc f04b ca3c 2a3c 27bd 8852 bd3c
00000070: ede9 633c 30c1 c63c 3fd7 623c ef9b 163d
00000080: a810 113d 236d 153d 34a8 043d 8e8a cf3c
00000090: 9383 073d 50cb e03c ab59 b0bc c76b ee3c
000000a0: 60bd 763c 4056 a23c 239a 453c 816d aa3c
000000b0: 7ef3 efba 1705 203d 6a2e f83c 6c6a 403c
000000c0: 2c2e 88bc 0374 383d 8b92 8eba f49d c6bb
000000d0: 19b2 ba3c 4d0c e93c a84e 2b3d 9493 a53c
000000e0: 46d9 063d 4091 4e3c 0311 1e3d 342c a43c
000000f0: 106f efbc c501 80bb 2b6b 193d 9291 d33c
0.035997733 -0.0011308677 0.037243437 0.031660415 -0.0046931836 -0.01987781 0.0354863 0.029858364
0.025987584 0.03186313 -0.0018124678 -0.010314445 0.015804766 -7.797565e-06 0.02528706 0.044571023
0.04444931 0.016265392 0.02268517 0.028072752 0.031873576 0.033622757 -0.00055908615 -0.0047379583
-0.029519748 0.024694413 -0.04082886 0.023110643 0.013910753 0.02426204 0.013845264 0.036769804
0.035416275 0.036481034 0.032386974 0.025334623 0.033084463 0.027440697 -0.021527132 0.029104127
0.015059799 0.019816518 0.012060675 0.020804169 -0.0018306819 0.039067354 0.03029557 0.011744123
-0.016623579 0.045032512 -0.0010877413 -0.00606131 0.022790002 0.028448248 0.04182306 0.020211972
0.03292205 0.0126078725 0.038590442 0.020040609 -0.029227763 -0.003906461 0.03745572 0.02582625

r_bn1.running_mean f4 [64]
00000000: bc73 a434 059b a1ab 0d27 6fb4 7d1e ba33
00000010: 2cd3 d82e a99c 0ab2 630c 4cb4 8888 84b4
00000020: db21 4d34 0aa0 eeb2 5313 2dad eae8 262f
00000030: e155 2a35 898c 6d2c 3501 72b3 e30d 0834
00000040: c7d2 1234 72eb d5b4 7941 5f34 395f d733
00000050: 1d37 1232 3be1 b1b4 74c2 fd2c b922 872e
00000060: 5d0d 91b1 1cf3 feb4 e7bc 11b3 fd60 88b4
00000070: c1d6 7835 95ac 82b3 ac0b 6734 bb79 4534
00000080: 5f28 3eb4 aa86 0335 824f cf34 cdb7 2db3
00000090: 6d72 2d33 919e ec34 2e50 37b2 eb80 9033
000000a0: fbfe 1033 4f36 0335 4094 18b5 8501 1934
000000b0: c88e 532d 4488 af33 8c9f 7534 bc71 a1b4
000000c0: 82b8 2f2f 7a51 20b5 82a3 b6ac 3d8e f52a
000000d0: 1791 afb4 23da 99b3 765d 0d35 6341 14b5
000000e0: 1753 91b4 b520 a4b5 aaf6 1a34 ee0e a133
000000f0: ac4a 4ab3 0454 162e f039 a632 5983 90b5
3.0631588e-07 -1.1482765e-12 -2.2272816e-07 8.666846e-08 9.8600544e-11 -8.068278e-09 -1.9003487e-07 -2.4686256e-07
1.910443e-07 -2.7779624e-08 -9.838202e-12 1.518036e-10 6.3454905e-07 3.3757738e-12 -5.6346114e-08 1.2671039e-07
1.367399e-07 -3.984565e-07 2.0792312e-07 1.00290386e-07 8.51085e-09 -3.3132696e-07 7.212281e-12 6.145257e-11
-4.2215746e-09 -4.7488072e-07 -3.393225e-08 -2.5402542e-07 9.269971e-07 -6.084989e-08 2.1517798e-07 1.839134e-07
-1.7709816e-07 4.8997265e-07 3.8614604e-07 -4.0446867e-08 4.038377e-08 4.4073798e-07 -1.0670233e-08 6.7289726e-08
3.3759516e-08 4.888033e-07 -5.6840145e-07 1.4249788e-07 1.2025665e-11 8.173859e-08 2.2875446e-07 -3.007134e-07
1.5981708e-10 -5.972321e-07 -5.190904e-12 4.361944e-13 -3.2701857e-07 -7.1642965e-08 5.2662597e-07 -5.5229447e-07
-2.706881e-07 -1.2228471e-06 1.4432104e-07 7.4998624e-08 -4.7099704e-08 3.4180672e-11 1.935129e-08 -1.0767063e-06

r_bn1.running_var f4 [64]
00000000: dcdc 7b38 a2dd af2e 47f0 5238 3889 6b38
00000010: c424 be33 b730 8c37 6575 3938 4ef5 4938
00000020: c2e5 6538 6a4c af38 ad08 e331 9b57 a135
00000030: a5c8 8838 93b4 3930 9966 8d38 5409 2038
00000040: 6215 5838 a585 8438 fb3f 8338 f0fe 8938
00000050: 5420 0338 235b 7c38 603e 4d31 d3f5 8b33
00000060: ec20 8e37 aecd 7e38 9314 f137 44fd 9f38
00000070: 03bc 3b38 beec 6638 8703 9d38 6970 f637
00000080: d79e 4338 dff9 4938 8d59 9b38 44b1 6138
00000090: affb 3f38 cca3 9e38 3f4f 0937 2173 a238
000000a0: 64bf a038 d1c9 6c38 2e29 af38 cb64 7d38
000000b0: 81a6 1f32 1452 4b38 1648 1e38 f2d2 8c38
000000c0: 156d 4937 4641 1938 4817 ea30 977a c42c
000000d0: bafa 4e38 137b dd38 0ec6 4a38 906a 6f38
000000e0: 1ff1 5a38 c9eb 9938 4750 4a38 0f2b 9838
000000f0: a6fe c737 64d1 9533 367d 1e38 d1bf 6b38
6.0048755e-05 7.9974485e-11 5.0291677e-05 5.615616e-05 8.854252e-08 1.6711985e-05 4.421677e-05 4.8150592e-05
5.4811833e-05 8.3588835e-05 6.607556e-09 1.2020931e-06 6.522358e-05 6.755922e-10 6.742514e-05 3.815566e-05
5.1518327e-05 6.319144e-05 6.258484e-05 6.580155e-05 3.126294e-05 6.016636e-05 2.9866882e-09 6.517407e-08
1.694305e-05 6.0749873e-05 2.873902e-05 7.628885e-05 4.4759374e-05 5.5056757e-05 7.4870004e-05 2.937783e-05
4.6639554e-05 4.8154845e-05 7.407656e-05 5.380927e-05 4.5772347e-05 7.564537e-05 8.184287e-06 7.7462064e-05
7.665044e-05 5.645474e-05 8.3523206e-05 6.041377e-05 9.292877e-09 4.8475413e-05 3.773727e-05 6.715012e-05
1.2005931e-05 3.6538833e-05 1.7032358e-09 5.5842653e-12 4.9347735e-05 0.000105610256 4.8345006e-05 5.7081284e-05
5.219981e-05 7.339527e-05 4.8235317e-05 7.255945e-05 2.3841229e-05 6.976441e-08 3.7786747e-05 5.620701e-05

r_fc2.weight f4 [64, 64]
00000000: 8720 abbc d245 d4b5 dc67 4bbc 6f78 63bc
00000010: bb3d 3039 100f a83b 981f 74bc a82d 28bc
00000020: b93c 6bbc 6722 65bc c9e2 85b5 dd85 a93a
00000030: 4a80 edbc 3de3 6633 6d91 8dbc eadf f7bc
00000040: ee47 99bc 9ac0 24bc 9c81 b6bc e692 8dba
00000050: 54e4 0fbc 7c51 0bbc 7cf2 ef37 9f26 a338
00000060: ab36 8b39 22a6 9fbc 2ef1 0f3c a0da a8bc
00000070: 12cf c3bc 1797 0ebc 71a7 05bd 57c9 a4bc
00000080: 8360 32bc 10bb c0bb 507a 4abc c544 47bc
00000090: 4d8b 2abc 5c57 1bbc 0922 9b3b 44ea 5abc
000000a0: d242 c3bc 5076 3dbc 71d8 45bc 0aec 8abc
000000b0: 403c c237 f81e 74bc f0a6 3dbc f8e9 d2bc
000000c0: 1974 8d3b fec2 81bc ccd2 3ab5 ca80 4e38
000000d0: ff3e 54bc 5ef8 97bc 53ad 87bc ab16 00bc
000000e0: 15f4 d1bc 9e13 83bc 8f25 78bc eacf 97b9
000000f0: 7040 073c 6c0b 9438 01c8 d5bc e790 f8bc
00000100: 80fe a4bb 14ca 11b4 8e0d d3ba 9c97 af3b
00000110: 734a 86b8 f970 5f3b 437a 0a3b 5b62 d7bb
00000120: 198d cbbb f7f1 133c c59b deb4 f098 b238
00000130: 6795 063b 91f5 82af 59fe 09bc c324 c33b
00000140: b644 75bb 7734 47bc 38a9 9bbb 0440 c23b
00000150: 4f10 1cbb df6a 78bb 8786 68b5 5c5c 51b8
00000160: a4f7 863b 6d83 6abb 02fd b83b 20a3 763c
00000170: f965 aebb 58f8 c23c 76f0 2a3b 0142 b439
00000180: 4929 a9bb a484 4bbb 45a5 65bb db5c 9b3c
00000190: 8538 283b 4943 c33c c39d 1a3b ec0e c13c
000001a0: 572e abbb 69f3 e9ba df5c 073b 169a 88bb
000001b0: f44e ceb5 cea1 19bb 4d5b 10bc 3ce6 0f3b
000001c0: 21c0 153b 28ee ebbb 8d84 0031 e80f acb7
000001d0: 4f4a 9cbb 46f5 883b 6f66 213b ef91 673c
000001e0: 3eda 6f3b cd19 0cba 6205 00bb 3f8c 973c
000001f0: 1dfd a13b 8e54 2638 c458 82b8 25d7 18bc
00000200: 4802 ed3a fd2f 5cb1 c6c1 b73b e3db a93b
00000210: f964 11b8 57d3 4ebb bcdb c43b 1c89 d93b
00000220: e8ac 063b c213 aa3b 4bad 10ac 1483 83b8
00000230: e526 193c eb58 ddad 03a8 1c3b 7fb9 243a
00000240: 8692 2b3b 4a2e 1e3c 8c85 253b c09c 043c
00000250: 55e0 d83b d2c5 7b3b d058 28b5 1119 0db7
00000260: af58 39bb 81c4 083c 0c0e 83bb ee89 f1bb
00000270: 44cb 3f3a b831 9abc f5c7 093b 1574 b43b
00000280: 63e4 f83b 61ef ad3b 2d30 13b9 a5ec 88bc
00000290: bd03 1c3a 6dbd f1bb 3815 39bb 312d 9fbc
000002a0: 5138 123b a696 913b f55a e43a d203 eb3b
000002b0: 99dc 8030 5e00 133c 0766 a93b 5c43 58bb
000002c0: 7856 3bbb cd89 db3b 8bcc 172f ce2b a2b2
000002d0: ee03 cd3a 614b 0f3b 98a1 b13b 46b4 1fbc
000002e0: a093 073b f9d7 853b ed2a 123a 5ebd d5bb
000002f0: 4b34 cebb aec6 58b5 0f1e d83b be85 f73b
00000300: eb6d 8cbc 7483 17b0 e917 80bc a609 0bbd
00000310: 3d36 6739 97ed 523b a7f0 e5bc 7502 c1bc
00000320: f434 99bc e82b 6bbc bf85 bead 59c9 8939
00000330: 3bd8 f4bc 6218 b430 8887 c4bc 73de 1cbc
00000340: a657 63bc 9bbc e6bc 7b69 76bc b90c ccbc
00000350: ef71 53bc 41c7 80bc 0627 6eb8 a85e 7838
00000360: 131f 4d3b d572 91bc 19ae f13b a291 3ebb
00000370: 5133 81bc 4f82 9b38 9bfe a1bc 7989 4abb
00000380: a3a9 a3bc 49bd 17bc 7e3e aabc 30b8 89bc
00000390: 5f19 b8bc 1d02 33bc 56aa 573b dd0a 4bbc
000003a0: 4261 babc b604 e7bc 1f97 a2bc 4776 0fbc
000003b0: b143 2436 29a1 54bc 4710 9fbc 28f0 d4bc
000003c0: 3904 5e3b f4f8 f8ba 54a0 2f36 a72e a8b5
000003d0: 60d7 b8bc 3a66 56bb 358b bcbb 18ee 8f3a
000003e0: a8d9 ebbc 06f4 96bc 1ebb a2b9 8568 f9bb
000003f0: ddb6 e43b 3348 b038 b325 cdbb 2980 25bc
-0.020889534 -1.5815551e-06 -0.012414899 -0.013883694 0.00016807664 0.0051287487 -0.014900111 -0.010264792
-0.014357739 -0.013985253 -9.975275e-07 0.0012933571 -0.028991837 5.375772e-08 -0.017281258 -0.030258138
-0.018711057 -0.010055685 -0.0222786 -0.0010801225 -0.008782465 -0.008503314 2.8603936e-05 7.7796394e-05
0.00026552877 -0.019488398 0.008785529 -0.020612061 -0.02390245 -0.008703015 -0.032630388 -0.020115538
-0.010887268 -0.0058816746 -0.012358263 -0.012162392 -0.010409188 -0.009481277 0.004734282 -0.013361517
-0.023835573 -0.011563852 -0.012075529 -0.016958255 2.3154658e-05 -0.014899962 -0.0115754455 -0.02574633
0.0043168184 -0.01584005 -6.959715e-07 4.923417e-05 -0.012954473 -0.018551048 -0.01656214 -0.007817904
-0.025629083 -0.016000565 -0.015145673 -0.00028955872 0.008255109 7.0593174e-05 -0.026096346 -0.030342532
-0.0050352216 -1.3577693e-07 -0.0016102062 0.0053586494 -6.403485e-05 0.0034094437 0.0021130003 -0.006573004
-0.0062118885 0.009029857 -4.146406e-07 8.516188e-05 0.0020535828 -2.3821348e-10 -0.008422458 0.00595531
-0.0037424988 -0.012158505 -0.004750397 0.0059280414 -0.0023813432 -0.0037905497 -8.66225e-07 -4.99155e-05
0.0041188765 -0.0035783902 0.0056453953 0.0150535405 -0.0053222147 0.02380006 0.0026083267 0.00034381452
-0.0051623923 -0.0031054402 -0.0035041135 0.018965175 0.0025668454 0.023835795 0.0023592568 0.023566686
-0.00522403 -0.0017849031 0.002065472 -0.004168759 -1.5371174e-06 -0.002344239 -0.00881083 0.0021957299
0.0022850113 -0.0072000213 1.8701798e-09 -2.0511405e-05 -0.0047696005 0.0041796295 0.0024627706 0.014133914
0.0036598588 -0.0005344421 -0.0019534458 0.018499492 0.0049435035 3.9656232e-05 -6.215417e-05 -0.009328638
0.0018082345 -3.2041492e-09 0.0056078164 0.0051836832 -3.4664732e-05 -0.0031559074 0.0060076397 0.006638659
0.0020549837 0.0051903436 -2.0559828e-12 -6.270982e-05 0.009347652 -2.5164279e-11 0.0023903854 0.00062837446
0.0026179864 0.009654591 0.0025256602 0.008094013 0.0066185393 0.003841747 -6.2714116e-07 -8.410091e-06
-0.002828162 0.008347631 -0.0039994773 -0.007371179 0.0007316361 -0.018822536 0.0021023725 0.005507002
0.007595585 0.005308077 -0.0001403696 -0.016714403 0.0005951485 -0.0073773176 -0.0028241407 -0.019430729
0.00223114 0.0044430075 0.0017422127 0.0071720863 9.375923e-10 0.0089722555 0.0051696333 -0.0032999134
-0.0028585475 0.0066997767 1.3806038e-10 -1.8879202e-08 0.001564143 0.0021864998 0.005420875 -0.00974757
0.0020687357 0.004084584 0.00055758544 -0.0065228185 -0.006292855 -8.075539e-07 0.00659538 0.007553785
-0.017142257 -5.5120286e-10 -0.015636401 -0.03394475 0.00022050082 0.0032185072 -0.028068854 -0.023560742
-0.018702008 -0.01435373 -2.1659894e-11 0.00026280692 -0.029888263 1.3103654e-09 -0.023990408 -0.00957452
-0.0138758775 -0.028166106 -0.015039797 -0.02490841 -0.012905582 -0.015720012 -5.6779965e-05 5.9215963e-05
0.003129904 -0.017754951 0.0073754904 -0.0029078503 -0.01577154 7.415248e-05 -0.019774726 -0.0030904694
-0.01997835 -0.009261438 -0.020781752 -0.01681146 -0.022473035 -0.010925797 0.0032907925 -0.012392727
-0.022751454 -0.028200489 -0.01984745 -0.008756227 2.4477306e-06 -0.012977877 -0.019416941 -0.025993422
0.0033877029 -0.0018995092 2.6170355e-06 -1.2530553e-06 -0.022563636 -0.003271474 -0.0057538995 0.0010980992
-0.02879031 -0.018426906 -0.0003103846 -0.0076113367 0.006979807 8.405782e-05 -0.0062605976 -0.010101357

r_fc2.bias f4 [64]
00000000: 5878 42b3 2b57 73b3 d081 0eb3 205b b6b3
00000010: c6b0 e0b1 a626 3233 b380 c3b3 baf5 e633
00000020: 0b35 d3b3 013f 6bb4 a22b fa33 2ae2 d7b3
00000030: 0714 cfb3 ec2d 0a33 faba 0932 7572 c933
00000040: c968 2cb4 7f5e 9a33 8afe 4233 e3f4 4a33
00000050: c293 a9b3 760d acb4 e24c 7231 8e68 85b2
00000060: 1456 1eb4 ffcc abb3 1649 25b3 fbf1 1c34
00000070: ccd6 af33 9b2e 0034 30c2 3d32 8c1b 8cb1
00000080: 4116 9633 db95 f032 ae8c 8fb4 84a2 02b2
00000090: 8a10 9ab2 db8e 9233 ab50 05b3 52eb 88b3
000000a0: 1c9f 2933 6977 1bb2 d9ee 62b3 ca9b c933
000000b0: f88f 0db3 95c0 aa32 95a6 afb2 cfd8 8cb3
000000c0: 728d 2eb3 dfc9 9eb3 e60c 57b3 dfba b9b3
000000d0: 10a8 46b4 f59b b5b3 3634 db33 18c4 1232
000000e0: c8b8 f2b1 e4e0 b9b2 02d0 5033 cdc4 7fb2
000000f0: 70c2 f8b3 8361 0333 13e3 0b33 73f8 bab2
-4.5278597e-08 -5.6657125e-08 -3.3180015e-08 -8.491611e-08 -6.539355e-09 4.1479005e-08 -9.103805e-08 1.0754907e-07
-9.8351016e-08 -2.1909001e-07 1.1649469e-07 -1.0052857e-07 -9.6428316e-08 3.2172395e-08 8.016963e-09 9.3806115e-08
-1.6056869e-07 7.1883726e-08 4.5400647e-08 4.7254513e-08 -7.896553e-08 -3.204729e-07 3.5259338e-09 -1.5530784e-08
-1.4746212e-07 -8.0000966e-08 -3.8483527e-08 1.4616664e-07 8.188144e-08 1.1937884e-07 1.1045401e-08 -4.077668e-09
6.988967e-08 2.8007824e-08 -2.6738184e-07 -7.603948e-09 -1.793548e-08 6.82464e-08 -3.1039843e-08 -6.375798e-08
3.9493088e-08 -9.049338e-09 -5.2836956e-08 9.38813e-08 -3.296006e-08 1.987818e-08 -2.0448434e-08 -6.558695e-08
-4.0641176e-08 -7.3941685e-08 -5.007032e-08 -8.6487255e-08 -1.8501328e-07 -8.456838e-08 1.0207479e-07 8.542905e-09
-7.064134e-09 -2.1639103e-08 4.8617956e-08 -1.4887701e-08 -1.1583768e-07 3.05895e-08 3.2569982e-08 -2.1766231e-08

r_bn2.weight f4 [64]
00000000: 916d 8e3e 81f3 1e3d fc77 febc 794c 893e
00000010: ef86 193d 7595 073e 30ae 133d 92ed 1a3d
00000020: 9863 0c3e 1cbd 463e fb22 1ebd 2e9d 40bd
00000030: f34c 713d 2116 26bd a203 323d 0741 0b3d
00000040: 3931 713e 7c6c 2cbd d08a 443d a106 203d
00000050: 532e ca3d e726 353e fa7f 293d 04f7 d1bc
00000060: f8ba 483d 4383 7bbc 1814 293d 9fd8 303e
00000070: cf22 24bd a17b 1c3d 8d6c 403d 82be 073d
00000080: ae38 453d 792d 1cbd d318 513e a488 3e3e
00000090: 2913 963e baa1 1a3d 5b10 2f3d 1e4d 053d
000000a0: 0382 07bd 6be1 bf3c 9acf 923d 7c35 753d
000000b0: 4e34 2abd 078f 533d da5a 423d 3700 273d
000000c0: 8419 2e3d 917d 523d ab31 0c3e 3a97 203d
000000d0: 5554 653e 993f df3d 0d58 923e 07b1 2e3d
000000e0: 3808 673d 7e73 283d efee 483d 7db3 9a3e
000000f0: 9dcc 033d f487 0fbd 25b2 0d3d 42a5 4e3d
0.27817968 0.038806442 -0.031063072 0.26816157 0.0374822 0.13240607 0.03605479 0.03782422
0.13709867 0.19408077 -0.03860758 -0.0470249 0.058911275 -0.040548448 0.043460496 0.03399756
0.23553933 -0.042095646 0.047983944 0.03906882 0.09872117 0.17690621 0.041381814 -0.025630482
0.049006432 -0.015351119 0.04127893 0.17270134 -0.04007226 0.03820384 0.046978522 0.033140667
0.048149757 -0.038129304 0.20419626 0.18606812 0.29311493 0.03775189 0.042740207 0.032544248
-0.033082973 0.023422917 0.07168503 0.05986546 -0.041553788 0.051650073 0.047449924 0.04077169
0.042504802 0.05138928 0.13690822 0.03920672 0.22395451 0.10900802 0.28582802 0.042649295
0.056404322 0.041125767 0.04905599 0.30215064 0.032177556 -0.035041764 0.03459372 0.05045057

r_bn2.bias f4 [64]
00000000: 1161 b93e 651e dc3e 199e df3e fa08 bb3e
00000010: 07dd e73e 4605 d23e 04f1 e33e cd09 e53e
00000020: 3a3a d73e 9438 c83e 846c df3e 7cd4 e03e
00000030: ca42 eb3e e6fe e33e 8fea e03e 8eda dc3e
00000040: 8a83 be3e ba8e df3e 475d e73e 6f19 e43e
00000050: 45b3 da3e be8a d93e 4bb5 df3e 1db2 dc3e
00000060: 18a3 e63e d757 de3e 03fb e03e 87b9 cb3e
00000070: 0640 e53e 5f1e dd3e 80d0 e03e 0d13 dc3e
00000080: 2015 e73e 18d4 de3e 3043 cc3e 8171 d23e
00000090: 4691 b63e d65b dc3e 37aa e13e de80 e43e
000000a0: f818 e03e 50f8 db3e 1f5b e13e 82c0 e53e
000000b0: 8bfd db3e 83bd e43e 94b4 de3e 526d e13e
000000c0: 9ef0 e13e 675f e13e adc5 da3e 8f52 db3e
000000d0: eb98 ca3e 4765 d93e 6f40 b73e 89a3 dc3e
000000e0: 9a96 e23e 3d2a df3e 53f3 e23e 212b b13e
000000f0: 8b76 df3e 37c9 de3e 26b4 de3e a7be e83e
0.36206868 0.4299194 0.43675306 0.36530286 0.45285818 0.41019648 0.44519818 0.4473404
0.4203661 0.39105666 0.43637478 0.43912113 0.45949394 0.4453041 0.43928954 0.43135494
0.3720973 0.4366358 0.45188352 0.44550654 0.42714897 0.42488664 0.43693003 0.4310464
0.45046306 0.4342639 0.43941507 0.39789984 0.44775409 0.43187234 0.43909073 0.42983285
0.45133305 0.4352119 0.3989501 0.41102222 0.3565771 0.43038815 0.44075176 0.44629568
0.4376905 0.42962885 0.44014832 0.44873434 0.42966875 0.44675836 0.43497145 0.44028717
0.4412889 0.440181 0.4272894 0.42836425 0.39569792 0.4246008 0.35791346 0.43093517
0.44255525 0.43586913 0.44326267 0.34603217 0.4364513 0.4351289 0.43496817 0.45457956

r_bn2.running_mean f4 [64]
00000000: 2c32 03bd fbd9 243b 84ef 843b f61a 01bd
00000010: e4a6 d3ba e0c9 babc 536d 26b8 4af1 03b9
00000020: caf8 95bc 6edf dbbc 1b8e 56b9 a4d8 a53b
00000030: 5d90 99ba 01b6 843b cd5d 1bba 8e64 113b
00000040: 4051 e7bc f38b 863b aa64 e63a 0880 9ebb
00000050: 87aa 62bc c98f c4bc ff41 0dbb 2197 963a
00000060: 64a1 5dbb c043 333a 7f5b c8bb badd d3bc
00000070: 522c 7039 ba14 3db9 88b2 7339 be8c 24bb
00000080: 5ab4 58b9 0980 9ab8 cd62 d4bc 263e cabc
00000090: 1e38 03bd 9e06 493a bbfa a5ba 13d9 8cba
000000a0: f2b4 4c3a 687d 54bb 00f5 8cbb 6ac3 1fbb
000000b0: 0b57 17bb c0f2 43bb 9980 30bb beef 10bb
000000c0: d33b 973a b97d bbba 82cc b1bc 209f d9ba
000000d0: 7725 e0bc 43fa 65bc abb2 10bd aaa9 33bb
000000e0: 2434 54ba 77cd 0fbb eb30 10b6 12d8 05bd
000000f0: 6176 b2b8 97ef 043a 57c9 f8ba aab7 b8bb
-0.03203027 0.002515434 0.004056873 -0.031519853 -0.001614776 -0.02280134 -3.96793e-05 -0.0001258302
-0.018307108 -0.026839938 -0.00020461569 0.005061226 -0.0011715997 0.004050017 -0.0005926758 0.002218518
-0.028236985 0.0041060387 0.0017577608 -0.00483704 -0.013834602 -0.023994343 -0.002155423 0.0011489132
-0.003381812 0.00068384036 -0.006114423 -0.025862563 0.00022904694 -0.00018032166 0.00023240794 -0.0025108303
-0.00020666551 -7.367141e-05 -0.025926018 -0.024687838 -0.03203594 0.00076685275 -0.0012663224 -0.0010745846
0.00078089454 -0.003242338 -0.004301667 -0.002437795 -0.0023092653 -0.002989933 -0.002693212 -0.0022115554
0.0011538215 -0.0014304436 -0.021703962 -0.0016603209 -0.027361615 -0.014036718 -0.03532664 -0.002741436
-0.0008094928 -0.0021942535 -2.1486146e-06 -0.032676764 -8.509751e-05 0.0005071102 -0.0018980902 -0.005637129

r_bn2.running_var f4 [64]
00000000: 2622 4d3a 8c43 1339 823b 0e39 9d19 6d3a
00000010: 45ee 0439 56ac fd39 e87a 2c39 eb3f ea38
00000020: 6c76 173a d90d 483a 2be7 eb38 cc70 5539
00000030: db6a a239 5377 3c39 1b29 0c39 f28a ca38
00000040: b4fe 433a 1ee3 1339 dc4e 4639 cde7 8039
00000050: 7b8e 023a 3d1e 0d3a 21ab 1d39 4065 bc38
00000060: d6ad 1639 3847 1538 2044 7839 7b55 253a
00000070: 46ba 0339 6d4a 1139 f2d4 3339 407b 0539
00000080: 0e8f 1639 ff66 0639 6ebb 4c3a e7c5 323a
00000090: 7e56 633a 1982 3639 08a1 4339 00df c938
000000a0: 6546 0139 c10c 8e38 8308 9a39 6de2 9139
000000b0: 5e49 4239 70df 2839 0e48 5539 d70f 3939
000000c0: 529c 2139 880f 5839 5d2a 213a 0083 0239
000000d0: f9cd 363a 702d fe39 c811 7a3a 9356 5439
000000e0: e83b 4039 2b88 1c39 8687 3439 811b 833a
000000f0: 9d08 d238 9792 0439 cfea fa38 ef8a 4c39
0.0007825218 0.00014044176 0.00013564344 0.0009044649 0.00012677263 0.0004838432 0.00016448984 0.00011169895
0.0005777839 0.0007631458 0.000112487316 0.00020355283 0.0003097866 0.00017973529 0.00013366753 9.657991e-05
0.00074766134 0.0001410362 0.00018912129 0.00024586768 0.00049803377 0.0005383229 0.00015036437 8.983398e-05
0.00014369874 3.5590696e-05 0.00023676502 0.0006306988 0.00012562526 0.00013856003 0.00017150099 0.00012729783
0.00014358407 0.00012817605 0.00078099116 0.0006819651 0.0008672251 0.00017405338 0.00018656638 9.625964e-05
0.00012328623 6.773463e-05 0.0002937951 0.00027825256 0.00018528613 0.00016104965 0.00020340105 0.00017648876
0.0001541239 0.00020605151 0.0006147975 0.00012446567 0.00069734413 0.0004848051 0.0009539393 0.00020250147
0.00018332864 0.00014928046 0.00017216624 0.0010002704 0.00010015185 0.0001264311 0.000119646655 0.00019506713

r_fc3.weight f4 [1, 64]
00000000: 9e77 ba3e d3ba be3e ccb0 c43e fc0a b93e
00000010: d6d5 bc3e 580d bd3e 592d c03e 3c01 bc3e
00000020: 79ea b73e 8c55 bb3e 0987 c23e dd63 c33e
00000030: 51b3 bd3e 838d c63e d023 ba3e e50a c53e
00000040: 2f90 ba3e d731 c33e 5627 bd3e 1b8a bb3e
00000050: a877 bd3e f709 b53e 7ec7 c43e f594 c33e
00000060: 2ad6 bc3e 8afc c23e eb76 bf3e d8f9 bb3e
00000070: b7a9 bf3e 4cdb c23e c82a bb3e ad1e c33e
00000080: bc31 bc3e d33b c23e 736a b93e e256 bc3e
00000090: 5f6e ba3e 4b2c c43e 0276 b93e 7313 c23e
000000a0: bb72 bd3e 68c5 c03e ded2 be3e 70f7 b93e
000000b0: b59a c13e 2b25 bc3e 29fa b63e 760f ca3e
000000c0: fc1f b93e ea3e ba3e 0f71 b63e be19 c13e
000000d0: ee47 b83e 1b77 ba3e f5aa bd3e 7ad6 be3e
000000e0: 506a bd3e 99a5 be3e 9f85 bd3e 35d4 b83e
000000f0: 12e5 c53e 8061 c33e 3fbf bc3e eb98 b83e
0.36419386 0.3725191 0.38416135 0.36141193 0.36881894 0.36924243 0.37534598 0.36719692
0.35921076 0.36588705 0.3799365 0.38162127 0.3705087 0.3877984 0.36355448 0.38484874
0.36438128 0.38123962 0.36944073 0.36628804 0.37005353 0.35359165 0.3843345 0.38199583
0.36882144 0.38083297 0.37395415 0.36714053 0.3743417 0.38057935 0.36556077 0.3810934
0.36756694 0.37936267 0.36214027 0.36785036 0.3641233 0.38315043 0.36222845 0.37905464
0.37001595 0.3765061 0.37270254 0.36321592 0.37813345 0.36747107 0.35737732 0.3946492
0.36157215 0.36376125 0.35633132 0.37714952 0.35992378 0.36418995 0.37044492 0.37273008
0.36995173 0.37235716 0.37016007 0.360994 0.3865133 0.38160324 0.3686466 0.36054167
