code/model/seed_4/QDANN_E_corn_2018.pth (torch, 81551 bytes, 30 tensors)

fc_1.weight f4 [64, 27]
00000000: c6f4 82bd b2a9 403d c96f 2c3c 5f27 0cbc
00000010: d5b7 3f3d b103 64bc 4a24 0fbc d48f 563c
00000020: 251c 903c 4a7d 5a3b 3f85 e0bc 3b55 553d
00000030: 691c fe3c 5601 35ba dd23 bebc 016e 9ebb
00000040: b629 15bc 0fb8 27bd 4538 12bd 60c2 833c
00000050: e0cd 313c 07d7 de39 68fb aebd e7fc 7abd
00000060: 8d0e b239 f18f 0aba 6e24 253d e613 203d
00000070: 8391 4338 12b1 01bd 82ef 4d3c 2d34 cc3c
00000080: 7727 a0bd d196 283c 09b8 53bc bc6b efbc
00000090: 8af5 3a3d 76cf 9fbd 07f5 153d c020 bdbc
000000a0: 828f 0abd 78f3 993c 0977 78bd b780 0ebd
000000b0: ace4 383c 0bb2 e6bc 1892 613d e761 133d
000000c0: eb17 afbb 553c 81bc b329 75bd ee5b 1e3b
000000d0: 470b 123d f74a 9b3c 7779 58bd 5428 5d3d
000000e0: c1bf e43b 29c6 73bc 95af 0e3d 7567 2abd
000000f0: 3d68 25bc 09f1 323c c6f3 9abc b6af 4bbc
00000100: cfaf 64bd 59d3 903d 1eb9 8f3c 73a0 9bbc
00000110: 1ec4 babc fcee 07bd 1115 b6bb 238e e53c
00000120: 3511 65bc b6a6 333c 6efe b83b 6aaf c3bc
00000130: 7bfd bebc d175 59bd 8879 483c 8592 0b3d
00000140: 0c97 263d 8298 f43b b98e 87bd 452e 893d
00000150: 696e 873c cb48 8a3d 5b39 403d 9df4 88bc
00000160: cd39 523d e071 a23c 8d23 3ebc c79b 37bc
00000170: 930f 3e3b bff8 b9b9 72ed 1e3d b348 953c
00000180: 6970 7dbc c045 4a3c 13d1 553c f1d1 2ebd
00000190: ae4d 50bd 44bc 0dbd f71a e13c 2b89 80bb
000001a0: d011 433d 9c91 163d 0853 7f3d 27ba e1bb
000001b0: a4c0 b8bc d008 aa3d 31b7 6fbd f243 073c
000001c0: 080c c23c 039f fbbc 46fc e8bb 9c9b 04bd
000001d0: 5784 0dbc 08da 863c f163 b2bd 373b 033d
000001e0: 5b58 e53c a819 26bd c260 233b 7a88 37bd
000001f0: cba9 71bc 01b3 a53c 3e89 ffbb b0cc 043c
00000200: 02e8 b73b d2cd a83c 9c48 44bb 071f 5ebc
00000210: 6bfe 353c 694f 043d 1dbe 473d b202 cabc
00000220: 4f1a 9c3d 39c2 96bd 0b57 833c 477a 683c
00000230: 360b 08bd 8e22 8dbb 1cdc a6bc 3051 f6bb
00000240: f526 053d 20ab 8ebd 2f1e bb3b 59b9 233b
00000250: 43d4 36bd 74d9 a73c 7861 25bd 20fd e8bc
00000260: 953a 073d ce1a 8abc f4fc 53bc 3f7c deba
00000270: 2f6e b73c dba3 a43c 29a0 aa3c 1e19 943b
00000280: 6e2f 833c 56c5 713d 134c 9abc b05d 5f3d
00000290: 19d3 f1bc 4c91 cebc a546 b63c f1fb a5bc
000002a0: b01b 593b dbd7 52bd e1e3 b23a 219e fe3c
000002b0: 6fac 223c b3b3 1f3c 67f3 d5bc b98f 71bd
000002c0: 5633 98bc 97b0 833c 783a 9c3c 575e 11bd
000002d0: 9092 dabc cb47 aa3c 94e6 453b 6b52 0e3d
000002e0: b616 253d 260d 1c3b 6c80 5f3d 0f3f 3c3c
000002f0: 9f89 27bd c60d a33d fbe5 b1bb d7e9 2b3d
00000300: 78da c4bc efc9 573c 2eab b5bc 57fa c4bd
00000310: c3e8 1dbb 96ab 7dba a917 0dbd 33a5 483d
00000320: 2d75 ad3c 2b85 4f3d 7993 f53b 7963 e8bb
00000330: f847 83bb 4a58 0d3d 177c b539 20e3 c23c
00000340: 88d3 0bbd 6988 afbb 2fd1 023c ccf7 04bc
00000350: c99c 5d3b 79d3 40bd 7256 8ebc 08f1 58bc
00000360: cde0 ec3c d81a 4ebd 565d a03d ffd4 07bd
00000370: de25 5bbc 0a89 ee3c c2ee 67bd 9c8c e13c
00000380: ef70 c03c da02 3dbc 5f30 0f3d 071a 4b3d
00000390: 0adc 8f3c 4286 923c 7150 e63a d608 18bc
000003a0: b667 dabc 5a4c a73c c0bb 45bd 05e1 a8bd
000003b0: 3206 f4bc 45df 8f3b 0de7 54bb 527f 8a3d
000003c0: 8c77 8f3c e858 183d 665a 8a3c abd5 34bd
000003d0: 7bc4 8e3d 7b89 60bd e895 5abc cbdb be3c
000003e0: f7ff 14bd 87ab 1a3c be09 84bd 273a 90bb
000003f0: b50c b93c fa6b 8ebc 5952 2d3c 903e ea3c
-0.06394343 0.047036834 0.0105246985 -0.008554309 0.046806175 -0.013916896 -0.008736679 0.013095815
0.017591545 0.0033338838 -0.027407287 0.052083235 0.031019406 -0.0006904801 -0.02321046 -0.004834891
-0.009104183 -0.040947016 -0.035698194 0.016083896 0.010852307 0.00042503348 -0.08544046 -0.061276343
0.00033961647 -0.0005285731 0.040317945 0.039081477 4.662714e-05 -0.031663008 0.01256931 0.024927223
-0.07820027 0.010289864 -0.012922295 -0.029226176 0.04564432 -0.07803242 0.03661063 -0.023086905
-0.033828266 0.018792853 -0.060660396 -0.03479072 0.011284988 -0.02816107 0.055070966 0.03598204
-0.0053434274 -0.015775839 -0.05985422 0.002416368 0.035655286 0.018956644 -0.052850213 0.053993538
0.0069808667 -0.014878788 0.034835417 -0.04160257 -0.010095653 0.010921725 -0.018915068 -0.0124320295
-0.055831727 0.07071561 0.017544325 -0.018997407 -0.022798594 -0.033186898 -0.0055567105 0.028021878
-0.013981153 0.01096504 0.0056455648 -0.023887355 -0.023314228 -0.053090874 0.012236007 0.03407528
0.040671393 0.0074644694 -0.06619019 0.06698278 0.01653214 0.067521654 0.0469297 -0.016718203
0.051324654 0.01982969 -0.011605156 -0.011206574 0.0029000982 -0.0003547128 0.038800664 0.018223142
-0.015468695 0.012345731 0.013050335 -0.042680684 -0.05085533 -0.034603372 0.027478678 -0.0039226017
0.04762441 0.036759958 0.062335044 -0.006888646 -0.022552796 0.08302462 -0.058524314 0.0082559455
0.023687378 -0.030715471 -0.0071101515 -0.032374963 -0.008637509 0.016461387 -0.087104686 0.032038894
0.027996233 -0.04055181 0.0024929498 -0.04480789 -0.014749954 0.020226957 -0.007798343 0.008105442
0.0056123743 0.020605955 -0.0029950505 -0.013557202 0.011108021 0.032302294 0.04876529 -0.024659488
0.076222055 -0.07361264 0.016032716 0.014189309 -0.033213817 -0.0043070978 -0.020368628 -0.0075170025
0.032507855 -0.06966233 0.0057103853 0.0024982302 -0.044636022 0.020489432 -0.040376157 -0.028441012
0.033014853 -0.016858485 -0.012938727 -0.0016974284 0.022391407 0.020097664 0.020828323 0.0045195958
0.016013827 0.059026085 -0.018835103 0.054532707 -0.029519605 -0.025215767 0.022250483 -0.020261737
0.0033128075 -0.051475387 0.0013648235 0.031081261 0.009928807 0.0097474335 -0.02611704 -0.058974955
-0.018579166 0.016075416 0.019070849 -0.03549036 -0.026681215 0.020786187 0.003019725 0.03474657
0.040304862 0.0023811548 0.054565832 0.011489644 -0.04090273 0.079616114 -0.005429027 0.041971054
-0.024029955 0.013170703 -0.022176351 -0.09618061 -0.0024095036 -0.00096767524 -0.034446392 0.04898567
0.021174038 0.05066411 0.0074943868 -0.007091936 -0.004006382 0.034508027 0.00034615464 0.023789942
-0.03413728 -0.0053568375 0.007984444 -0.00811572 0.0033815375 -0.047076676 -0.017375205 -0.01324106
0.028915787 -0.05031857 0.078303024 -0.033162113 -0.013375727 0.02911808 -0.05662418 0.027532868
0.023491351 -0.011536324 0.03495824 0.04958537 0.017560977 0.017886285 0.0017571581 -0.00927945
-0.026660781 0.02042215 -0.048274755 -0.08246044 -0.02978811 0.0043906295 -0.003248635 0.06762566
0.01751306 0.037194163 0.016888808 -0.044149082 0.069710694 -0.05481861 -0.0133414045 0.023298165
-0.03637692 0.009440309 -0.06447171 -0.0044014635 0.022589067 -0.017385472 0.010578715 0.028594285

fc_1.bias f4 [64]
00000000: 3a69 4db2 d624 f2b2 0487 eab2 d9f9 ad31
00000010: 9b32 f0b0 472e 71b3 e4d2 6932 10d2 00b3
00000020: 1e43 a5b2 d9bf dd32 3240 74b2 61c2 1db3
00000030: 4a1d d0b0 52f7 252b 45d0 1fb2 b17c 6ab2
00000040: 403c 9a32 80d1 dc2e 3a4d c930 9244 ceb1
00000050: c615 28b3 1722 a4b2 042d 7db1 4195 3fb2
00000060: 84f3 4232 ca4f dfb0 fde5 feb2 4029 acb2
00000070: c7b4 5832 968a 3332 7179 1430 e0f3 63b2
00000080: 8c2d 30b2 9a6c 6db2 d5e9 d9b1 e95d bab1
00000090: 6218 9131 1b90 2fb2 6a82 c9b1 ea5b dcb2
000000a0: 26ce a332 341c 4db3 d3ac a6b1 2c38 2231
000000b0: 5407 0a32 90e7 c6b2 499b 0831 480f 0000
000000c0: aa4b 5bb2 7b5a 76b1 8a03 0000 7c2b 1b97
000000d0: 0752 ff31 8835 9830 c404 0080 b98f 3b33
000000e0: deb2 8eb2 106e e232 a176 1ab3 a21e 1231
000000f0: bb74 a6b2 439c 9331 bced f0b2 267d 8a1d
-1.1956496e-08 -2.8189259e-08 -2.7302583e-08 5.063367e-09 -1.7476681e-09 -5.6154274e-08 1.3610336e-08 -2.9993373e-08
-1.923905e-08 2.5815028e-08 -1.4217266e-08 -3.6731198e-08 -1.5142316e-09 5.8963e-13 -9.302373e-09 -1.3648944e-08
1.7955358e-08 1.00416564e-10 1.4646624e-09 -6.0031846e-09 -3.913535e-08 -1.9107615e-08 -3.6841934e-09 -1.11516e-08
1.1347655e-08 -1.6248063e-09 -2.9674078e-08 -2.0042194e-08 1.2613959e-08 1.0450682e-08 5.4014665e-10 -1.326859e-08
-1.02549045e-08 -1.3819909e-08 -6.342115e-09 -5.423989e-09 4.2228274e-09 -1.02191064e-08 -5.8646963e-09 -2.5653168e-08
1.9069443e-08 -4.7755933e-08 -4.8508837e-09 2.3606033e-09 8.034323e-09 -2.3155536e-08 1.9878874e-09 5.482e-42
-1.2764682e-08 -3.5849144e-09 1.27e-42 -5.0138086e-25 7.430802e-09 1.107467e-09 -1.71e-42 4.3670045e-08
-1.6612315e-08 2.6359913e-08 -3.596381e-08 2.126321e-09 -1.9378026e-08 4.296028e-09 -2.8047786e-08 3.6657696e-21

f_bn1.weight f4 [64]
00000000: 7ffd cd3d 0aa6 7b3d 5d06 ab3d 136a 923d
00000010: b6ed 9c3d 1ae7 af3d aac1 973d c0cd a63d
00000020: cde4 c73d 5729 a53d 7b6b b63d b79d 0b3e
00000030: 39e9 743d b034 d53a 050b cb3d cc77 dd3d
00000040: 30fc 9d3d 110b 543d 5fb0 353d 9e6c 333d
00000050: 732a c33d f1ae 543d 3a90 5e3d dc41 a43d
00000060: 7778 b73d db16 b73d 5b77 f83d fc9a a23d
00000070: 8fe4 4e3d e32a 813d 2e61 1c3d 5992 b03d
00000080: 5560 dc3d 538b 7d3d adf0 933d 0e1e de3d
00000090: 883b db3d 51d5 9d3d 4798 ca3d 2f54 e43d
000000a0: 5503 d83d 21e3 cd3d 50ac 023e 9df0 f03d
000000b0: bbf6 9f3d cfe4 c33d 5e9b b63d d29b 9b38
000000c0: 849a b43d ce0a 613d f8db 473a e521 19bb
000000d0: 70e8 953d 19be 933d 0a4c bcb9 6bc2 523d
000000e0: 95db 8f3d af7c 9e3d fec3 d33d edf8 c33d
000000f0: e5d8 5c3d c0f9 e53d b567 dc3d 4a29 a839
0.10058116 0.061437644 0.08350823 0.07149138 0.07662527 0.08589001 0.07409985 0.081447124
0.09760437 0.080645256 0.08907219 0.13634382 0.05979273 0.0016266312 0.09914211 0.10813865
0.077141166 0.051768366 0.044357654 0.043804757 0.09529581 0.05192465 0.054336764 0.08020374
0.08958524 0.08939906 0.1213214 0.07939717 0.05051094 0.06307008 0.038178615 0.086216636
0.107605614 0.061900448 0.0722364 0.10845576 0.10704714 0.077067025 0.09892326 0.11148869
0.105475105 0.10053087 0.12761045 0.11764643 0.07810732 0.09565126 0.08916353 7.42e-05
0.08818534 0.054941945 0.00076240255 -0.002336615 0.073197246 0.072139926 -0.00035914808 0.051454943
0.07024304 0.07738625 0.10340117 0.09568963 0.053917784 0.11229277 0.10761968 0.0003207422

f_bn1.bias f4 [64]
00000000: 6704 a8bd 420f 99bc 4e86 1dbd 4518 fbbc
00000010: bdaa 5bbc a6cb a5bc 32f1 b0bd 2978 fbbc
00000020: 93c2 a2bd 2e69 92bd 3a27 9fbd 66bd 3fbe
00000030: a52b 20bc 970c 88bb bb8b 41bd 342b 7abd
00000040: bbde 94bc 3e09 06bc 5e2b 0fbd ede0 aebc
00000050: 7d1d 19bd 5bcd 093c cacd 42bd 6480 4ebd
00000060: 688d cdbd 8337 afbd e291 debd d89c 34bd
00000070: f8e9 163b 5565 39bc aa5d 8b3c 6d3e 2ebd
00000080: 8a03 0fbe 8dce f5ba b9fe 41bd 5a7d c3bd
00000090: ad54 47bd 6fb6 81bd 55a7 b6bd e2a7 b9bd
000000a0: 1888 cfbd d1f3 05be 0c07 b4bd 5067 d4bd
000000b0: 68f4 0cbd 2194 d6bd 094d c2bd 2796 13b9
000000c0: 9233 a1bd a9e4 b0bb abde 3dbb 9292 bbbb
000000d0: f257 1bbe 9624 e3bd 2b0d 4bba f55a 11bd
000000e0: a383 e6bc f6d1 60bd 39b5 02be 96c7 69bd
000000f0: 10c2 1c3b 1e8e dcbd 0102 ecbd 9023 d9b9
-0.08203965 -0.018684033 -0.03845816 -0.030651221 -0.013407406 -0.020238709 -0.08639754 -0.030696945
-0.07947268 -0.07148968 -0.07771154 -0.18724594 -0.009776031 -0.0041518915 -0.047252398 -0.061076358
-0.018172612 -0.008180914 -0.034953468 -0.021347487 -0.037381638 0.008410777 -0.047559537 -0.05041541
-0.10036737 -0.0855551 -0.10867669 -0.04409489 0.002302764 -0.011315663 0.017012436 -0.042540003
-0.13966194 -0.0018753574 -0.047362063 -0.09545393 -0.048664737 -0.063336246 -0.08918635 -0.09065224
-0.1013338 -0.1308129 -0.087904066 -0.10371268 -0.03441277 -0.10477472 -0.094873495 -0.00014074949
-0.078711644 -0.005398352 -0.0028971832 -0.0057242597 -0.15170267 -0.110909626 -0.00077457976 -0.035487134
-0.028138941 -0.054887734 -0.12764443 -0.057075106 0.0023919381 -0.10769294 -0.1152382 -0.00041415961

f_bn1.running_mean f4 [64]
00000000: 2dfa 9ebc eca8 78bd 787e 9bbd 042b a13d
00000010: f0ac 00be bdd7 f0bd e09d fe3c b555 913d
00000020: cd13 023e ee3d 5ebc 23b0 b5bc 7696 293e
00000030: 7a41 3bbd 4d78 323b 3bbf 3e3d df44 cbbd
00000040: 3667 02bd 0bf3 59bd 7b0d 54bd d6ed f13b
00000050: ab42 863d 9161 32bd 3fe6 b8bc 2059 ab3d
00000060: a9bf aabd bcad 713d 70c7 123e f821 d73d
00000070: ee90 80bd 3972 b3bd b097 74bd 6a79 a4bc
00000080: d8ef 2e3e 5790 a6bd 388f e8ba 19d2 e6bd
00000090: 25ff ec3c fbd0 3ebd f6ee e1bd b411 eb3d
000000a0: 321e 213e 789c b23d efb1 b9bd 4376 76bd
000000b0: 5435 823d 7e83 f7bd bea2 25bd ac6b b138
000000c0: 5901 ca3d 4164 82bd 99d9 443a cbdf eb3c
000000d0: cffb 313d d2e2 0b3d cfa2 2a37 e256 ae3a
000000e0: e461 a6bd e229 953b 6e99 b0bd 8800 103e
000000f0: 3112 a3bd 7298 aabd 6848 1d3e 696a c238
-0.019406402 -0.06070797 -0.075924814 0.07869533 -0.1256597 -0.11759899 0.03108114 0.070964254
0.12702866 -0.01356457 -0.022178715 0.16561303 -0.04571674 0.002723235 0.04656909 -0.099252455
-0.03183671 -0.0532103 -0.05177067 0.0073830886 0.06555685 -0.043550078 -0.022570727 0.083666086
-0.083373375 0.059003577 0.14333892 0.10504526 -0.06277643 -0.087620206 -0.059714973 -0.020077426
0.1708368 -0.081329994 -0.0017742878 -0.11270542 0.028930256 -0.046586018 -0.11031906 0.11477986
0.15734175 0.0872125 -0.09067141 -0.060171377 0.06357828 -0.12085627 -0.040438406 8.460073e-05
0.09863538 -0.06366778 0.0007509231 0.028793236 0.043453034 0.03415186 1.0170696e-05 0.001330104
-0.0812414 0.004552112 -0.086230144 0.14062703 -0.07962454 -0.08329858 0.15359652 9.270461e-05

f_bn1.running_var f4 [64]
00000000: 185b 023d b70c df3c 9450 073d b306 483d
00000010: 8614 293d 609e 193d 2797 fa3c 4fb2 313d
00000020: 8c6b 7b3d 0499 463d 7dd4 983c 05c4 8f3d
00000030: 3e14 323d c16e 2238 9be9 4c3d 8a3f 0d3d
00000040: ca8e 7a3d a151 0a3d e3d6 0d3c 3ce7 af3c
00000050: 9146 3f3d 95ac 4a3d fc81 2d3c 42d6 4d3d
00000060: 7803 3d3d 1851 483d fc4a 9e3d 87b9 963d
00000070: 881b 203d a580 3e3d ed7e 5e3d 0c32 183d
00000080: 8a13 9e3d 233c 283d 3143 243d b528 573d
00000090: ad80 9e3d 9383 183d 1da0 3e3d 19da 8a3d
000000a0: 7234 a13d 6b6a 2a3d e229 b43d 9f97 873d
000000b0: d41c 333d c5c6 683d f5d2 153d 10e2 a932
000000c0: f213 473d 885f 1c3d 1e8d ab35 6599 213b
000000d0: a89d ef3c ca1d 053d 7e7c f930 b41b 9b3b
000000e0: b2a0 133d fcc3 a03c 6958 d73c 295e 903d
000000f0: e2a7 5f3d e512 8a3d 9652 843d 9d0b 2334
0.031825155 0.027227743 0.03303583 0.048834514 0.04127934 0.037504554 0.030589653 0.04338294
0.06138186 0.04848577 0.01865601 0.0701981 0.043476336 3.8726957e-05 0.05002747 0.034484424
0.06117133 0.033769254 0.00865719 0.021472566 0.046698157 0.049480993 0.010590073 0.05025316
0.046145886 0.048905462 0.07729146 0.07359605 0.039088756 0.046509404 0.054320265 0.037157103
0.077185705 0.041072976 0.04010314 0.052529056 0.07739387 0.037234854 0.046539415 0.0677988
0.07871331 0.041605394 0.08797051 0.06620716 0.043728665 0.056830186 0.036578137 1.977699e-08
0.048603006 0.038177043 1.2781563e-06 0.002465808 0.029249981 0.032499112 1.8152517e-09 0.004733527
0.036041923 0.019624703 0.026287274 0.070492096 0.054603465 0.06741885 0.064610645 1.5184783e-07

fc_2.weight f4 [64, 64]
00000000: 1ba0 c9bc 76b1 5bbc 5a8b 7cbc e0f9 d13b
00000010: 064b c4bc fc2c c2bc d4cb 36bc 698e 263c
00000020: 68da 473c 712e 81bc ec4a f8bb bcb7 803c
00000030: 2e07 67bc 4f30 2336 fbdd 6f39 e756 92bc
00000040: 47a5 32bc 4742 0a3c 9082 4dbc 1c07 f6bb
00000050: 9ef5 853c 870c c2bb f120 6dbb d89b bb3b
00000060: 0ed5 a9bb 6a3d 76bc 38bd f63b 653b ac3c
00000070: 9825 92bc 5f0d 92bc a21a a13b 8790 35bc
00000080: 6d14 ed3c ff7f 86bc 83a9 523b 4872 f4bb
00000090: be75 96bc 7445 7fbc 2e54 b0bb 0e93 9eb9
000000a0: ef02 673c 6797 54bc fe1a feba 4432 3fbc
000000b0: e1b7 013c 1f98 90ba 89a0 d6bb 130d 3a34
000000c0: f053 c03c c17d 8abc 2d73 ad36 b4a0 cbb9
000000d0: 0780 15bc 9432 13bb dc78 27b7 6558 46bc
000000e0: 8a14 efbb b42d 2fbc 0225 b0bb c694 1db9
000000f0: d2a3 aebc 2828 a53a 4867 e83b 2d55 85b7
00000100: 7b3f 93bc bbe1 a0bc e761 74bc 9b97 56ba
00000110: a0f6 99bc b323 29bc 876e aebc 08ae 303b
00000120: 2a1c 073c 753b 6bbc 3938 fb3a 1f0b 173d
00000130: d25a 4abc 9f98 18b9 42ae 033c 2497 44bc
00000140: 2cca 6ebc e560 5dbc 57d0 47bc 0a43 e4bb
00000150: 9964 223c 3fae bcbc 9f0f 8abc 0b4f 373c
00000160: 5a2c db3a c01b 8fbc f84b 403c b164 4b3c
00000170: 4513 d33a 56d6 fabb 0357 1abc 5db7 56bc
00000180: dad5 873c 2f7d 0ebc 52f2 e1bc 4cbb 60bb
00000190: b331 d5bc 39de 2bbc 26e6 cbba bb3f e33b
000001a0: 26c5 483c 81b0 febb bd31 f43b 6911 4fbb
000001b0: 1e62 813c 4746 43bb f3b6 e4ba 2d8d 8c30
000001c0: c063 df3c c7be 0ebc 756e 72b8 d5ed 4c39
000001d0: 8713 3dbc 85a7 edba e9f5 8834 e496 e1bb
000001e0: 99ed c7bb 4345 b0bc 458f 41ba ea4f de3b
000001f0: ef82 1abc 5d4a 703b 132c 523c 9822 a535
00000200: 5a98 ad3b f115 c1ba ac6c 33bb cacf 83bc
00000210: 2e56 01b9 f833 f73b e884 413b a223 8cbc
00000220: 3280 88bc 84f8 a13b 1c86 aabc 278d 4dbc
00000230: e1eb 063c 6342 c3b9 4dad a3bc 5cdc db3b
00000240: 5fd2 b9bc e8ca 393c 1301 0a3c 37d1 cc3b
00000250: bef8 d5bc d7a1 81bc d2ba 23bc a2f0 d0bb
00000260: 065b 393c be2d 0ebc 0b02 47bb 6de4 83bb
00000270: 6a50 263b 0694 103c 159e 003c c558 2b3b
00000280: b823 a6bb fab8 653c e351 4f3c 59b7 8b3c
00000290: 0def 4d3c 1cab e83b 299f 0e3c a974 9abb
000002a0: 904e 63bc b157 5b3c 1dfa 363c ae64 3a3c
000002b0: dba1 31bc dd11 463c ecaf 8f3c 63af 57b7
000002c0: 3e35 c9bb 7eed 1b3c 7243 dbb7 d2ed 08b9
000002d0: 019d b73c 4500 573c 8ce5 12b8 f4dd ec3b
000002e0: 4b03 9f3c e085 3bbb fc80 a23c 9af3 77bc
000002f0: 4f0b 123a 8211 753c 0526 21bc d744 83b7
00000300: e9c8 e43b 530c ee3a 79a3 3c3c c05d bfbc
00000310: 20ce 833b 4b28 373b 84cf af3c 8609 a7bc
00000320: 2f6c 5fbc 4ef5 08bc af86 a7bc 0349 22bc
00000330: 6b70 b23b afb2 8db8 6230 44bc dc88 053c
00000340: 89f2 86bb 7cfb fb3b c1bf 163c 9fc0 843b
00000350: 3b3f 19bc 8e4b 543c d549 d6bb bfb9 fbbb
00000360: cf0d 8f3c 7e22 453c 0316 753a 0ec2 acbb
00000370: 0d41 703c ecf7 bebb 46d0 af3c ea72 d33c
00000380: cbae 8ebb ce5c 163b 3d6e ce3b af87 3f3c
00000390: 48b3 113c 5e2f 1d3c 3722 623c 907e 8cbb
000003a0: 0382 3dbc ab13 27ba 3192 00bb 67b4 37bc
000003b0: 96d4 11bc 5660 db3b 6af8 743c 5638 de31
000003c0: 690f c2bb 29b3 413c e945 2135 7d73 e4b8
000003d0: b212 9f3c d7c7 c23b df81 dab3 7b89 0e3b
000003e0: 0f33 03bc 49ed 513c ddc4 cb3c cfac 94bc
000003f0: 7a3d 263b 07f7 fe3a 020e 14bc 92cb 2a35
-0.024612477 -0.013409009 -0.015414083 0.0064079612 -0.023961555 -0.02370309 -0.011156995 0.010165789
0.012198068 -0.015769215 -0.0075772908 0.015712611 -0.014100833 2.4317012e-06 0.0002287551 -0.017863704
-0.010903663 0.008438653 -0.012543336 -0.0075081717 0.016352471 -0.0059219035 -0.0036182965 0.005725365
-0.005182869 -0.015029291 0.007529881 0.021024415 -0.017840192 -0.017828641 0.004916505 -0.011081821
0.028940404 -0.016418455 0.0032144494 -0.0074599124 -0.01836669 -0.015580524 -0.0053811288 -0.00030245673
0.0140998205 -0.01297555 -0.0019386706 -0.011669699 0.007917375 -0.0011031664 -0.006549899 1.7327356e-07
0.023477525 -0.016905667 5.16921e-06 -0.0003883891 -0.009124762 -0.0022460567 -9.982115e-06 -0.012106036
-0.0072961496 -0.010692049 -0.0053755054 -0.00015028109 -0.02131835 0.0012600468 0.00709239 -1.5894499e-05
-0.017974606 -0.019638887 -0.01491592 -0.0008186043 -0.018794358 -0.010323453 -0.021292938 0.00269592
0.008246461 -0.014357437 0.0019166536 0.03687584 -0.012350755 -0.00014552705 0.008037152 -0.011998925
-0.014574569 -0.013511871 -0.012195668 -0.0069659995 0.00991168 -0.023032306 -0.016853152 0.011188279
0.0016721592 -0.017469287 0.011736862 0.012414143 0.0016103765 -0.0076549454 -0.009420159 -0.013105241
0.016581465 -0.008696838 -0.027581368 -0.0034291325 -0.026024675 -0.010489994 -0.001555626 0.0069350875
0.012254035 -0.0077725057 0.0074522183 -0.003159607 0.015793856 -0.0029796527 -0.0017449543 1.0226465e-09
0.027269244 -0.008712477 -5.7800167e-05 0.00019543555 -0.0115403 -0.001813159 2.5510897e-07 -0.0068844426
-0.006101322 -0.021517402 -0.00073837145 0.006784429 -0.009430631 0.0036665418 0.012827891 1.2303526e-06
0.0052977027 -0.001473127 -0.0027378006 -0.016090292 -0.00012334503 0.007544037 0.0029528681 -0.017106835
-0.01666269 0.0049429554 -0.020815901 -0.01254586 0.008234949 -0.0003724276 -0.019980097 0.0067096185
-0.02268332 0.0113398805 0.008423108 0.0062505263 -0.026119586 -0.015824242 -0.009993272 -0.006376342
0.011313206 -0.008677898 -0.0030366208 -0.004025033 0.002537752 0.008824354 0.00785019 0.002614544
-0.005070176 0.014021153 0.012653801 0.0170552 0.012569201 0.007100476 0.008704939 -0.004713614
-0.013873711 0.0133876065 0.01116803 0.011376543 -0.010841812 0.01208922 0.01753994 -1.2855834e-05
-0.00614038 0.009517072 -2.6138241e-05 -0.00013058566 0.022413732 0.013122623 -3.5022895e-05 0.0072286073
0.01941075 -0.0028613731 0.019836895 -0.015133763 0.0005571143 0.0149577875 -0.009835725 -1.5648473e-05
0.006981958 0.0018161632 0.011513584 -0.023360133 0.0040223747 0.00279476 0.021461256 -0.020390283
-0.013636633 -0.008359266 -0.020449964 -0.009905103 0.00544553 -6.756686e-05 -0.011974426 0.008150306
-0.004118268 0.0076898914 0.009200991 0.0040512825 -0.009353454 0.012957467 -0.006539563 -0.007682055
0.01746264 0.012032149 0.00093492883 -0.0052721566 0.014663947 -0.0058278944 0.021461617 0.025811631
-0.004354333 0.00229435 0.0062997625 0.011690064 0.008892842 0.009593813 0.013802103 -0.0042875484
-0.011566642 -0.0006373475 -0.0019618387 -0.011212445 -0.008900782 0.0066948337 0.014951805 6.467455e-09
-0.005922247 0.0118225 6.0078906e-07 -0.000108933986 0.019418094 0.005944233 -1.01750395e-07 0.0021749425
-0.008007779 0.012812921 0.024874145 -0.018148808 0.0025366233 0.0019452282 -0.009036543 6.362617e-07

fc_2.bias f4 [64]
00000000: e658 d8b3 9ddb 8eb4 919e 4f34 43d1 2033
00000010: 1463 3cb4 c525 8b33 51bd a635 b0a3 23b4
00000020: 8985 90b3 b2cb d634 2eeb d233 4ef8 15b4
00000030: 4831 8bb4 52ca 9a33 5d73 7732 ba04 47b3
00000040: f9d2 8bb3 b774 0eb5 ea60 a3b4 6a1d cc31
00000050: cd01 0000 ae8b f734 2d78 c233 144c ce33
00000060: 6213 02b5 e246 4db4 c482 0135 e192 81b4
00000070: 6825 9732 5380 1fb5 7fd0 11b3 f83c 1b33
00000080: 0154 8534 48d9 4d32 a261 9ab4 ff8a e2b4
00000090: a538 dc34 9577 b834 e23a 50b4 2365 9ab4
000000a0: 0b11 f8b4 6113 0a34 9b04 53b3 0fb4 e933
000000b0: 5f57 9733 bf43 df34 1b43 5933 b8b5 4332
000000c0: 14ec ffb3 ca91 86b5 7a31 a3b4 96e4 5333
000000d0: 4f26 98b4 97a6 8134 d160 89b3 9e60 3db4
000000e0: f1ab e034 09e2 a0b4 bab8 af33 f580 99b3
000000f0: 5aa3 8735 5ce6 0b34 ac24 8933 f71d 39b3
-1.0074454e-07 -2.660935e-07 1.9336063e-07 3.7443225e-08 -1.7544909e-07 6.479562e-08 1.2423062e-06 -1.5240107e-07
-6.7298124e-08 4.0008814e-07 9.821666e-08 -1.3967039e-07 -2.5926624e-07 7.207986e-08 1.4403523e-08 -4.6337597e-08
-6.5110676e-08 -5.3068965e-07 -3.043163e-07 5.9405254e-09 6.46e-43 4.6108966e-07 9.055689e-08 9.606461e-08
-4.845698e-07 -1.91179e-07 4.8246534e-07 -2.413499e-07 1.7595724e-08 -5.941885e-07 -3.395007e-08 3.61442e-08
2.48343e-07 1.19819745e-08 -2.8755773e-07 -4.2196913e-07 4.1019408e-07 3.4359678e-07 -1.9392931e-07 -2.8758322e-07
-4.6206e-07 1.2859302e-07 -4.9131454e-08 1.08826605e-07 7.047378e-08 4.158628e-07 5.058528e-08 1.1391812e-08
-1.1917305e-07 -1.0026208e-06 -3.0397115e-07 4.9335164e-08 -2.834008e-07 2.4149332e-07 -6.3971704e-08 -1.7637146e-07
4.1848355e-07 -2.9966785e-07 8.182674e-08 -7.148075e-08 1.0105825e-06 1.3029188e-07 6.38623e-08 -4.3100922e-08

f_bn2.weight f4 [64]
00000000: 9cf0 8f3d 0400 973d 5919 663d 14e5 463d
00000010: f84d 7d3d 8727 543d 9940 b83d d122 b63d
00000020: 8c5a 473d 54eb 763d cb52 703d b509 a13d
00000030: 4ea3 853d 7a69 a23d 52b2 933d 4d8f 4a3d
00000040: 2171 8f3d 8be2 a23d 51b3 b73d 7560 8a3d
00000050: f03e 4e38 c579 783d bc8a 873d 345f bb3d
00000060: cd3a af3d f1a2 2e3d cadc 873d 3a05 8d3d
00000070: d035 893d 966c 983d 7b38 a23d 238e 993d
00000080: 3e0d 683d 605a 8b3d 918a 883d fb2a 853d
00000090: c1cc 953d 164e a73d f1fb 383d bdf8 a63d
000000a0: c00e 833d 9b72 723d 6e03 943d 13c0 733d
000000b0: 8c88 823d 0acb 543d da06 a93d d7c2 373d
000000c0: 5e46 963d 46df 7d3d d227 5e3d ea09 a13d
000000d0: e926 823d b4d1 993d 0460 6a3d fe27 5b3d
000000e0: 7bff 963d b06a a43d 9f1a 813d 3a05 7d3d
000000f0: 91be 873d f77e 6b3d ef3f 853d 9ea4 953d
0.070283145 0.0737305 0.056176517 0.04855831 0.061841935 0.05179551 0.08996696 0.088933595
0.048670337 0.06028302 0.058672708 0.078631796 0.065252885 0.07930274 0.07211746 0.04945307
0.070039995 0.07953366 0.08969749 0.06756679 4.9172842e-05 0.060663003 0.06618258 0.09149018
0.08556137 0.04263586 0.06633909 0.068857625 0.06699717 0.07442586 0.07920929 0.074978136
0.056653254 0.06804347 0.066670544 0.065023385 0.07314444 0.081691906 0.045162145 0.08152912
0.06399298 0.059191328 0.07227217 0.059509348 0.063737005 0.051951446 0.0825326 0.044863548
0.0733764 0.06198051 0.054237194 0.07863219 0.06355078 0.07510701 0.057220474 0.053504936
0.07372948 0.080281615 0.06303906 0.061772563 0.066281445 0.05749413 0.06506335 0.07306789

f_bn2.bias f4 [64]
00000000: 6cab 5ebc 8116 a8bc 7f67 33ba 69e5 8a3a
00000010: 3641 5b3c f5d8 a3bb 6edc f4bc ac47 eabc
00000020: 47a5 eb3b dc02 633c c041 02bb 4529 adbc
00000030: f67b 18bc 4895 d3bc a596 c7bc 4c47 033b
00000040: 1d05 babc a1d9 97bc d53c 05bd 99ca 3dbb
00000050: dbd0 87b7 b2d1 ca3b 592d 53bc d17d efbc
00000060: 2959 e4bc 7385 173c 6efb c53a 8c77 12bc
00000070: 7764 68bc 0470 a9bc 2729 e8bc c190 a0bc
00000080: 34d5 0a3c d25a 0dbc 146c 16bb 5016 06bc
00000090: d9a4 74bc 73d0 a4bc 2365 12bc 3b52 c3bc
000000a0: e74a 1bbc 52c8 5aba a4fb 9dbc eaa5 ebba
000000b0: 58d7 51bb 7287 1b3c d317 bcbc 2ebc 7b3a
000000c0: 7703 abbb 0c2f 80bb 0ed2 06ba 3d3f b9bc
000000d0: 2c88 073c 7a54 b1bc cf62 483c b3f6 573b
000000e0: bf01 6abc 50e0 dfbc b076 09bd 82bf debb
000000f0: efc7 8ebb 35d1 bc3b dfc0 a1bc d7f0 6abc
-0.013590675 -0.020518543 -0.000684373 0.0010596934 0.013382247 -0.0050002285 -0.029890265 -0.028598629
0.0071913335 0.013855662 -0.0019875616 -0.021137843 -0.009306898 -0.025828019 -0.024363825 0.002003151
-0.022707516 -0.01853639 -0.032528717 -0.002895987 -1.619051e-05 0.0061895484 -0.01288923 -0.029234799
-0.027874546 0.009248125 0.0015104839 -0.008939635 -0.014184109 -0.020683296 -0.028339935 -0.019600274
0.008473683 -0.00862761 -0.0022952603 -0.008184031 -0.014931881 -0.020118928 -0.008935246 -0.023842921
-0.009478307 -0.000834589 -0.01928503 -0.0017978523 -0.0032019224 0.009492742 -0.022960579 0.0009602931
-0.005218919 -0.0039118584 -0.0005142995 -0.022613162 0.008272212 -0.021646727 0.012230589 0.003295344
-0.014282643 -0.02732864 -0.033560455 -0.006797732 -0.00435733 0.005762244 -0.019745288 -0.014339647

f_bn2.running_mean f4 [64]
00000000: 4842 9bbb c876 87bb 1692 df38 b5bf b53a
00000010: f15a 193b b08b 2639 e0c1 adbb 4b94 debb
00000020: 1e0f cc3a 1c45 553b 9bf1 2e3a 5878 80bb
00000030: 8a70 92ba 7c67 92bb e078 25bb c7bb c4b9
00000040: 5846 85bb 2d77 8dbb cedc bebb a3a0 4fbb
00000050: cd03 beb7 9d0d 4a3a f630 b1ba 0baa a8bb
00000060: 363c afbb c253 a63a 5234 433a 2c9d 7ebb
00000070: 57f6 72bb 6f6a 83bb 5b59 b6b9 3160 7bbb
00000080: cad2 dc3a 4388 30ba 4e46 20ba 538f 28ba
00000090: 97dc 98ba 93c4 b6bb 253b d0ba 157e b5bb
000000a0: d355 38ba d467 8238 44e2 84bb 1aaa 28ba
000000b0: 3bfc 29ba 885e 173b 895a a7bb f850 8c3a
000000c0: b057 1cbb bd50 e3b9 241d 833a 50ed f1ba
000000d0: 0eb4 f03a e972 80bb a9ea 113b 46e4 693a
000000e0: fc1f 71bb ade7 a6bb 4117 5c3a 824f d3b9
000000f0: efdb 3aba 0290 bd3a e742 89bb 5abd 72ba
-0.004738126 -0.004134033 0.00010660679 0.0013866337 0.0023400153 0.00015883031 -0.0053026527 -0.0067925802
0.001556847 0.0032542413 0.0006673575 -0.003920596 -0.0011172455 -0.0044679027 -0.002524905 -0.00037523938
-0.0040672235 -0.0043171854 -0.005824662 -0.003168144 -2.2651535e-05 0.0007707717 -0.001351862 -0.005147224
-0.005347754 0.0012689757 0.0007446456 -0.0038851006 -0.00370731 -0.0040104906 -0.0003478032 -0.0038356895
0.0016847488 -0.0006734172 -0.0006113992 -0.00064300484 -0.0011662421 -0.0055776327 -0.0015886767 -0.005538712
-0.0007031832 6.2182226e-05 -0.0040552933 -0.00064340385 -0.00064844236 0.0023097117 -0.005107228 0.0010705283
-0.0023855977 -0.0004335697 0.0010003191 -0.0018457565 0.0018364207 -0.0039199484 0.0022265112 0.000892226
-0.0036792746 -0.005093536 0.0008395799 -0.00040304294 -0.00071281096 0.0014462473 -0.0041888836 -0.0009259783

f_bn2.running_var f4 [64]
00000000: 002c 1339 0654 ff38 52f2 a638 0ee3 8838
00000010: beb3 1039 7a40 4338 e2ea 3439 5b50 2b39
00000020: ce47 af38 d678 1739 dd16 9438 8ad7 0239
00000030: c499 7038 97f5 0539 e410 f438 6eff 4938
00000040: 85fd 9b38 2f7d 0939 1731 2e39 5210 0d39
00000050: 69ff 5d31 3720 f038 7780 9138 3581 1139
00000060: 8e2d e938 3621 9438 290b da38 a012 0f39
00000070: 831e 1239 755a b238 7dbf 7638 59ca 1339
00000080: 2b1f eb38 d36d af38 f29c a338 b83a 9638
00000090: 6cac d538 9b9d 3739 e3f5 1038 f79d 4639
000000a0: e263 8838 87fc 9738 9c18 f338 ffb2 e038
000000b0: 1288 8e38 d85c ce38 58f5 3d39 d514 8938
000000c0: 648a 3439 1a08 a138 0285 ca38 3700 a438
000000d0: e964 0f39 ecc2 0339 45f8 c738 644a d338
000000e0: f6b0 0d39 6e7d 1539 0f80 8738 a16c b538
000000f0: 098a 9738 f64f d938 86d1 d538 63e1 6738
0.00014035404 0.00012174998 7.9606325e-05 6.5272776e-05 0.0001379987 4.655167e-05 0.00017253638 0.00016337766
8.358025e-05 0.00014445497 7.0614486e-05 0.0001247806 5.7363664e-05 0.00012775358 0.00011637973 4.8160022e-05
7.438198e-05 0.00013111973 0.0001661222 0.00013452888 3.2304917e-09 0.00011450092 6.938067e-05 0.00013876411
0.00011118791 7.063376e-05 0.00010397129 0.00013644481 0.00013935012 8.50455e-05 5.8829308e-05 0.00014094393
0.00011211479 8.3651066e-05 7.801679e-05 7.1634946e-05 0.000101887475 0.00017510953 3.4561275e-05 0.00018941598
6.50359e-05 7.247278e-05 0.00011591727 0.00010714493 6.796433e-05 9.840139e-05 0.00018115842 6.536549e-05
0.00017217692 7.678587e-05 9.656885e-05 7.8201694e-05 0.00013675135 0.00012565748 9.535303e-05 0.000100751204
0.00013512731 0.00014256474 6.4611544e-05 8.650986e-05 7.225952e-05 0.0001036226 0.00010195658 5.52846e-05

fc_3.weight f4 [64, 64]
00000000: df5c 803c 5e6c 543c 5620 38bb 986e 52ba
00000010: 4f96 26bc 7c72 3fbb 0d6b 0c3c 0b28 e73c
00000020: ebfb 9cbb 5d32 a9bc 866c 973b 9fde 003c
00000030: 45f6 89bb 65d5 803c 5b71 123c 9465 14bb
00000040: d65b 4f3c 647f 913c 3002 023c 1e5a 563c
00000050: becc 1537 5a78 76bc 7e40 cdba 77f3 1e3c
00000060: 3e77 2e3c 75d2 98b9 cca9 bbbb 7f1d c93c
00000070: 8b62 f33b 05d1 923c 3309 d03a 3636 3b3b
00000080: 0879 46bc 5360 67bb e988 bfbb d3ae e23a
00000090: 1588 01bb b66f 673b 7c8f 7f3c 33aa 483c
000000a0: c44f 643a 0d46 33bb 1d2e 883c 1bb9 49bc
000000b0: 9673 1ebc 10a8 8ebb 8199 753c 84ca cdba
000000c0: 3582 6a3b 7347 0dbb 58e7 a2ba 9d86 91ba
000000d0: c90d 4abc f851 5f3c cf86 21bc 7c9d 98bb
000000e0: 8385 953c 6e10 7f3c 4752 ce3c 1129 983a
000000f0: 7e5b 20bb 5232 04bc 7a17 a43c 7143 f6b8
00000100: 5f66 35bc 0de7 773a e4d7 113c 0d5f 633c
00000110: 679a a43a 6224 a23b e244 f9b9 9882 dfbb
00000120: 0b55 f43b 2b88 143b 5586 923c c1d2 ebba
00000130: b58c 753b 353c 45bb 9005 4bb9 9910 0b3b
00000140: adcc 2bbb 68a5 b8bb c586 debb 15e1 c5bb
00000150: d639 a038 7667 e13b 71a1 1a3c 988b f4bb
00000160: 56ad 78bb f565 bd3b d779 6dbb bd47 ddbb
00000170: d410 b8bb d6ff 8bbb 7178 6a3c a468 99bb
00000180: 63bd 1e3c 53ec 2d3c 607e 433c 81d4 2f3c
00000190: e8aa b23c baf7 ecbb 2d40 23bb 5616 4fbb
000001a0: 59eb 133c b3bf 903b 4992 c8bb 0b3a 0a3c
000001b0: ef7f 093c 76d0 9b3b 4a79 1dbc 786a 5f3b
000001c0: 806e debb 580d 9c3b dabb 023c 7eb2 f13b
000001d0: 20bf 023d 2db8 23bb 03c4 723b b83a a63b
000001e0: 81fe c9bb 817f 1ebb 1dbd f7b9 0d8f 893c
000001f0: 8eed 6d3c dd6a d53b e7cb aa3a 347e 213c
00000200: d2d2 43b9 e41f e7bb e682 74bb faa0 5bb8
00000210: 3c0a dbbb 3c0c 8b39 322a 7f3c c135 82ba
00000220: a03f 30bc e892 36bc 5099 a039 57d6 dc3c
00000230: 553f e6b9 af9b 073d 12af be3c b526 0bbc
00000240: d100 d33c 895a 813c 054d 533c d241 ab3b
00000250: fcc1 99b5 47ba 0dbc b0b9 2a36 1909 613c
00000260: 2b46 a13c ed35 2638 e9b1 24bb cdfc ad3b
00000270: 9c38 003c 3dd9 ab3c 32b1 3dba cffc 993b
00000280: ea8b 66bb 4ae1 09bc facd 1e3b a301 a6ba
00000290: 8c8f 1f3a efd6 513c e52c dc3b 4694 853c
000002a0: e9b6 73bb 5d58 a13a 46b4 a53b de5a e1bb
000002b0: ac29 ad3a 65e4 34bc 771f aabb 6c46 b039
000002c0: e558 443c b02c 0cb8 9b02 963a 77ba 3738
000002d0: 00f3 3abc fed6 c03c e6ee 24bc a9ab b0bb
000002e0: e62d ff3b b731 a73c 6f01 ab3c a99c e138
000002f0: eede a9ba f9b5 84bb 533f 863c 027d 763b
00000300: cfa5 a1bb 9b34 a2ba b750 493c 5948 123c
00000310: 983c 4eba 9797 483c abaa 86bb 88a6 16bc
00000320: 2206 663b d6d7 a83b 06f8 853c 5a86 7abb
00000330: 52b7 173c 65b1 13bb 2863 9d39 50c0 36bb
00000340: 7191 9bba 328e 77bb 57b3 04bc 2f98 07bc
00000350: 50a4 9c35 079f 783b a47c 013c 27ba bfbb
00000360: 4888 06bc b64a 0e3c 4b9c 913c 5a6b 95bb
00000370: 5349 fbbb 6b98 43bb 74e2 0d3c f802 07bc
00000380: 8064 733c f6c4 123c 087a 0538 4e72 2c3c
00000390: 7d8b 143a 32fe f7bb 8f68 14bb ca4a a2bb
000003a0: 4ea1 95bb 072e 503c bd37 a2bb d903 6e3b
000003b0: 664d a43b d67f cd3b 97f1 dcba b624 873c
000003c0: 62c0 e1bb 8c88 663b 1569 4b3c d961 363c
000003d0: 41f5 c3b7 5f14 91bb 69b7 2cba 9343 633c
000003e0: f95d 31bc bdcb df3a 942a 07ba bf41 1e3c
000003f0: 2854 a93c 3c3d 123c 2716 7fbb 91f7 383c
0.015669284 0.01296529 -0.0028095446 -0.0008027344 -0.010167672 -0.0029212525 0.008570445 0.028217336
-0.004790773 -0.020653898 0.0046210913 0.007865577 -0.004210266 0.015726754 0.008938159 -0.0022643553
0.012656173 0.01776094 0.007935092 0.013083009 8.928762e-06 -0.0150433425 -0.0015659479 0.009701601
0.010648547 -0.00029148502 -0.0057270285 0.024550198 0.0074275187 0.017921934 0.0015871882 0.0028566248
-0.012113817 -0.0035305216 -0.0058451784 0.0017294533 -0.001976495 0.0035314388 0.015598174 0.01224761
0.0008709396 -0.0027354986 0.016623551 -0.012312199 -0.0096711125 -0.0043535307 0.014990211 -0.0015700613
0.0035783176 -0.002155748 -0.0012428565 -0.001110274 -0.012332388 0.013630383 -0.009858801 -0.0046574455
0.01825214 0.015567882 0.025185717 0.0011608918 -0.0024468596 -0.008068638 0.020030726 -0.00011742756
-0.01107177 0.00094567315 0.00890157 0.013877642 0.0012558223 0.004948185 -0.00047544303 -0.006820988
0.007456427 0.002266417 0.01788632 -0.0017991887 0.00374679 -0.00300957 -0.00019361661 0.002121961
-0.0026214526 -0.0056349523 -0.006790968 -0.0060387948 7.640167e-05 0.0068787886 0.009437905 -0.00746293
-0.0037945113 0.0057799765 -0.0036235952 -0.0067529366 -0.0056172404 -0.0042724414 0.014310942 -0.0046816636
0.009688708 0.010615426 0.011931986 0.010731817 0.02181001 -0.0072316797 -0.0024910078 -0.0031599007
0.009028279 0.0044173836 -0.006120954 0.00843669 0.008392318 0.004755075 -0.009611437 0.003409056
-0.006788075 0.004762333 0.007979358 0.0073760143 0.031920552 -0.0024981603 0.0037043102 0.005072918
-0.0061643724 -0.0024184885 -0.00047252412 0.016791845 0.0145219695 0.0065129832 0.0013030738 0.009856749
-0.00018675186 -0.007053362 -0.0037309467 -5.236359e-05 -0.0066845696 0.0002652126 0.015574025 -0.0009934233
-0.010757357 -0.011143424 0.00030631805 0.026957674 -0.00043916205 0.033107456 0.02327684 -0.008493115
0.025757225 0.01579024 0.012896781 0.0052263523 -1.1455845e-06 -0.008650369 2.5440058e-06 0.013735079
0.019686779 3.9627706e-05 -0.0025130457 0.005309677 0.007825997 0.02097761 -0.0007236182 0.0046993266
-0.003517861 -0.0084155295 0.0024231658 -0.0012665283 0.0006086759 0.012807592 0.006719219 0.016306054
-0.003718788 0.001230966 0.0050568907 -0.0068772873 0.0013211272 -0.011040782 -0.005191739 0.00033621804
0.011984085 -3.342022e-05 0.0011444868 4.380426e-05 -0.011410475 0.023540016 -0.010066723 -0.0053915572
0.007787454 0.020409448 0.020874707 0.00010758016 -0.0012960115 -0.004050013 0.016387617 0.0037611132
-0.004933096 -0.0012375297 0.01228731 0.008928382 -0.00078673055 0.012243173 -0.0041097007 -0.009194978
0.003509887 0.005152683 0.016353618 -0.0038227052 0.009260016 -0.0022536155 0.0003001925 -0.0027885623
-0.0011868906 -0.0037773964 -0.008099399 -0.0082760295 1.1670727e-06 0.0037936585 0.007903252 -0.0058510485
-0.008211203 0.008684805 0.017774722 -0.0045599164 -0.007668653 -0.0029845487 0.008659948 -0.008240454
0.014855504 0.008958092 3.182332e-05 0.010525299 0.00056665373 -0.0075681442 -0.002264533 -0.004952763
-0.004566348 0.012706286 -0.004950492 0.0036318211 0.0050141094 0.0062713427 -0.0016856667 0.016496997
-0.006889389 0.0035176603 0.01241519 0.011131727 -2.3360017e-05 -0.0044274773 -0.00065886095 0.013871091
-0.0108256275 0.0017074269 -0.0005156186 0.00965923 0.020670012 0.008925732 -0.0038923116 0.011289493

fc_3.bias f4 [64]
00000000: 9adf 8b33 bc3c 63b3 f069 a7b3 7636 8d33
00000010: f5cf 2934 d039 4132 b56f 6034 21df 5cb4
00000020: b773 8f34 01fd 0e35 c9bc 5934 cb25 a1b4
00000030: 5d11 8434 5ab5 1934 f3f9 a634 4b31 a732
00000040: 1ca5 9132 e857 5334 a8a6 b1b3 c610 4433
00000050: 6906 0080 619c 6434 5402 1232 3f2c 58b4
00000060: 902b 3834 eed1 0834 f5ef 29b4 00fe 9933
00000070: 6cad b7b2 cf6e a6b4 c853 3033 3176 32b4
00000080: 5552 a934 7281 1233 baca acb4 951b d2b3
00000090: 8ef0 15b3 905b 1933 deb6 cdb3 2626 2034
000000a0: 3f6b 0135 6409 0034 4431 4833 ef7d 0734
000000b0: bbfe 3535 3ffa 9ab3 2ac0 ceb2 f25a 6bb4
000000c0: 3cbe b0b2 dd78 0135 a04d e5b3 fe65 9134
000000d0: df81 62b3 3db3 6b33 8fa2 09b4 775c 8eb1
000000e0: 981a 3c34 5bbb 2fb4 e406 a033 e02b 15b5
000000f0: e401 5934 b900 b1b4 9acf 3cb5 1360 0b33
6.513365e-08 -5.2907794e-08 -7.7958134e-08 6.5757305e-08 1.5815006e-07 1.1247224e-08 2.0902264e-07 -2.057027e-07
2.672002e-07 5.326729e-07 2.027838e-07 -3.0016085e-07 2.459955e-07 1.431521e-07 3.1101771e-07 1.9463775e-08
1.6955305e-08 1.9682886e-07 -8.2725194e-08 4.565006e-08 -2.3e-42 2.1291045e-07 8.498848e-09 -2.0132664e-07
1.7152183e-07 1.2742359e-07 -1.5826647e-07 7.17082e-08 -2.1382867e-08 -3.1000533e-07 4.1054392e-08 -1.662054e-07
3.1538607e-07 3.4111004e-08 -3.2185e-07 -9.783904e-08 -3.491055e-08 3.5706364e-08 -9.57932e-08 1.491504e-07
4.821231e-07 1.1924345e-07 4.6610936e-08 1.2618669e-07 6.7798436e-07 -7.216703e-08 -2.4068942e-08 -2.1919166e-07
-2.0575605e-08 4.8232124e-07 -1.06777634e-07 2.7082564e-07 -5.2737843e-08 5.4878218e-08 -1.2818258e-07 -4.143256e-09
1.7518539e-07 -1.6366305e-07 7.451834e-08 -5.557067e-07 2.0210388e-07 -3.2969345e-07 -7.033756e-07 3.245084e-08

f_bn3.weight f4 [64]
00000000: 57ce 9f3d 90c1 753d 2c24 973d 28b5 793d
00000010: dfa2 7e3d 0d28 6f3d 792c 8f3d c74b 8b3d
00000020: 2d84 523d af1e 563d 85fe 9f3d 772a 843d
00000030: 9deb 823d 4b5a 953d 2451 863d 1154 453d
00000040: 56e6 503d f700 683d b931 5b3d b301 823d
00000050: 8651 37ba a72a 7c3d 0c6d af3d 2cd0 9b3d
00000060: 5e78 793d f0dc 1e3d 4874 4e3d 1bcf 853d
00000070: 1275 743d 3960 553d 16fc 883d cf44 953d
00000080: 3395 7d3d 5c83 9f3d 2075 443d ef26 103d
00000090: a01f 9e3d 440b 743d 4db4 823d 94c7 4b3d
000000a0: e8a8 923d a3da 953d 5079 6d3d 46a5 a23d
000000b0: 119a 733d b7a1 623d 3003 483d ba1b 803d
000000c0: 6462 4c3d f286 803d 3eb9 743d 04dd 833d
000000d0: 36a8 933d e62e 443d ea63 6e3d 9de1 7f3d
000000e0: 06b9 8d3d 7d80 9e3d b6b6 8b3d 07bb 803d
000000f0: fca1 763d 11d0 883d 36f1 a13d 3752 843d
0.07803028 0.05999905 0.07379946 0.06096378 0.062167045 0.058387805 0.06990904 0.06801563
0.051395584 0.052275356 0.078122176 0.06453412 0.06392596 0.07292613 0.06558445 0.048175875
0.051000915 0.056641545 0.053514216 0.0634798 -0.0006993044 0.061564114 0.08565721 0.07608065
0.060905807 0.03878492 0.050403863 0.06533643 0.05968196 0.05209372 0.066887066 0.07288515
0.061909866 0.07788727 0.04796326 0.03519338 0.07720876 0.059581056 0.06382046 0.04975088
0.071611226 0.07317092 0.05797702 0.0794168 0.0594731 0.055330005 0.048831165 0.062552884
0.04989852 0.06275739 0.059746973 0.0643864 0.07209818 0.04789629 0.058200754 0.06247102
0.06920056 0.07739351 0.06821959 0.06285673 0.060213074 0.066803105 0.079073355 0.06460994

f_bn3.bias f4 [64]
00000000: 80d7 873c b30c 813c 1a8e 423c f529 923c
00000010: 6e86 993c 549a 983c 9c09 523c 40b6 b33c
00000020: 5a2c 8e3c 3f94 753c 860b 6e3c 2819 ab3c
00000030: 85c8 5b3c dac1 883c fa80 803c 3848 713c
00000040: ccb8 763c ff85 763c fa47 823c f72b 6d3c
00000050: 9563 11ba ab8d 663c ef46 5f3c 55cf 0a3c
00000060: de94 a03c 1bd4 313c e570 8e3c e097 413c
00000070: f3b0 883c 4209 6f3c cf02 553c 5e86 4c3c
00000080: bab7 363c c4f4 873c 1080 6d3c 6b43 ae39
00000090: 3e3f 723b d876 823c 469e a63c ea02 023c
000000a0: 34af aa3c 49a7 453c fefc 683c 6a03 4a3c
000000b0: f1dc 923c 858d 653c 518b 693c c5e4 363c
000000c0: 8330 383c 2837 973c 40db a63c d7a2 8c3c
000000d0: 915f 443c 8f97 723c 2aab 933c 93a9 7a3c
000000e0: f006 f83b fc3d 123c 98cb 8b3c de58 8d3c
000000f0: 77e9 843c 7ed9 953c 1a84 613c 3bd9 983c
0.01658225 0.015753126 0.0118747 0.017842272 0.018740859 0.018628277 0.012819674 0.02193749
0.017355133 0.014988958 0.014529115 0.020886019 0.013414507 0.016693998 0.0156865 0.014726691
0.015058707 0.015046596 0.015903462 0.014475814 -0.000554615 0.014071862 0.013627752 0.008472283
0.019602235 0.010853793 0.017387817 0.011815995 0.016685938 0.01458961 0.013001158 0.0124832075
0.011152202 0.016596206 0.0144958645 0.00033238097 0.0036963965 0.01592581 0.020339143 0.007935265
0.020835496 0.01206381 0.014220474 0.012329916 0.017927619 0.014010792 0.014254407 0.011162941
0.011242035 0.018458918 0.020368218 0.017167492 0.011985675 0.014806642 0.018025953 0.015299219
0.0075691864 0.008925911 0.017064855 0.01725429 0.016224606 0.018292185 0.013764406 0.018658271

f_bn3.running_mean f4 [64]
00000000: e2fd 113b e61f 633b e380 393b fdcd 2c3b
00000010: 96c2 703b 44e2 4e3b 4af1 093b 40ce 5d3b
00000020: fb4a 523b d4c2 1f3b 3b1c a23a 63b8 5d3b
00000030: 88e8 ac3a a466 823b 6a07 f03a cc93 473b
00000040: 22b7 323b d118 293b c980 4b3b 8ea7 003b
00000050: d02f deb5 bcc4 ba3a ee47 d33a 257a f43a
00000060: db47 733b 48f3 fd3a 869a 613b 1003 d03a
00000070: cf83 6d3b f934 133b e055 343b 0bf0 543a
00000080: ea1b da3a 2db2 033b 4326 2b3b 8231 763a
00000090: f54a 69b8 43bd 403b cde4 713b 25ff 2c3b
000000a0: 710c 453b fb11 fe3a e643 1c3b 96df af3a
000000b0: 1d3e 3d3b b3a8 3e3b 30f8 4a3b 9773 b33a
000000c0: 7dde c53a e38f 173b 55fb 833b 0621 563b
000000d0: be14 fc3a 26a3 153b 6dfb 6f3b a8db ba3a
000000e0: d762 203a 0255 ba3a 38f3 3a3b 9588 9d3a
000000f0: 6c3f 6f3b 301d 803b 2377 6d3a e4a3 283b
0.002227657 0.0034656464 0.0028305582 0.0026367896 0.0036737076 0.003156797 0.002104836 0.0033844858
0.003208815 0.0024377601 0.0012368032 0.0033831827 0.0013191858 0.003979521 0.0018312756 0.0030453084
0.00272698 0.0025802145 0.0031052104 0.001963112 -1.6554204e-06 0.0014249305 0.0016119459 0.0018652125
0.0037121687 0.0019374872 0.0034424379 0.0015870053 0.0036241894 0.0022461994 0.0027517006 0.00081229274
0.0016640399 0.0020095215 0.0026115335 0.00093915325 -5.5621338e-05 0.0029409684 0.0036910058 0.0026397195
0.003006723 0.0019384021 0.0023844182 0.0013418074 0.0028876134 0.0029092252 0.0030970685 0.0013691065
0.0015096214 0.0023126535 0.004027764 0.0032673492 0.0019232256 0.002283284 0.0036618367 0.0014256136
0.0006118244 0.0014216008 0.0028526317 0.0012018854 0.0036506308 0.0039097294 0.0009058585 0.0025732452

f_bn3.running_var f4 [64]
00000000: 4b95 6839 0ab6 2e39 04b8 4439 c08a 0e39
00000010: b88e 2339 7ee8 2c39 a253 2c39 8165 4e39
00000020: 3998 fe38 f268 fa38 1256 5039 c5a7 3439
00000030: 7351 1039 49cb 4639 3f53 2939 04c6 bf38
00000040: 6d50 f538 ac37 f338 5d15 0439 2822 2d39
00000050: b9e6 782d 0d7e 0a39 3d5a 5539 101c 8439
00000060: 7a2f 1e39 1137 3c38 d49c eb38 daf8 4439
00000070: d42f 0d39 52c1 cd38 b6ec 1b39 01da 7439
00000080: ebd5 1739 5742 2f39 2a1b c738 b4a8 f837
00000090: 2ca8 5939 82b1 2c39 2c31 3a39 39b0 9d38
000000a0: 63f9 1c39 99e6 5539 aa9a 0339 5a95 7039
000000b0: fc7c 2339 82fe ec38 9310 8038 1970 fa38
000000c0: 3b82 b838 1fe7 0a39 9abd 2039 afb2 1f39
000000d0: 4719 2639 2ced b938 3dc2 1939 79d5 3339
000000e0: cdf9 5839 39d0 4739 32af 2139 cc0a 3b39
000000f0: c1bb 0339 0d66 2c39 f4fb 6839 c36e 3c39
0.0002218086 0.00016661748 0.00018760568 0.00013593864 0.00015598058 0.00016489808 0.00016434354 0.00019683504
0.000121400175 0.000119404765 0.0001986849 0.00017228637 0.00013763252 0.00018958481 0.00016148108 9.144473e-05
0.00011697491 0.00011597513 0.0001259646 0.0001651129 1.4148399e-11 0.00013207663 0.0002034688 0.0002519791
0.0001508574 4.4873977e-05 0.00011234885 0.00018784721 0.00013464625 9.8111705e-05 0.00014870134 0.00023350866
0.00014480173 0.00016714014 9.494119e-05 2.9642462e-05 0.00020757382 0.00016469325 0.0001775666 7.5191674e-05
0.00014970223 0.00020399167 0.0001255075 0.00022943821 0.00015591452 0.00011300763 6.106603e-05 0.00011941809
8.798061e-05 0.00013246805 0.00015329421 0.00015229986 0.0001584041 8.865664e-05 0.00014663576 0.00017150295
0.00020692423 0.00019055688 0.00015419422 0.00017837732 0.00012563077 0.00016441215 0.00022219104 0.00017970339
