code/model/seed_971/QDANN_D_corn_2018.pth (torch, 33406 bytes, 14 tensors)

d_fc1.weight f4 [64, 32]
-1.0186424e-24 -7.3933696e-28 3.2584497e-16 7.194707e-26 6.727424e-20 6.3927016e-16 2.8925582e-16 1.4342414e-25
-6.95047e-22 1.4423007e-18 -1.4797494e-26 -2.8052716e-20 1.5423935e-23 2.8259302e-17 4.1791426e-26 5.9543825e-24
-5.0502706e-18 1.7406895e-25 1.3700431e-19 4.8589285e-13 -8.1038755e-34 5.8404642e-21 -7.495788e-26 -4.6799236e-20
-2.421017e-14 -5.787195e-17 -1.1144581e-17 1.4969173e-31 7.835501e-30 1.9558013e-18 -6.1954966e-26 7.928774e-26
7.163303e-28 2.1630075e-24 -2.9199958e-22 -5.489624e-20 -1.8335506e-21 -1.7253646e-24 -3.5095167e-31 -9.833057e-23
4.6613728e-23 -1.7106648e-28 -5.3326353e-23 1.3652007e-19 -3.1716946e-27 1.5248642e-21 -3.3941024e-24 -3.9632297e-28
1.1677118e-27 -1.6964799e-31 -2.10029e-15 -1.7490235e-19 -5.1085695e-29 1.5564574e-24 5.677326e-28 -6.75227e-29
1.9713039e-21 -1.5667487e-15 2.550142e-30 3.5961724e-30 -1.1570869e-27 1.7874162e-23 2.459492e-20 -3.8538768e-20
1.1117444e-20 1.6911192e-24 -1.6531652e-15 -2.7015177e-18 -7.217244e-19 -1.6792307e-19 -1.2041972e-23 -1.1058606e-17
6.184429e-19 -3.162801e-20 7.4331904e-20 4.220471e-16 -9.4582946e-20 -2.9541367e-19 -1.9323499e-21 -4.9763777e-20
1.7681367e-26 -8.0369886e-18 -6.246241e-22 2.360512e-17 -1.08865505e-17 -2.6418047e-25 5.0926255e-17 1.0105601e-17
7.332501e-20 7.028936e-17 1.4904535e-18 3.303263e-26 -1.092695e-24 -1.4222501e-12 1.2234358e-15 -3.290987e-20
-2.2675393e-36 3.3706116e-27 5.1025513e-33 3.2887885e-28 1.4689893e-31 1.7204648e-30 1.9543827e-31 2.3395636e-32
-1.4222209e-28 1.3933014e-29 -9.384238e-33 1.4565957e-23 3.6408958e-34 4.4165512e-30 1.40798005e-30 2.3389735e-30
-8.446889e-31 4.4790515e-31 4.2078904e-32 -7.834442e-27 5.249848e-36 2.677172e-35 1.0938101e-25 -6.3782466e-29
1.0150019e-25 -1.5966794e-26 -1.5146358e-31 -9.926277e-35 7.4250275e-29 2.5849248e-29 -5.963626e-30 2.1258383e-35
7.756979e-24 4.8644442e-26 2.0046156e-16 -1.5644144e-24 1.2931391e-23 5.0658005e-25 -8.275457e-26 -2.7614882e-25
-1.7393824e-28 1.9855495e-24 5.6284806e-30 -2.67703e-21 -6.1800247e-23 1.1939498e-20 -5.431245e-27 -2.2300167e-28
-3.1666065e-21 4.3140756e-24 2.506578e-18 1.6002155e-13 -7.470941e-29 -1.7238187e-21 -1.4620451e-25 -2.1725784e-24
-2.5049147e-16 1.4362562e-16 -1.2622174e-27 2.7240128e-23 1.0470527e-27 3.0943506e-21 1.6340122e-28 4.6081477e-25
2.199859e-21 8.740842e-24 1.0964183e-25 -8.466146e-25 2.0035783e-22 2.1445866e-20 1.8821281e-36 -1.7078356e-22
-6.5329255e-25 8.096739e-20 2.14886e-26 2.2706962e-27 8.3801785e-38 9.2492956e-32 -2.5573967e-32 -2.1724338e-28
1.5753243e-25 3.7766762e-35 -1.1472648e-18 -9.063438e-27 -4.205742e-19 -1.8322276e-26 -6.655297e-26 -4.153237e-29
1.4220162e-21 -1.5149885e-28 -4.4031915e-28 -2.5853658e-37 5.0509083e-31 3.4854795e-31 2.9651338e-22 7.95496e-28
-2.2195e-41 3.3879123e-32 -1.9300879e-31 -2.5133614e-34 1.536363e-36 6.862736e-36 6.77098e-39 1.1957892e-37
-3.044262e-36 1.032485e-39 4.2777e-41 3.6041438e-32 -5.109587e-28 7.740823e-34 7.329455e-39 -1.080866e-23
6.5770987e-35 3.6745843e-38 -1.2731718e-29 -1.794131e-35 -8.685853e-37 -4.6594926e-38 -2.686602e-39 2.6531307e-27
4.1051156e-34 -1.5197215e-35 -2.44457e-40 -2.2143e-41 -4.082481e-32 -1.7568782e-24 -3.952933e-39 8.000057e-36
-9.483025e-20 -1.7057731e-22 4.1898175e-18 -7.0985926e-27 -6.6668382e-21 -5.506455e-24 -2.4780248e-36 -8.5907685e-30
6.525502e-29 -4.833603e-23 3.675189e-36 -5.210439e-19 3.5987514e-19 -9.916763e-22 2.5392095e-19 -1.0251606e-37
-3.548043e-30 -3.6677113e-27 1.2533389e-21 6.033026e-26 3.8070294e-15 -3.4672885e-35 6.141865e-34 1.562396e-29
-5.901245e-26 1.1416883e-18 7.158895e-25 1.0996508e-26 -3.776123e-25 -2.1850406e-20 8.6349405e-26 -1.4393876e-28
00000000: 95a0 9d97 244e 6a92 3bd6 bb25 e021 b215
00000010: c8d8 9e1f d041 3826 a0be a625 ed8c 3116
00000020: a810 529c 94d8 d421 1b8c 9294 a779 049f
00000030: d02b 9519 b252 0224 edf0 4e15 5959 e618
00000040: 7552 baa2 a77c 5716 03bf 2120 45c4 082b
00000050: 13a6 8688 81a5 dc1d 3396 b995 ce00 5d9f
00000060: da10 daa8 9271 85a4 cc94 4da3 9c4f 420c
00000070: 3fec 1e0f 0b50 1022 a064 9995 934e c415
00000080: 9e03 6312 c75a 2718 bf80 b09b be9e 819f
00000090: 078a 0a9d 5e7e 0598 d9c7 e38c adbf ed9a
000000a0: 0069 611a 3fda 5891 6aef 809a a92c 2120
000000b0: 9c49 7b93 546e e61c 904d 8398 1433 fb91
000000c0: 0508 b912 3737 5c8c 8357 17a7 fe7c 4ea0
000000d0: 8384 8190 a1d9 f017 f1eb 3312 bd30 ab90
000000e0: 90f2 141d d3ca e1a6 61e4 4e0e cae0 910e
000000f0: 0559 b792 48de ac19 de4a e81e 83fe 359f
00000100: a900 521e 11d8 0218 083f eea6 3a56 47a2
00000110: f403 55a1 a23f 46a0 f5ec 6899 cafe 4ba3
00000120: 3988 3621 eb5b 159f e182 af1f 294b f325
00000130: e253 df9f a761 aea0 1501 129d b700 6b9f
00000140: 971b af14 9b41 14a3 f3c7 3c9c 04b8 d923
00000150: 48d2 48a3 1185 a396 1cdb 6a24 5a6a 3a23
00000160: 4022 ad1f 8413 a224 bef3 db21 d591 2315
00000170: 1c16 a997 f629 c8ab d050 b026 9769 1b9f
00000180: a2e6 4084 1086 8513 a2f3 d309 a573 d011
00000190: 8baf 3e0c a894 0b0e 81b1 7d0c 45f4 f20a
000001a0: b549 3491 2c4c 8d0f 2be7 428a 90df 8c19
000001b0: a2fa f107 1728 b30e 3475 e40d 94c2 3d0e
000001c0: 010f 898d 815a 110d 757c 5a0b 572d 1b94
000001d0: c84d df04 c757 0e06 3a68 0716 30b5 a190
000001e0: 634d fb15 a220 9e94 689c 448c 5ff1 0387
000001f0: 2f3f bc10 3e12 0310 d5e9 f18e d30e e205
00000200: b30a 1619 28e0 7015 cf1d 6725 d714 f297
00000210: 2621 7a19 68c7 1c17 f1e3 cc95 87ed aa96
00000220: 307e 5c91 dc9f 1918 7c51 e40e 4a45 4a9d
00000230: 806c 959a df87 611e 5e27 d793 1758 8d91
00000240: 1443 6f9d 89e4 a618 ebf3 3822 122b 342a
00000250: 2e69 bd90 813f 029d 0ffe 3496 5918 2898
00000260: 0466 90a5 cd96 2525 9f01 c892 a5b9 031a
00000270: 81e9 a512 72cd 691d ba22 4f11 829d 0e17
00000280: 7637 261d 8e12 2919 e2ba 0716 dc01 8397
00000290: bf37 721b ec8c ca1e 1f1d 2004 f476 4e9b
000002a0: 2b2f 4a97 c92d bf1f 13d0 d414 31e7 3313
000002b0: 5221 e401 1d20 f00b a2c9 048b c1b1 8991
000002c0: 0504 4316 74cd 4806 704e a9a1 1785 3394
000002d0: 6043 f8a0 7d74 b594 f5c6 a495 1998 5290
000002e0: 96e3 d61c 300c 4091 ef8a 0b92 6df3 af82
000002f0: 4ee9 230d 7638 e20c 393b b31b 4e1a 7c12
00000300: df3d 0080 14e9 2f0b 2c8a 7a8c a10a a787
00000310: 06b3 0204 4af4 1105 bdba 4900 2cc3 2202
00000320: 147d 8184 263e 0b00 3f77 0000 4a23 3b0b
00000330: e5ed 2192 d29d 8008 8acf 4f00 e411 5199
00000340: 6ad9 ae06 3b10 4801 6e1d 818f e4c8 be85
00000350: 3ac8 9383 d9af 7d81 2741 1d80 e233 5213
00000360: 766a 0808 c19a a185 72a9 0280 ba3d 0080
00000370: 7bf9 538b 8fee 0798 2b0b 2b80 7424 2a05
00000380: 5ee9 df9f 1f37 4e9b b593 9a22 249a 0c94
00000390: b4dd fb9d 4a05 d598 9ace 5284 d23d 2e8f
000003a0: ee70 a510 1bbd 699a 4453 9c04 f7c8 19a1
000003b0: cb6e d420 9edb 959c 73e3 9520 a289 0b82
000003c0: fcec 8f8e 034b 9193 3366 bd1c d85e 9515
000003d0: a629 8927 495a 3886 3619 4c08 1f72 9e0f
000003e0: 951b 9295 c47b a821 9c8e 5d17 ebce 5914
000003f0: 0fbb e996 0a5f ce9e 70ca d515 cc76 3691

d_fc1.bias f4 [64]
-2.44e-42 4.8e-44 3.7881677e-28 -2.556e-42 7.2694855e-35 2.581e-42 -2.199e-42 -5.324e-42
-1.18e-43 -8.740076e-30 -4.5661348e-36 5.62e-43 2.55e-43 4.0812336e-31 1.4e-44 -1.4361086e-29
3.92e-43 1.1114e-41 -6.8782146e-36 -1.9336203e-31 -2.1975e-41 1.0802038e-31 -1.43e-43 -1.63e-43
2.011e-42 -3.66e-43 -9.92e-42 -7.202598e-37 2.06e-43 2.004e-42 -5.65e-43 1.4764685e-36
2.1536618e-35 -8.38e-43 -2.920122e-29 -5.79e-43 1.47e-43 -2.84e-43 -5.07e-43 6.35e-43
-4.305e-42 -1.304e-41 -4.3177e-41 2.13e-42 1.107e-42 -1.8417434e-31 -3.9483215e-30 -1.298e-42
-6.671688e-34 1.7606158e-30 -2.59e-43 2.8e-44 1.0929e-41 1.232e-42 -2.4e-43 2.28e-43
5.3e-43 1.19e-43 2.753009e-32 -5.3e-43 1.15e-43 1.64e-43 1.1243251e-34 -4.83e-43
00000000: cd06 0080 2200 0000 891a f011 2007 0080
00000010: 8e41 c106 3207 0000 2106 0080 d70e 0080
00000020: 5400 0080 1245 318f ce38 c284 9101 0000
00000030: b600 0000 9071 040d 0a00 0000 83a3 918f
00000040: 1801 0000 fb1e 0000 9048 1285 8eff 7a8c
00000050: 423d 0080 ee37 0c0c 6600 0080 7400 0080
00000060: 9b05 0000 0501 0080 a71b 0080 7a17 7583
00000070: 9300 0000 9605 0000 9301 0080 4635 fb03
00000080: 4004 e505 5602 0080 5a11 1490 9d01 0080
00000090: 6900 0000 cb00 0080 6a01 0080 c501 0000
000000a0: 000c 0080 5a24 0080 5c78 0080 f005 0000
000000b0: 1603 0000 6c12 6f8c b729 a08e 9e03 0080
000000c0: 72b4 5d88 8fd6 0e0e b900 0080 1400 0000
000000d0: 771e 0000 6f03 0000 ab00 0080 a300 0000
000000e0: 7a01 0000 5500 0000 c4f1 0e0b 7a01 0080
000000f0: 5200 0000 7500 0000 cd72 1507 5901 0080

d_bn1.weight f4 [64]
8.344364e-11 4.417478e-08 2.0062275e-07 1.7383677e-09 4.4622643e-09 8.7894816e-11 8.45753e-10 7.608058e-12
8.487369e-10 9.334175e-08 4.204113e-10 3.941625e-10 4.415708e-08 3.1100418e-09 3.3078624e-07 -7.1163946e-08
2.0044106e-09 7.605643e-09 6.8002866e-09 4.9955213e-09 1.2216582e-10 2.3573328e-08 2.6684074e-08 2.150417e-09
6.687885e-08 5.548255e-10 3.0493386e-11 4.5357537e-10 7.904525e-09 4.398961e-10 4.910031e-10 2.0673232e-09
1.4588391e-08 5.5780216e-09 9.961983e-09 2.9306323e-08 2.7144731e-08 1.5070326e-07 8.6601574e-08 5.460614e-10
4.1477705e-08 1.4648274e-10 3.8324674e-10 2.058512e-09 2.0018158e-09 1.37760985e-08 1.15987646e-07 4.854035e-08
1.5632456e-09 3.0860285e-09 4.763412e-09 -1.4151874e-09 5.6612883e-09 4.9915997e-08 4.297373e-08 2.1361182e-09
8.864669e-09 3.06124e-10 1.2684682e-08 3.4309853e-08 3.29132e-10 1.599557e-09 7.8324225e-10 1.9089252e-09
00000000: 987e b72e afba 3d33 c36a 5734 60eb ee30
00000010: 7e52 9931 6248 c12e 947a 6830 a6d7 052d
00000020: 8d4c 6930 2b73 c833 a11f e72f 71b1 d82f
00000030: 39a7 3d33 6fb8 5531 ea96 b134 cbd2 98b3
00000040: f7bd 0931 f9a9 0232 f4a7 e931 12a5 ab31
00000050: 9f52 062f 4c7e ca32 e636 e532 89c6 1331
00000060: 099f 8f33 6082 1830 801c 062e 0f5b f92f
00000070: 78cc 0732 dfd5 f12f 46f7 0630 bc10 0e31
00000080: 6ca0 7a32 cca8 bf31 4425 2b32 49bd fb32
00000090: e52b e932 ffd0 2134 b8f9 b933 a819 1630
000000a0: 3825 3233 3a0f 212f 2fb1 d22f ba75 0d31
000000b0: 5190 0931 ecab 6c32 e214 f933 ae7a 5033
000000c0: d1d9 d630 fd11 5431 6aab a331 7b80 c2b0
000000d0: 3885 c231 3863 5633 1e92 3833 fdca 1231
000000e0: 3a4b 1832 1f4b a82f d2eb 5932 155c 1333
000000f0: 36f1 b42f 69d7 db30 c64b 5730 2b2e 0331

d_bn1.bias f4 [64]
-1.9622312e-22 -2.1679443e-17 8.8543945e-14 -8.596821e-27 -5.3709583e-22 -9.141491e-27 -8.8215785e-32 -3.3820045e-26
-3.869454e-26 -8.914211e-17 -2.0170513e-22 -5.054249e-24 -5.8761043e-15 3.9268527e-17 -9.991273e-16 7.11578e-15
-1.920694e-20 -8.626591e-23 -5.8920236e-23 -1.2651426e-18 -6.13291e-29 -3.1757367e-20 -6.2099635e-21 -3.2884285e-23
-1.3480177e-18 -5.3830257e-28 -1.8839776e-22 -1.119797e-22 -4.2446988e-26 -3.3677415e-24 -2.8859767e-35 -2.0733153e-22
-1.08025e-23 -4.3360307e-26 -4.9327877e-17 -3.0247164e-18 -1.643525e-16 -1.0853789e-13 -1.9352202e-15 -9.754824e-28
-5.159771e-16 -5.8617504e-27 -3.4781082e-25 -6.139386e-26 -8.934583e-21 -1.1727904e-18 -2.6198742e-16 -2.6088573e-18
-4.032654e-22 5.3166025e-18 -9.6856766e-27 -9.8916636e-20 -4.596479e-19 -1.8714548e-18 -8.006796e-17 -2.3652986e-18
-3.03656e-23 -1.9054081e-22 1.6273738e-19 -3.3153456e-14 -5.12289e-24 -1.2719141e-24 -5.3669325e-22 -8.067468e-24
00000000: 1d38 6d9b 23f5 c7a3 1c62 c729 1047 2a94
00000010: c753 229c de10 3594 7205 e58b 0078 2795
00000020: 289b 3f95 378c cda4 b7d8 739b dc86 c398
00000030: 7fb5 d3a7 1818 3524 4bfd 8fa6 be2f 0028
00000040: 8867 b59e 0394 d09a dc75 8e9a bcb3 baa1
00000050: dd7c 9b90 4df8 159f 159b ea9d c604 1f9a
00000060: abee c6a1 4b98 2a92 48c2 639b 0a60 079b
00000070: f32f 5295 7f48 8298 e171 1986 00a6 7a9b
00000080: 64f3 5099 b8b5 5695 147c 63a4 472f 5fa2
00000090: 4c7c 3da5 d567 f4a9 8372 0ba7 4492 9a92
000000a0: 64b8 14a6 3635 e893 d348 d796 fb00 9895
000000b0: fec4 289e c512 ada1 8506 97a5 ec7f 40a2
000000c0: 4cc2 f39b e425 c422 37d8 3f94 708f e99f
000000d0: 03aa 07a1 c816 0aa2 c89f b8a4 3a87 2ea2
000000e0: cbd6 129a 8659 669b 5b20 4020 554f 15a9
000000f0: a52e c698 b5d1 c497 a134 229c 2b0c 1c99

d_bn1.running_mean f4 [64]
8.6815815e-17 -6.177595e-17 2.251573e-15 4.6421195e-26 3.550561e-17 4.4494475e-23 2.7274862e-27 5.024615e-20
-3.3794688e-23 -5.34159e-13 3.688614e-12 4.7503507e-22 2.6022107e-19 1.0802828e-16 -2.6532707e-14 -1.7024823e-21
-1.8965874e-16 -1.6593727e-23 -3.9976117e-18 -1.7664147e-13 2.6860332e-26 -2.5455722e-15 -2.241446e-24 -6.776663e-20
5.2997553e-18 2.432328e-23 -9.827428e-25 -7.1138055e-19 -1.2389226e-23 8.994896e-20 -6.1126294e-32 8.83536e-18
3.4450993e-18 -1.3611977e-22 1.9424711e-12 7.50405e-19 6.224857e-18 -1.6388662e-18 5.4859325e-18 -7.0235576e-24
1.486983e-16 -1.21635915e-20 -5.934642e-23 -8.994071e-22 1.686059e-16 5.220945e-15 1.3085229e-13 -1.8692888e-18
8.87131e-17 1.3959865e-13 1.5444823e-26 -1.5258384e-20 -4.6476054e-15 -3.6328928e-16 -2.9267718e-17 3.8392212e-20
-1.6099298e-21 -1.5989357e-19 2.280681e-12 -1.147546e-15 1.9311567e-20 -9.905048e-24 4.8128945e-17 2.3711474e-21
00000000: 032f c824 1672 8ea4 313e 2227 dbdd 6515
00000010: a0bd 2324 7e29 571a fe17 5813 de47 6d1f
00000020: cc6b 239a 365a 16ab 15c8 812c 0f92 0f1c
00000030: 7f9b 9920 a418 f924 42fc eea8 cca2 009d
00000040: 61a9 5aa5 147c a099 607c 93a2 70e1 46aa
00000050: 8401 0515 856d 37a7 696c 2d98 6a02 a09f
00000060: c686 c322 863d eb19 7412 9897 65f6 51a1
00000070: 7aa4 6f99 cf62 d41f 64b1 9e8b cffb 2223
00000080: 1634 7e22 078f 249b 73b0 082c 007b 5d21
00000090: 1da8 e522 9dda f1a1 2b65 ca22 f9da 0799
000000a0: fe6f 2b25 85c3 659e a87d 8f9a 20ea 879c
000000b0: ae63 4225 b81a bc27 9b53 132a deed 09a2
000000c0: f98e cc24 922c 1d2a 47f5 9814 821c 909e
000000d0: 9872 a7a7 096c d1a5 39f9 06a4 564d 351f
000000e0: 2449 f39c dec4 3ca0 197d 202c fa60 a5a6
000000f0: 8164 b61e 6c97 3f99 a1f4 5d24 a928 331d

d_bn1.running_var f4 [64]
8.6199906e-32 5.2146305e-32 4.8695366e-29 6e-45 1.5101364e-32 3.4e-44 6e-45 1.7533939e-38
2e-44 1.9431863e-24 1.6614975e-22 6.424e-42 1.024628e-36 7.136934e-32 8.257779e-27 3.0136e-41
4.628315e-31 6e-45 1.5261341e-34 4.2848844e-25 6e-45 2.51876e-28 6e-45 5.401512e-38
3.1580005e-34 6e-45 6e-45 3.9852037e-34 6e-45 5.976975e-38 6e-45 1.0658257e-33
1.6115248e-34 2.41e-43 5.1430004e-23 1.0737615e-35 3.7820796e-34 3.9350153e-35 1.8380929e-34 6e-45
8.304438e-31 9.27325e-40 2e-44 1.1147e-41 7.9845853e-32 3.3195605e-28 4.263322e-25 3.571302e-35
3.376114e-31 2.1544228e-25 6e-45 3.178918e-39 3.1647228e-28 1.7980424e-30 9.967452e-33 2.0127385e-38
3.5948e-41 3.0057453e-37 7.158538e-23 1.9848258e-29 1.6037122e-38 6e-45 2.6342952e-32 3.6344e-41
00000000: aac9 df0b 2a61 870b 33ea 7610 0400 0000
00000010: 50d2 9c0a 1800 0000 0400 0000 7ded be00
00000020: 0e00 0000 c558 1618 dbdc 481b e811 0000
00000030: d854 ae03 1049 b90b ea8f 2314 0254 0000
00000040: 8932 160d 0400 0000 a7db 4a07 5a9c 0417
00000050: 0400 0000 38a5 9f11 0400 0000 0b0b 9301
00000060: 98e2 d107 0400 0000 0400 0000 5d6e 0408
00000070: 0400 0000 70b5 a201 0400 0000 3617 b108
00000080: 5935 5607 ac00 0000 43b3 781a 235d 6405
00000090: c05c fb07 a738 5106 0f53 7407 0400 0000
000000a0: 49bf 860d 0119 0a00 0e00 0000 131f 0000
000000b0: ac4a cf0b f366 d211 84f1 0317 0be2 3d06
000000c0: 511f db0c 315a 8516 0400 0000 889d 2200
000000d0: 9096 c811 e1df 110e 1104 4f0a f62a db00
000000e0: 3564 0000 788f cc02 3415 ad1a 0649 c90f
000000f0: f9a0 ae00 0400 0000 cac7 080b 5065 0000

d_fc2.weight f4 [64, 64]
8.479499e-25 -6.0189247e-18 3.453864e-14 -1.6107022e-28 -1.8611852e-22 -5.0474054e-19 -5.7213277e-27 -5.5268434e-30
-1.6411384e-19 -4.447081e-19 -4.809143e-23 1.4414758e-32 4.6577032e-26 -1.1220288e-21 -4.7313937e-17 3.9223382e-19
2.1664901e-17 -2.1080785e-20 -3.0839963e-18 -4.4793956e-24 2.1521531e-35 -3.1787588e-26 -5.5370266e-22 1.4267352e-17
7.8066723e-28 -6.749262e-32 -2.005788e-33 -6.719689e-26 2.5637506e-21 -1.8074946e-28 3.252e-42 -1.2572057e-16
4.1874144e-21 -5.237201e-21 -2.7922187e-22 3.4338626e-21 -1.1319309e-15 3.2917342e-18 8.996775e-23 1.3817159e-36
-7.17921e-21 -5.412214e-25 2.2522995e-28 2.5698734e-23 -3.455253e-24 3.499661e-20 -3.765397e-15 1.2006686e-22
-3.213363e-25 -3.849699e-23 -2.4536853e-28 2.2519696e-23 9.091316e-22 1.7026671e-16 4.309809e-27 1.7929804e-26
1.2161874e-24 2.6851512e-27 -2.103859e-21 -7.3570185e-17 5.0761754e-34 -2.4230113e-28 -4.201347e-24 -1.2621942e-38
8.9505e-41 -5.596463e-30 -4.8297083e-30 9.027905e-29 4.4598e-41 -9.43e-43 -1.1104e-41 8.9501e-41
1.092e-41 -3.205159e-25 1.2503363e-33 -2.56e-42 -4.7925628e-35 -4.596425e-32 -1.113022e-30 -3.610936e-36
-7.2295295e-30 1.4690819e-33 -6.8728e-41 -6.9466114e-29 2.606e-42 1.7976e-41 -5.521e-42 -1.313556e-39
-1.6399299e-34 -1.2694626e-36 -1.218e-42 -1.8856537e-34 -3.997577e-37 2.716e-42 -5.388e-42 -5.483e-42
3.45973e-33 2.538e-42 -1.3327447e-27 -5.856e-42 2.52e-42 5.268343e-27 6.3160325e-33 5.392e-42
1.6459305e-31 9.851526e-37 -5.489e-42 1.1605998e-35 3.8605576e-25 1.6375229e-30 -3.3540143e-31 -1.2944044e-35
-4.995399e-39 -3.326973e-31 -5.315e-42 -3.538353e-39 -3.1087093e-24 -8.154361e-28 -5.517037e-35 -2.469e-42
8.9462e-41 -5.406e-42 5.4678755e-33 -4.8883204e-22 -2.69e-42 1.1531307e-38 1.452561e-34 1.0948e-41
6.0018575e-30 -4.8343476e-33 -7.5557576e-34 2.165351e-37 2.3024138e-36 2.562e-42 -2.585e-42 1.8317581e-27
5.339e-42 1.2308218e-17 3.650207e-30 -1.1053e-41 1.8082451e-31 5.0540677e-38 -4.1925774e-29 -1.7153449e-35
6.160975e-30 5.8831224e-38 1.0305743e-29 -3.2578735e-20 -2.29278e-40 8.65178e-40 -1.0871967e-30 -9.473659e-31
-1.0011261e-30 -5.441e-42 2.2265e-41 5.0036907e-24 4.4204675e-37 1.1017e-41 -5.429e-42 -4.1127e-41
-5.1260154e-31 -1.806068e-39 -8.42757e-33 2.365425e-39 -3.718e-42 2.0286548e-25 -1.5242646e-32 -1.0961e-41
9.601109e-31 3.868794e-32 4.545552e-28 -7.882279e-35 -4.9315015e-27 -4.1314333e-32 2.7641716e-22 1.4766489e-27
1.885535e-36 -1.5232384e-16 -2.494e-42 -2.995426e-32 1.7436796e-21 -2.777041e-19 -1.5356986e-24 -1.98892e-39
4.361985e-30 1.1672736e-34 4.0062434e-38 7.402621e-15 4.3678633e-34 -2.511e-42 3.014292e-37 -4.381927e-24
3.8915025e-27 -2.4310258e-36 -7.822469e-30 9.825783e-35 1.0162711e-33 -6.64137e-22 4.4727e-41 5.296325e-34
2.689e-42 2.1834341e-23 -3.9545142e-30 5.36e-42 6.7263686e-28 -2.0123448e-22 -7.57201e-12 2.1459397e-32
-6.9016634e-15 -1.1387705e-27 8.023741e-18 8.5949455e-20 -2.62e-42 1.5199103e-33 2.672e-42 2.489803e-32
-6.336637e-36 7.929025e-36 5.47e-42 -1.1118e-41 -2.606e-42 2.639e-42 -7.865673e-39 2.23e-41
-1.667533e-36 4.2866938e-32 1.05098525e-19 -2.9404064e-22 -4.161152e-18 9.604608e-21 -1.3579951e-25 -4.8087955e-21
3.5732317e-13 9.328231e-34 -1.1094e-41 -3.6994374e-24 6.564602e-23 1.9592637e-29 1.7419313e-23 -1.682548e-30
2.646e-42 -1.1093e-41 -1.3753209e-21 -4.0217905e-34 -3.11921e-29 -3.7176544e-14 1.0520136e-33 3.7867e-40
1.1066e-41 -7.509438e-35 -2.1220689e-25 4.329057e-25 -1.155e-42 -2.2178e-41 3.4843907e-37 1.0769209e-17
00000000: c236 8317 230f dea2 578c 1b29 462e 4c91
00000010: e400 619b 1ef9 14a1 28a5 e293 0632 e08e
00000020: 5dc0 41a0 3241 03a1 4f8e 689a 00b1 950a
00000030: 67a3 6615 638e a99c 7032 5aa4 b388 e720
00000040: cdd2 c723 361a c79e 0b8f 63a2 c949 ad98
00000050: 2edb e405 8e67 1d95 ab58 279c d597 8323
00000060: 4067 7712 8a38 af8b 65a2 2689 175f a695
00000070: 26b6 411d 8e20 6591 1109 0000 2af2 10a5
00000080: 3032 9e1d 1adb c59d 7ec7 a89b 48ba 811d
00000090: e120 a3a6 1ae3 7222 5787 d91a 3716 eb03
000000a0: 889c 079e fa7f 2797 a6c1 8e11 fc8a f819
000000b0: 2bab 8598 4e44 251f a8a9 87a7 e526 111b
000000c0: c5e5 c696 f728 3a9a 5285 9b91 11cc d919
000000d0: 5362 891c dd4d 4425 a8ba aa13 7491 b114
000000e0: 2632 bc17 56bd 5413 8df6 1e9d 2ca4 a9a4
000000f0: 53af 2808 9b93 9991 2088 a298 d770 8980
00000100: 81f9 0000 ff04 e38e 8fea c38e 74e2 e410
00000110: 527c 0000 a102 0080 f41e 0080 7ef9 0000
00000120: 711e 0000 c663 c696 6dbf cf08 2307 0080
00000130: fcd0 7e86 f8a8 6e8b 2099 b48d 9c97 9984
00000140: dda1 128f d517 f408 96bf 0080 161e b090
00000150: 4407 0000 1c32 0000 640f 0080 a94d 0e80
00000160: ecfb 5987 e5fc d783 6503 0080 78a5 7a87
00000170: cf07 0883 9207 0000 050f 0080 490f 0080
00000180: 29b6 8f09 1307 0000 8c2e d392 5310 0080
00000190: 0607 0000 58b3 d013 ca2d 030a 080f 0000
000001a0: 6ca7 550c 739d a703 4d0f 0080 10d5 7605
000001b0: faf4 ee16 05da 040e 1fb0 d98c 0aa5 8985
000001c0: 2465 3680 d2ee d78c d10e 0080 7d87 2680
000001d0: 5586 7098 0536 8192 02ab 9286 e206 0080
000001e0: 62f9 0000 120f 0080 6d20 e309 8cbd 139c
000001f0: 8007 0080 9890 7d00 1714 4107 851e 0000
00000200: da76 f30e 9acf c889 4715 7b88 bc5d 9302
00000210: 22de 4304 2407 0000 3507 0080 7820 1113
00000220: e20e 0000 eb0b 6323 eb11 940e d01e 0080
00000230: 40b9 6a0c b695 8901 c496 5490 2168 b685
00000240: 39eb f90e 6127 a001 7a06 510f 46d9 199f
00000250: 227f 0280 c46b 0900 6268 b08d 0ab8 998d
00000260: 2771 a28d 2b0f 0080 113e 0000 2792 c118
00000270: b46b 1603 b61e 0000 220f 0080 a572 0080
00000280: 4559 268d 95aa 1380 a608 2f8a d8c1 1900
00000290: 5d0a 0080 a322 7b16 e749 9e8a 8e1e 0080
000002a0: 72c9 9b0d 18e1 480b e60d 1012 038c d186
000002b0: 5e5b c393 2b84 568b 7c15 a71b fffb e912
000002c0: 5167 2004 109e 2fa5 f406 0080 0a88 1b8b
000002d0: abbf 031d 75ed a3a0 4aa3 ed97 4da8 1580
000002e0: 71f1 b00e 4328 1b07 e21e 5a01 905a 0528
000002f0: ac25 1108 0007 0080 6024 cd02 8184 a998
00000300: 8628 9a13 0ecf 4e84 95a8 1e8f 689b 0207
00000310: 64db a808 1db9 489c ae7c 0000 2600 3008
00000320: 7f07 0000 362b d319 066a a08e f10e 0000
00000330: c92a 5512 0e47 739b 4d35 05ad ddd8 de0a
00000340: 9ca8 f8a7 0572 b492 0c03 1423 42f1 ca1f
00000350: 4e07 0080 d689 fc08 7307 0000 2947 010b
00000360: efc3 0685 b8a1 2805 400f 0000 fe1e 0080
00000370: 4407 0080 5b07 0000 4ca6 5580 2a3e 0000
00000380: a7db 0d84 ef93 5e0b 2928 f81f 96bc b19b
00000390: f884 99a2 096d 351e 951c 2896 d1ab b59d
000003a0: b227 c92a e8fd 9a08 ed1e 0080 741d 8f98
000003b0: ebb8 9e1a 65b1 c60f 2178 a819 2881 088e
000003c0: 6007 0000 ec1e 0080 26d5 cf9c 9ca5 0588
000003d0: a929 1e90 a36d 27a9 b6cb ae08 941f 0400
000003e0: d91e 0000 96a2 c786 8659 8396 53fa 0517
000003f0: 3803 0080 d33d 0080 a622 ed02 27a8 4623

d_fc2.bias f4 [64]
-1.0806788e-10 1.01e-43 -1.74e-43 8.77e-43 -6.370635e-13 3.85e-43 7.51e-43 3.21e-43
1.06e-43 -4.01e-43 -7.9598605e-13 -9.43e-43 -3.4268213e-11 4.82e-43 -6.67e-43 9.3e-43
-4.8e-43 -2.566e-42 -4.01e-43 4.7880623e-13 -2.5305526e-14 -4.974583e-13 -1.26e-43 2.44e-43
7.62e-43 -1.5205738e-11 6.98e-43 -1.877481e-10 4.33e-43 -9.73e-43 -1.079e-42 -2.05e-43
-1.041e-42 2.65e-43 -3.87e-43 -6.3e-43 8.7e-43 9.51e-43 -4.41e-43 5.55e-43
-4.46e-43 6.28e-43 7.8e-44 3.2571345e-11 6e-44 -8.5e-44 -6.674059e-11 1.3e-44
-6.52e-43 -6.11e-43 -1.6871776e-12 -8.43101e-11 1.272e-42 -2.83e-43 -9.61e-43 -3.14e-43
7.76404e-14 -4.908762e-11 -1.015e-42 4.89e-43 -6.783825e-13 5.27e-43 -1.5340103e-10 1.54033e-11
00000000: cfa4 edae 4800 0000 7c00 0080 7202 0000
00000010: 4351 33ab 1301 0000 1802 0000 e500 0000
00000020: 4c00 0000 1e01 0080 d70c 60ab a102 0080
00000030: 94b6 16ae 5801 0000 dc01 0080 9802 0000
00000040: 5701 0080 2707 0080 1e01 0080 a0c5 062b
00000050: 92ee e3a8 a605 0cab 5a00 0080 ae00 0000
00000060: 2002 0000 47c0 85ad f201 0000 646e 4eaf
00000070: 3501 0000 b602 0080 0203 0080 9200 0080
00000080: e702 0080 bd00 0000 1401 0080 c201 0080
00000090: 6d02 0000 a702 0000 3b01 0080 8c01 0000
000000a0: 3e01 0080 c001 0000 3800 0000 1340 0f2e
000000b0: 2b00 0000 3d00 0080 9dc3 92ae 0900 0000
000000c0: d101 0080 b401 0080 fb72 edab 5e66 b9ae
000000d0: 8c03 0000 ca00 0080 ae02 0080 e000 0080
000000e0: a5d4 ae29 bfe3 57ae d402 0080 5d01 0000
000000f0: 9cf2 3eab 7801 0000 8daa 28af 267d 872d

d_bn2.weight f4 [64]
0.000118157615 6.2251104e-07 2.233186e-06 1.0750547e-05 5.2055725e-06 1.5387214e-06 8.1076837e-07 2.6433707e-07
2.1724647e-07 6.2449e-07 4.5248785e-06 8.682224e-06 6.178659e-05 5.5622913e-06 1.0574697e-06 3.6458155e-07
2.9135856e-07 0.00077707134 1.4389136e-05 0.0022048478 6.183916e-07 2.3602419e-05 4.5683316e-07 2.5612724e-05
3.5151984e-07 4.5014414e-05 2.72231e-06 0.00032597632 1.5763655e-05 4.8578295e-07 0.00022196356 5.91529e-05
3.112046e-06 3.4848486e-07 9.959582e-07 2.3007458e-07 2.529425e-07 1.276057e-06 9.868697e-06 2.540157e-06
2.7022832e-06 1.303759e-06 1.0274647e-06 0.00034577152 4.0710142e-07 0.00011180268 0.00021535959 7.976384e-06
1.1236993e-05 6.358235e-07 7.618618e-06 0.0002067395 5.602827e-07 8.9754013e-07 5.6639277e-07 2.462839e-07
8.759348e-05 0.000316165 0.0007029647 0.000103541664 2.5283261e-05 2.0311743e-05 0.00046801893 0.0003191191
00000000: 63cb f738 a21a 2735 d8dd 1536 3f5d 3437
00000010: 87ab ae36 1186 ce35 94a3 5935 36ea 8d34
00000020: 4144 6934 a0a2 2735 69d4 9736 dea9 1137
00000030: 6c93 8138 b8a3 ba36 62ee 8d35 b5bb c334
00000040: 046c 9c34 60b4 4b3a de68 7137 357f 103b
00000050: 8cff 2535 cffd c537 ac42 f534 e8da d637
00000060: 85b8 bc34 dccd 3c38 eeb0 3636 cde7 aa39
00000070: 313c 8437 c066 0235 e4be 6839 f11a 7838
00000080: 8bd8 5036 6517 bb34 ddac 8535 6b0a 7734
00000090: 27cc 8734 fc44 ab35 bb91 2537 9177 2a36
000000a0: df58 3536 d1fc ae35 6be7 8935 ab48 b539
000000b0: 988f da34 9b77 ea38 26d2 6139 4fd2 0537
000000c0: 8486 3c37 75ad 2a35 6ea3 ff36 36c8 5839
000000d0: 5566 1635 7dee 7035 370a 1835 0039 8434
000000e0: 64b2 b738 f3c2 a539 2a47 383a 8224 d938
000000f0: 6417 d437 2363 aa37 7060 f539 714f a739

d_bn2.bias f4 [64]
0.0018294365 -1.3991515e-10 -2.8818032e-09 -4.3682665e-11 0.00060639565 -1.7329689e-12 -1.1236566e-09 -2.9582016e-12
-2.1777226e-10 -1.8627521e-12 0.0016663718 -2.837763e-07 0.0022999172 -1.4365736e-12 -6.4904554e-11 -2.5685296e-10
-7.687207e-16 -3.934526e-06 -9.30354e-08 0.001266524 0.00014205318 0.0001262663 -3.033109e-11 -6.883414e-07
-3.307073e-10 0.0023846086 -5.1568844e-07 0.0037513867 -3.6198367e-09 -9.6207755e-12 -3.181434e-05 -7.6599144e-07
-3.5424555e-10 -1.4129439e-12 -1.3755726e-12 -1.12564316e-11 -2.3731427e-11 -1.8438532e-08 -3.748795e-08 -1.2500024e-13
-3.2972996e-11 -1.676311e-07 -8.4226087e-10 0.0015108985 -1.806764e-13 -1.1216665e-06 0.0026371381 -5.580629e-09
-2.374082e-06 -3.1638986e-10 0.0010997107 0.0019198479 -8.2866103e-10 -6.977803e-10 -1.1378852e-10 -7.122195e-13
3.3621367e-05 0.0015843809 -5.1129115e-05 -0.000106365405 4.5271834e-05 -9.365887e-08 0.0014041342 0.0009478486
00000000: b4c9 ef3a 9dd6 19af 3809 46b1 4f1e 40ae
00000010: 86f6 1e3a c9e4 f3ab 276f 9ab0 392a 50ac
00000020: 7171 6faf 5c14 03ac 296a da3a eb59 98b4
00000030: 35ba 163b 052e caab 04ba 8eae d734 8daf
00000040: 9391 5da6 5205 84b6 c1ca c7b3 7e01 a63a
00000050: 1cf4 1439 5a66 0439 c565 05ae 76c6 38b5
00000060: eace b5af 1847 1c3b d76d 0ab5 d3d9 753b
00000070: d7c0 78b1 1f40 29ad 6370 05b8 889e 4db5
00000080: a1bf c2af abda c6ab 3a98 c1ab 7606 46ad
00000090: 6cbe d0ad c362 9eb2 7002 21b3 debc 0caa
000000a0: 4b04 11ae 16fe 33b4 d784 67b0 5709 c63a
000000b0: 6d6c 4baa 2b8c 96b5 d6d3 2c3b bbbf bfb1
000000c0: 6b52 1fb6 eaef adaf 2b24 903a 68a3 fb3a
000000d0: d6c7 63b0 eccd 3fb0 3e39 faae d378 48ab
000000e0: ab04 0d38 00ab cf3a 7873 56b8 7e10 dfb8
000000f0: 43e2 3d38 8221 c9b3 ed0a b83a 0b79 783a

d_bn2.running_mean f4 [64]
-1.1948774e-10 -3.73e-43 -8.152633e-34 1.2646479e-37 -5.9503503e-13 -6.7147994e-37 -1.926157e-32 3.2e-43
1.05e-43 1.30906e-40 -9.46736e-13 1.0820783e-37 -3.3500216e-11 5.1e-43 -7.52e-43 -1.5037338e-35
-4.03346e-40 -4.095913e-30 7.114174e-30 2.1537432e-11 -2.593194e-14 -4.933608e-13 2.42036e-39 7.1820645e-31
9.92e-43 -1.6127958e-11 7.06e-43 -1.7795528e-10 2.6523424e-36 3.81e-43 2.6243393e-24 -6.316675e-33
-4.894136e-32 2.72e-43 -3.85e-43 8.2791e-40 2.567826e-39 -2.4787664e-30 -5.6962124e-27 2.0597856e-31
4.2961254e-35 4.1304737e-31 -9.67e-43 4.454481e-11 3.9e-44 2.3359475e-30 -6.717438e-11 -1.7252979e-30
-2.3693827e-29 3.6042164e-28 -1.9052546e-12 -8.023702e-11 3.5710088e-34 -1.1785758e-31 -9.73e-43 -1.396812e-39
6.699721e-14 -5.724326e-11 4.8229165e-26 1.6228478e-30 -6.697103e-13 -7.61686e-29 -1.7032799e-10 1.6090431e-11
00000000: cf60 03af 0a01 0080 7775 8788 8c22 2c02
00000010: cb7c 27ab 277e 6483 0906 c88a e400 0000
00000020: 4b00 0000 ea6c 0100 c23d 85ab ed48 1302
00000030: e455 13ae 6c01 0000 1902 0080 87e7 9f85
00000040: 5d64 0480 6426 a68e e74a 100f fc71 bd2d
00000050: fc92 e9a8 64de 0aab fb5a 1a00 4212 690d
00000060: c402 0000 efdc 8dad f801 0000 f5a9 43af
00000070: e7a2 6104 1001 0000 650c 4b18 3431 038a
00000080: 3a1e 7e8b c200 0000 1301 0080 e003 0900
00000090: 0ef6 1b00 f719 498e 75a6 e193 0fb0 850c
000000a0: d46b 6406 a20a 060d b202 0080 ffe8 432e
000000b0: 1c00 0000 bb83 3d0e d0b7 93ae 09f9 0b8e
000000c0: b148 f08f c171 e411 0412 06ac 6d71 b0ae
000000d0: 9155 ed07 e6fc 188c b602 0080 be35 0f80
000000e0: 43dd 9629 2ec2 7bae bbd1 6e15 3ba9 030e
000000f0: b781 3cab 3f1c c190 1147 3baf 6e88 8d2d

d_bn2.running_var f4 [64]
4.1190634e-36 6e-45 6e-45 6e-45 1.39077e-40 6e-45 6e-45 6e-45
6e-45 6e-45 6.35246e-40 6e-45 6.5209377e-37 6e-45 6e-45 6e-45
6e-45 6e-45 6e-45 4.8443067e-37 1.68e-43 1.25451e-40 6e-45 6e-45
6e-45 1.402907e-37 6e-45 2.368418e-35 6e-45 6e-45 6e-45 6e-45
6e-45 6e-45 6e-45 6e-45 6e-45 6e-45 6e-45 6e-45
6e-45 6e-45 6e-45 8.692303e-37 6e-45 6e-45 1.4027951e-36 6e-45
6e-45 6e-45 1.75755e-39 3.2009237e-36 6e-45 6e-45 6e-45 6e-45
8.23e-43 1.7967776e-36 6e-45 6e-45 3.03688e-40 6e-45 1.1434699e-35 1.1969854e-37
00000000: a134 af04 0400 0000 0400 0000 0400 0000
00000010: b183 0100 0400 0000 0400 0000 0400 0000
00000020: 0400 0000 0400 0000 cfea 0600 0400 0000
00000030: 61e5 5d03 0400 0000 0400 0000 0400 0000
00000040: 0400 0000 0400 0000 0400 0000 ddd7 2403
00000050: 7800 0000 b55d 0100 0400 0000 0400 0000
00000060: 0400 0000 2df4 3e02 0400 0000 78da fb05
00000070: 0400 0000 0400 0000 0400 0000 0400 0000
00000080: 0400 0000 0400 0000 0400 0000 0400 0000
00000090: 0400 0000 0400 0000 0400 0000 0400 0000
000000a0: 0400 0000 0400 0000 0400 0000 52e4 9303
000000b0: 0400 0000 0400 0000 58ac ee03 0400 0000
000000c0: 0400 0000 0400 0000 5623 1300 f926 8804
000000d0: 0400 0000 0400 0000 0400 0000 0400 0000
000000e0: 4b02 0000 5ada 1804 0400 0000 0400 0000
000000f0: 8f4e 0300 0400 0000 6c30 7305 dbec 2202

d_fc3.weight f4 [2, 64]
0.0068598334 -0.00037019374 -0.0035917459 -0.00621911 0.0015763462 0.00021292419 0.0017208393 0.00037957297
-0.00012928156 0.00056539103 0.00031495505 -0.00023596663 0.001992374 0.0008476479 0.00036427355 0.0017636134
0.0010526525 -0.0056834505 -0.0012938181 0.011736172 0.00078513817 0.0027064893 0.0006654364 -0.0028576727
-0.00015040634 0.0033856917 -0.002183878 0.0035886257 0.013295024 9.046463e-05 0.0035138498 -0.00088702724
-0.0005625053 -0.00020019272 -0.0011600638 -9.302004e-05 0.00029478196 -0.0035839658 0.0007385434 -0.0018023837
0.0009019472 0.0014871897 0.00011557689 0.00290634 -0.00037917666 -0.00052247854 -0.0031160845 0.00069123256
0.0038066255 0.00021399572 -0.001121592 0.010406664 -0.00063813484 -0.00079115294 0.00019548852 0.000524028
0.0017063911 0.002962759 0.0030224218 0.0007622402 -0.0017992248 0.0033489342 -0.0051299506 -0.001714813
-0.00028171728 -0.0010826617 -0.0041269646 -0.0048774714 -0.00084529025 -0.00048030034 -0.0004582962 0.00015232475
-8.3920015e-05 0.00057943474 -0.0040820367 -0.0026561364 -0.004025743 0.0010243577 0.00036630096 -0.00021703087
5.4220403e-05 -0.0040606554 -0.00010894785 0.009472482 0.00021217339 0.002357325 0.00020124693 -0.008424023
-0.00030374035 -0.0025696105 -0.0018966914 -0.006835448 0.008192718 -3.8042755e-05 -0.0021043706 -0.0013633032
-0.000491469 -0.00035081606 -0.0003763351 -9.3994335e-05 -0.00020828062 -0.004496893 -0.0005126076 -0.0006561914
0.0009076942 0.00048615693 -0.00097411574 -0.00097081956 -4.274704e-05 -0.008136401 -0.0105101885 0.0013305254
-0.0008130304 -0.0003061892 -0.004387454 0.004490799 -0.002047084 -0.000776042 0.0001964403 0.000103428894
0.0017239933 -0.0017585321 -0.0006383562 -0.0009457337 -0.001972471 -0.0021558898 -0.00854065 -0.003544269
00000000: 74c8 e03b 9016 c2b9 7f63 6bbb adc9 cbbb
00000010: 679d ce3a 6744 5f39 c98d e13a 6c01 c739
00000020: c18f 07b9 c036 143a 8d20 a539 cf6d 77b9
00000030: 7d92 023b b034 5e3a f8fb be39 0c29 e73a
00000040: 28f9 893a 3d3c babb 5595 a9ba 1349 403c
00000050: bbd1 4d3a 5b5f 313b ae70 2e3a cb47 3bbb
00000060: 65b6 1db9 7be2 5d3b 651f 0fbb 262f 6b3b
00000070: 5fd3 593c d4b7 bd38 9e48 663b 6487 68ba
00000080: 1775 13ba d3ea 51b9 480d 98ba c113 c3b8
00000090: f78c 9a39 f8e0 6abb cf9a 413a f63d ecba
000000a0: a770 6c3a ceed c23a df61 f238 4b78 3e3b
000000b0: 3bcc c6b9 f1f6 08ba 3937 4cbb d533 353a
000000c0: 9478 793b 0a64 6039 6202 93ba b680 2a3c
000000d0: 8148 27ba 6065 4fba 0dfc 4c39 ec5e 093a
000000e0: fca8 df3a d92a 423b d313 463b 13d1 473a
000000f0: f7d3 ebba cb79 5b3b 2519 a8bb 94c3 e0ba
00000100: 74b3 93b9 19e8 8dba 7d3b 87bb 32d3 9fbb
00000110: 7896 5dba d2d0 fbb9 7a47 f0b9 5db9 1f39
00000120: 37fe afb8 35e5 173a 9bc2 85bb 9312 2ebb
00000130: 61ea 83bb be43 863a 150c c039 c892 63b9
00000140: b76a 6338 3f0f 85bb ee7a e4b8 7832 1b3c
00000150: dc7a 5e39 5a7d 1a3b d005 5339 ea04 0abc
00000160: 573f 9fb9 e966 28bb 679a f8ba e5fb dfbb
00000170: c03a 063c 1990 1fb8 7be9 09bb ddb0 b2ba
00000180: edd5 00ba bced b7b9 d84e c5b9 d31e c5b8
00000190: e765 5ab9 ac5a 93bb 8460 06ba 4204 2cba
000001a0: 54f2 6d3a e1e2 fe39 cd5b 7fba 997e 7eba
000001b0: 494b 33b8 8a4e 05bc ed32 2cbc 0665 ae3a
000001c0: 8c21 55ba 0588 a0b9 a2c4 8fbb 8d27 933b
000001d0: 5f28 06bb 4c6f 4bba 8bfb 4d39 f7e7 d838
000001e0: 9ef7 e13a 8c7e e6ba 5c57 27ba 1deb 77ba
000001f0: 9244 01bb d449 0dbb 15ee 0bbc f746 68bb

d_fc3.bias f4 [2]
0.25388223 -0.20665807
00000000: dafc 813e 2c9e 53be
