code/model/seed_971/QDANN_E_corn_2018.pth (torch, 81551 bytes, 30 tensors)

fc_1.weight f4 [64, 27]
0	0xbd42b572	-0.04753632
1	0x3d2a837c	0.0416293
2	0xba32f642	-0.00068268564
3	0xbd2d91ce	-0.04237538
4	0x3cb20c91	0.021734508
5	0xbc39d5f3	-0.011342513
6	0xbc23c244	-0.009995047
7	0x3c98ce45	0.018653044
8	0xbd448996	-0.047982775
9	0xbd1c2ae7	-0.038126852
10	0xbc9d6f29	-0.019218044
11	0xbc4b632e	-0.012413783
12	0x39127112	0.00013965767
13	0xbc6a2088	-0.014289983
14	0x3cbb7997	0.022885127
15	0xbcf18e5c	-0.029486828
16	0x3cc1c75a	0.023654629
17	0xbd88875e	-0.06666444
18	0x3b5953d4	0.0033161538
19	0xbc3eeac3	-0.011652651
20	0x3c9cbbd0	0.019132525
21	0x3d403e0e	0.04693418
22	0xbd120fea	-0.035659708
23	0x3c9da0d5	0.01924173
24	0xbb383b06	-0.0028111353
25	0x3c0f4302	0.008744003
26	0xbcdc1bf2	-0.026868794
27	0xbd886183	-0.06659224
28	0x3d7eee15	0.06223877
29	0xbcf22a37	-0.029561145
30	0x3bdecd0a	0.006799345
31	0x3d88ce6e	0.06679998
32	0xbd6c37ce	-0.057670407
33	0x3cfabc1b	0.030607274
34	0x3cfae12d	0.03062495
35	0xbca01a58	-0.019543812
36	0x3be24bb5	0.0069059976
37	0xbc206bf4	-0.009791363
38	0xbd075438	-0.0330393
39	0x3c0ee87c	0.008722421
40	0xbcd4b8c4	-0.02596701
41	0x3c175d6a	0.00923858
42	0x3cd3aaea	0.025838334
43	0xbc0a3775	-0.008436074
44	0x3d214a44	0.039377466
45	0xbd1a003d	-0.037597883
46	0x3b6c0ab7	0.0036017129
47	0x3ca4ee9b	0.020133307
48	0x3c7a0178	0.015259139
49	0x3d237a85	0.039911766
50	0xbd01a1bb	-0.03164838
51	0x3c3c1316	0.01147916
52	0x3b7d1eb1	0.003862303
53	0xbced70b1	-0.0289844
54	0xbd4bd0c8	-0.049759656
55	0x3d285d37	0.04110452
56	0xbbdeb6c6	-0.0067966906
57	0x3bd02c90	0.0063529685
58	0x3d1668d3	0.036721062
59	0xbc744adc	-0.014910426
60	0xbbd3e66d	-0.006466678
61	0x3bd408ff	0.006470799
62	0xbbe4cdad	-0.0069825263
63	0x3b1b5fcb	0.002370822
64	0xbda63359	-0.081152625
65	0x3d945ca4	0.07244232
66	0x3cffa7a0	0.03120786
67	0xbcf8a4c8	-0.030352011
68	0xbc85915d	-0.016304666
69	0xbc96ee67	-0.018424226
70	0xbc8296f2	-0.015941117
71	0x3cfdbd40	0.03097403
72	0xbcd676f1	-0.026179763
73	0x3c18e873	0.009332764
74	0x3c829b8b	0.01594331
75	0x3c8b27b4	0.016986705
76	0xbcdfd851	-0.027324827
77	0xbcf33937	-0.029690368
78	0x3b9d35e4	0.004797684
79	0x3cc5ea50	0.02415958
80	0x3d3ff1e6	0.04686155
81	0x3ceffd22	0.029295508
82	0xbbed62eb	-0.007244458
83	0x3cc53eb9	0.02407776
84	0xbcea171e	-0.028575476
85	0x3be9ae28	0.0071313567
86	0x3ccd3c35	0.025053123
87	0xbd230d5b	-0.03980766
88	0xbd4646d6	-0.0484074
89	0x3bd8c30d	0.0066150487
90	0xbb338980	-0.0027395189
91	0x3d7688b4	0.060188964
92	0x3cc83d19	0.024443196
93	0x3c9d0791	0.019168647
94	0x3ba7400a	0.0051040696
95	0xbba24c00	-0.0049529076
96	0xbc1fee63	-0.009761426
97	0xbb9cc8b2	-0.004784667
98	0x3b5dbac5	0.0033833247
99	0x3cc274fc	0.023737423
100	0xbd039868	-0.032127768
101	0xbcb3095f	-0.021855054
102	0x3b691b4e	0.0035569253
103	0x3c523359	0.012829625
104	0x3d053456	0.032520615
105	0xbc416997	-0.01180496
106	0xbd2aad7d	-0.041669358
107	0xbbe01e47	-0.006839547
108	0x367f7345	3.8065057e-06
109	0x35eb2df8	1.7522243e-06
110	0x37c116a8	2.3017943e-05
111	0xb6c1323e	-5.757697e-06
112	0x37163a89	8.9543255e-06
113	0xb7a1011e	-1.9193216e-05
114	0x368bcc48	4.1663043e-06
115	0x386d68eb	5.6602916e-05
116	0x3802b748	3.116511e-05
117	0x38c7046f	9.489885e-05
118	0xb78a3340	-1.6474747e-05
119	0x383b9495	4.4722652e-05
120	0x370effa5	8.523381e-06
121	0x366d50e6	3.536284e-06
122	0x353d979e	7.062862e-07
123	0xb7f0befa	-2.869916e-05
124	0x36cdaf7a	6.1299042e-06
125	0x373aa2a7	1.1124334e-05
126	0x3705fd18	7.986346e-06
127	0x36d2796f	6.2726244e-06
128	0xb7dfc7af	-2.6676656e-05
129	0x376d76f0	1.4153993e-05
130	0x38e7f034	0.0001105968
131	0x37505fc9	1.2420068e-05
132	0x34bc7687	3.510397e-07
133	0xb8293e8a	-4.0350984e-05
134	0xb60aab79	-2.0663413e-06
135	0x3c8e8677	0.017398102
136	0x3b1f46f6	0.002430377
137	0x3d6c796b	0.05773298
138	0xbc7f9beb	-0.015601139
139	0xbb47cd98	-0.0030487534
140	0x3c7353fd	0.014851567
141	0xbb11ae6f	-0.0022229215
142	0xbca8619c	-0.020554356
143	0xbaac5e1d	-0.0013150607
144	0xbcc4e56b	-0.024035176
145	0x3d708ad9	0.058726165
146	0x3c6ea38c	0.01456536
147	0xba9eb321	-0.0012107828
148	0x3d03a0b7	0.03213569
149	0x3d262a4b	0.040567677
150	0x3bf78493	0.007553646
151	0x3c5e1ebd	0.013557133
152	0x3d0f2091	0.034943167
153	0xbb6cdfff	-0.0036144254
154	0xbd7e5719	-0.06209478
155	0xbd0fc906	-0.03510382
156	0x3d3d828a	0.04626707
157	0xbb2a1a29	-0.0025955534
158	0x3bd968c6	0.0066348044
159	0xbd07fe64	-0.03320159
160	0xbcc4ea2f	-0.024037449
161	0x3ba0805c	0.004898114
162	0xbc0773fe	-0.008267401
163	0x3d6653fd	0.05623244
164	0xbd52a16f	-0.051423486
165	0xbbf89a4d	-0.0075867535
166	0x3cc62113	0.024185693
167	0xbd4b1b1b	-0.049586397
168	0x3c842052	0.016128693
169	0xbcff059c	-0.031130604
170	0x3c7905bd	0.015199122
171	0x3d10c936	0.03534814
172	0xbcfe86e1	-0.031070175
173	0xbd38db9b	-0.045131307
174	0xbb25ae45	-0.0025280875
175	0x3c1bdef6	0.009513607
176	0x3d41d610	0.047323287
177	0x3bf9c3b4	0.0076222066
178	0x3d464585	0.048406143
179	0xbc85ebbc	-0.016347758
180	0x3b02189e	0.0019851099
181	0x3cc3be70	0.023894519
182	0xbc47de7d	-0.012199041
183	0x3cb2e6a9	0.021838503
184	0x3d4379c1	0.047723535
185	0x3b4c9ced	0.0031221465
186	0x3c9c10df	0.019051014
187	0xbcc146e9	-0.023593383
188	0x3a33d63f	0.0006860233
189	0xbd390127	-0.045167115
190	0x3d833f77	0.06408589
191	0xbc971826	-0.018444132
192	0x3c5bf7d2	0.013425784
193	0x3c587752	0.013212042
194	0xbcff7617	-0.03118424
195	0xbc86b3b8	-0.016443118
196	0x3c9a0d89	0.018805282
197	0xbccd2a7f	-0.025044678
198	0xbc712564	-0.014718387
199	0xbd202b0e	-0.03910356
200	0x3d44e774	0.048072293
201	0x3c8f6054	0.017501988
202	0xbcb1c010	-0.021698028
203	0xbbfd20cb	-0.0077248565
204	0xbd19a0b4	-0.037506774
205	0xbc68244e	-0.014168812
206	0x3d10f79f	0.0353924
207	0xbb852502	-0.0040632496
208	0xbc086ccf	-0.008326723
209	0x3c415943	0.011801067
210	0xbba907a0	-0.0051583797
211	0x3b5dc3e2	0.003383868
212	0xbb751e73	-0.0037402182
213	0x3c45d298	0.012074135
214	0x3d085c4c	0.033291146
215	0x3d1825a9	0.03714529
216	0xbd075d89	-0.033048186
217	0x3d666e42	0.056257494
218	0xbd2213a8	-0.039569527
219	0xbd727f3b	-0.059203368
220	0x3c8c2a81	0.017110111
221	0xbcfb25f8	-0.030657753
222	0xb94bb559	-0.00019427146
223	0xbd305113	-0.04304607
224	0xbc0d9f97	-0.008644006
225	0x3c4086cc	0.011750888
226	0xbb886205	-0.0041620755
227	0x3be80931	0.007081174
228	0xbcb3c4d2	-0.021944437
229	0xbd45f2fa	-0.048327424
230	0xbb6f8a36	-0.0036550886
231	0xbcae2514	-0.021257915
232	0x3d66e195	0.056367476
233	0xbd9bfebd	-0.07616947
234	0xbc975c6a	-0.018476684
235	0x3c9eae64	0.019370265
236	0x3d1065b4	0.03525324
237	0x3cd6826c	0.026185237
238	0xba95d963	-0.0011432584
239	0xbbe93f62	-0.0071181515
240	0x3d277ed8	0.040892452
241	0xbb213e34	-0.0024603726
242	0xbce21853	-0.02759949
243	0xbd025101	-0.031815533
244	0x3d81ae8b	0.063321196
245	0xbd0a402e	-0.033752613
246	0x3ccf6e84	0.025321253
247	0x3cf5ae41	0.029990317
248	0xbc85ca48	-0.016331807
249	0x3c9b692a	0.018971045
250	0x3d152659	0.036413524
251	0x3c9958f9	0.018719183
252	0x3adf5a38	0.0017040437
253	0xbd18fc2e	-0.037349872
254	0x3c3090dd	0.010776726
255	0x3d4c64c4	0.049900785

fc_1.bias f4 [64]
0	0xb254d6ee	-1.23888935e-08
1	0x324d9c1e	1.1968067e-08
2	0x31d43f4a	6.177207e-09
3	0x3303326c	3.0546673e-08
4	0x00000636	2.228e-42
5	0x31c4f1c0	5.7318346e-09
6	0x3244da3a	1.14583205e-08
7	0x32b292da	2.0788708e-08
8	0xb2345872	-1.0497489e-08
9	0xb1ff115a	-7.4234494e-09
10	0x3202d8e4	7.616311e-09
11	0x32a5ed1c	1.9316353e-08
12	0xb2647f08	-1.330023e-08
13	0xb270aee3	-1.4009603e-08
14	0xb2e2f643	-2.642185e-08
15	0xb22b221a	-9.961264e-09
16	0xb1e06900	-6.531195e-09
17	0xb20c79d9	-8.1767775e-09
18	0xb142732c	-2.8296183e-09
19	0xafd271bd	-3.8279593e-10
20	0xb274b604	-1.4244055e-08
21	0x0000026a	8.66e-43
22	0x32b52409	2.108756e-08
23	0xb18de1f4	-4.129328e-09
24	0xb201291b	-7.518135e-09
25	0x314f6dd8	3.0184903e-09
26	0x3043ae88	7.118861e-10
27	0xb2b7dc9f	-2.140433e-08
28	0xb2408542	-1.120617e-08
29	0x32194d03	8.923283e-09
30	0xb20e2b2a	-8.275302e-09
31	0x335233bc	4.8941487e-08
32	0xb217537c	-8.808339e-09
33	0x30f811f0	1.8049473e-09
34	0x32730e2a	1.4147682e-08
35	0x3255f374	1.2453587e-08
36	0xb13fe88c	-2.7926346e-09
37	0xb048ebf6	-7.3094897e-10
38	0x32cd23d9	2.3881443e-08
39	0x3010a060	5.26148e-10
40	0xb35fe603	-5.2130428e-08
41	0xb0bbe980	-1.3672405e-09
42	0xb1fa7723	-7.289502e-09
43	0x3296b7a0	1.7545801e-08
44	0x32216193	9.393619e-09
45	0xb18eba54	-4.153927e-09
46	0x80000022	-4.8e-44
47	0xb0a85f1b	-1.2250639e-09
48	0xb17ba205	-3.6617405e-09
49	0xb23050a0	-1.026288e-08
50	0x325f538a	1.2999303e-08
51	0xb32b4062	-3.9872596e-08
52	0xaf523970	-1.9119795e-10
53	0x00000054	1.18e-43
54	0xb2a634da	-1.9348978e-08
55	0xb214876b	-8.645524e-09
56	0xb2e4e2e1	-2.6645866e-08
57	0x30fd0e00	1.8412152e-09
58	0x309834e5	1.1074489e-09
59	0x000000ca	2.83e-43
60	0xb23c15da	-1.0948009e-08
61	0x32ff0fe3	2.9693132e-08
62	0x32b51876	2.1082297e-08
63	0x31d29b87	6.129486e-09

f_bn1.weight f4 [64]
0	0x3dba6d04	0.09102824
1	0x3da046cb	0.07826003
2	0x3dbb59f6	0.09148018
3	0x3d61c7b6	0.0551221
4	0xb921b285	-0.0001542066
5	0x3d877c0e	0.066154584
6	0x3d96846d	0.07349477
7	0x3d945603	0.07242968
8	0x3db4cc2c	0.08828005
9	0x3d9cbd94	0.07653347
10	0x3da23494	0.07920185
11	0x3d9efa4f	0.07762586
12	0x3d37bcf5	0.044857938
13	0x3d8322d5	0.06403128
14	0x3d946f73	0.0724782
15	0x3d9bfce8	0.076165974
16	0x3d69f67f	0.057119843
17	0x3d97a13d	0.07403801
18	0x3de03e3d	0.10949371
19	0x3db1fd74	0.086909205
20	0x3e0f42b2	0.13990286
21	0x383af9ee	4.457862e-05
22	0x3df6b893	0.120469235
23	0x3d6d1593	0.057881903
24	0x3db5b517	0.08872431
25	0x3d5b3685	0.05351879
26	0x3d9d1f15	0.07671944
27	0x3dbfe38a	0.093695715
28	0x3df5c3ab	0.12000211
29	0x3ddc1e92	0.10748018
30	0x3d327b61	0.043574695
31	0x3de5a9d2	0.11214031
32	0x3d589734	0.052878574
33	0x3d88fb1f	0.066885225
34	0x3d6e847c	0.058231816
35	0x3dde1409	0.10843665
36	0x3d645934	0.055749133
37	0x3da8cbb6	0.0824198
38	0x3d79773a	0.06090472
39	0x3ddd1b9a	0.1079628
40	0x3dc17b16	0.09447305
41	0x3dd6d9fe	0.104907975
42	0x3d8ea9b1	0.0696596
43	0x3da2a6f6	0.079420015
44	0x3dc8e4c8	0.098092616
45	0x3da08327	0.07837515
46	0x35f51c08	1.8262081e-06
47	0x3d435822	0.047691472
48	0x3daf53ca	0.08560903
49	0x3dd822d4	0.10553518
50	0x3dbd6980	0.09248638
51	0x3db0a5c7	0.086253695
52	0x3d9b3367	0.075781636
53	0xb594df43	-1.1091837e-06
54	0x3dc79a13	0.09746184
55	0x3dffc9d6	0.12489669
56	0x3dbdb231	0.09262503
57	0x3dc96159	0.09833021
58	0x3dac103c	0.08401534
59	0x3750e956	1.2452094e-05
60	0x3de21b20	0.1104033
61	0x3db7453b	0.089487515
62	0x3dd08018	0.10180682
63	0x3dc046b3	0.09388485

f_bn1.bias f4 [64]
0	0xbdc366aa	-0.09541066
1	0xbd8ca74c	-0.06867847
2	0xbd2f16db	-0.042746406
3	0xbd1dd1c5	-0.03853013
4	0xb964cc96	-0.00021819989
5	0xbd8903f8	-0.0669021
6	0xbd217d45	-0.039426107
7	0xbca98c32	-0.020696733
8	0xbdaaef7f	-0.083464615
9	0xbd6d0e76	-0.05787512
10	0xbcf8fa46	-0.030392777
11	0xbb05c74a	-0.0020412975
12	0x3b23b1ef	0.0024977883
13	0xbb094c20	-0.0020949915
14	0xbd37c9a3	-0.04487003
15	0xbd45ff35	-0.048339088
16	0xbc9de7ef	-0.019275634
17	0xbc73157e	-0.014836667
18	0xbd88b2ce	-0.06674729
19	0xbd5e3538	-0.054249972
20	0xbe09a088	-0.13440144
21	0xb9fc2be2	-0.0004809788
22	0xbd9996e7	-0.074994855
23	0xbafeb142	-0.0019431489
24	0xbde20c76	-0.11037533
25	0xbbef559f	-0.007303908
26	0xbd5c0283	-0.053713333
27	0xbd8933e6	-0.06699352
28	0xbdff000f	-0.12451183
29	0xbdee7377	-0.11643117
30	0x3bba29d1	0.0056812544
31	0xbda10bf2	-0.078636065
32	0xbc114c36	-0.008868268
33	0xbc416a7a	-0.011805171
34	0xbd157352	-0.03648693
35	0xbdc3e6cf	-0.095655076
36	0xbc9612d7	-0.01831953
37	0xbdc027a9	-0.093825646
38	0xbc0da7f9	-0.008646005
39	0xbd5017ba	-0.050803877
40	0xbdc847e8	-0.0977934
41	0xbdd19849	-0.10234124
42	0xbd7e049d	-0.06201612
43	0xbdaaa554	-0.08332315
44	0xbd897f2a	-0.06713708
45	0xbd0711b1	-0.032975856
46	0xb692b520	-4.372225e-06
47	0x3b46252e	0.0030234563
48	0xbda93f53	-0.08264031
49	0xbd97b86a	-0.07408221
50	0xbd987afe	-0.07445334
51	0xbd35aadf	-0.04435241
52	0xbcdb0a44	-0.026738293
53	0xb60baafa	-2.0812136e-06
54	0xbda0d42a	-0.07852967
55	0xbd869cd6	-0.06572883
56	0xbd475cfa	-0.048672654
57	0xbdb0fbdd	-0.08641789
58	0xbd9c69ff	-0.07637405
59	0xb744e096	-1.1734801e-05
60	0xbdec4826	-0.11537199
61	0xbda5e636	-0.0810055
62	0xbe414a5d	-0.18876024
63	0xbd554e8d	-0.052076865

f_bn1.running_mean f4 [64]
0	0xbd86b77d	-0.06577966
1	0xbd84bfb7	-0.06481879
2	0xbda4fd57	-0.08056133
3	0x3dd8e70f	0.10590946
4	0x394e1237	0.00019652476
5	0x3db86fb4	0.09005681
6	0x3c8736d0	0.016505629
7	0xbdc3a73e	-0.09553383
8	0x3be2a5af	0.0069167237
9	0xbd609bcd	-0.054836083
10	0xbd965dad	-0.07342086
11	0x3d9a7f7f	0.07543849
12	0xbd2dde71	-0.042448465
13	0xbdb3eb11	-0.0878507
14	0xbd93cd47	-0.07216888
15	0xbc22c78a	-0.009935269
16	0x3d8fe7be	0.07026623
17	0xbd6e2fec	-0.05815117
18	0x3e08d9d1	0.1336434
19	0x3df95e9e	0.1217625
20	0xbd2f12f8	-0.0427427
21	0xb99c8ce5	-0.00029859613
22	0xbd380644	-0.04492785
23	0xbda1da9f	-0.07903027
24	0x3e1fc8bd	0.1560392
25	0xbc8e9049	-0.017402785
26	0xbde36a9a	-0.11104317
27	0x3e000c2d	0.12504645
28	0xbd98ee47	-0.07467323
29	0x3e18c54a	0.1491901
30	0xbdb02891	-0.086014874
31	0x3e054cbf	0.13017558
32	0xbc458bc5	-0.012057249
33	0xbda3127e	-0.079625115
34	0x3cc4e31f	0.024034081
35	0x3de8b3d8	0.113624275
36	0x3caff89f	0.021480856
37	0x3dfdef9a	0.12399216
38	0xbd7c9eaa	-0.06167475
39	0x3b071c67	0.0020616294
40	0x3e165340	0.14680195
41	0x3c94b2d3	0.018151676
42	0xbbc13230	-0.0058958754
43	0xbd9a0f82	-0.07522489
44	0xbd9c09fa	-0.076190904
45	0x3dcd48f5	0.10023681
46	0x36a933ba	5.0426142e-06
47	0x3d6d21b8	0.057893485
48	0xbdcc7b66	-0.09984474
49	0xbdc04c48	-0.093895495
50	0xbc9a572b	-0.018840393
51	0xbdae8930	-0.0852226
52	0xbc5e9642	-0.013585629
53	0x343dbb03	1.7670031e-07
54	0xbdaf5305	-0.085607566
55	0x3da4efb2	0.08053531
56	0x3d94bae0	0.07262206
57	0x3cc83483	0.024439102
58	0x3be29aca	0.006915425
59	0xb56942e1	-8.6896586e-07
60	0x3e17c94d	0.14822884
61	0xbd58cc34	-0.05292912
62	0x3d9bdbfb	0.07610317
63	0x3deaf158	0.11471814

f_bn1.running_var f4 [64]
0	0x3c9c9c38	0.01911746
1	0x3d413a12	0.04717452
2	0x3cdde449	0.027086394
3	0x3ce46f55	0.027885118
4	0x33536458	4.9218528e-08
5	0x3cc8003c	0.024414174
6	0x3d127282	0.035753734
7	0x3cde5d38	0.02714406
8	0x3d18338c	0.037158534
9	0x3cfead52	0.031088505
10	0x3ccd0042	0.025024537
11	0x3d5b6b07	0.053568866
12	0x3cdb99e6	0.026806783
13	0x3cfcf7dc	0.030879907
14	0x3d0716f4	0.032980874
15	0x3c5ea9fb	0.013590331
16	0x3d18245d	0.037144054
17	0x3d2cc350	0.042178452
18	0x3dadb399	0.08481521
19	0x3d89626b	0.06708225
20	0x3d509ea4	0.05093254
21	0x355a383d	8.1293166e-07
22	0x3d595a8c	0.053064868
23	0x3d313e94	0.04327257
24	0x3d7b20d3	0.0613106
25	0x3cdee241	0.027207496
26	0x3d1497a8	0.036277443
27	0x3d91e579	0.071238466
28	0x3da376cd	0.07981644
29	0x3d8b9651	0.0681578
30	0x3ce485c3	0.027895814
31	0x3d8f9522	0.07010867
32	0x3d1467f0	0.036231935
33	0x3cc75332	0.024331663
34	0x3c9a0e9f	0.0188058
35	0x3d86ce8c	0.065823644
36	0x3d2496ff	0.040183064
37	0x3d3d1d5b	0.046170574
38	0x3d24ea6b	0.04026262
39	0x3d2b675c	0.041846618
40	0x3d56c4d5	0.052433807
41	0x3d8e5544	0.06949857
42	0x3ce20b95	0.027593413
43	0x3d13d0ff	0.036087986
44	0x3d741c56	0.059597336
45	0x3d815aa8	0.063161194
46	0x2ec44f96	8.9271854e-11
47	0x3d2165f3	0.039403867
48	0x3cdcb4f2	0.02694175
49	0x3d89ec0a	0.06734474
50	0x3d44d4a1	0.04805434
51	0x3d7cbb1a	0.06170187
52	0x3d092268	0.033480078
53	0x2d332f67	1.0185497e-11
54	0x3d1f7416	0.038929068
55	0x3d841862	0.06449963
56	0x3d691fc9	0.05691508
57	0x3d26fe7d	0.040770043
58	0x3d49c8b6	0.04926368
59	0x2ee1255a	1.02384504e-10
60	0x3d96ddd0	0.07366526
61	0x3d1aef76	0.037826024
62	0x3d6ddd8a	0.058072604
63	0x3d9966b8	0.07490295

fc_2.weight f4 [64, 64]
0	0x39921052	0.0002785945
1	0x3b30b0e3	0.0026960901
2	0xbc3ff3f4	-0.011715878
3	0x3bd44e67	0.006479073
4	0x380138d6	3.080893e-05
5	0x3ce0c405	0.02743722
6	0xbcb33946	-0.021877896
7	0xbb8bc920	-0.0042659193
8	0xbc2f9f4e	-0.010719134
9	0x3aecf773	0.0018079117
10	0xbc6f47dd	-0.014604536
11	0x38cc8b5e	9.753437e-05
12	0xbc789bf9	-0.0151739055
13	0xbc334d5d	-0.010943738
14	0xbb0ecd33	-0.0021789789
15	0xbc725b7d	-0.01479232
16	0x3ca410c7	0.020027531
17	0x3cad13eb	0.021127662
18	0x3caec071	0.021331998
19	0x3b910968	0.00442617
20	0xbb81fc3d	-0.0039668367
21	0xb5b9c2b2	-1.3840238e-06
22	0xbd1ba7ac	-0.0380017
23	0x3b200e60	0.002442263
24	0x3d0cc530	0.03436774
25	0x3be9c9ae	0.007134638
26	0x3b66ec3a	0.0035236017
27	0x3cb9528a	0.022622366
28	0x3b9a16e9	0.004702438
29	0x3cbf877f	0.02338004
30	0xbb98a51d	-0.004658355
31	0x3c2855f4	0.010274399
32	0xbc81ecee	-0.015860047
33	0xb9de44e5	-0.0004239447
34	0x3ba3d424	0.0049996544
35	0x3b9ac0d9	0.0047226963
36	0xbcc5fae9	-0.024167495
37	0x3c2db501	0.010602237
38	0xbbbdfb34	-0.005797768
39	0xbb0d7f60	-0.0021590814
40	0x3d002239	0.031282637
41	0xbc165be2	-0.00917718
42	0xbc020b5c	-0.007937279
43	0xbaab4c74	-0.001306905
44	0x3c0e2f48	0.008678265
45	0x3c530867	0.012880421
46	0xb22d63e8	-1.0092641e-08
47	0x3bf33bc1	0.0074228947
48	0x3ba0dc8d	0.004909104
49	0x3aeff47a	0.0018307113
50	0x392e0854	0.00016597036
51	0xbab73cc0	-0.0013979897
52	0xbc3dcccc	-0.011584472
53	0x2f541245	1.9287778e-10
54	0x3bfcbd01	0.0077129607
55	0x3b068aba	0.0020529465
56	0x3c936da4	0.017996617
57	0x3c064081	0.00819409
58	0xbc8c175f	-0.017100988
59	0xad9fad5c	-1.8153194e-11
60	0x3ca5189f	0.020153342
61	0xb8fa7e3d	-0.00011944443
62	0x3bf31252	0.0074179554
63	0x3cc01f27	0.023452355
64	0xbc0069f1	-0.007837758
65	0xbc51aa7d	-0.012796995
66	0xbcb838c5	-0.022488007
67	0x3c15203d	0.0091019245
68	0xb82658b6	-3.9660103e-05
69	0x3cd9ec01	0.026601793
70	0xbc8fa3e6	-0.017534208
71	0xbc5bfce6	-0.013426995
72	0xbc9a575f	-0.01884049
73	0xbb82f52d	-0.0039965124
74	0xbcafb5d3	-0.021449005
75	0x3c0913fb	0.00836658
76	0xbc88c642	-0.0166961
77	0xbc80deee	-0.015731301
78	0xbb73cda0	-0.003720142
79	0xbb246efd	-0.0025090568
80	0x3c2f6dc8	0.010707326
81	0xbc015236	-0.007893136
82	0x3c47ef05	0.012202983
83	0x3cb8c2fa	0.02255391
84	0xbc5f6f71	-0.01363741
85	0xb724993c	-9.810839e-06
86	0x3be58ba0	0.00700517
87	0x3ae8af93	0.001775252
88	0x3cf4e7f9	0.02989577
89	0xbce11861	-0.027477445
90	0xbbcf7ce3	-0.0063320263
91	0x3c95c0cb	0.018280407
92	0x3b065555	0.002049764
93	0x3c9e5c02	0.019330982
94	0xbbb6328f	-0.0055602263
95	0x3c5f72ae	0.013638182
96	0xbca3749f	-0.01995307
97	0xbc0ee7f7	-0.008722297
98	0xbc7f0329	-0.015564718
99	0x3d0387e8	0.032112032
100	0xbc0b67ba	-0.008508617
101	0x3bd6b1b3	0.006551945
102	0xbc771c27	-0.015082396
103	0x3bf19dad	0.0073735327
104	0x3c8c3ff4	0.017120339
105	0xbcc64740	-0.024203897
106	0xbc879143	-0.016548758
107	0xbbc97fc3	-0.0061492636
108	0x3b9e0934	0.0048228744
109	0xba77de11	-0.0009455393
110	0x303f22ac	6.9534667e-10
111	0xbc222813	-0.00989725
112	0xbb7e6444	-0.0038817087
113	0xbbff0754	-0.007782856
114	0x3c04030d	0.008057368
115	0xbc0d8227	-0.008636988
116	0xbc68f056	-0.014217457
117	0xb0fda745	-1.8455714e-09
118	0xbbc3138b	-0.0059532574
119	0x3be18eda	0.0068834843
120	0x3c9f50b8	0.01944767
121	0xbb9c2d19	-0.0047661182
122	0xbcb1cbd8	-0.021703646
123	0x35da92a9	1.6284949e-06
124	0x3d019e6c	0.031645223
125	0xbc17b6de	-0.0092599075
126	0xbc34c157	-0.011032424
127	0x3c878fe8	0.016548112
128	0x3ae530d2	0.0017485863
129	0xbbc97d8d	-0.006149
130	0xbca37971	-0.019955369
131	0x3cc14537	0.023592575
132	0xb764a273	-1.3627682e-05
133	0x3c446eaf	0.01198928
134	0xbca9a843	-0.020710116
135	0xbc8765ce	-0.016528036
136	0xbc986d3b	-0.018606773
137	0xbca69f5c	-0.02033966
138	0xbc75a714	-0.014993448
139	0x3c3a0c09	0.0113554085
140	0xbbef52fa	-0.0073035927
141	0xbc560986	-0.013063794
142	0xbc3e5c14	-0.011618633
143	0xbcf60a76	-0.030034285
144	0x3b843cf0	0.0040355846
145	0x3acdbe6e	0.0015697011
146	0xbc8feba9	-0.017568426
147	0x3c84188d	0.016124988
148	0xbc142b96	-0.009043595
149	0xb6741e2c	-3.6376396e-06
150	0xbd069f22	-0.032866605
151	0xbc67712b	-0.014126102
152	0x3cba42b8	0.022736892
153	0xbd05d819	-0.03267679
154	0xbbfddbd6	-0.0077471538
155	0x3c73bd02	0.014876606
156	0x3ae60071	0.0017547739
157	0x3cc82c6b	0.024435243
158	0xbc4e664f	-0.012597634
159	0x3c35a42c	0.011086505
160	0xbcbf9fc5	-0.023391614
161	0xbc3c13c4	-0.011479322
162	0x3b88ba9d	0.0041726367
163	0x3c6c8295	0.01443543
164	0xbd05cb05	-0.032664318
165	0x3c8d2802	0.017230991
166	0xbc178788	-0.009248622
167	0x3c8dfb1f	0.017331658
168	0x3ca96a7b	0.020680657
169	0xbcbc4cb3	-0.022985792
170	0xbc8755f4	-0.016520478
171	0xbbcd1ccf	-0.006259538
172	0x3bd992b3	0.0066398024
173	0xba8a66aa	-0.0010559161
174	0x309de71a	1.1488936e-09
175	0xbc2b93ee	-0.010472281
176	0xbb0466fb	-0.0020202983
177	0xbbabe24e	-0.0052454835
178	0xbbe0e652	-0.006863394
179	0xbcb51a52	-0.022107277
180	0xbc9f27fd	-0.019428248
181	0xb180675c	-3.737041e-09
182	0xba9422b1	-0.0011301843
183	0x3c791dd9	0.01520487
184	0x3b850bad	0.0040602298
185	0xbbf772ff	-0.0075515504
186	0xbd026617	-0.03183564
187	0xb5dda7e0	-1.6514641e-06
188	0x3c6b888b	0.014375816
189	0xbc5eafc5	-0.013591711
190	0xbc90858c	-0.017641805
191	0x3c53416b	0.012894015
192	0x3c8b7447	0.017023219
193	0x3cb7fa96	0.022458356
194	0x3bd0a611	0.006367453
195	0xbc02e08e	-0.007988108
196	0xb70f640d	-8.546759e-06
197	0xbb344e7e	-0.0027512605
198	0xbbc51352	-0.006014266
199	0x3c94784f	0.018123774
200	0x3c9f4cd7	0.01944582
201	0x3c7f4146	0.015579527
202	0xbb85e9a0	-0.004086688
203	0xb9d89d8d	-0.00041316115
204	0x3c828ee8	0.015937284
205	0x3ba9cf3b	0.0051821745
206	0x3a875905	0.0010326213
207	0x3ba51c25	0.0050387555
208	0xbc2960a5	-0.010337983
209	0x3bd6ec1b	0.0065589077
210	0xbca8523c	-0.020547025
211	0xbc982bd0	-0.018575579
212	0x3ce95956	0.028484982
213	0xb85e8668	-5.30541e-05
214	0xbbb66fdf	-0.0055675353
215	0x3c79b078	0.015239827
216	0xbc8989c6	-0.016789328
217	0x3c99c57d	0.018770928
218	0x3bba306d	0.0056820423
219	0xbc4eb94b	-0.0126174195
220	0x3a580abf	0.00082413474
221	0xbca64514	-0.02029661
222	0x3c040adf	0.0080592325
223	0xbccb2e21	-0.02480227
224	0xbbd1156f	-0.006380729
225	0x3cb6e932	0.022327993
226	0x3aec9961	0.0018051082
227	0xbbc79662	-0.006090925
228	0x3b860a4e	0.004090584
229	0xbbbfe1e0	-0.005855784
230	0x3c49fac2	0.012327852
231	0xbb23086d	-0.0024876848
232	0xbbb6f7af	-0.0055837254
233	0x3cd04c97	0.025427146
234	0x3a021784	0.00049626105
235	0x3c63ecd7	0.0139114475
236	0x3ba48581	0.0050207977
237	0xbbd66173	-0.0065423786
238	0x328f01c4	1.6648194e-08
239	0xbc7bddfa	-0.015372748
240	0x3c92a2f9	0.017899977
241	0x3bcb442f	0.0062031965
242	0x3c15eed3	0.009151178
243	0x3ca7a7cc	0.020465754
244	0x3ca3d564	0.019999214
245	0x33892d23	6.38777e-08
246	0x3c38435f	0.011246531
247	0x3b5dd8ca	0.003385114
248	0xbc497def	-0.012298091
249	0x3c22ed21	0.009944231
250	0x3c2d9fc2	0.010597171
251	0x32451c8f	1.1473403e-08
252	0xbbf6a58a	-0.007527058
253	0x3c3d9843	0.011571947
254	0x3cba1308	0.022714153
255	0xbc6720c9	-0.014106938

fc_2.bias f4 [64]
0	0x343950ad	1.7258817e-07
1	0x319f57a2	4.6374717e-09
2	0xb48ee9d3	-2.661969e-07
3	0xb4a66e33	-3.100009e-07
4	0x33611d14	5.241334e-08
5	0xb3fd6bde	-1.18008515e-07
6	0xb4d72ba4	-4.0078623e-07
7	0x324e48cc	1.200733e-08
8	0xb49c9064	-2.9162322e-07
9	0xb3a98b71	-7.89504e-08
10	0x34b145fe	3.3019745e-07
11	0x34e9adaf	4.3526003e-07
12	0x34700b83	2.235593e-07
13	0xb40bc779	-1.3017952e-07
14	0xb446d506	-1.8517684e-07
15	0x34a0fe06	2.998715e-07
16	0xb3130b60	-3.423645e-08
17	0xb448a971	-1.8688094e-07
18	0xb2188f10	-8.880093e-09
19	0x34b3edf2	3.3514476e-07
20	0xb483077d	-2.44061e-07
21	0xb45d861e	-2.063102e-07
22	0x343b277c	1.7430096e-07
23	0x3295314a	1.7368297e-08
24	0x33554b76	4.966156e-08
25	0x353966a6	6.9067244e-07
26	0xb48f807c	-2.672931e-07
27	0xb40e0114	-1.3225173e-07
28	0x33e36f1c	1.0590722e-07
29	0xb30bb14e	-3.2524717e-08
30	0x35004c23	4.779451e-07
31	0xb3864b72	-6.253585e-08
32	0xb4a46bfd	-3.0625952e-07
33	0xb4801cca	-2.3862805e-07
34	0x34b61c38	3.3920674e-07
35	0x351cb2a8	5.837451e-07
36	0xb4af1713	-3.261308e-07
37	0x00000aac	3.828e-42
38	0xb2c71efb	-2.3180737e-08
39	0xb3b56eb1	-8.448604e-08
40	0x33c80097	9.313333e-08
41	0x323f1c92	1.1124159e-08
42	0xb47cda4a	-2.3548742e-07
43	0xb52f800d	-6.537892e-07
44	0x3509a4c1	5.1276226e-07
45	0xb2b713d0	-2.1313014e-08
46	0xb39206d7	-6.799899e-08
47	0x346eaec7	2.2229061e-07
48	0xb4209b26	-1.4957604e-07
49	0x34aba2fc	3.196982e-07
50	0xb46d4236	-2.2096432e-07
51	0x358323e6	9.770708e-07
52	0x34387a86	1.7180909e-07
53	0x341f43bd	1.4832672e-07
54	0xb39464d8	-6.9101304e-08
55	0x343017ed	1.6399981e-07
56	0xb4a63ce0	-3.0964202e-07
57	0xb3c6a84a	-9.250705e-08
58	0x32f9560c	2.9026545e-08
59	0xb3372e95	-4.2650374e-08
60	0xb4d1a364	-3.9048166e-07
61	0x35413479	7.197446e-07
62	0x3362c97a	5.2802967e-08
63	0xb5132340	-5.4813063e-07

f_bn2.weight f4 [64]
0	0x3d908b69	0.070578404
1	0x3d8baf67	0.06820565
2	0x3da1276a	0.07868846
3	0x3d70b01c	0.0587617
4	0x3d4b5a40	0.049646616
5	0x3da759b8	0.08171409
6	0x3d82b65a	0.06382437
7	0x3d4c5656	0.049887024
8	0x3d59930a	0.053118743
9	0x3d95095a	0.07277174
10	0x3d8ea35f	0.06964754
11	0x3d8a0d46	0.06740813
12	0x3d905946	0.070482776
13	0x3d87a724	0.066236764
14	0x3d541257	0.051775303
15	0x3d6eca8b	0.05829863
16	0x3d8c6869	0.06855852
17	0x3d596262	0.05307234
18	0x3da18e67	0.07888489
19	0x3d63780d	0.05553441
20	0x3d611ac5	0.05495717
21	0x3d7c5266	0.06160202
22	0x3dabd342	0.083899036
23	0x3d643e3c	0.055723414
24	0x3d9dc964	0.07704428
25	0x3db52a93	0.08846011
26	0x3d6b2eda	0.057417728
27	0x3d71de08	0.059049636
28	0x3d833281	0.06406117
29	0x3d94be51	0.072628625
30	0x3d3ac151	0.045594517
31	0x3d800e1d	0.06252692
32	0x3d5707c6	0.052497648
33	0xbd80f990	-0.062976
34	0x3d3b1984	0.04567863
35	0x3d805693	0.06266513
36	0x3d46075f	0.048346873
37	0x38ff1977	0.00012164091
38	0x3d5916dc	0.053000316
39	0x3d7fa2e9	0.062411223
40	0x3d7807d5	0.060554344
41	0x3d4323d3	0.047641587
42	0x3d5be45c	0.053684577
43	0x3d7e131e	0.06202995
44	0x3d92c5b6	0.071666166
45	0x3d82f22b	0.06393846
46	0x3db1b87f	0.08677768
47	0x3d7cb45f	0.061695453
48	0x3d42ef80	0.047591686
49	0x3d9d16ac	0.0767034
50	0x3d652448	0.055942804
51	0x3d956158	0.072939575
52	0x3d74c848	0.059761316
53	0x3d9df682	0.07713033
54	0x3d7882c7	0.060671594
55	0x3d3fb795	0.046805937
56	0x3dbac3b1	0.091193564
57	0x3d6566f4	0.056006387
58	0x3d7387d4	0.059455708
59	0x3d9e4010	0.07727063
60	0x3d83bdf5	0.06432716
61	0x3d918c2c	0.07106814
62	0x3d7c5894	0.061607912
63	0x3daca201	0.08429337

f_bn2.bias f4 [64]
0	0xbcf47514	-0.029840983
1	0xbc0570a3	-0.0081445305
2	0xbced3a1b	-0.02895837
3	0x3c8b95e9	0.017039256
4	0xbbe1fd9b	-0.006896687
5	0xbc41f139	-0.011837297
6	0xbb3f9f32	-0.0029239175
7	0x3cb327b4	0.021869518
8	0xbb728397	-0.0037004703
9	0xbc84bd01	-0.016203405
10	0xbc4a131c	-0.012333658
11	0xbbf05bdc	-0.0073351692
12	0xbc56d98a	-0.013113389
13	0xbbe0122c	-0.0068381038
14	0x3c814eac	0.015784584
15	0x3b89aaf6	0.0042012883
16	0xbd26b530	-0.040700138
17	0x3bc2b9d3	0.005942562
18	0xbcbbf4ef	-0.022943942
19	0xbbb07f05	-0.0053862357
20	0xbc024b18	-0.007952474
21	0xbc0ed3ec	-0.008717518
22	0xbcd23292	-0.02565888
23	0x3c496aaa	0.012293497
24	0xbca0cb3c	-0.01962816
25	0xbcdb4aae	-0.026769008
26	0x3be52c6b	0.0069938204
27	0xbce2aa93	-0.027669227
28	0xbc66319e	-0.014049916
29	0xbc7c714f	-0.015407874
30	0x3b8bad0a	0.004262571
31	0xbbec12c4	-0.0072043855
32	0xba0d615e	-0.0005393232
33	0xbc52d0a8	-0.01286713
34	0x3b58f255	0.0033103426
35	0xbc1f40b8	-0.00972002
36	0x3ab8eecf	0.0014109256
37	0xb706295e	-7.996654e-06
38	0xbc1f709f	-0.009731441
39	0xbc39e8b4	-0.011346985
40	0xbb6e2adb	-0.0036341462
41	0x3bfc7673	0.00770455
42	0x3c2ad26a	0.010426143
43	0xbb52b7f7	-0.0032153109
44	0xbc6d766b	-0.014493565
45	0xbc1760cd	-0.009239388
46	0xbc8f863f	-0.017520068
47	0xbc3e1d55	-0.011603673
48	0x3be77049	0.007062946
49	0xbca890c8	-0.02057685
50	0xbba97f71	-0.005172663
51	0xbcbadcd6	-0.02281038
52	0xbbe85543	-0.007090242
53	0xbc4180d9	-0.011810505
54	0xbaa98b2e	-0.0012935156
55	0x3b3f0e6c	0.0029152883
56	0xbcd502ed	-0.026002372
57	0xbc018795	-0.00790586
58	0xbba63871	-0.0050726463
59	0xbd2d7b54	-0.042353943
60	0xbbf0210c	-0.0073281582
61	0xbc854fc3	-0.016273385
62	0xbba0a7e1	-0.004902825
63	0xbcc52653	-0.024066126

f_bn2.running_mean f4 [64]
0	0x3a1e8798	0.0006047427
1	0xbb1a0d31	-0.0023506398
2	0xbba9f155	-0.0051862397
3	0x3b370f4c	0.0027932702
4	0xb9b00c9c	-0.0003357873
5	0xbb8e67fb	-0.0043458915
6	0xba93df94	-0.0011281841
7	0x3b80eb28	0.003934283
8	0xba4788f3	-0.00076116546
9	0xbb209d7b	-0.0024507928
10	0xbb71ba7f	-0.0036884842
11	0xbb477d1e	-0.0030439566
12	0xbb02658b	-0.001989695
13	0xbac14c93	-0.0014747552
14	0x3b29a5f0	0.002588626
15	0x3846dc2c	4.741193e-05
16	0x39f61d92	0.00046942808
17	0x39d015e8	0.00039689173
18	0xbb967c8c	-0.004592484
19	0xb9d7fa27	-0.00041194374
20	0xba96b940	-0.0011499301
21	0xbad71458	-0.0016409261
22	0xbb911b08	-0.004428271
23	0x3b02a3b7	0.0019934007
24	0xbb91e786	-0.0044526486
25	0xbba258e6	-0.004954445
26	0x3af46b8c	0.0018647774
27	0xbabb8241	-0.0014305786
28	0xbab961cc	-0.0014143526
29	0xbadc0ff0	-0.0016789418
30	0x3a25667e	0.0006309523
31	0xbac25fff	-0.0014829634
32	0xba3bde21	-0.00071665837
33	0x3b5bfedb	0.0033568654
34	0xba33a69c	-0.0006853135
35	0xbafffd5b	-0.0019530462
36	0xba3aa8f9	-0.0007120516
37	0xb540a0af	-7.17594e-07
38	0xbaac83ba	-0.0013161816
39	0xbb0e7c64	-0.0021741623
40	0xba0ea65f	-0.00054416613
41	0x3a865cda	0.0010251061
42	0x3abee439	0.0014563865
43	0xbaa6cee0	-0.0012726448
44	0xbb337ba5	-0.002738693
45	0xbb03b077	-0.0020094195
46	0xbbb45a90	-0.00550396
47	0xbb1caf8a	-0.002390834
48	0x3b1c3fdf	0.002384178
49	0xbb62e462	-0.003462099
50	0xba8dfd30	-0.0010832902
51	0xbb880ead	-0.00415214
52	0xbab104be	-0.0013505442
53	0xbb77a3ce	-0.0037786844
54	0x317e4146	3.6998968e-09
55	0xb98be42b	-0.00026682144
56	0xbb8250be	-0.0039769104
57	0xbad49c13	-0.001622083
58	0xbb11b817	-0.002223497
59	0xba734f9c	-0.0009281577
60	0xb9eb8ad0	-0.00044926116
61	0xbb963343	-0.0045837476
62	0xbaa28fbc	-0.0012402455
63	0xbba28ece	-0.0049608713

f_bn2.running_var f4 [64]
0	0x38a23fcf	7.736647e-05
1	0x39334678	0.00017097022
2	0x39269f66	0.00015890374
3	0x3928dad2	0.00016103245
4	0x38ac99d4	8.230252e-05
5	0x3985190c	0.00025386398
6	0x393df9cc	0.00018117501
7	0x390ed217	0.0001362044
8	0x38a8a982	8.0424375e-05
9	0x390d9a83	0.00013504368
10	0x3945e536	0.00018872772
11	0x3936bd0f	0.00017427302
12	0x39197ffd	0.00014638896
13	0x38faf5bd	0.00011966701
14	0x390b3caa	0.00013278672
15	0x39064007	0.00012803088
16	0x386a0303	5.5792752e-05
17	0x39122aff	0.00013939662
18	0x393bcf5e	0.0001791096
19	0x38c135f8	9.2130096e-05
20	0x38c2974b	9.2788214e-05
21	0x38ed75aa	0.00011322957
22	0x39199de9	0.00014650043
23	0x39263f7e	0.00015854646
24	0x392f56c3	0.00016721622
25	0x393496aa	0.00017222264
26	0x390923ac	0.00013078627
27	0x38528103	5.0188053e-05
28	0x38b36887	8.554855e-05
29	0x38f7fe65	0.000118252625
30	0x3897a751	7.231406e-05
31	0x38fdb7d3	0.0001209822
32	0x38c1299b	9.210707e-05
33	0x38f00bbc	0.000114462775
34	0x38b95bc3	8.8385794e-05
35	0x38c01441	9.159046e-05
36	0x38cd1378	9.778788e-05
37	0x2d4ff637	1.1821258e-11
38	0x38ad5068	8.26426e-05
39	0x3908b8bf	0.00013038794
40	0x39078c0b	0.00012926773
41	0x38c10679	9.204163e-05
42	0x391e9332	0.00015122889
43	0x391285ab	0.0001397344
44	0x3925b657	0.00015803553
45	0x39028515	0.00012447343
46	0x397e4279	0.0002424809
47	0x3897166d	7.204418e-05
48	0x38c589aa	9.419334e-05
49	0x390a4ded	0.00013189735
50	0x38e6cee7	0.00011005793
51	0x38b71898	8.730701e-05
52	0x38c7807c	9.5129915e-05
53	0x398505fd	0.00025372198
54	0x38f59166	0.00011709593
55	0x38b25a72	8.504548e-05
56	0x392e337f	0.00016613117
57	0x38e0937b	0.00010708623
58	0x38f47a02	0.000116575524
59	0x38be412d	9.072046e-05
60	0x38fc9cd3	0.00012045507
61	0x3942208c	0.00018513406
62	0x39127597	0.0001396745
63	0x39356735	0.00017299953

fc_3.weight f4 [64, 64]
0	0x3c317c71	0.010832892
1	0x3bc307ac	0.0059518423
2	0x3ba5f1c1	0.0050642197
3	0x3ad06fbd	0.0015902441
4	0x3ba428cd	0.0050097466
5	0x3b7d9251	0.0038691948
6	0xbade496f	-0.0016959141
7	0x3b81e790	0.003964372
8	0x3babe147	0.005245361
9	0x3c4398ab	0.011938254
10	0x3c153867	0.009107686
11	0x3c1d993e	0.009619055
12	0x3c02d125	0.007984434
13	0x3b720805	0.003693105
14	0xbbcb6ccc	-0.006208038
15	0x3b8d8c3a	0.004319695
16	0x3cb28595	0.021792213
17	0x3c4234a0	0.011853367
18	0x3979f1be	0.00023836546
19	0x3c5e0db9	0.013553076
20	0x3a287b8c	0.00064271013
21	0x3bb2bfa4	0.0054549742
22	0x3c9d0ca0	0.01917106
23	0x3bbdc623	0.005791442
24	0x3bf38870	0.007432036
25	0x3cb74eab	0.022376379
26	0xbae0621c	-0.0017119083
27	0x3c6a2ef1	0.014293418
28	0x3c3f8625	0.011689697
29	0x3bfddda5	0.0077473694
30	0xbae6d429	-0.0017610836
31	0x3c007b85	0.007841949
32	0x3bb74c8b	0.0055938414
33	0x3c17a6d4	0.0092560835
34	0xba87fe62	-0.0010375495
35	0x3b3d8985	0.002892108
36	0x3b5ac930	0.0033384077
37	0x3127b2a7	2.440325e-09
38	0x3b5705d3	0.0032809868
39	0xbb18efd7	-0.0023336315
40	0x3b263ce6	0.0025365888
41	0x3c51e187	0.012810118
42	0x3a89e747	0.0010521197
43	0xbb07ddfe	-0.0020731683
44	0x3bde6207	0.006786588
45	0x3ba2c61e	0.004967465
46	0x3c01d9cf	0.007925465
47	0x38f7d2b4	0.00011817124
48	0x3b505ce1	0.0031793641
49	0x3c574945	0.013140027
50	0x3bbb3e69	0.005714227
51	0x3c01e3f8	0.007927887
52	0x3a8561a1	0.001017619
53	0x3b8f1eeb	0.0043676994
54	0x3b2e924f	0.00266375
55	0x3b78619f	0.0037899984
56	0x3c1029d3	0.008799034
57	0x3b7fa037	0.0039005408
58	0x3aa38784	0.00124763
59	0x3c883bc0	0.016630054
60	0x3be04858	0.0068445615
61	0x3b9f9edd	0.004871233
62	0x3bd10259	0.0063784537
63	0x3bbd23d4	0.0057720933
64	0xba0c5b53	-0.00053541845
65	0xbbb8793e	-0.0056296876
66	0xbb3c8069	-0.0028763062
67	0x3ba2e9a0	0.004971698
68	0x3bc520a6	0.006015855
69	0xbbb91d0c	-0.0056492146
70	0x3bfa1db5	0.007632936
71	0x3b25a6b5	0.0025276367
72	0x39b38947	0.0003424382
73	0x3b9334da	0.0044923844
74	0xbb2dfbaf	-0.002654772
75	0xbb291485	-0.0025799584
76	0x3b83ae80	0.0040186048
77	0x3b3cd731	0.0028814788
78	0x3bbd51ff	0.005777597
79	0x3c2a5a76	0.010397544
80	0x3a8aa793	0.0010578505
81	0x3b84bd3c	0.004050879
82	0xba12e61a	-0.0005603746
83	0x3bdb8e15	0.006700287
84	0x3bbbbf47	0.005729589
85	0x3c356aa2	0.0110727865
86	0xbb7db00a	-0.0038709664
87	0xbb7399de	-0.003717057
88	0xbc0644ea	-0.008195141
89	0xbc001e56	-0.007819733
90	0xbbe17038	-0.0068798326
91	0x3bb87544	0.0056292135
92	0x3b845dbc	0.0040394943
93	0x3c394de7	0.011310077
94	0x3c038682	0.008027675
95	0x3bb82736	0.0056199087
96	0x3c552a62	0.013010593
97	0xbae4085d	-0.0017397512
98	0xbbb8737d	-0.0056290017
99	0x3c2bbd99	0.010482215
100	0x3b497d42	0.0030744825
101	0x3167e618	3.3745717e-09
102	0x3b497a0c	0.0030742912
103	0x3c005fb3	0.0078353165
104	0x3b270b36	0.002548886
105	0x3bd72cfe	0.006566643
106	0xbab97434	-0.0014149011
107	0x3ba731e3	0.0051023825
108	0xbb598ca4	-0.00331954
109	0x3b901635	0.0043971785
110	0xbbbacab8	-0.0057004355
111	0x3c4eb65e	0.012616722
112	0x3bf4209c	0.0074501764
113	0xbb1d2520	-0.0023978427
114	0x3c0b6f4c	0.008510422
115	0xbb7d5649	-0.0038656166
116	0x3c07589f	0.008260875
117	0xbb6aad74	-0.0035808953
118	0x3b44e139	0.003004147
119	0x3aead619	0.0017916589
120	0xbb28c35b	-0.0025751207
121	0x3a1a3a10	0.0005883286
122	0x3b273db3	0.0025518953
123	0x3b0d87f7	0.0021595934
124	0x3ba67d89	0.005080883
125	0xbb9fe2ab	-0.004879316
126	0x3c5104cc	0.012757491
127	0xbaed7824	-0.001811747
128	0x3c8e42d7	0.017365856
129	0x3c847486	0.016168844
130	0x3c1e7b01	0.009672881
131	0xbb085b7b	-0.002080648
132	0xba330a58	-0.00068298494
133	0x3c8e9b71	0.017408105
134	0xbbd44eb5	-0.006479109
135	0xbc65faf9	-0.014036887
136	0x37825f81	1.554168e-05
137	0xba8e8d4e	-0.0010875852
138	0x3b1e0dd4	0.002411713
139	0x3c39c634	0.011338759
140	0x3a7fe6e4	0.00097618834
141	0xbb81099a	-0.003937912
142	0xbc66222f	-0.014046236
143	0xbc02e9fe	-0.007990358
144	0x3c9c3ea8	0.019072846
145	0xbc81033e	-0.015748616
146	0x3ca10d29	0.019659596
147	0xbb8e32a3	-0.0043395325
148	0xba6694d0	-0.00087959785
149	0xbc4bf225	-0.0124478685
150	0x3cf71a77	0.030163987
151	0xbc1a74e4	-0.009427283
152	0x3c4846f4	0.012223948
153	0x3c1ddffb	0.009635921
154	0xbc3638fa	-0.011121983
155	0x3a8f7bdf	0.0010946951
156	0x3b3399ee	0.0027404982
157	0x3b2d7b38	0.002647115
158	0xbc335cb0	-0.010947391
159	0xbb98ff89	-0.004669134
160	0xbc180df8	-0.009280674
161	0x3c86894a	0.016422886
162	0xbc6e6497	-0.01455035
163	0xbbb371e5	-0.005476224
164	0xbb890eeb	-0.0041826866
165	0x304b2d44	7.3915296e-10
166	0xbaa07250	-0.0012241099
167	0xbb25963f	-0.0025266556
168	0xbc088ac6	-0.008333867
169	0xbbdf99f4	-0.0068237726
170	0xbc400b1f	-0.0117214015
171	0xbc508a61	-0.012728305
172	0x3c57038c	0.013123404
173	0x3b5c918e	0.0033656093
174	0x3c124039	0.008926445
175	0xbb5e6316	-0.0033933572
176	0xbc7c7dd0	-0.015410855
177	0x3cebb3e0	0.028772295
178	0xbad699bb	-0.001637272
179	0x3c8e8fff	0.017402647
180	0x3a8cad20	0.0010732748
181	0x3be4e141	0.00698486
182	0xbb63ca51	-0.003475804
183	0xbbdb400b	-0.006690984
184	0x3c126f6f	0.008937701
185	0xbb12178e	-0.0022291872
186	0x3aa9acc3	0.0012945164
187	0x3bda04b8	0.0066533946
188	0xba1e685b	-0.0006042772
189	0x3c44923c	0.011997756
190	0xbbde7e30	-0.006789945
191	0x3c2d1432	0.010563897
192	0xba0d72ba	-0.0005395819
193	0xbb5cbedf	-0.0033683104
194	0xbacae1e7	-0.0015478701
195	0xbb2cb3f3	-0.0026352375
196	0x3bd7b06a	0.0065823095
197	0xbb3ffe5a	-0.0029295892
198	0x3c016881	0.007898451
199	0x3aa33104	0.0012450521
200	0x3bd62bb1	0.00653597
201	0x3c49b715	0.012311717
202	0xbaa249e7	-0.0012381644
203	0xbb10e24d	-0.0022107542
204	0x3c53e774	0.012933601
205	0xbb96dba2	-0.004603819
206	0x3adef89e	0.001701135
207	0x3b724caa	0.0036971965
208	0xba99bbf2	-0.0011728986
209	0x3c872d15	0.016500989
210	0x3b257d57	0.002525171
211	0x3c811d02	0.015760902
212	0x3c61491f	0.013750344
213	0x3ba6a986	0.0050861267
214	0xba69a0e7	-0.0008912221
215	0x3b10fcc2	0.0022123312
216	0xb9ebbc79	-0.00044963116
217	0xb9adf8f8	-0.00033182628
218	0x3b190a08	0.0023351926
219	0x3bf09df8	0.00734305
220	0x3be446eb	0.006966462
221	0x3c000d8e	0.007815732
222	0x3b830508	0.0039984025
223	0x3b9f65dc	0.0048644375
224	0x3b11475f	0.0022167785
225	0xba903534	-0.0011002184
226	0x3baa2eba	0.0051935585
227	0x3c39eef8	0.0113484785
228	0x3c1f6456	0.009728512
229	0xb42d9b8f	-1.6168472e-07
230	0x3c5e4332	0.013565825
231	0x3b96fd7c	0.0046078544
232	0x3c2b7215	0.010464211
233	0xb919cc20	-0.0001466726
234	0x3bc0bf8e	0.00588221
235	0x3bf8e402	0.00759554
236	0xbb86e4c6	-0.0041166274
237	0x3bc68189	0.0060579223
238	0xbb87e88d	-0.0041475953
239	0x3c21da41	0.009878696
240	0x3b098be3	0.002098792
241	0xbb322d28	-0.002718756
242	0x3c1be1d2	0.009514289
243	0xbb3a8c33	-0.0028464913
244	0x3c02ab12	0.007975357
245	0xbb823e3b	-0.0039747036
246	0x3bf3c06b	0.0074387095
247	0x3c179e55	0.009254058
248	0x3a4daf41	0.0007846244
249	0x3c2fbd9e	0.010726361
250	0x3b298d53	0.002587159
251	0x3a80f7b4	0.0009839446
252	0x3c8466ec	0.016162358
253	0xbb0462e6	-0.002020055
254	0xba84b7e8	-0.0010125609
255	0xbb54c93b	-0.0032468576

fc_3.bias f4 [64]
0	0xb40ae84f	-1.2936765e-07
1	0x335be293	5.119598e-08
2	0x34091643	1.2767218e-07
3	0x33a2aaaf	7.57476e-08
4	0xb48b3bf1	-2.593438e-07
5	0xb35ccb37	-5.1407564e-08
6	0x34f190b2	4.4995028e-07
7	0x3459fdd2	2.0302039e-07
8	0xb0d6e080	-1.5634356e-09
9	0xb4c80604	-3.725728e-07
10	0xb4a8cf10	-3.1443096e-07
11	0x341020c0	1.342296e-07
12	0xb37a5ac2	-5.8290205e-08
13	0x341472b2	1.38253e-07
14	0x340b3329	1.2963996e-07
15	0x345fc3b8	2.0839695e-07
16	0x340de318	1.3214265e-07
17	0xb32019c9	-3.7276354e-08
18	0x3412cce8	1.3671854e-07
19	0xb21d081a	-9.140445e-09
20	0xb28dad24	-1.6493296e-08
21	0x33bede3a	8.887987e-08
22	0xb5001ed5	-4.772858e-07
23	0xb45593c7	-1.9890932e-07
24	0xb4254fe9	-1.5395894e-07
25	0xb4109300	-1.3464523e-07
26	0xb3a1ca33	-7.5339265e-08
27	0x3352811c	4.901186e-08
28	0xb4ac24bb	-3.2064222e-07
29	0x3230f028	1.02991535e-08
30	0xb4a1a4cd	-3.0108495e-07
31	0xb329fc52	-3.9577863e-08
32	0x341fa8ff	1.486951e-07
33	0xb3042f72	-3.0776796e-08
34	0x31ee2f0c	6.9320603e-09
35	0x3491e660	2.7175975e-07
36	0xb2c6ff16	-2.3166233e-08
37	0xb3ff6b49	-1.1893878e-07
38	0xb3a5cc22	-7.720543e-08
39	0xb3d118c6	-9.736827e-08
40	0x348bf7aa	2.6070967e-07
41	0x34447d56	1.829952e-07
42	0xb08e7b60	-1.0366925e-09
43	0x333dcc14	4.41906e-08
44	0xb3e84f87	-1.0817808e-07
45	0xb36a3430	-5.4529835e-08
46	0xb36c3b85	-5.5002165e-08
47	0x33222ce6	3.77594e-08
48	0x34641a32	2.1243685e-07
49	0xb41ebe2c	-1.4784081e-07
50	0x33bb04eb	8.708761e-08
51	0x334828d6	4.660327e-08
52	0x33f05705	1.11917e-07
53	0x34227458	1.5129751e-07
54	0x34ed8807	4.4243663e-07
55	0x3479a450	2.3249709e-07
56	0x345eb5fe	2.074157e-07
57	0x34101f4c	1.3422431e-07
58	0x33d7b255	1.0044156e-07
59	0x3406ae8c	1.2543222e-07
60	0x3452f983	1.9648546e-07
61	0xb4204a5e	-1.4928216e-07
62	0x32718a16	1.4059443e-08
63	0xb52ffbc6	-6.555896e-07

f_bn3.weight f4 [64]
0	0x3d58678d	0.05283313
1	0x3d28f7ca	0.041251935
2	0x3d97f7a8	0.074202836
3	0x3d3fc826	0.046821736
4	0x3d8e6e7c	0.06954667
5	0x3d77e7da	0.060523845
6	0x3d6923f6	0.05691906
7	0x3d56da9f	0.052454587
8	0x3d8bc8aa	0.06825383
9	0x3d95d8b9	0.07316727
10	0x3d750da9	0.05982748
11	0x3d471d83	0.04861213
12	0x3d5e6ff9	0.054306004
13	0x3d5a625e	0.053316467
14	0x3d9722ba	0.073796704
15	0x3d6176cc	0.055044934
16	0x3d5ca6d2	0.05387003
17	0x3da4d558	0.080485046
18	0x3d4ae963	0.04953898
19	0x3d70c692	0.05878312
20	0x3d8f750a	0.07004745
21	0x3d809eee	0.062803134
22	0x3d90aaee	0.07063852
23	0x3db12e99	0.08651466
24	0x3d620e14	0.055189207
25	0x3d76edbd	0.06028532
26	0x3d8478f9	0.06468386
27	0x3d6d91ee	0.058000498
28	0x3da95c0b	0.08269509
29	0x3d61fc91	0.055172507
30	0x3d5cadae	0.05387657
31	0x3d8e16cf	0.06937944
32	0x3d946681	0.072461136
33	0x3d84bc4d	0.06481228
34	0x3d7b1065	0.061294932
35	0x3d5f197f	0.054467674
36	0x3d619974	0.055077985
37	0x3d392af8	0.045206994
38	0x3d4ad505	0.049519558
39	0x3d9a4c4f	0.07534086
40	0x3d8c06b2	0.068372145
41	0x3d9b19e4	0.075732976
42	0x3d75a865	0.059975047
43	0x3d42b7aa	0.047538437
44	0x3d310810	0.04322058
45	0x3d98acaf	0.07454812
46	0x3d9e557e	0.0773115
47	0x3d6b3a5b	0.0574287
48	0x3d6afef9	0.057372067
49	0x3d6119ce	0.05495625
50	0x3d7141e6	0.058900736
51	0x3d6163eb	0.05502693
52	0x3d58fc0f	0.052974757
53	0x3d977b64	0.07396582
54	0x3d858f44	0.065214664
55	0x3d791633	0.060812186
56	0x3d804f22	0.062650934
57	0x3d8af8ba	0.06785722
58	0x3d909456	0.07059543
59	0x3d4aa2e8	0.049471766
60	0x3d75e346	0.060031198
61	0x3d5c4dca	0.053785123
62	0x3d4d2df7	0.050092664
63	0x3d9b8ef6	0.07595627

f_bn3.bias f4 [64]
0	0x3cd242a5	0.025666544
1	0x3c5151da	0.012775863
2	0x3c2a7f6e	0.010406358
3	0x3c6efe49	0.0145869935
4	0x3c06db7d	0.008231041
5	0x3c916fbe	0.017753478
6	0x3ca10fe9	0.019660907
7	0x3c91e0ee	0.01780745
8	0x3c0fcb90	0.00877656
9	0x3c4ae301	0.0123832235
10	0x3be97b7d	0.0071253167
11	0x3c41f4e9	0.011838176
12	0x3c84b968	0.01620169
13	0x3c81b5ff	0.015833853
14	0x3bea2013	0.007144937
15	0x3b962c87	0.004582945
16	0x3c8bdeb9	0.017073976
17	0x3bf10682	0.007355512
18	0x3c96278d	0.018329406
19	0x3c9c1d0f	0.019056825
20	0x3c5e678d	0.013574493
21	0x3c0b0fda	0.008487666
22	0x3c4e1d07	0.012580163
23	0x3c687ab2	0.014189409
24	0x3c98716a	0.018608768
25	0x3c061bfe	0.008185385
26	0x3ca85cef	0.020552127
27	0x3caccebf	0.021094678
28	0x3bd11c39	0.006381538
29	0x3c945ec6	0.018111598
30	0x3bd374c8	0.0064531304
31	0x3ba147d3	0.004921892
32	0x3c2cf980	0.010557532
33	0x3bd9f18c	0.006651109
34	0x3c98de16	0.018660586
35	0x3cad9d58	0.021193191
36	0x3c8f8b1d	0.01752239
37	0x3c40d8ea	0.011770466
38	0x3c60f620	0.013730556
39	0x3c0a0f69	0.008426526
40	0x3c035192	0.008015053
41	0x3be7f928	0.0070792623
42	0x3c9354a2	0.017984692
43	0x3c708525	0.014680182
44	0x3c616319	0.013756537
45	0x3bb8299b	0.005620194
46	0x3aa48275	0.0012551086
47	0x3c7ec983	0.015550974
48	0x3ca9d185	0.02072979
49	0x3c59a984	0.013285045
50	0x3c6ad5da	0.014333213
51	0x3c85576c	0.016277038
52	0x3c886fc7	0.016654862
53	0x3bf61628	0.0075099654
54	0x3c31d7c1	0.010854662
55	0x3c9b52fe	0.018960472
56	0x3cba473a	0.022739042
57	0x3c82d569	0.015970903
58	0x3be3b5d5	0.0069491663
59	0x3c47673c	0.012170609
60	0x3c7bb310	0.015362516
61	0x3c98613d	0.018601054
62	0x3c493e9e	0.0122829955
63	0x3c1e2bdf	0.009654014

f_bn3.running_mean f4 [64]
0	0x3bb97bd5	0.005660514
1	0x3b117f09	0.0022200963
2	0x3987e25f	0.00025917866
3	0x3b75699b	0.003744698
4	0x3a90447f	0.0011006742
5	0x3b5d19a6	0.0033737211
6	0x3b86211c	0.0040933024
7	0x3b31113e	0.0027018334
8	0x3a90c5b6	0.001104525
9	0x3a6ee2fd	0.00091128034
10	0xba082731	-0.0005193828
11	0x3b4137ff	0.002948284
12	0x3b40ee31	0.0029438848
13	0x3b4f995a	0.0031677098
14	0xba0e29ae	-0.0005423081
15	0xb915fca3	-0.00014303862
16	0x3b5a02a6	0.0033265739
17	0xba1ee6c1	-0.00060616067
18	0x3b3c9d5b	0.0028780315
19	0x3b754648	0.0037425924
20	0x39cf5423	0.00039544803
21	0x3a061784	0.00051151984
22	0x3a606392	0.0008559759
23	0x3b0be0f7	0.0021343806
24	0x3ba7b5a2	0.005118088
25	0x39df2716	0.00042562996
26	0x3b819404	0.0039544124
27	0x3b9258b5	0.004466141
28	0xba84b569	-0.0010124865
29	0x3b672dd6	0.0035275123
30	0xba528fe9	-0.00080323085
31	0x3b10c700	0.002209127
32	0x3ab9b59f	0.0014168507
33	0xba2b5b28	-0.00065367157
34	0x3b51fc6e	0.003204133
35	0x3b876f04	0.004133107
36	0x3b7c8eaa	0.0038537183
37	0x3b82a2c6	0.0039866893
38	0x3b4f9d48	0.003167944
39	0x39634f58	0.00021677965
40	0x39fd23b3	0.00048282518
41	0xb85c42a4	-5.251415e-05
42	0x3b4f4eaf	0.0031632592
43	0x3b54ab46	0.003245072
44	0x3b630d89	0.0034645519
45	0xb7baf2cd	-2.228599e-05
46	0x3aabb325	0.0013099654
47	0x3b42e0c5	0.0029736024
48	0x3b814a36	0.003945614
49	0x3b2f5f77	0.0026759782
50	0x3b4f4235	0.0031625156
51	0x3b3890c2	0.0028162454
52	0x3b7ece41	0.003888026
53	0x391f555a	0.00015195218
54	0x3aaee0bf	0.0013342126
55	0x3b736da3	0.0037144206
56	0x3b6100b4	0.0034332694
57	0x3abf9c3b	0.0014618704
58	0xb98c58e4	-0.0002676911
59	0x3b5946cc	0.003315377
60	0x3b22c305	0.002483548
61	0x3b7a0d4e	0.0038154903
62	0x3b24f8e7	0.0025172771
63	0x3a1cc879	0.00059808005

f_bn3.running_var f4 [64]
0	0x389aff69	7.390866e-05
1	0x38838854	6.27196e-05
2	0x395b5420	0.00020916807
3	0x38c2108a	9.2537215e-05
4	0x392b99d4	0.00016365136
5	0x38f89500	0.00011853315
6	0x390fce6e	0.00013714444
7	0x39012694	0.0001231677
8	0x39334f38	0.00017100282
9	0x3950e0b5	0.00019920136
10	0x390b8a8c	0.00013307686
11	0x38c963eb	9.603038e-05
12	0x39111b79	0.00013838512
13	0x38ec6524	0.00011272196
14	0x39595d46	0.0002072948
15	0x38c9f6fb	9.6304306e-05
16	0x390d72ff	0.00013489647
17	0x398360f1	0.00025058494
18	0x38f52247	0.00011688895
19	0x39180c91	0.00014500531
20	0x39304efc	0.00016814092
21	0x38ff6e32	0.00012179873
22	0x39236919	0.00015584043
23	0x395ef966	0.00021264478
24	0x391ed425	0.00015147084
25	0x38f52353	0.0001168909
26	0x39445f14	0.00018727436
27	0x3943cbf9	0.00018672635
28	0x39830050	0.000249865
29	0x390075e2	0.00012250946
30	0x38b4bacb	8.617862e-05
31	0x390d609e	0.000134828
32	0x39594930	0.00020721997
33	0x38f9f720	0.00011919276
34	0x39245541	0.00015672018
35	0x3918e1cd	0.00014579967
36	0x38e7294f	0.00011022633
37	0x38a92333	8.065104e-05
38	0x38b004a3	8.393198e-05
39	0x39566a77	0.00020448292
40	0x390a6fbe	0.00013202333
41	0x3942e2a9	0.00018585719
42	0x3907d313	0.00012953235
43	0x38a23a3e	7.7356104e-05
44	0x38cbf05d	9.7245655e-05
45	0x393c115b	0.00017935543
46	0x39241b04	0.00015650323
47	0x39058f3c	0.00012737227
48	0x390336e0	0.00012513576
49	0x38f4e3e6	0.00011677276
50	0x39097e1f	0.00013112322
51	0x3904b264	0.00012654957
52	0x38f3f2bf	0.00011632358
53	0x39496f46	0.00019210306
54	0x38f09da7	0.00011473457
55	0x38f87eb9	0.000118491655
56	0x391e5720	0.00015100511
57	0x39140737	0.00014117068
58	0x393e1172	0.00018126311
59	0x38b22b80	8.495804e-05
60	0x38fc6e85	0.00012036882
61	0x3907efea	0.00012963978
62	0x38d820f6	0.00010305822
63	0x395b81ff	0.00020933895
