code/model/seed_971/QDANN_P_corn_2018.pth (torch, 35125 bytes, 17 tensors)

r_bn0.weight f4 [32]
000000 15 65 ea 38 d9 6a 45 39 fc ed 68 3a 43 26 de 3a
       0.000111768175 0.00018827188 0.000888556 0.0016948659
000010 f4 99 26 3b 3b 36 57 3c 94 9d 9f 3a 10 8c 9a 3b
       0.0025421353 0.013135488 0.0012177699 0.004716404
000020 15 3a 0e 3a 41 97 73 3a 12 25 e7 38 95 66 6b 3c
       0.0005425525 0.0009292253 0.00011021843 0.014367719
000030 7b 58 31 39 63 47 2e 3b 49 e9 01 3a e7 3d 2c 39
       0.00016912997 0.0026592843 0.00049557217 0.00016426259
000040 58 cd 25 39 71 09 9c 39 f3 61 0f 3a 01 9f 40 3a
       0.00015812123 0.00029761673 0.00054696127 0.0007347912
000050 3b 3e 38 38 7f d1 a4 38 9f a4 50 3c 3f 1e a8 3c
       4.3926975e-05 7.859151e-05 0.012734561 0.020522235
000060 bd 81 ac 39 f9 a8 75 3e d1 12 8f 39 97 7e f5 38
       0.0003290306 0.23990239 0.00027289105 0.000117060896
000070 ea 58 f6 39 cb 92 18 3c 44 fa 9b 3a 3f 10 13 3b
       0.00046987023 0.009312342 0.0011900146 0.0022440103

r_bn0.bias f4 [32]
000000 9b b1 7d 2d da 38 16 af b5 56 a4 2f 87 1b f1 30
       1.4420821e-11 -1.3662618e-10 2.9893035e-10 1.7542882e-09
000010 e3 7d ee 30 58 67 8c 30 cb 91 59 2f dc 47 c6 b1
       1.7352558e-09 1.0215713e-09 1.9787831e-10 -5.770728e-09
000020 2a f3 b0 2f 0d 0c 74 b0 0f e9 14 2e e1 60 64 31
       3.2186992e-10 -8.878381e-10 3.38583e-11 3.3233436e-09
000030 be a2 12 af 9e 54 eb 30 43 1e 0e b0 eb 50 a9 af
       -1.333644e-10 1.712255e-09 -5.1702304e-10 -3.0798417e-10
000040 df f5 fb 2b 24 01 ea af c1 52 d1 ae 7e f9 8f b0
       1.7902866e-12 -4.2565163e-10 -9.51892e-11 -1.0475529e-09
000050 e5 88 b2 2d b1 64 9f 2f 8d 19 21 30 cc 5b 4a b2
       2.029705e-11 2.8993477e-10 5.860777e-10 -1.177882e-08
000060 e8 c0 3c 30 84 2d 5d b4 73 1d e6 ae c3 ff 29 2e
       6.866814e-10 -2.0598787e-07 -1.046442e-10 3.8653313e-11
000070 82 63 f0 ae 63 1a 7f b0 ee 06 11 30 10 5e 25 b0
       -1.09316126e-10 -9.280596e-10 5.276054e-10 -6.016032e-10

r_bn0.running_mean f4 [32]
000000 ae ea 01 b6 f4 37 42 37 60 e9 17 b9 fb 3b 88 b9
       -1.93591e-06 1.1576329e-05 -0.00014487421 -0.0002598463
000010 b8 05 30 b9 d6 6d 1f bb c4 63 1f b9 a0 5a 6f ba
       -0.00016786798 -0.0024326942 -0.00015200587 -0.00091306306
000020 38 71 ad 38 8e 4c ea b8 21 f5 10 b7 81 71 4b 3b
       8.2703715e-05 -0.00011172249 -8.640142e-06 0.0031042995
000030 ac 51 bc 36 ab 3b b7 b9 12 e0 7d b8 bc ff c2 36
       5.6123445e-06 -0.00034948936 -6.0528582e-05 5.811422e-06
000040 33 9c 93 34 6c 67 8e b7 dc a3 bf b8 7d ae 3e 39
       2.7494534e-07 -1.6975879e-05 -9.138111e-05 0.00018184814
000050 98 16 fc 35 38 27 06 38 fc 79 0d 3b db e4 86 3b
       1.8782039e-06 3.1984615e-05 0.00215876 0.004116637
000060 32 d6 20 b7 61 77 1b 3d 9d 42 6a 37 1f 83 35 36
       -9.586614e-06 0.037955645 1.39629965e-05 2.7047424e-06
000070 b5 f8 40 b8 34 72 c9 ba 1b 6a 89 39 77 bd 88 b9
       -4.6007994e-05 -0.0015369118 0.0002620973 -0.00026081104

r_bn0.running_var f4 [32]
000000 23 95 40 30 f4 e1 90 31 5c de 0b 35 97 9c 90 35
       7.006113e-10 4.2166395e-09 5.210511e-07 1.077441e-06
000010 82 cd aa 35 e5 7b 20 38 7d d3 a9 34 16 e0 18 37
       1.2725798e-06 3.826236e-05 3.163258e-07 9.11208e-06
000020 07 9d 8d 34 a2 7e 4a 35 0b 84 0a 30 02 2b 9f 38
       2.637755e-07 7.543514e-07 5.039175e-10 7.589722e-05
000030 6c 5c 52 31 3b a0 0a 36 3d c2 1b 33 7f ce 06 31
       3.0611558e-09 2.0656869e-06 3.626541e-08 1.9616946e-09
000040 b8 74 30 2f bf 3a 52 32 52 fd e1 33 02 7a df 34
       1.6048574e-10 1.2236966e-08 1.0523458e-07 4.162576e-07
000050 09 1d 12 2f 57 df 85 31 5b c0 f6 37 b6 39 5f 39
       1.3288938e-10 3.8962003e-09 2.9415058e-05 0.00021288436
000060 7a 41 4b 33 bd c9 af 3c 87 1e 9d 31 76 3f 96 2f
       4.732417e-08 0.021458501 4.572772e-09 2.7329933e-10
000070 cf cc 9a 33 49 6b ca 37 84 72 cf 35 19 d8 41 35
       7.208438e-08 2.4130235e-05 1.545603e-06 7.2212566e-07

r_fc1.weight f4 [64, 32]
000000 f5 b9 69 b7 68 e1 51 b7 f3 c9 eb 38 53 0d 72 39
       -1.3931179e-05 -1.2509852e-05 0.00011243289 0.00023083882
000010 a9 af a8 38 45 b1 d0 b9 47 c0 1e 39 c0 14 2c 3a
       8.0435835e-05 -0.00039804928 0.00015139683 0.0006564371
000020 05 1a 85 b8 19 a1 cc 38 67 5f 7d b6 87 50 b0 ba
       -6.346781e-05 9.757485e-05 -3.775547e-06 -0.0013451733
000030 4a ac f7 36 46 97 0c b9 da f0 94 37 b0 5e 04 37
       7.3812307e-06 -0.00013407794 1.775513e-05 7.889859e-06
000040 07 f0 97 b6 42 7c 5c 37 32 a3 4f 37 78 bf e9 35
       -4.5280935e-06 1.3141953e-05 1.2376158e-05 1.7415578e-06
000050 20 51 b1 36 64 b7 ce 36 de 32 13 3a 15 57 a3 ba
       5.2844553e-06 6.160628e-06 0.0005615185 -0.0012461866
000060 fc 4b fc b8 8c 08 e7 bc 51 fb 93 b8 54 7d 4b b6
       -0.000120304496 -0.028202318 -7.0563176e-05 -3.0322308e-06
000070 a0 8f 99 37 98 44 12 b9 e0 a5 81 b8 e2 c1 31 b8
       1.8305902e-05 -0.00013949198 -6.182096e-05 -4.2380656e-05
000080 26 ff ec b5 dd 76 8f b6 91 fa 6a 38 9a 32 69 39
       -1.7657628e-06 -4.2755696e-06 5.6023306e-05 0.00022239462
000090 c0 ff ab b8 93 3f 93 3a 88 a1 2e 39 e0 fd 71 3a
       -8.2015526e-05 0.0011234157 0.00016654108 0.0009231251
0000a0 32 c6 af 36 ff 18 05 38 21 15 12 b6 65 a7 36 bb
       5.2384794e-06 3.173295e-05 -2.1767994e-06 -0.002787077
0000b0 58 1a 65 36 f6 b4 96 38 98 a6 28 38 a1 b7 68 36
       3.4138993e-06 7.186264e-05 4.0209474e-05 3.467758e-06
0000c0 cc 2b 62 b4 4b 15 6b 37 a1 82 97 37 c1 c9 13 b8
       -2.1063823e-07 1.4012049e-05 1.8061432e-05 -3.523543e-05
0000d0 a3 9c 95 b2 87 04 8e b7 ed 8a a9 39 51 d5 dc ba
       -1.7417113e-08 -1.6929827e-05 0.000323377 -0.0016848241
0000e0 12 91 8a 37 d9 30 e8 bc 7f 11 05 b6 30 41 76 b6
       1.6518436e-05 -0.028343605 -1.9828728e-06 -3.66948e-06
0000f0 d8 81 29 37 c1 7d 0a ba 76 cf 96 b8 9e 18 5f b9
       1.0103417e-05 -0.0005283021 -7.1912e-05 -0.00021276108
000100 02 c5 28 b7 4e a9 96 b7 71 78 a2 36 ea e5 bb 39
       -1.005945e-05 -1.7960232e-05 4.8419975e-06 0.0003583872
000110 91 1f 59 39 1e bc 70 3a a5 f3 6e 3a 81 75 5e 3a
       0.00020706492 0.0009183305 0.00091152854 0.00084861374
000120 de 4b ba b6 e8 b3 ed 36 ce da 37 b7 99 2c 71 ba
       -5.552064e-06 7.0840942e-06 -1.0958594e-05 -0.0009200066
000130 07 f5 a1 38 81 26 9e 39 fc 61 d4 38 9c 14 86 39
       7.722718e-05 0.00030164796 0.00010127199 0.00025573827
000140 2f 1b 2a b8 f5 ff d5 37 0f 86 25 38 c5 b5 24 b8
       -4.0556475e-05 2.5510768e-05 3.9463917e-05 -3.9269933e-05
000150 c5 77 a4 35 ff 93 b6 37 f9 f1 5a ba 0e 0b 75 ba
       1.225381e-06 2.1765007e-05 -0.0008352097 -0.00093476556
000160 eb 48 39 ba 20 f4 b3 bc be 24 65 b7 0b 07 40 b7
       -0.00070680556 -0.021966994 -1.3658018e-05 -1.1445732e-05
000170 6e 56 a3 38 ca d9 b1 38 4f 63 15 b8 50 52 a1 b7
       7.7885445e-05 8.480584e-05 -3.5616857e-05 -1.9231025e-05
000180 57 77 75 38 f5 42 0a 38 c8 5a 24 ba 4e 1a c1 ba
       5.8523696e-05 3.2964123e-05 -0.0006269631 -0.0014732571
000190 47 20 80 b9 18 fd 04 bb 48 47 5f bb cc 34 89 bb
       -0.0002443811 -0.0020292457 -0.0034069587 -0.004187202
0001a0 5c d9 68 39 68 45 ab 3a b4 9e f9 37 53 23 90 3b
       0.00022206217 0.0013066949 2.9757015e-05 0.004398742
0001b0 76 8a 3a b8 2f 2c 05 3a a4 10 a0 ba 72 5b 03 ba
       -4.4474808e-05 0.0005080131 -0.001221199 -0.000501088
0001c0 28 ca 9e 37 9b 60 22 ba 84 6c 30 b9 c0 ab 2a b8
       1.8929204e-05 -0.0006194205 -0.00016825093 -4.0691113e-05
0001d0 d8 54 4c b6 58 5a 44 ba f2 0e 05 bc b0 bc ce b7
       -3.0447754e-06 -0.0007490269 -0.008121239 -2.4644978e-05
0001e0 32 46 33 3a 7e 46 ea bc aa f6 0b b7 5b 0b 6f 38
       0.0006838768 -0.028598066 -8.342477e-06 5.6992616e-05
0001f0 6a 02 76 b9 9f 59 6b 3b a1 8b 38 3a ac 07 a3 39
       -0.00023461287 0.0035911573 0.00070398493 0.000310955
000200 e9 37 c4 b6 5f a7 81 38 b7 fc 7f 38 5e 0b 6c 39
       -5.847764e-06 6.182375e-05 6.1032097e-05 0.00022510948
000210 36 35 63 37 8b c4 b2 39 83 97 1f 39 a8 92 f5 39
       1.35426435e-05 0.00034097242 0.00015219864 0.0004683931
000220 44 88 58 b7 66 03 08 3a 0b d8 10 b6 c5 65 8e ba
       -1.290633e-05 0.00051884947 -2.1583426e-06 -0.001086407
000230 a8 f6 6a 39 ca 93 94 37 6f 8c c2 38 93 36 00 ba
       0.00022407866 1.7711794e-05 9.276799e-05 -0.00048909447
000240 e9 af 3c b6 6b 21 c8 37 d8 d3 97 37 57 f8 a8 ba
       -2.8116576e-06 2.385742e-05 1.809925e-05 -0.0012891394
000250 85 a2 31 35 4e 5e a4 38 79 7d c8 38 b2 dc f8 ba
       6.6174135e-07 7.837695e-05 9.560114e-05 -0.0018986671
000260 40 21 55 b8 70 88 ee bc e8 7d 42 b7 ce 52 e5 b6
       -5.0814124e-05 -0.029117793 -1.1592616e-05 -6.8343716e-06
000270 66 e3 92 37 d8 7a de 38 9a de 12 b9 4b ed b0 b8
       1.7510447e-05 0.00010608666 -0.0001400657 -8.436533e-05
000280 33 93 6b b7 81 d1 4b b7 67 51 38 39 8c da cf 39
       -1.4041364e-05 -1.2148522e-05 0.00017577932 0.00039644947
000290 b7 e8 68 b8 d4 35 96 39 e3 32 29 39 e4 02 96 3a
       -5.5529843e-05 0.00028650335 0.00016136053 0.0011444953
0002a0 a9 ff 70 b8 bc 6d f9 38 28 14 14 b7 89 5d 10 bb
       -5.745856e-05 0.00011893685 -8.82618e-06 -0.0022028408
0002b0 2d 9c 81 37 be 06 f7 37 70 f5 2e 38 8e ea c0 37
       1.5450723e-05 2.9447834e-05 4.1713414e-05 2.2997407e-05
0002c0 11 00 44 b6 9a b3 9e 37 ff 0c 43 38 65 b1 81 b7
       -2.9206315e-06 1.8918701e-05 4.6503726e-05 -1.5460604e-05
0002d0 6a d4 ef 35 6f 61 b1 37 a5 dd e9 b9 a6 77 bc ba
       1.7868708e-06 2.1145415e-05 -0.0004460636 -0.001437892
0002e0 fd 71 87 b9 2a 52 f1 bc bd 58 26 b7 28 2f d6 b6
       -0.00025834134 -0.029458124 -9.915032e-06 -6.3831867e-06
0002f0 f3 0b 46 37 7c c3 47 39 e5 f1 5a b9 a2 16 bf b8
       1.1804502e-05 0.00019050943 -0.00020880213 -9.1118054e-05
000300 d4 1d 3e 35 08 f3 72 b7 68 4b 9a 38 40 0c fe 38
       7.082392e-07 -1.4480909e-05 7.357338e-05 0.000121139456
000310 18 f5 69 39 0b 4f d9 3a ba 0c fc 37 a9 cf 17 3a
       0.00022311916 0.0016579343 3.0046667e-05 0.00057911366
000320 60 0d 68 b7 86 a0 35 38 82 6b ba 35 64 b9 ea ba
       -1.3831392e-05 4.3303262e-05 1.3889369e-06 -0.0017908034
000330 52 73 1f b6 97 65 45 39 9f 79 bb 37 06 02 41 b5
       -2.3759972e-06 0.00018825229 2.2348771e-05 -7.190105e-07
000340 90 1e 23 b5 29 36 3d 35 17 fe 05 38 c1 ab 46 b8
       -6.0766706e-07 7.04868e-07 3.194631e-05 -4.7366837e-05
000350 7b 7c 57 33 3b 10 ae 35 b0 f9 c5 ba fc 36 d8 ba
       5.0171803e-08 1.2968734e-06 -0.001510432 -0.0016495879
000360 d7 a6 ad b7 6f 8b ae bc 34 23 56 b6 7a a5 2e b5
       -2.0700898e-05 -0.021306721 -3.1908976e-06 -6.506085e-07
000370 00 76 0d 37 84 83 49 3a 1c ae 0f b9 be 8e e0 38
       8.431729e-06 0.0007687139 -0.00013702404 0.0001070774
000380 e2 9f 36 b7 70 bb 1a b7 2a d2 86 39 99 18 a0 38
       -1.0885271e-05 -9.2227565e-06 0.00025715056 7.633976e-05
000390 89 45 64 39 0b c5 c9 39 7a 67 89 38 05 b8 b0 39
       0.00021769678 0.00038484516 6.551943e-05 0.0003370644
0003a0 c3 07 67 b7 bf 36 c3 39 ad 4d 62 37 50 8e 90 b9
       -1.377048e-05 0.00037234087 1.3488735e-05 -0.0002757185
0003b0 17 e9 dc 35 e9 a9 ee 38 13 ce 57 b8 c4 c1 42 b6
       1.6459115e-06 0.000113803726 -5.1451916e-05 -2.902104e-06
0003c0 e8 85 01 b6 09 7d b2 37 95 80 14 39 32 09 9b b8
       -1.9300442e-06 2.1277478e-05 0.0001416228 -7.392689e-05
0003d0 bc 26 d8 34 84 3e f9 b6 b0 3b 82 ba 33 2f 66 ba
       4.0261318e-07 -7.428056e-06 -0.0009936001 -0.0008780837
0003e0 58 69 cc 38 04 2d d9 bc 3c f0 df b7 7b 3a 1e b5
       9.7471e-05 -0.026510723 -2.669554e-05 -5.8944687e-07
0003f0 61 bf 53 38 2a 63 d8 39 57 a5 bf b8 f8 ed 3c b8
       5.0484556e-05 0.00041272613 -9.138387e-05 -4.504432e-05

r_fc1.bias f4 [64]
000000 ed a2 bf 34 cc 73 1c b4 73 ce d6 34 cd 68 b8 b3
       3.5695066e-07 -1.4570759e-07 4.0010818e-07 -8.587231e-08
000010 d6 cf d7 b3 d0 b3 b7 b2 80 36 bf 34 e0 45 b2 b4
       -1.0049523e-07 -2.1385773e-08 3.5616176e-07 -3.3205924e-07
000020 18 77 9d b4 88 bc 34 34 80 e7 c2 b2 34 bd f0 33
       -2.933018e-07 1.6832394e-07 -2.2689846e-08 1.1210287e-07
000030 af fc 9f b3 30 b8 51 34 45 d4 a6 34 68 a6 97 30
       -7.449977e-08 1.9531649e-07 3.1074356e-07 1.1033991e-09
000040 59 fa 84 b3 05 f4 bf 32 6c f6 ea 34 68 ae 21 b5
       -6.192267e-08 2.2346294e-08 4.3765192e-07 -6.023097e-07
000050 9b ed 36 b5 59 bf cd 34 e2 15 f8 34 11 a0 58 b4
       -6.8146045e-07 3.832345e-07 4.6209522e-07 -2.01748e-07
000060 c7 b8 eb b4 de 02 00 80 80 da ef b3 ed 77 9d b4
       -4.3906604e-07 -1.029e-42 -1.116905e-07 -2.9330786e-07
000070 36 b3 a8 34 e4 05 00 80 02 af d6 b4 79 13 20 b4
       3.1422832e-07 -2.113e-42 -3.998794e-07 -1.4908245e-07
000080 db f8 6e b4 3f 72 11 35 90 ec bb 34 de 00 00 00
       -2.225601e-07 5.418296e-07 3.5003586e-07 3.11e-43
000090 e0 fb 33 34 35 54 02 33 d2 9c e1 b3 96 1a 45 34
       1.6762306e-07 3.034457e-08 -1.05059044e-07 1.8356727e-07
0000a0 dc 77 f7 33 c0 64 06 35 72 f0 68 34 4a e4 1e b4
       1.1523636e-07 5.00655e-07 2.1694157e-07 -1.4797948e-07
0000b0 7a 5b 57 b5 ce 40 e9 31 37 31 74 32 bc 96 e3 33
       -8.022686e-07 6.78856e-09 1.4213859e-08 1.059793e-07
0000c0 33 52 2c 32 fd 7d 6b b4 07 a6 e2 b4 78 65 98 31
       1.0030408e-08 -2.1931915e-07 -4.221658e-07 4.435318e-09
0000d0 ec 40 50 34 77 0e 00 80 78 5c d9 34 c5 b4 00 35
       1.9395128e-07 -5.189e-42 4.048668e-07 4.794677e-07
0000e0 ec 76 90 32 80 76 94 35 5c 22 82 34 02 97 05 b5
       1.6817886e-08 1.1061347e-06 2.4239387e-07 -4.9766106e-07
0000f0 f0 e7 12 b5 91 cd 9a 33 d7 2a b2 34 48 38 e2 34
       -5.472675e-07 7.208576e-08 3.3186254e-07 4.213673e-07

r_bn1.weight f4 [64]
000000 69 e6 b6 3d 4c d1 8b 3d 15 75 50 3d 2a 4e b5 3d
       0.08930666 0.068270296 0.050892908 0.08852799
000010 82 2d b5 3d b0 e3 a7 3d ba af 4a 3d 08 1c a3 3d
       0.088465706 0.08197725 0.049483992 0.07964331
000020 60 04 83 3d 3e e2 39 3d 32 06 32 3d e9 3a 3b 3d
       0.06397319 0.045381777 0.04346294 0.045710478
000030 b7 6e 58 3d 28 ed 3d 3d b8 19 91 3d c3 9a d2 3d
       0.05283996 0.046368748 0.070849836 0.10283425
000040 12 ad 89 3d c8 8c 3b 3d 72 32 7a 3d f3 6c 89 3d
       0.06722464 0.045788556 0.061083265 0.067102335
000050 ce db a7 3d e8 ed a9 3d 6a 9f 66 3d 37 68 3d 3d
       0.08196221 0.0829733 0.056304373 0.046241965
000060 cb 50 a5 3d dc f2 54 38 dd 6f 2c 3d 18 6f 42 3d
       0.08072051 5.077092e-05 0.04209887 0.04746923
000070 58 c4 35 3d ff d8 92 3a 7b 18 e4 3d 35 dc 85 3d
       0.0443767 0.0011203586 0.11137482 0.06536142
000080 ec bd 26 3d 3c 18 a5 3d cf 37 ac 3d fe 37 62 3a
       0.040708467 0.08061263 0.08409082 0.00086295593
000090 2a 7e 45 3d 5b be 6f 3d a6 81 9a 3d 30 02 a0 3d
       0.048216023 0.058531146 0.0754426 0.07812917
0000a0 0e aa 80 3d 01 b2 cd 3d 57 01 41 3d 57 36 66 3d
       0.06282435 0.10043717 0.04712042 0.056204166
0000b0 f8 ad ac 3d 88 02 4f 3d 3a 7d 85 3d 6c a1 81 3d
       0.084316194 0.050539523 0.06518026 0.06329617
0000c0 12 5e da 3d 67 aa d3 3d 56 f0 f8 3d cd 6c 3c 3d
       0.10662474 0.10335236 0.121552154 0.046002198
0000d0 f4 d0 e8 3d a3 fc 20 3a 13 37 37 3d 88 d8 43 3d
       0.1136798 0.00061411614 0.044730257 0.047813922
0000e0 d1 f1 95 3d cc f2 ef 3d 5f 3f 45 3d d6 7c 51 3d
       0.073215134 0.11716232 0.04815614 0.051144443
0000f0 b4 b8 38 3d 14 6c 6f 3d 60 96 b4 3d 36 dd 74 3d
       0.04509802 0.05845268 0.08817744 0.059781276

r_bn1.bias f4 [64]
000000 0a a5 d0 3b e4 fc 9a 3c d6 bc 45 3d 9e 90 4b 3c
       0.0063673304 0.018919416 0.04827579 0.012424616
000010 74 21 43 3c b0 7e 13 3c 32 e7 25 3d 67 8b 75 3c
       0.011909831 0.009002373 0.04050369 0.014986849
000020 b0 1d fc 3c bc 09 28 3d 40 08 0e 3d 99 a9 2f 3d
       0.030775875 0.04102491 0.034675837 0.04288635
000030 06 28 13 3d aa 58 23 3d 1f 5c c3 3c 60 c4 3b 3b
       0.03592684 0.03987948 0.023847638 0.0028650984
000040 91 89 af 3c 69 f7 19 3d e4 6a c4 3c fa 4a c0 3c
       0.021427901 0.037589464 0.02397675 0.023473252
000050 12 0b 44 3c 1d 16 8f 3c d3 e0 25 3d 75 e8 25 3d
       0.01196553 0.0174666 0.040497612 0.04050489
000060 13 5f 27 3c 53 48 ab b9 6d 9e 29 3d c9 58 45 3d
       0.010215539 -0.00032669547 0.041410852 0.048180375
000070 42 e0 09 3d 26 c8 03 ba 34 b8 8b 3c ed 3d c8 3c
       0.033661135 -0.0005027078 0.017055608 0.024443591
000080 4d ea 2f 3d 0e f1 36 3c 20 aa 97 3c a4 92 d6 ba
       0.042948056 0.01116587 0.01851374 -0.0016370607
000090 a9 44 24 3d 4f 40 f0 3c 53 d7 af 3c 24 de 17 3c
       0.040104542 0.02932754 0.02146498 0.009269271
0000a0 e1 1b 0e 3d 19 40 e8 3b e2 30 1a 3d 47 cc 18 3d
       0.034694556 0.007087719 0.037644275 0.03730419
0000b0 76 3c e9 3b d3 bb 1b 3d 1f 84 f3 3c 36 c0 d4 3c
       0.007117803 0.03802092 0.029726086 0.02597056
0000c0 24 60 05 3b 5e 1c 26 3b b0 02 72 bc d6 55 15 bd
       0.0020351494 0.0025346498 -0.014771149 -0.036458813
0000d0 15 87 ea bc 20 6b 53 ba 24 56 0e 3d 5c 1d 3a 3d
       -0.028628865 -0.0008064974 0.03475012 0.045438156
0000e0 7d 55 83 3c c6 b9 0e 3c 3c fe 14 3d d6 67 07 3d
       0.016031975 0.008711284 0.03637527 0.03305801
0000f0 02 02 21 3d 7e 3b 19 3d 3b d0 89 3b e1 ac e2 3c
       0.039308555 0.03741025 0.004205731 0.027670326

r_bn1.running_mean f4 [64]
000000 bf 2b d3 34 70 0f 25 b2 a2 58 c8 34 2c 81 d2 b3
       3.9333642e-07 -9.607774e-09 3.7317392e-07 -9.802383e-08
000010 0f f6 f4 b2 27 6f 38 b3 ec c9 b6 34 da c5 8d b4
       -2.8517233e-08 -4.294193e-08 3.404706e-07 -2.6407253e-07
000020 02 82 95 b4 ae 93 64 34 90 1d ce b3 7b f3 18 34
       -2.7848006e-07 2.128788e-07 -9.598e-08 1.4244681e-07
000030 b8 1d e2 b3 96 49 76 34 d3 05 b9 34 0b c4 16 33
       -1.0529351e-07 2.2937306e-07 3.4463173e-07 3.5102897e-08
000040 46 1d 9f b3 b4 63 ae b2 bb 8b f1 34 bc 08 0c b5
       -7.409339e-08 -2.0301606e-08 4.4991415e-07 -5.2166774e-07
000050 13 72 e8 b4 11 e3 ad 34 a0 35 e8 34 e9 d7 b1 32
       -4.3296367e-07 3.2388974e-07 4.3252385e-07 2.0703697e-08
000060 63 e8 e2 b4 10 eb 8b 2b ba a2 99 b3 8a 5a 91 b4
       -4.2264864e-07 9.941787e-13 -7.1542175e-08 -2.707423e-07
000070 b3 30 82 34 3a 68 5e 2d 9b 3e d1 b4 e6 2d 7b b4
       2.424982e-07 1.2642382e-11 -3.8974835e-07 -2.3392894e-07
000080 3d 79 2e b4 07 d6 19 35 00 47 c0 34 e8 03 6d 2d
       -1.6249119e-07 5.730839e-07 3.5814446e-07 1.3472758e-11
000090 e6 1e 20 34 6f 2b 1f b3 55 c7 d9 b2 a3 c2 85 34
       1.4912402e-07 -3.7059575e-08 -2.535277e-08 2.4914797e-07
0000a0 c2 85 25 34 06 d6 f8 34 f4 fb 5c 34 77 30 17 b3
       1.5415483e-07 4.6349322e-07 2.0580757e-07 -3.5201506e-08
0000b0 d0 bc 48 b5 70 a6 62 32 fe 28 4f b3 53 1c 63 34
       -7.4780564e-07 1.3192775e-08 -4.8233225e-08 2.1151327e-07
0000c0 ce 9d 81 34 84 69 3f b4 81 f5 e5 b4 8a 25 43 32
       2.414294e-07 -1.7826648e-07 -4.2833202e-07 1.1359029e-08
0000d0 a9 07 46 34 a3 24 1d 2d dc dd d8 34 c9 70 ce 34
       1.8442974e-07 8.932552e-12 4.039456e-07 3.8452552e-07
0000e0 32 dc 5d 31 f7 a0 89 35 8f 93 41 34 b3 fb 07 b5
       3.22849e-09 1.0254142e-06 1.8028207e-07 -5.065769e-07
0000f0 0b 07 14 b5 37 e5 02 34 83 ae c1 34 7b 65 ca 34
       -5.5144545e-07 1.2190581e-07 3.6076025e-07 3.769927e-07

r_bn1.running_var f4 [64]
000000 ef ba 41 38 f1 77 46 38 3c 82 ee 37 1d 1b 46 38
       4.618888e-05 4.7318583e-05 2.8432456e-05 4.723213e-05
000010 44 30 50 38 c3 25 56 38 6a 6f e4 37 17 8e 2c 38
       4.9636015e-05 5.1056744e-05 2.72316e-05 4.1140327e-05
000020 3c 1f fd 37 ad bb bf 37 f9 7e cf 37 54 9f df 37
       3.0174495e-05 2.2856368e-05 2.473545e-05 2.6657865e-05
000030 c3 8f ea 37 73 18 d8 37 6a df 06 38 90 c5 40 38
       2.7961918e-05 2.5760592e-05 3.215616e-05 4.596036e-05
000040 c9 9e 3f 38 44 52 d3 37 bf 87 0c 38 8d 23 12 38
       4.568583e-05 2.5191468e-05 3.3505024e-05 3.484222e-05
000050 06 4e 55 38 3b f9 6f 38 98 36 97 37 ae cc 82 37
       5.0855822e-05 5.7214154e-05 1.8026025e-05 1.5592519e-05
000060 dc ee 44 38 d1 8f 2d 2b 49 ad b8 38 0f 60 fb 37
       4.6952497e-05 6.166153e-13 8.8060806e-05 2.9966262e-05
000070 6f b0 e4 37 33 ff ee 2e c8 72 85 38 f7 44 00 38
       2.7261876e-05 1.08683194e-10 6.363314e-05 3.0581807e-05
000080 0c 68 fe 37 94 f3 52 38 20 29 40 38 47 e0 05 2f
       3.032761e-05 5.029475e-05 4.5814668e-05 1.2175959e-10
000090 f9 40 1e 38 69 30 16 38 a1 ea 3c 38 1f be 4f 38
       3.7730646e-05 3.5807872e-05 4.5041208e-05 4.952971e-05
0000a0 ca 5f 0b 38 22 74 47 38 61 78 01 38 aa 67 30 38
       3.3229393e-05 4.7553454e-05 3.086811e-05 4.2058215e-05
0000b0 1d cb 51 38 cb 58 01 38 52 5a 2b 38 f9 1e 51 38
       5.0018647e-05 3.083869e-05 4.0853694e-05 4.985833e-05
0000c0 f9 c5 7e 38 a8 ec 7e 38 89 e0 81 38 ca 48 eb 37
       6.0742695e-05 6.0778722e-05 6.193022e-05 2.8048078e-05
0000d0 2c af 5f 38 09 ac 8f 2e e0 65 96 37 6e 98 da 37
       5.3330485e-05 6.533447e-11 1.7928833e-05 2.6058606e-05
0000e0 86 87 37 38 87 2f 11 38 b7 3a cc 37 af 2a b8 37
       4.3756816e-05 3.4614957e-05 2.4346036e-05 2.1954385e-05
0000f0 da 77 bb 37 10 8f 0b 38 0b 03 47 38 ee 73 15 38
       2.2347947e-05 3.327342e-05 4.744813e-05 3.5632336e-05

r_fc2.weight f4 [64, 64]
000000 05 ee dc 3b 98 e5 15 3c 12 e5 6f 39 13 93 92 3b
       0.0067422413 0.009148978 0.00022878152 0.004473099
000010 59 92 3e 3b 8a 49 44 3b f9 b9 8c 3c 21 06 b2 3b
       0.002907893 0.002995106 0.017178522 0.0054328595
000020 36 fd 8f 3b 71 61 de 3b d0 64 55 3b 45 98 65 3c
       0.004394199 0.0067865183 0.003256131 0.014013355
000030 26 1f 01 3a 71 ed 0e 3b 86 31 d8 3b d8 0f 87 3b
       0.0004925601 0.0021809007 0.0065977005 0.004121762
000040 1d 35 cd 3b 91 75 94 3b e2 44 d2 bb ae 11 c5 38
       0.006262435 0.0045306166 -0.006416903 9.396985e-05
000050 9b 38 02 3c 5a 48 05 3c d1 96 40 3c 8e 51 e5 3b
       0.007948066 0.008134926 0.011754707 0.0069982475
000060 7c 08 09 3c 9a ec c8 32 1e c7 56 3c a9 7f c6 3a
       0.008363839 2.3390658e-08 0.013108997 0.0015144247
000070 47 45 7a 3b 81 8f 8e b3 77 d3 89 bc 68 a0 9d 3b
       0.0038188265 -6.6384935e-08 -0.016824467 0.0048103817
000080 5d b3 26 3b f2 37 d7 3b 72 7d 88 3b 52 73 e8 33
       0.0025436499 0.0065679485 0.004165345 1.08243185e-07
000090 6c 09 de 3b 32 35 02 3c c4 98 7f 3b 2a 78 d9 3b
       0.0067760255 0.007947253 0.0039000968 0.006636639
0000a0 85 f6 c6 3b 7f 82 fe ba ca 9c 41 3c a7 87 c3 3b
       0.006071868 -0.0019417553 0.011817167 0.0059670988
0000b0 1c c1 0e 3c b6 1e c2 3b 78 92 32 3c 4c 1a 41 3b
       0.008713033 0.005924071 0.010899179 0.0029465137
0000c0 ca 08 45 3b e3 41 9f 3b cd ef 46 bc ea 24 fd bb
       0.0030065053 0.004860149 -0.012142134 -0.0077253478
0000d0 77 3c 66 bc 24 4a 72 b5 e8 57 50 3c 73 45 f3 3b
       -0.014052502 -9.0259914e-07 0.012716271 0.0074240505
0000e0 5b 89 7c 3b fb a2 db 3b 67 7c d3 39 dc 13 e3 3b
       0.0038534019 0.0067027784 0.00040337743 0.0069298577
0000f0 d8 a9 6e 3b 88 77 97 3b cf 3a 2d 3b 0f 15 aa 39
       0.0036417153 0.0046224035 0.0026432758 0.00032440617
000100 8a 92 6b ba 1c 34 22 bc d1 a7 84 bb db 99 99 bb
       -0.00089863746 -0.009900119 -0.0040483256 -0.0046875305
000110 d1 bc 0c bb 24 8c 1a bc 69 ec 89 bb ee ea f7 bb
       -0.0021474848 -0.009432826 -0.0042090905 -0.0075658476
000120 d2 1e 15 bc 36 48 47 bc 21 23 d7 39 e4 db 12 bc
       -0.009101586 -0.0121632125 0.0004103417 -0.008963559
000130 9d 60 6e bc 10 98 30 bc 6c 53 17 bb 0f 00 50 bb
       -0.014549402 -0.010778442 -0.0023090495 -0.0031738316
000140 ed 58 ae bb fc 12 17 bc 3f 11 1c bb 1e 5a 14 bb
       -0.0053206594 -0.009220835 -0.002381399 -0.0022636722
000150 05 b1 81 bb e2 82 3f bc e8 f5 be bb f0 57 0d bc
       -0.00395787 -0.01168892 -0.005827654 -0.008626923
000160 4f 1a f4 bb 5e 58 da 2d ee 38 59 3b 68 e4 07 bc
       -0.0074494253 2.4822974e-11 0.0033145505 -0.008294202
000170 28 51 ba bb 6e 74 80 33 79 6e b8 ba 6b 69 2f bc
       -0.005685944 5.981643e-08 -0.0014071009 -0.010706286
000180 06 95 bd bb df 52 b1 ba c5 2a 78 bb 2d 16 52 32
       -0.0057855872 -0.0013528726 -0.003786729 1.2228651e-08
000190 c7 28 fa bb 9a cf 3b bc dd e7 02 bc fe 3e fb bb
       -0.0076342556 -0.01146307 -0.007989851 -0.0076674214
0001a0 14 88 c7 bb 72 7b ee bb 9d 8f 43 bc dd 6c 72 bb
       -0.00608922 -0.0072778994 -0.011936096 -0.0036991157
0001b0 e3 f4 06 bc 6d 94 a7 ba b2 9d c4 3a 81 9d 18 bc
       -0.0082370965 -0.0012785323 0.001500061 -0.009314896
0001c0 d8 09 95 bb 4f 0b 39 bb 9a 07 0d 3c 57 fa ca 3b
       -0.0045482926 -0.00282355 0.008607769 0.0061943936
0001d0 11 96 30 3c 86 f0 6c 34 ad e2 74 bb 87 80 43 bb
       0.010777966 2.2066715e-07 -0.0037366555 -0.0029831247
0001e0 98 15 ae bb a3 15 80 bb ab db e1 bb 53 4f 0b bc
       -0.005312633 -0.0039088293 -0.0068926415 -0.008502799
0001f0 ce 80 8a bb de e6 33 bc db 90 88 ba cf af 83 bb
       -0.0042267805 -0.010980336 -0.0010419147 -0.0040187608
000200 d3 8d f6 39 82 a5 32 bc 21 93 83 bc bb e0 34 3c
       0.00047026444 -0.010903718 -0.016061367 0.011039908
000210 88 34 4b bb c1 21 b8 bb 2c 32 04 bc 99 ce ab ba
       -0.0031006653 -0.005619258 -0.0080686025 -0.0013107836
000220 bf 65 21 bb 2c bf a4 39 74 38 c3 bb 22 d2 c3 bb
       -0.0024627296 0.00031422952 -0.0059576575 -0.0059759775
000230 8c 8c cf bb 1c 34 5f bb d1 48 c9 39 af 28 0c bc
       -0.006333893 -0.003405816 0.0003839196 -0.008554622
000240 d0 c4 9b bb 9e 36 24 bc fa 2c 91 bb 6c dd 7a bb
       -0.0047536865 -0.010022787 -0.0044304105 -0.003827895
000250 47 ff ef bb 07 89 2e 3b 4a bf 77 bb 6d 47 81 bb
       -0.0073241326 0.0026631968 -0.0037803226 -0.003945282
000260 f7 38 3f bb c2 61 eb b2 c4 a0 a4 3b b1 53 59 3a
       -0.002917824 -2.7402056e-08 0.0050240476 0.0008290364
000270 82 5b 47 bc 2b 5a e5 b8 bd 8b 23 bb c0 11 c8 bb
       -0.012167813 -0.00010936366 -0.0024955117 -0.0061056316
000280 59 87 a7 bb 50 df 28 bc 13 49 0f ba 61 f1 a5 b7
       -0.0051125702 -0.010307148 -0.0005465906 -1.9781934e-05
000290 74 f4 8a bc aa e0 9b bb 42 5b 02 ba 98 79 0a bc
       -0.016962267 -0.0047570067 -0.0004972705 -0.008451842
0002a0 2c 13 0f bb 83 82 a9 bb e5 0f b5 bb 30 75 08 bc
       -0.0021831496 -0.005173029 -0.0055255764 -0.008328721
0002b0 2a 94 24 bb bd f3 ff bb 50 96 dc bb df 51 46 bb
       -0.0025112727 -0.0078110383 -0.006731786 -0.0030261201
0002c0 b4 a9 3f bb 92 14 01 bc 1f 6e 35 3c f5 2b ac 3b
       -0.0029245438 -0.0078784395 0.011073618 0.0052542635
0002d0 27 0d 91 3c e7 4f a2 38 77 2e a0 bb c1 54 17 bc
       0.017706467 7.739645e-05 -0.0048883515 -0.0092365155
0002e0 c9 2a de bb e8 83 f0 b9 b5 c9 b8 bb 2d 0d 9f bb
       -0.0067800027 -0.00045874645 -0.0056392797 -0.0048538656
0002f0 a5 dc 4f ba 7d 54 2e 3b a6 02 55 bb e8 9c da bb
       -0.0007929302 0.0026600652 -0.00325028 -0.0066715367
000300 45 5c 2b bb d7 5a c2 bb 15 5d 1e bc cb e2 10 3b
       -0.0026147526 -0.005931239 -0.009665747 0.0022107835
000310 e0 01 8d 3b cf c6 9f 3a 62 35 57 ba 25 45 42 3b
       0.004303202 0.0012189987 -0.0008209554 0.0029643264
000320 d8 96 5c 3b 5e fd a8 bb dc 8c 0a bc 5c 24 58 bc
       0.0033659246 -0.005157157 -0.008456435 -0.0131922625
000330 51 ed 9c 3b be 0a 1c bc d3 40 92 ba 65 c7 b7 ba
       0.0047890325 -0.0095240455 -0.0011158235 -0.0014021216
000340 2e 14 e8 bb fd c9 a5 bb d8 96 95 bb ab 19 59 b9
       -0.0070824837 -0.0050594793 -0.004565101 -0.00020704295
000350 da 5e f6 bb 97 e5 2a 3a dc cd 99 bb a5 2d 9a bc
       -0.0075186314 0.0006519197 -0.00469373 -0.018820593
000360 18 32 d7 bb 6b 18 9d 2b f0 22 bb bb a1 ac 05 bc
       -0.006567251 1.1162298e-12 -0.005710952 -0.008158834
000370 e5 9a 23 bc 58 a2 9b 33 fc e3 b5 3c f5 bb a1 bb
       -0.00998566 7.24728e-08 0.022203438 -0.0049357363
000380 41 93 d3 bb 95 be ba bb b1 42 00 ba b4 44 0c 35
       -0.006456763 -0.0056989887 -0.00048927503 5.225404e-07
000390 89 b4 1d bc 1b 1b f1 ba e8 76 12 bb 99 08 e4 ba
       -0.0096255625 -0.0018394919 -0.0022348706 -0.0017397582
0003a0 b7 78 1c bc e3 8c 4a b7 ec bb fe b8 72 ac 0e bc
       -0.009550265 -1.2072941e-05 -0.00012146667 -0.008708106
0003b0 e3 91 6e bb e9 12 a2 bb 54 f8 7b bb 99 4a db bb
       -0.0036402873 -0.004946102 -0.0038447576 -0.0066922423
0003c0 95 1c 36 bb 81 17 3f 3b 06 af f5 3c 29 70 19 3c
       -0.0027788032 0.0029158297 0.029990684 0.00936512
0003d0 06 e0 ce 3c c7 11 d6 35 9c 71 4b bb e8 16 14 bc
       0.025253307 1.5949416e-06 -0.0031043058 -0.009038664
0003e0 a2 b9 20 bc d7 10 97 3a e7 df 35 bc 6f ca 23 bc
       -0.009809883 0.0011525404 -0.011100746 -0.009996994
0003f0 6f a8 eb bb 8c 95 1e bc b4 f3 1c 3b 2f 32 29 ba
       -0.0071917097 -0.009679209 0.002394897 -0.00064543163

r_fc2.bias f4 [64]
000000 84 5d 3d 33 ca 2d 2d 32 f2 fe aa b2 fe 97 f8 b3
       4.4090044e-08 1.0080337e-08 -1.990654e-08 -1.1576047e-07
000010 2e 9b be 32 da 4f 25 34 8e 6a 12 33 ca ba d0 b3
       2.2189479e-08 1.5395872e-07 3.4090185e-08 -9.7197315e-08
000020 3d d5 4c 34 02 b3 05 b5 08 09 39 33 70 c9 8e 33
       1.9076556e-07 -4.980685e-07 4.3081883e-08 6.6490315e-08
000030 69 f5 59 32 02 c4 6e b3 d9 49 0c 34 d9 3c 24 34
       1.2686862e-08 -5.559196e-08 1.3065382e-07 1.5295826e-07
000040 42 0f fd b2 f3 a1 d2 33 8a f9 21 32 4b 97 b5 32
       -2.9460015e-08 9.8083454e-08 9.428172e-09 2.1139973e-08
000050 17 a5 07 b3 6f 3f 8b b4 65 26 03 b3 08 1f 84 34
       -3.1582285e-08 -2.5936922e-07 -3.0535734e-08 2.4609494e-07
000060 64 ee 03 33 62 51 0a b3 27 12 eb 33 47 5a ab b2
       3.071763e-08 -3.2204646e-08 1.0946342e-07 -1.9948073e-08
000070 7f 78 4b b3 ff 5d 2e b3 9f d5 0a 34 3b aa 8a 33
       -4.737421e-08 -4.059802e-08 1.2929966e-07 6.4570905e-08
000080 96 4e 96 b3 d4 d2 31 31 9e 00 e3 b3 a7 bd 26 b4
       -6.999214e-08 2.5876732e-09 -1.05706235e-07 -1.552895e-07
000090 bd 35 38 33 70 8b 23 34 33 21 fb b4 01 85 05 b4
       4.2889713e-08 1.5231285e-07 -4.677655e-07 -1.2434977e-07
0000a0 81 17 76 34 9a 7d 16 34 38 2a 8b 2f 2e b1 3f b4
       2.2919086e-07 1.4015532e-07 2.531395e-10 -1.7852719e-07
0000b0 36 a6 e5 b3 7a 06 1b 32 29 a8 08 b4 a6 50 53 33
       -1.0693877e-07 9.02366e-09 -1.2727163e-07 4.9200615e-08
0000c0 2a 59 a1 b3 f8 7f 7e 33 e1 be 1d b4 5c 39 be 32
       -7.5133656e-08 5.925537e-08 -1.4691206e-07 2.2144995e-08
0000d0 5b 49 6d 33 bf c8 93 34 10 4c 52 31 80 dc b1 32
       5.524758e-08 2.7526946e-07 3.0602259e-09 2.0705784e-08
0000e0 a0 37 b2 31 ce 99 d7 b2 e8 1d a0 b4 b7 c6 95 b2
       5.1868057e-09 -2.5099236e-08 -2.9824082e-07 -1.7436248e-08
0000f0 50 d7 78 b3 e0 62 02 34 de 90 af b3 e8 17 5a 34
       -5.7937825e-08 1.2143164e-07 -8.175424e-08 2.0311529e-07

r_bn2.weight f4 [64]
000000 1a db 2d bd ac 8f 12 3d 7f 28 00 3d 6d 76 46 3d
       -0.04244528 0.035781547 0.03128862 0.048452783
000010 4f 91 11 bd 9a 5e 40 3d e9 1f 3b 3d e7 02 58 3d
       -0.035538968 0.04696522 0.04568473 0.052737143
000020 50 4e 15 3d fd e4 4c 3e 8d d1 4e bd 59 89 3f 3d
       0.036451638 0.20009227 -0.050492812 0.046761844
000030 e6 f9 2c bd fe 6c 42 3d d1 68 56 3d 07 7e 50 3d
       -0.04223051 0.047467224 0.052346054 0.05090144
000040 07 f1 05 3e 06 75 43 3d 43 46 06 3d 8d ba 25 3d
       0.13080226 0.047719024 0.03278185 0.04046111
000050 be 6d 41 3d 13 42 05 3d 05 1a 70 3e 16 6d 44 3e
       0.0472238 0.032533716 0.23447426 0.19182238
000060 c3 4e fe 3c 83 bb e8 3d be 94 84 3e 95 f6 04 bd
       0.031043416 0.1136389 0.2589473 -0.03246172
000070 a0 a1 50 3d 5e f2 24 3d ce 20 2a bd 72 1b 56 3d
       0.050935388 0.0402702 -0.04153519 0.052272268
000080 e0 6d 76 3e c6 3c 3b 3d 02 17 8c 3e 06 eb 04 bd
       0.24065351 0.045712255 0.27361304 -0.0324507
000090 89 d8 c0 3c 61 f8 7a 3d 0e 5a 96 3e 42 57 43 bd
       0.023540752 0.06127203 0.2936558 -0.047690637
0000a0 09 50 80 3e 06 fb 47 3e 65 7b 2e 3d 29 9b 3b 3d
       0.25061062 0.19529352 0.042598147 0.04580227
0000b0 25 98 14 3d 5d ad 16 3d 82 be 56 3e 23 70 39 3d
       0.03627791 0.036786426 0.2097111 0.045272958
0000c0 07 09 0b bd b2 85 54 3d 3d 06 25 3d 28 1b 26 3d
       -0.033944156 0.051885314 0.040289152 0.040553242
0000d0 a6 c6 12 3d 89 24 54 3d 8a be 1d 3d ca c9 68 3d
       0.035833977 0.051792655 0.03851179 0.056833066
0000e0 4f a9 35 3d 3f 6a 19 3d c4 54 2c 3e b6 32 15 bd
       0.04435092 0.03745484 0.1682921 -0.036425315
0000f0 7f 48 39 bd 1f 5a 1d 3d 8f 18 47 3d 88 33 7c 3d
       -0.045235153 0.038416024 0.048607405 0.06157258

r_bn2.bias f4 [64]
000000 59 97 e3 3e f9 89 dd 3e 56 d3 dc 3e 79 91 e1 3e
       0.44451407 0.43269327 0.43129987 0.440563
000010 e9 f1 da 3e 90 ad ea 3e 26 72 dd 3e f8 60 de 3e
       0.42762688 0.45835543 0.4325115 0.43433356
000020 cc 8f da 3e 77 e1 cf 3e 63 da db 3e 66 cc e1 3e
       0.42687833 0.40601704 0.42940053 0.44101256
000030 8c e1 df 3e d7 7b da 3e ee d9 e9 3e 6d fe e4 3e
       0.43726766 0.42672607 0.4567408 0.4472536
000040 d1 c1 d6 3e 59 5c e8 3e 72 3f e3 3e 92 c2 e0 3e
       0.41944745 0.45382956 0.44384342 0.43898445
000050 1f dc e0 3e 1a 1f dd 3e 64 36 c0 3e 23 24 ce 3e
       0.4391794 0.4318779 0.37541497 0.40261945
000060 01 23 e0 3e ce 0b da 3e f9 3a bb 3e bd f4 dc 3e
       0.43776706 0.4258713 0.3656843 0.4315547
000070 d5 27 ea 3e 1c 3d e3 3e 55 7d e0 3e f1 ac e3 3e
       0.45733514 0.4438256 0.4384562 0.4446788
000080 52 e2 bc 3e c5 6d dc 3e fb 5f b4 3e 77 d7 da 3e
       0.3689142 0.43052498 0.35229477 0.42742512
000090 87 51 df 3e b4 8b e9 3e 7b b2 af 3e 41 3e df 3e
       0.43616888 0.45614398 0.34315857 0.43602183
0000a0 fc 27 c7 3e 77 82 cb 3e fb 35 e4 3e db 67 e5 3e
       0.38897693 0.39747974 0.44572434 0.44805798
0000b0 bf ef df 3e 9e 54 df 3e 31 76 ca 3e 36 f4 db 3e
       0.437376 0.43619245 0.39543298 0.42959756
0000c0 af cb e6 3e af 98 df 3e 52 d1 ea 3e c9 e3 e0 3e
       0.45077273 0.43671176 0.45862824 0.43923786
0000d0 6c 98 e7 3e 2d 59 df 3e fc d0 dd 3e 41 f8 d9 3e
       0.45233476 0.43622723 0.43323505 0.42572215
0000e0 67 66 e3 3e 5d 68 e2 3e ec 02 d9 3e 88 a1 e6 3e
       0.44414064 0.44220248 0.42385042 0.45045114
0000f0 a7 5c dd 3e 5f f4 e5 3e c3 95 da 3e 9f ad e4 3e
       0.4323475 0.44913003 0.42692384 0.44663712

r_bn2.running_mean f4 [64]
000000 a4 40 30 3c 7d 19 4d bc f1 c0 18 bc cc 66 02 bc
       0.010757599 -0.012518284 -0.009323345 -0.007959079
000010 f5 d0 f4 3b b1 11 44 bc 60 49 fa bb 05 d5 22 bc
       0.0074711987 -0.011967109 -0.0076381415 -0.009938483
000020 10 78 12 bc 37 c4 c5 bc e5 a5 1d 3c db 60 f1 bb
       -0.008939758 -0.024141414 0.009622072 -0.0073662824
000030 25 80 25 3c 28 3d 23 bc bd a4 5c bc 39 04 1f bc
       0.010101353 -0.009963311 -0.013467011 -0.009705597
000040 71 17 c3 bc 34 b3 00 bc 65 bc 22 bc 7b 5b 2e bc
       -0.023814889 -0.007855225 -0.009932612 -0.010641928
000050 1c de 36 bc 2b c9 25 bc 15 e5 de bc 7e 89 cd bc
       -0.011161353 -0.010118763 -0.027208844 -0.025089975
000060 b5 cc fa bb ea 67 a7 bc 48 8d ec bc 39 da 13 3c
       -0.0076537975 -0.020435292 -0.028875962 0.009024196
000070 4f 8d 25 bc 10 7a 14 bc 9e bf 20 3c cb f7 62 bc
       -0.010104491 -0.009062305 0.00981131 -0.013853024
000080 d6 f2 e4 bc 2f 77 07 bc 77 a5 e5 bc 18 10 1d 3c
       -0.027947824 -0.008268162 -0.028033001 0.009586357
000090 68 7e 02 bc 25 d5 20 bc 78 c2 00 bd f6 07 17 3c
       -0.007964708 -0.009816443 -0.03143546 0.009218207
0000a0 74 4a c4 bc ac 8d df bc 95 71 21 bc 23 f9 47 bc
       -0.023961283 -0.027289234 -0.00985374 -0.012205395
0000b0 ec 80 2b bc 7e 2a 36 bc fc 90 df bc 61 7b 4f bc
       -0.010467749 -0.011118529 -0.027290814 -0.012663693
0000c0 74 3f 23 3c c7 20 7c bc 03 5f 19 bc 18 89 28 bc
       0.009963859 -0.015388674 -0.009361031 -0.010286592
0000d0 2f 1a 13 bc 22 7d 26 bc 7f 84 08 bc 88 a5 2d bc
       -0.008978411 -0.01016167 -0.008332371 -0.010598548
0000e0 da 68 33 bc a2 46 fb bb b7 77 ba bc b0 f9 15 3c
       -0.0109502915 -0.007668332 -0.022762163 0.009153768
0000f0 9b ab 39 3c 62 8a 48 bc 7f a7 4e bc 51 3d 54 bc
       0.011332418 -0.012240024 -0.012613176 -0.012954072

r_bn2.running_var f4 [64]
000000 e4 14 09 39 f9 a8 ea 38 9c c7 a1 38 5e f0 1b 39
       0.0001307312 0.00011189463 7.7142584e-05 0.00014871496
000010 7a 1c e8 38 46 c0 1b 39 32 20 1f 39 03 3c 50 39
       0.00011067926 0.0001485358 0.00015175415 0.00019858782
000020 81 bb 07 39 04 a7 fc 39 85 06 2a 39 50 ba 48 39
       0.00012944454 0.00048189622 0.00016214892 0.00019142893
000030 86 ac 2a 39 e0 61 f8 38 16 ce 32 39 c5 42 49 39
       0.00016276733 0.00011843792 0.00017052176 0.00019193727
000040 55 27 be 39 b8 76 f9 38 3d 43 05 39 ce 7b ff 38
       0.0003626893 0.00011895358 0.00012708917 0.00012182408
000050 e5 69 1d 39 3c 3e b2 38 fb 7c 06 3a a3 05 f6 39
       0.00015012136 8.4992935e-05 0.0005130318 0.00046924976
000060 98 b6 04 39 38 e6 c2 39 52 56 10 3a b5 54 a5 38
       0.00012656522 0.0003717409 0.0005506027 7.883591e-05
000070 f2 31 35 39 af b9 fa 38 6f 92 ee 38 ce 99 48 39
       0.00017280111 0.00011955515 0.00011376 0.00019130783
000080 2b d3 15 3a db 79 33 39 eb 96 14 3a bc 24 a9 38
       0.00057153654 0.00017116165 0.00056682405 8.06539e-05
000090 a9 a9 85 38 21 f2 43 39 b2 9a 2e 3a 43 08 ea 38
       6.373536e-05 0.00018686849 0.00066606246 0.000111595284
0000a0 a4 9b 0e 3a d8 bf 03 3a 2e d8 e5 38 13 f9 10 39
       0.00054400624 0.00050258404 0.000109598375 0.00013825698
0000b0 a4 76 f5 38 a9 5b d5 38 0f 08 f4 39 d6 65 17 39
       0.00011704609 0.000101737045 0.0004654531 0.00014438419
0000c0 01 04 bf 38 85 c8 6a 39 c5 60 de 38 39 be 15 39
       9.1083355e-05 0.00022390678 0.0001060381 0.00014280611
0000d0 e5 b4 f1 38 68 9a 0f 39 62 7f 04 39 c5 fc 6e 39
       0.0001152547 0.00013695064 0.00012635955 0.00022791613
0000e0 80 fc f3 38 6e 78 da 38 47 73 c3 39 1b cc ef 38
       0.00011634175 0.00010417482 0.00037279187 0.00011434426
0000f0 c6 7b 18 39 3b 9c 01 39 36 87 23 39 eb cd 2b 39
       0.00014541959 0.00012360599 0.00015595261 0.00016384541

r_fc3.weight f4 [1, 64]
000000 01 89 be 3e c4 21 c0 3e 82 ff ba 3e 03 d3 bf 3e
       0.372139 0.3752576 0.36523062 0.37465677
000010 7b d6 c2 3e dd c9 b8 3e 7a 35 c6 3e 8b 6e c4 3e
       0.3805426 0.3609151 0.38712674 0.38365588
000020 f1 dc c5 3e fe a9 b2 3e 21 a3 c3 3e 4f bf c3 3e
       0.38645127 0.3489532 0.38210395 0.38231894
000030 45 a6 c1 3e 78 f1 bf 3e 42 a8 b3 3e 29 4f b9 3e
       0.37822166 0.37488914 0.35089308 0.36193207
000040 3b 80 b7 3e 61 72 b9 3e ac 07 b8 3e b3 df b8 3e
       0.3584002 0.36220077 0.35943353 0.3610817
000050 fd 6e c2 3e dc 8b bd 3e a9 0b bd 3e 6f 2a ba 3e
       0.37975302 0.37020767 0.36922958 0.363605
000060 4c 3e c0 3e 29 0b be 3e 04 63 bc 3e 98 f3 bd 3e
       0.3754753 0.3711789 0.36794293 0.3709991
000070 79 8c b8 3e ec fd bb 3e c9 80 be 3e ca 40 bc 3e
       0.36044672 0.36717165 0.3720763 0.3676818
000080 8a d6 bc 3e e6 86 c1 3e f9 aa ba 3e 60 07 c2 3e
       0.3688243 0.37798232 0.36458567 0.37896252
000090 a9 95 bc 3e 8c 0d be 3e 96 fd be 3e 5a a7 ba 3e
       0.36832932 0.3711971 0.37302846 0.36455804
0000a0 7c 6f b8 3e 29 c6 bc 3e 55 36 ba 3e e4 ac bb 3e
       0.36022556 0.36869934 0.36369577 0.36655343
0000b0 e2 16 c2 3e 41 e0 c3 3e 08 a2 b7 3e 16 96 c2 3e
       0.37908083 0.3825703 0.35865808 0.3800513
0000c0 9f 46 c0 3e ba f1 b9 3e 9f f0 b7 3e 21 91 ba 3e
       0.3755388 0.36317235 0.35925767 0.3643885
0000d0 f5 3d ba 3e e4 46 bf 3e da 01 bd 3e f8 9b c2 3e
       0.36375394 0.37358773 0.36915475 0.3800962
0000e0 2c 09 bd 3e c5 6b c2 3e 76 f8 b3 3e fd e5 b8 3e
       0.3692106 0.37972847 0.35150498 0.36112967
0000f0 0e 17 c1 3e ae b8 ba 3e 9d 60 c5 3e bd 09 b6 3e
       0.37712902 0.36469024 0.38550273 0.35554305
