code/model/seed_929/QDANN_P_corn_2018.pth (torch, 34664 bytes, 17 tensors)

r_bn0.weight f4 [32]
000000 cb 99 58 3b 61 5a 11 3a 8d 8e 48 3b 44 7e b1 3d
       0.0033050652 0.00055447785 0.0030602545 0.086666614
000010 3b 6a 8c 3b 9a aa 06 39 54 47 06 3b 82 cf d3 39
       0.0042851246 0.0001284279 0.0020489292 0.00040399662
000020 45 0e 89 3a ec 75 05 39 0a b8 55 3c a7 e7 53 3a
       0.0010456523 0.00012727798 0.013044367 0.000808353
000030 4b 14 b1 3a 2b e8 16 3e 67 ad 1c 3a e1 2f f1 3a
       0.0013510076 0.14737003 0.00059767667 0.001840111
000040 48 ae 14 3a 41 6b 99 3b 8b 93 b3 3b 8a 98 2e 39
       0.0005671722 0.004681975 0.005480235 0.00016650758
000050 80 62 af 3a 2e 70 a3 38 e1 e4 c3 3a c1 f2 e0 3d
       0.0013380796 7.793341e-05 0.001494553 0.10983802
000060 da 92 0b 3a a0 c0 c2 3a 7e de e0 37 c2 d2 53 3a
       0.0005324312 0.0014858432 2.6806487e-05 0.00080804166
000070 46 31 88 3a 26 82 0d 3a 4d 0b f3 37 1d 86 00 3c
       0.0010390661 0.0005398117 2.897312e-05 0.007844475

r_bn0.bias f4 [32]
000000 74 34 75 31 20 f8 11 b0 df 73 5a 31 fb 4f e2 32
       3.5682008e-09 -5.31033e-10 3.178904e-09 2.6346234e-08
000010 f9 e8 ae 31 fd 77 60 ae 12 ae 4c 31 8c 5d c6 ad
       5.0905524e-09 -5.1038274e-11 2.9784855e-09 -2.2551537e-11
000020 7d c9 cc b0 a6 91 12 af 54 ad 9e 31 13 c8 a7 b0
       -1.490022e-09 -1.3330367e-10 4.6181103e-09 -1.2207714e-09
000030 4c a0 72 b1 6b ff b0 b4 9f 1f 64 30 69 4c 02 31
       -3.5306753e-09 -3.2968396e-07 8.2990853e-10 1.8960924e-09
000040 17 5e 01 af 17 fd 9e b1 00 94 0f 30 72 b8 77 2f
       -1.1765909e-10 -4.627178e-09 5.223342e-10 2.2530047e-10
000050 72 2c ce b1 38 23 7c 2c 0e e4 8a 2e f8 03 8e b3
       -6.000442e-09 3.5830904e-12 6.316024e-11 -6.613112e-08
000060 1d a8 1c 30 99 1c ba 30 96 d2 ab ae ba 3f 9d 2f
       5.699137e-10 1.3541409e-09 -7.813587e-11 2.8603414e-10
000070 19 e1 a1 af 40 aa aa 2f 04 00 ae 2c 05 11 9e b0
       -2.944567e-10 3.104379e-10 4.945379e-12 -1.150085e-09

r_bn0.running_mean f4 [32]
000000 dc 4e 35 3a ef 09 17 38 a9 07 07 ba 3a 86 fa 3b
       0.0006916353 3.6010457e-05 -0.0005150983 0.0076453956
000010 c5 42 45 ba 7e 13 1a 37 77 8a ae b9 83 b3 57 37
       -0.0007524903 9.183654e-06 -0.0003329103 1.28567945e-05
000020 f5 8e 62 b9 ec 65 ed b6 c8 61 b5 ba 43 71 f5 b8
       -0.00021606295 -7.0750157e-06 -0.0013838345 -0.00011703607
000030 f5 2d cc 38 bc 71 2e bc 7a 5f b5 b7 a0 ab 32 b9
       9.736038e-05 -0.010647234 -2.1621341e-05 -0.00017039338
000040 04 54 14 b8 0c 5e 78 3a e0 3d 7b 3a 77 f7 e4 36
       -3.5364195e-05 0.00094744633 0.000958411 6.823738e-06
000050 f4 90 b2 39 06 75 27 b6 f3 69 2c 39 21 1c 0a 3c
       0.00034058804 -2.4953056e-06 0.00016442667 0.008429558
000060 58 89 cb b7 6d 1b 78 39 0c a7 8d b5 09 6d 58 b6
       -2.4263441e-05 0.0002366134 -1.0553936e-06 -3.2249975e-06
000070 88 6b 36 b9 ab af 72 b8 76 73 d2 35 ab 85 8f ba
       -0.00017396931 -5.78609e-05 1.5679823e-06 -0.001094987

r_bn0.running_var f4 [32]
000000 83 72 00 37 b2 a4 03 33 b2 de b2 36 d3 23 76 3b
       7.656056e-06 3.0650604e-08 5.3307385e-06 0.0037557974
000010 eb e7 ad 37 21 9e 9a 31 0f 23 97 36 27 d9 86 34
       2.0731202e-05 4.499967e-09 4.504232e-06 2.5117444e-07
000020 e9 3c f4 35 45 a4 48 32 8c a5 e7 38 67 7a e3 34
       1.8197144e-06 1.1678883e-08 0.00011045774 4.2371104e-07
000030 d8 6b 9d 36 77 b2 19 3c 5b 18 1b 33 75 df a8 35
       4.6915193e-06 0.009380928 3.61109e-08 1.258201e-06
000040 d2 25 57 33 3a 87 86 37 54 d6 d2 37 5a d6 af 31
       5.0092986e-08 1.6037015e-05 2.5133755e-05 5.1175393e-09
000050 ed 88 a0 36 b4 6b 7b 30 74 d6 de 35 d5 3e ae 3b
       4.784312e-06 9.1466323e-10 1.6602703e-06 0.0053175488
000060 b6 c0 85 33 12 04 9d 35 89 b9 03 2f 76 02 18 35
       6.228349e-08 1.1698596e-06 1.1980296e-10 5.6627994e-07
000070 9f 21 4b 35 c4 98 ec 33 71 ad 3f 2d 3d 6f 84 38
       7.567232e-07 1.1017394e-07 1.0895605e-11 6.31497e-05

r_fc1.weight f4 [64, 32]
000000 28 ad 91 b8 10 84 55 b8 34 52 a0 b8 2d 62 45 bc
       -6.946392e-05 -5.090615e-05 -7.644706e-05 -0.012047333
000010 c8 51 52 3a 38 bd 5c 39 29 f9 04 39 17 8c 03 39
       0.00080230506 0.00021051324 0.0001268132 0.00012545321
000020 8f 61 76 b5 af fc 3b b7 64 a9 c3 3a ac 41 29 b9
       -9.178411e-07 -1.1204901e-05 0.0014927802 -0.0001614156
000030 c7 f4 55 3b 9a 90 8c 3c fa 1a 0b b7 0c 91 1c b8
       0.003264712 0.017158795 -8.291327e-06 -3.7328384e-05
000040 e0 de e3 b7 93 2f d7 b8 f6 6a b7 b7 5d 5d 2c 39
       -2.7164293e-05 -0.0001026086 -2.1865108e-05 0.00016437979
000050 1e 3d 86 b8 6b ed 44 33 dc ef e1 39 c7 4a 86 bc
       -6.401002e-05 4.5850737e-08 0.00043094053 -0.016393078
000060 d9 1f 83 37 fc 00 a8 b9 f5 54 9b b8 eb 68 34 b8
       1.5631247e-05 -0.0003204419 -7.4068004e-05 -4.3013057e-05
000070 46 fd 22 39 c9 88 dc 36 6d 0a a3 36 e7 fd b2 ba
       0.00015543876 6.572435e-06 4.8589923e-06 -0.0013655991
000080 af 34 85 b8 2f 04 ff b5 b7 5f 8f b6 ec c7 15 bc
       -6.351747e-05 -1.9000198e-06 -4.272875e-06 -0.009141903
000090 4a 6d a0 39 d6 f4 b4 b5 39 63 6a b7 ba c1 5c b7
       0.00030599005 -1.3482302e-06 -1.3970589e-05 -1.3158127e-05
0000a0 e4 25 9d 38 12 f6 41 b4 56 bd 5d 3a 5f fc 19 38
       7.493401e-05 -1.8064046e-07 0.0008458694 3.671308e-05
0000b0 cd 98 12 b9 dd 49 99 3c 6b 0f b2 37 47 15 1d b7
       -0.00013980568 0.018711979 2.1226433e-05 -9.362883e-06
0000c0 bc 5f a3 36 b0 66 1b b9 ab e5 92 b8 df e2 47 b4
       4.8689235e-06 -0.00014820206 -7.0046015e-05 -1.8615854e-07
0000d0 4f 86 3e b9 a0 d1 8a b4 40 a6 1d b9 e9 2c 21 bc
       -0.00018169846 -2.5857025e-07 -0.0001503462 -0.009837368
0000e0 eb 6e 36 37 6c be b3 b8 43 96 a2 b2 b7 39 95 37
       1.087387e-05 -8.570854e-05 -1.8927613e-08 1.778906e-05
0000f0 f8 b6 e2 37 d6 90 55 37 0b d3 22 33 3e 62 ff 39
       2.70265e-05 1.2729512e-05 3.7910507e-08 0.00048710586
000100 cf 2f ca b7 c8 60 c0 b6 5e fe 9c 3a 97 37 0b bc
       -2.410254e-05 -5.7333127e-06 0.0011977663 -0.00849714
000110 2d d1 26 3a 27 10 5b b6 82 bd 64 3a 5b 2c b0 b9
       0.0006363567 -3.2642945e-06 0.00087257486 -0.00033602383
000120 be e7 18 39 e4 d0 6d b9 dd 2d e7 3a a6 f5 78 39
       0.0001458218 -0.00022679899 0.001763757 0.00023742634
000130 54 9e 9d ba 67 27 cb 3c 6e 1e 81 36 7a 44 bd 36
       -0.0012025335 0.024799062 3.848042e-06 5.6406107e-06
000140 eb 78 c1 38 e6 97 23 ba 53 a9 07 bb da d7 a4 b8
       9.22548e-05 -0.0006240591 -0.002070029 -7.860335e-05
000150 2d 20 15 ba 35 a3 a9 b6 5e 7c 49 b9 77 a8 68 bc
       -0.00056886935 -5.0555923e-06 -0.00019215184 -0.014200321
000160 4b 16 8d 39 d6 72 48 b9 e9 50 c3 36 7a d6 6d 3a
       0.00026910225 -0.00019116266 5.820872e-06 0.0009072792
000170 a7 48 a1 38 c7 c0 bf 38 85 f9 2a 37 93 85 a5 3a
       7.690611e-05 9.143497e-05 1.0190885e-05 0.0012628309
000180 52 cd 01 b9 66 df 83 b7 9e db 37 3a 24 64 17 bc
       -0.00012378886 -1.5720445e-05 0.00070136215 -0.009240184
000190 b1 1f 4d 3a a1 84 11 b7 80 9f cc 39 01 0a dd b7
       0.0007824852 -8.673554e-06 0.0003902875 -2.6349911e-05
0001a0 7e a4 38 39 8b 96 3c b8 b8 b5 c2 3a 7b 53 23 39
       0.00017608886 -4.4962897e-05 0.0014855182 0.0001557599
0001b0 3d 93 8e b9 61 07 bf 3c 1b ed 61 38 f0 9d e1 38
       -0.00027194052 0.023318948 5.3865002e-05 0.00010758254
0001c0 87 65 2d 38 74 6d 18 ba 22 ee 1d ba 69 8a 86 b7
       4.134097e-05 -0.00058146496 -0.0006024559 -1.6038497e-05
0001d0 65 2a 2b ba 9f 11 ee b5 d7 b3 89 b9 66 61 79 bc
       -0.00065294496 -1.773751e-06 -0.00026264667 -0.0152209755
0001e0 8c df 51 38 b1 79 c0 b6 8c 5c 8a 35 db d0 08 39
       5.0037677e-05 -5.7362126e-06 1.0308736e-06 0.00013047775
0001f0 09 c4 d0 38 f8 15 6c 39 86 d8 1c 35 1b a1 9d 3a
       9.954727e-05 0.00022514898 5.842961e-07 0.0012026163
000200 3b 7d 99 b8 66 91 47 38 4a 93 0b 3a 18 27 23 3c
       -7.3189345e-05 4.758071e-05 0.0005324377 0.009958051
000210 f8 33 07 ba 8a 93 a9 37 ca 0b 81 b9 87 49 2a 39
       -0.0005157585 2.0215073e-05 -0.0002461358 0.00016239854
000220 26 d8 97 b9 f9 22 11 b6 4f 26 80 ba 8f 6d 31 b9
       -0.00028962007 -2.162704e-06 -0.0009777042 -0.00016920849
000230 c1 7c 9b 3a 63 83 d6 bc a5 45 96 b8 f5 46 e5 b8
       0.0011862741 -0.026185697 -7.16553e-05 -0.00010932788
000240 91 d8 69 b8 be bd 49 ba 84 18 ed b8 5f 97 0e 38
       -5.5753222e-05 -0.00076958153 -0.00011305607 3.3996414e-05
000250 7c 66 09 3a 15 a6 8c 36 02 ab d1 39 ca 84 3c 3c
       0.00052414066 4.1916596e-06 0.00039990997 0.011506269
000260 0f b3 3d b8 49 91 88 b9 4f 1d 4b b5 c2 02 60 b9
       -4.5227873e-05 -0.00026048187 -7.566604e-07 -0.00021363332
000270 58 6a df b8 59 60 80 b8 c3 8f 19 b4 45 3b 51 ba
       -0.00010653277 -6.121462e-05 -1.4301536e-07 -0.0007981549
000280 43 06 fd b8 89 ac 43 b7 a5 68 30 39 ee 79 f8 bb
       -0.000120651464 -1.1663077e-05 0.00016823651 -0.0075828945
000290 4c 1c 00 3a c8 39 94 b6 65 29 8d 39 28 89 2e b8
       0.0004887029 -4.4174703e-06 0.00026924457 -4.161257e-05
0002a0 40 8e c9 38 1c c4 7a b7 a4 9f 41 3a 25 c2 03 38
       9.610923e-05 -1.49468215e-05 0.0007386154 3.1413645e-05
0002b0 8a 3f ff b9 d7 ac b5 3c b9 4d e5 37 45 38 bd 38
       -0.0004868473 0.022177143 2.733512e-05 9.022703e-05
0002c0 3d c0 a3 36 65 23 54 38 f5 91 01 ba 36 6d da b7
       4.880158e-06 5.0577702e-05 -0.0004942709 -2.603848e-05
0002d0 78 86 59 b9 a8 8b 61 34 ea a2 3b b9 27 bd 2a bc
       -0.00020744826 2.1005565e-07 -0.000178944 -0.010421074
0002e0 74 58 a5 37 a5 8c 91 b8 9c c2 2b 35 1a 59 85 38
       1.9710722e-05 -6.940336e-05 6.398566e-07 6.358531e-05
0002f0 a2 e4 74 38 34 be 12 38 7c a7 33 35 80 92 65 3a
       5.8387064e-05 3.4986253e-05 6.692642e-07 0.0008757487
000300 66 72 02 b8 16 9c 00 b8 26 a7 7f 37 bf a1 42 3c
       -3.1100957e-05 -3.0662944e-05 1.5238102e-05 0.011879384
000310 b1 c0 35 b9 7d 80 4c b6 4c 68 81 b8 51 db c3 b6
       -0.00017333288 -3.0473159e-06 -6.170626e-05 -5.8369847e-06
000320 9f 73 9f b6 08 43 66 b8 a5 7e 6c ba 6d cb 05 39
       -4.7520293e-06 -5.48987e-05 -0.0009021557 0.0001275965
000330 1c 2c d7 b9 ba 25 c9 bc 48 ad eb 36 ca ce a4 b7
       -0.0004104086 -0.024554122 7.0237184e-06 -1.9646617e-05
000340 45 99 0b 38 58 04 48 38 14 66 73 39 99 04 f4 b5
       3.3282926e-05 4.768776e-05 0.00023212313 -1.8180755e-06
000350 5a 5b 8b b8 93 58 46 b5 14 30 17 b8 47 7d 85 3c
       -6.645052e-05 -7.388964e-07 -3.604598e-05 0.016295088
000360 bf 11 5d 36 7c f0 23 37 0c 12 4d 34 df 47 93 b7
       3.2941896e-06 9.771549e-06 1.9098678e-07 -1.7557233e-05
000370 98 e5 be 38 13 e9 0d 38 f3 1a 09 34 ed 43 2e ba
       9.102671e-05 3.3834087e-05 1.2768923e-07 -0.0006647695
000380 a4 37 16 b9 a7 d4 75 b7 f1 65 03 39 61 ad 27 bc
       -0.00014325842 -1.465265e-05 0.0001253111 -0.010234208
000390 dc 9e f4 39 39 f1 ca 36 13 23 f9 37 e1 fc c5 37
       0.00046657666 6.048151e-06 2.9699446e-05 2.3601986e-05
0003a0 78 fb d9 38 37 1e 6f 36 5d ff a4 3a a5 97 bf 37
       0.00010394206 3.5631363e-06 0.0012588311 2.283959e-05
0003b0 35 cf 5b 39 dc 12 96 3c 6c 5f 6c b7 d2 d0 81 b7
       0.00020962658 0.01831954 -1.4088913e-05 -1.5475238e-05
0003c0 7c 64 96 b6 b5 09 c2 b9 a2 30 6e b9 e9 43 c3 35
       -4.4820463e-06 -0.00037009796 -0.00022715566 1.4548397e-06
0003d0 af fa 1a b9 d0 20 9b b6 9a 1e 8e b6 1e ff 5b bc
       -0.00014779971 -4.62318e-06 -4.2354923e-06 -0.013427524
0003e0 38 8b 82 36 d8 f8 d3 b8 bc a5 49 b4 72 69 30 b8
       3.890509e-06 -0.00010107615 -1.8779878e-07 -4.2059874e-05
0003f0 e4 5d cb 38 3d 3c 5a b7 14 2d 62 b3 b7 73 12 3a
       9.697283e-05 -1.3007838e-05 -5.2660724e-08 0.0005586701

r_fc1.bias f4 [64]
000000 4c 57 af 33 82 ed 0e 35 a0 53 2f 35 49 08 60 b3
       8.164952e-08 5.324474e-07 6.531427e-07 -5.21616e-08
000010 92 10 e1 34 f4 9e 48 b4 73 ab 8b b4 6b aa dd 34
       4.1921572e-07 -1.8684278e-07 -2.6015513e-07 4.1288453e-07
000020 9c 6f 2b 34 ad 54 73 34 c8 dd a7 b4 ca 28 d8 32
       1.5966219e-07 2.2661943e-07 -3.126754e-07 2.5164258e-08
000030 74 ea d4 34 8a 98 19 b4 48 35 8b 34 36 96 49 b4
       3.9658664e-07 -1.4304729e-07 2.5929535e-07 -1.877423e-07
000040 85 b9 11 b4 52 00 00 80 d7 ae 5b 35 1e 2c 5b 34
       -1.3571669e-07 -1.15e-43 8.1838283e-07 2.0412014e-07
000050 3d ae 47 34 ee 44 17 34 c4 37 dc b4 f2 f3 4a 34
       1.8596707e-07 1.4088047e-07 -4.1018768e-07 1.8901463e-07
000060 60 33 0e b3 4e b7 fd 32 01 e0 d7 34 03 62 d2 b3
       -3.3108677e-08 2.9536434e-08 4.0209855e-07 -9.796715e-08
000070 09 f0 09 b4 7f ae 00 b5 fb 30 eb b4 8d e2 f1 b4
       -1.2846444e-07 -4.793764e-07 -4.38078e-07 -4.5054585e-07
000080 d5 cf 1b b0 5c ca df b4 52 53 13 35 0c 00 00 80
       -5.668402e-10 -4.1684223e-07 5.4883014e-07 -1.7e-44
000090 7a 12 85 34 2c 6c bf b4 a4 22 68 34 11 7e 6d b5
       2.4786624e-07 -3.5655228e-07 2.1619286e-07 -8.847283e-07
0000a0 42 4d 79 b4 c3 d8 15 b4 cf 18 b2 b2 c5 51 f1 b4
       -2.3218038e-07 -1.3955564e-07 -2.0733209e-08 -4.4949243e-07
0000b0 88 74 bb b4 d2 2a b3 34 29 87 9a b4 d0 01 fb b3
       -3.4916252e-07 3.3372504e-07 -2.8783077e-07 -1.1688428e-07
0000c0 89 85 3a 34 11 5a 10 35 05 0f ba 34 1b 02 00 00
       1.737118e-07 5.3775244e-07 3.4656128e-07 7.55e-43
0000d0 b1 87 cc b3 8f a0 e8 b4 86 00 00 80 83 3b 1d b5
       -9.5241724e-08 -4.333019e-07 -1.88e-43 -5.857366e-07
0000e0 aa b3 a3 34 f0 50 3b b2 ae 9e e0 34 e9 09 85 b4
       3.049184e-07 -1.0903236e-08 4.1838706e-07 -2.478039e-07
0000f0 c0 00 00 80 3d 78 35 33 9e 99 05 33 6a d6 76 34
       -2.69e-43 4.2251703e-08 3.110619e-08 2.2988539e-07

r_bn1.weight f4 [64]
000000 51 ff 89 3d e2 bb 5c 3d e3 44 b1 3d fd 19 a8 3d
       0.06738151 0.053890117 0.08655717 0.08208082
000010 0c fd ce 3d 4d d2 51 3d 71 7f ae 3d 52 dc 54 3d
       0.101068586 0.05122595 0.08520401 0.051967926
000020 a9 83 a9 3d 78 8f 8f 3d 25 c5 63 3d f2 25 94 3d
       0.08277065 0.07009786 0.055607934 0.072338
000030 4e 56 a1 3d 63 4e 82 3d 79 22 8c 3d dd 91 51 3d
       0.078777894 0.06362607 0.06842513 0.051164497
000040 8b 65 c2 3d 45 64 ca 37 9f 5a 8a 3d 6f f7 c3 3d
       0.09492024 2.4126968e-05 0.06755566 0.095686786
000050 f6 ab 8d 3d 2d 0c 8e 3d d1 75 81 3d 2a 73 81 3d
       0.069175646 0.06935916 0.063213 0.06320794
000060 3e 8f 57 3d 07 c9 8a 3d 21 bd 63 3d 6e 4f 1c 3e
       0.05262684 0.06776624 0.05560029 0.15264675
000070 53 3f 94 3d 15 cb 9b 3d 37 63 94 3d a4 5a b8 3d
       0.07238641 0.07607094 0.07245486 0.09001663
000080 9b d2 ea 3b 08 11 a4 3d 62 04 a5 3d ca 88 4a 38
       0.0071662194 0.08011061 0.080574766 4.8287948e-05
000090 9c 94 61 3d e0 8e 62 3d 0b f3 5f 3d 65 f6 c2 3d
       0.055073366 0.055312037 0.054675143 0.09519652
0000a0 cd 0a 83 3d 78 f4 b3 3d ec ac 19 3e d6 29 96 3d
       0.063985445 0.08786863 0.1500737 0.07332198
0000b0 57 79 8d 3d fc a1 a3 3d 28 3a 4e 3d fd 85 76 3d
       0.06907909 0.079898804 0.05034843 0.060186375
0000c0 a8 77 d5 3d c9 cb 89 3d 5d 0c e1 3d ad bb f4 3b
       0.10423213 0.06728322 0.10988686 0.0074686618
0000d0 b8 bd 69 3d 1b e2 64 3d 1d de 96 3a 65 45 87 3d
       0.057065696 0.055879693 0.0011510287 0.06605033
0000e0 61 73 87 3d 4c a7 8e 3d 79 11 9d 3d a1 36 56 3d
       0.06613804 0.06965503 0.07669348 0.052298192
0000f0 92 b3 1e 3b d6 42 07 3d b3 28 7f 3d c2 53 ca 3d
       0.002421592 0.033022724 0.062294673 0.09879257

r_bn1.bias f4 [64]
000000 50 6d ec 3c ef 4c 22 3d f4 af ee 3c ad 04 de 3c
       0.028860718 0.03962415 0.029136635 0.027101839
000010 e5 7c f7 3c 02 ef 1a 3d 29 40 b6 3c ac 14 27 3d
       0.030210922 0.03782559 0.02224739 0.0407912
000020 22 b6 8e 3c b5 2a fa 3c ce ca 13 3d 22 02 10 3d
       0.017420832 0.030537942 0.03608208 0.035158284
000030 bd 20 9d 3c 2a 03 14 3d 12 b8 a1 3c 08 96 25 3d
       0.01918065 0.03613583 0.019741092 0.040426284
000040 97 90 cc 3c a6 ba eb b6 e8 5b f2 3c 8d 93 76 3c
       0.02497129 -7.0252745e-06 0.02958484 0.015049827
000050 63 94 ee 3c 88 dd ef 3c 66 dc 0e 3d 34 5a 1b 3d
       0.02912349 0.029280439 0.034878157 0.03792782
000060 0c ee 23 3d 6d 1e 0b 3d 2e 16 18 3d f8 7c 54 3c
       0.04002194 0.033964563 0.037130527 0.012969248
000070 89 ee ab 3c 63 2f ff 3c 92 be a1 3c 1d 47 be 3c
       0.020987766 0.031150525 0.019744191 0.023227269
000080 89 f1 12 bb bc 57 91 3c 84 1f 9e 3c 88 7d c3 b9
       -0.0022421798 0.01774203 0.019302137 -0.00037286826
000090 ef 13 2e 3d c9 22 1f 3d 02 5c 17 3d ca 86 cc 3c
       0.04249948 0.038851533 0.03695298 0.024966616
0000a0 94 c0 02 3d 33 cb 8c 3c 7e d5 89 3c a0 9b ee 3c
       0.031921938 0.017186737 0.016825434 0.029126942
0000b0 74 a3 ce 3c c7 bd a5 3c 0e cd 1e 3d ca 41 0f 3d
       0.025224425 0.020232094 0.038769774 0.03497485
0000c0 fc 0d a3 3c 82 87 f7 3c 01 fd da 3c 20 67 db bb
       0.01990413 0.030215982 0.02673197 -0.006695643
0000d0 2c d8 2e bd 29 c5 1a 3d a2 7e af ba e1 96 e5 3c
       -0.042686626 0.037785683 -0.001338918 0.028026046
0000e0 d5 6d fa 3c 26 20 bf 3c e6 45 b7 3c 8c 55 3a 3d
       0.03056995 0.02333076 0.022372197 0.04549174
0000f0 c6 f1 a0 ba ff 27 ac bc 7e fa 29 3d 09 f3 c9 3c
       -0.0012279085 -0.021015165 0.041498654 0.024652021

r_bn1.running_mean f4 [64]
000000 7c 37 c1 33 c6 63 fa 34 20 bb 3f 35 d6 3e d3 b3
       8.9973554e-08 4.6638723e-07 7.142535e-07 -9.836883e-08
000010 67 86 ec 34 bf f9 23 b4 4d b4 71 b4 aa 89 e1 34
       4.4056216e-07 -1.5271415e-07 -2.2510467e-07 4.200968e-07
000020 71 41 1c 34 7b 2e 1e 34 1a 70 a8 b4 7a 41 36 33
       1.455244e-07 1.4731806e-07 -3.1374003e-07 4.2434728e-08
000030 29 54 d2 34 be 10 4f b4 68 6c ae 34 ae 40 1e b4
       3.9176783e-07 -1.9284468e-07 3.2488902e-07 -1.4738427e-07
000040 ba ec e0 b3 4f 2d 8e a3 9e a4 61 35 e4 10 64 34
       -1.0473873e-07 -1.541486e-17 8.405858e-07 2.12403e-07
000050 5a 28 86 33 50 e7 29 34 c5 82 cb b4 91 48 98 34
       6.247201e-08 1.5823503e-07 -3.7906844e-07 2.8365005e-07
000060 cd a7 fc 31 34 03 f2 32 30 67 f7 34 84 1f 41 b4
       7.353242e-09 2.8173964e-08 4.6082414e-07 -1.7985991e-07
000070 20 3b 03 b4 b3 38 15 b5 cd df f4 b4 38 c0 15 b5
       -1.2221835e-07 -5.5589334e-07 -4.5611378e-07 -5.578654e-07
000080 53 8e e6 b0 6a e9 b9 b4 1a 85 d8 34 91 db 1d 2a
       -1.6775153e-09 -3.4628766e-07 4.032998e-07 1.4020579e-13
000090 54 08 46 34 d5 e2 bb b4 04 d0 71 34 93 2b 62 b5
       1.8443217e-07 -3.4996506e-07 2.252055e-07 -8.425497e-07
0000a0 1b bc 94 b4 c6 26 a2 b4 d2 0b e4 33 c0 5c e1 b4
       -2.7704013e-07 -3.0203063e-07 1.06192275e-07 -4.1977e-07
0000b0 bb 2d d7 b4 cf 2f b2 34 aa b0 9c b4 9f 7e 2b b4
       -4.0080144e-07 3.318987e-07 -2.9185804e-07 -1.597168e-07
0000c0 d3 3b 27 34 cc 87 fb 34 01 05 f3 34 96 a3 e9 2d
       1.5574851e-07 4.6851198e-07 4.5265918e-07 2.656168e-11
0000d0 e1 dd d2 b3 d3 80 ff b4 a2 42 88 ab 06 7a 02 b5
       -9.8192466e-08 -4.7591183e-07 -9.681876e-13 -4.860634e-07
0000e0 ba aa b4 33 af eb ed b3 a0 7c d1 34 db 43 89 b4
       8.412958e-08 -1.1079043e-07 3.901996e-07 -2.556761e-07
0000f0 fe 12 66 2b fc a5 24 33 10 d2 11 34 8c b3 83 34
       8.173877e-13 3.8335187e-08 1.3580598e-07 2.453129e-07

r_bn1.running_var f4 [64]
000000 7c 71 f2 37 ba 35 b4 37 ca a3 16 38 e3 af 14 38
       2.8901493e-05 2.148269e-05 3.5915327e-05 3.5449757e-05
000010 9d 48 18 38 a6 82 d9 37 0a 8a 2e 38 f8 26 d9 37
       3.630725e-05 2.5929254e-05 4.161339e-05 2.5886562e-05
000020 11 c0 0e 38 77 9a 00 38 b3 c4 ef 37 31 ea 1c 38
       3.4034314e-05 3.0661435e-05 2.8582615e-05 3.7411406e-05
000030 af d8 26 38 34 ea 0a 38 1f 91 37 38 7e 99 e1 37
       3.9779286e-05 3.3119883e-05 4.3765755e-05 2.6893566e-05
000040 ba f3 39 38 75 d5 3d 1d 94 d4 cc 37 64 fd 23 38
       4.4334425e-05 2.5124296e-21 2.4417684e-05 3.9098217e-05
000050 a8 3e 05 38 2c e7 1c 38 7e e7 e8 37 9d 23 c5 37
       3.1768024e-05 3.7408594e-05 2.7764352e-05 2.3500814e-05
000060 0e 15 ff 37 7e 79 07 38 3a af fd 37 3c ff fe 37
       3.0408173e-05 3.2299657e-05 3.0241546e-05 3.0398012e-05
000070 6e eb 50 38 58 b4 1c 38 c2 71 39 38 d3 9a fe 37
       4.9810325e-05 3.7361257e-05 4.4213382e-05 3.0351255e-05
000080 b2 26 80 35 10 d4 3e 38 71 da 19 38 a8 39 1c 29
       9.548005e-07 4.549703e-05 3.6681482e-05 3.4688967e-14
000090 7c 2b e8 37 9c 1e ec 37 35 05 df 37 03 e3 18 38
       2.7676804e-05 2.8147646e-05 2.6586096e-05 3.6451045e-05
0000a0 b0 29 11 38 45 3d 2f 38 3d 26 8c 37 81 17 37 38
       3.460952e-05 4.1780313e-05 1.6707107e-05 4.365249e-05
0000b0 43 b1 28 38 7e 71 66 38 ec 19 fa 37 70 fa dc 37
       4.021941e-05 5.494197e-05 2.9814393e-05 2.6342663e-05
0000c0 ef bf 19 38 71 76 15 38 8a 24 03 38 07 20 d4 2f
       3.6656795e-05 3.5634675e-05 3.1266864e-05 3.8585332e-10
0000d0 47 f3 e3 37 7a 6c 50 37 66 00 e5 2a f6 37 fa 37
       2.7173794e-05 1.2423023e-05 4.0678848e-13 2.9828381e-05
0000e0 1f 32 fa 37 78 83 14 38 b1 24 09 38 c5 91 df 37
       2.9825662e-05 3.540839e-05 3.2697517e-05 2.665155e-05
0000f0 ed b9 21 2c 2b d2 78 37 09 fe 01 38 0e 27 ec 37
       2.2982686e-12 1.4830885e-05 3.0992585e-05 2.8151579e-05

r_fc2.weight f4 [64, 64]
000000 62 4b 93 ba af bc 6a 39 ec f3 2a ba d8 24 85 3b
       -0.0011237676 0.00022386269 -0.00065213325 0.00406323
000010 55 da de 3c 42 24 a6 bb 5c 45 0a 3d 5c 91 6b 3b
       0.027203718 -0.0050702402 0.033757553 0.0035944795
000020 12 bc 56 b9 f0 9d ed 3b 9d 36 5d ba 31 13 b3 bb
       -0.00020478692 0.0072514936 -0.0008438619 -0.0054649343
000030 f6 8f 66 bb d6 d6 bd 3b 1f e8 eb ba d4 d9 8f 39
       -0.0035181022 0.0057934327 -0.0017998255 0.0002743738
000040 6e ea b1 3c 2b 24 29 a3 d8 ce 90 bb c5 4e 11 bb
       0.02171823 -9.169167e-18 -0.004419189 -0.0022172194
000050 cf 0e a7 bb dd 46 bc bb ba 6c 7e 3a 83 b1 8a 3b
       -0.005098201 -0.0057457522 0.00097055326 0.004232587
000060 d3 d9 fd bb 9d c7 24 bc a1 66 91 38 0a 99 01 39
       -0.007746914 -0.010057357 6.933255e-05 0.0001235941
000070 e8 80 06 3d 94 45 c8 ba 38 29 2c bc b0 9e 6b 3c
       0.03283778 -0.0015279525 -0.010507874 0.014381096
000080 d0 7a fe 39 00 12 cc ba ae 72 27 3b 21 4f 3c 30
       0.00048538158 -0.0015569329 0.0025550532 6.850645e-10
000090 c4 39 46 ba 2e a7 14 bc 5a 65 16 3b 08 88 aa 3c
       -0.00075617083 -0.009073062 0.0022948594 0.020816818
0000a0 4c bd 3b bb 22 9c 45 3b 2e 0b 33 bb 38 4e b9 ba
       -0.0028646765 0.0030152877 -0.0027319896 -0.0014137691
0000b0 a0 76 b6 b9 ad bc a1 3c 91 52 26 bb 56 bb 0e bc
       -0.00034802128 0.019743288 -0.0025378803 -0.008711657
0000c0 b4 c6 8c bb f3 97 41 bc f9 a4 9a 3c 41 31 58 b8
       -0.004296148 -0.011816013 0.018877493 -5.1544284e-05
0000d0 ab 1b 0c 3c 46 58 87 bb d2 e5 50 31 97 26 36 bb
       0.008551518 -0.004130396 3.0398621e-09 -0.0027793997
0000e0 d6 b0 c1 bb 84 78 1f bb 5c 74 1f bb 50 51 1c bc
       -0.005910973 -0.0024333308 -0.002433083 -0.009540871
0000f0 42 7a 91 b2 fa 06 6f 3b d0 6e 8b bb 20 d7 01 bc
       -1.6935818e-08 0.0036472664 -0.0042551532 -0.007924825
000100 c9 30 21 bb f8 f9 47 ba 99 cd 09 bc 32 f6 f6 bb
       -0.0024595729 -0.0007628496 -0.008410835 -0.007536673
000110 f4 8c 1e 3c fa b3 63 38 25 c6 3b 3c f2 82 63 bb
       0.0096771605 5.4288634e-05 0.011460816 -0.00347155
000120 0b de 50 bb 6f b7 20 3b e5 92 b3 bb e0 68 57 bb
       -0.003187063 0.0024523397 -0.0054801577 -0.0032868907
000130 b8 57 88 3b 67 30 2d ba f1 04 c0 bb 96 46 3b bb
       0.0041608475 -0.0006606639 -0.005859964 -0.0028576008
000140 1a e6 69 3c 81 d9 d2 9c dc 5b 39 3a 51 b4 9c ba
       0.014276052 -1.3952858e-21 0.0007070878 -0.0011955594
000150 f2 b9 d9 bb ff c8 08 3b d2 60 58 bb bc 04 9c bb
       -0.006644481 0.0020871756 -0.0033016694 -0.0047613066
000160 b2 21 36 bc 83 33 8e ba 57 b0 89 39 d5 b0 29 3b
       -0.011116432 -0.0010849092 0.0002626206 0.0025892754
000170 85 09 78 3c ed c9 03 bb 4c d3 fa b9 3a b4 a3 3c
       0.015138988 -0.002010937 -0.00047841144 0.0199834
000180 94 36 29 3a 27 f1 02 bc 8c 06 f0 bb d3 70 c2 30
       0.0006454971 -0.0079920655 -0.007324999 1.4147424e-09
000190 ac dd 48 ba 85 eb 0c bb fd 2e 3e bb 1e 76 92 3c
       -0.0007662426 -0.0021502685 -0.0029019706 0.017878588
0001a0 b1 61 52 bb fb 89 11 bb b1 ae 9f 3b f4 90 2d bb
       -0.0032101686 -0.0022207487 0.0048731198 -0.0026484104
0001b0 ef 47 58 bb e5 fa 58 3c 68 98 b8 bb 31 90 0b bc
       -0.003300186 0.013243412 -0.0056334026 -0.008518265
0001c0 b7 6d 05 39 b0 f9 b5 bb 0e 8a cf 3b 44 e8 4c b3
       0.0001272474 -0.0055534467 0.006333596 -4.7708696e-08
0001d0 40 56 3f 3c 9c 7d 4f 39 33 96 77 af 32 3b 99 bb
       0.011678278 0.00019787851 -2.251788e-10 -0.004676246
0001e0 c9 d1 0f bc 9f 95 06 bb 76 60 d4 b9 d5 55 be 39
       -0.008778044 -0.0020535958 -0.0004050766 0.00036303574
0001f0 a6 0b 01 b2 a6 d9 ae 3b 92 4c 9d bb 18 18 64 39
       -7.511437e-09 0.0053360043 -0.0048003877 0.0002175275
000200 78 98 1d bc 2e a3 c7 bb 51 f3 60 bb 9d bf b7 bb
       -0.009618871 -0.0060924506 -0.0034324715 -0.005607559
000210 5c 9f e0 3c 23 af d6 3a 9a f2 a5 3c 4d 28 fb bb
       0.027419738 0.0016379099 0.020257283 -0.0076647163
000220 a0 fa 44 bc c6 6e 25 bc ee 78 09 bc b1 39 34 bc
       -0.012022644 -0.010097211 -0.008390648 -0.011000083
000230 0d cf 95 bb 20 37 3a 3a b2 1c af bb ff 22 f8 bb
       -0.0045718015 0.0007103551 -0.005343997 -0.0075725312
000240 e7 ae d6 3c 5c 2d 38 a5 f6 7a e4 bb 4c bf 99 ba
       0.026206447 -1.5974824e-16 -0.006972666 -0.0011729985
000250 ae 2b 48 bb 23 4d 3c bc 8f dd b9 bb 79 99 87 39
       -0.0030543613 -0.011493 -0.005672164 0.00025863553
000260 af 00 0c ba 4a cc e2 36 cd b8 fb bb 00 ab 20 bc
       -0.0005340678 6.7591072e-06 -0.007681942 -0.009806395
000270 fc 1d 86 3c ac 2a 40 bb d2 de 3d bc 79 88 09 3d
       0.01637172 -0.002932231 -0.011588769 0.033577416
000280 71 6c 3f 3a 45 b8 6a bb 52 1c 36 ba 75 e2 fe b2
       0.0007302231 -0.00358154 -0.0006946969 -2.9672472e-08
000290 28 25 3a bb f6 89 de bb d8 b3 d3 bb 4a 0c 5e 3c
       -0.0028403495 -0.0067913486 -0.006460648 0.013552735
0002a0 3e 5f ba bb 74 25 ac bb 5e 63 e9 3c b5 cd 9b bc
       -0.0056876233 -0.005253488 0.028489765 -0.019018987
0002b0 00 ff f2 bb a9 5b 7d 3c 52 a1 e2 ba b8 e4 b7 bb
       -0.0074156523 0.015463748 -0.0017290509 -0.005611982
0002c0 b1 b6 17 bb 2a af aa ba ad c2 ad 3c 97 4f 56 b8
       -0.0023149664 -0.0013022174 0.021210993 -5.10957e-05
0002d0 10 9d f7 3b 17 d1 a6 bb 16 91 0c 33 8d f0 9a bb
       0.007556565 -0.0050908434 3.2728245e-08 -0.004728383
0002e0 ad 88 2d bc f0 10 f8 bb 15 b1 a5 39 85 a8 95 bb
       -0.010591668 -0.0075703785 0.0003160319 -0.0045672082
0002f0 95 eb b5 34 05 e8 93 3b ee 21 86 bb 78 70 8f 3c
       3.3885286e-07 0.004513743 -0.0040934 0.017509684
000300 b4 05 5d bb a8 9a 00 bc 8d ec fb bb 08 1c f5 b9
       -0.0033725323 -0.007849373 -0.007688111 -0.00046750926
000310 51 e3 7a 3c 08 e7 20 bc 76 f7 88 3c f6 66 07 bc
       0.0153129855 -0.009820707 0.016719561 -0.008264294
000320 5f 4e 26 39 da 79 76 bb 9b 82 5c bb bf 52 70 bb
       0.00015860189 -0.003760925 -0.0033647183 -0.0036670414
000330 e2 ae 2b 3b 39 b1 eb bb 5f f4 32 bc 6c 6d 46 bb
       0.0026196768 -0.0071927574 -0.01092252 -0.0030277623
000340 60 d0 31 3c 4f 1d 6b a6 23 53 e0 bb 4c 0d 59 bc
       0.010852903 -8.1571724e-16 -0.006845848 -0.013247799
000350 8c 3c 45 bc 9a 39 62 ba 70 a1 89 bb d2 1c 66 bb
       -0.012038361 -0.0008629799 -0.004200153 -0.0035112393
000360 5e 36 50 bb cf 1d 29 bc 83 42 46 bb 75 d5 ed ba
       -0.0031770687 -0.010322048 -0.0030252046 -0.001814528
000370 33 c2 86 3c 1f 61 18 bc 95 df af bb f7 c5 b4 3c
       0.016450023 -0.009300499 -0.005367229 0.022067053
000380 ff f2 26 3a 1d 65 0b bc 69 59 23 3b 1b 1f 30 b7
       0.00063686067 -0.008507994 0.0024925119 -1.049766e-05
000390 86 40 a8 bb 10 37 30 bc b1 79 68 3a b7 25 de 3c
       -0.005134645 -0.010755315 0.0008868231 0.027117593
0003a0 c4 ac 3f bb 49 9a 3d bb e2 1b c3 3b 76 81 8a bb
       -0.0029247263 -0.0028931072 0.0059542516 -0.0042268587
0003b0 eb 7c 58 bc 60 7f f8 3c 46 e6 f6 bb f7 44 3d bb
       -0.0132133765 0.030334175 -0.007534775 -0.0028880218
0003c0 d1 68 87 3c ac 09 65 bb ba ff ec 3b 6c 72 13 b8
       0.016529473 -0.0034948392 0.0072326334 -3.5154095e-05
0003d0 f0 26 d3 3b 7b 4a ef 3a 39 d7 c0 b7 5b c6 f9 bb
       0.0064438507 0.001825645 -2.2988404e-05 -0.007622523
0003e0 6f 25 37 bb 03 0a 86 ba 6d 14 ad bb 03 73 17 bc
       -0.0027945896 -0.0010226372 -0.005281976 -0.0092437295
0003f0 88 fb 9c b6 20 e2 9e 3b 5d 6c d2 b9 82 e7 99 3c
       -4.6784444e-06 0.0048487335 -0.00040135058 0.01878715

r_fc2.bias f4 [64]
000000 50 14 01 b3 fb 27 ae 32 eb cf fc 32 7e 89 9d 32
       -3.0053627e-08 2.0274447e-08 2.9431211e-08 1.833973e-08
000010 c6 41 a1 b4 36 25 2b b4 d5 83 0e 33 2c 10 80 33
       -3.0036443e-07 -1.5939153e-07 3.3181852e-08 5.963406e-08
000020 18 df 06 33 a7 8c 2c b2 63 91 b6 b3 1e b9 b4 b4
       3.140221e-08 -1.0043698e-08 -8.501481e-08 -3.3662303e-07
000030 3e a1 04 34 66 66 0c b3 5f 6d a0 b4 b4 0e 9a b1
       1.2352118e-07 -3.268942e-08 -2.98819e-07 -4.4836614e-09
000040 9d bb 38 b3 f9 2e 07 34 ba ba 43 b2 bb 30 97 b3
       -4.301147e-08 1.2589943e-07 -1.1392951e-08 -7.0403495e-08
000050 7f ca cd b2 0b 92 1a 33 c1 69 24 33 10 01 52 33
       -2.3957226e-08 3.5988744e-08 3.8280408e-08 4.88954e-08
000060 e4 07 e5 b2 f2 eb 16 34 45 0e ec b2 c1 ea 43 b3
       -2.6662697e-08 1.4055675e-07 -2.7480505e-08 -4.5615483e-08
000070 53 54 d7 32 16 94 4e 33 14 99 47 b4 45 d1 7b 33
       2.506764e-08 4.8097796e-08 -1.8589009e-07 5.863082e-08
000080 a9 4d c1 b3 03 69 8c 32 5c a8 bf b2 a8 77 36 b3
       -9.001389e-08 1.6345899e-08 -2.2311887e-08 -4.2484004e-08
000090 55 98 3e b3 8f a8 9f b4 c6 b3 24 b4 02 86 73 b3
       -4.4376367e-08 -2.97387e-07 -1.5339091e-07 -5.6699726e-08
0000a0 cb 74 bd 33 23 ab 0e 34 0e ad e5 b3 c4 75 96 b3
       8.822243e-08 1.328704e-07 -1.0695122e-07 -7.006341e-08
0000b0 99 f0 ab 33 dd 5d 9c 33 bc 3e 94 32 31 b8 5d 33
       8.0065725e-08 7.28139e-08 1.7257996e-08 5.1623093e-08
0000c0 4e 68 8e b1 ea 30 7a b2 20 6d 81 34 b0 81 0f b4
       -4.144602e-09 -1.4563037e-08 2.410752e-07 -1.3365093e-07
0000d0 0e 9f e3 31 17 61 13 b4 e9 cd f9 b1 93 78 b3 b3
       6.624652e-09 -1.3725763e-07 -7.270263e-09 -8.3572694e-08
0000e0 1e 1f 00 32 16 df b9 b2 fa 39 9d b2 e3 13 a5 b3
       7.457656e-09 -2.1638282e-08 -1.830357e-08 -7.6870286e-08
0000f0 12 6f b5 b3 7c 48 49 33 c2 f0 a1 33 f9 1d 03 32
       -8.448673e-08 4.6864884e-08 7.54094e-08 7.632019e-09

r_bn2.weight f4 [64]
000000 5f d2 50 3d 6b ae 20 3d 77 c3 62 3d 2c ba 53 3d
       0.050981876 0.039228838 0.05536219 0.05169122
000010 84 c5 64 3e 48 dd 1d 3d 6f 93 2d 3d b1 4d 43 3e
       0.22340971 0.03854111 0.04237693 0.19072606
000020 44 2a 1f 3d ac b2 06 bd b4 19 11 bd 4f b1 46 3e
       0.038858667 -0.03288524 -0.035424903 0.19403575
000030 67 7b 02 bd d4 bd 32 3d ce b1 94 3e 35 66 3a bd
       -0.031855967 0.043638065 0.29041904 -0.04550763
000040 d9 b3 59 bd e8 ba 67 bd eb 03 36 bd 7b 4f f2 3c
       -0.05315003 -0.056574732 -0.04443733 0.029578915
000050 ab 5c 64 3d e9 23 f0 bc 45 b6 43 3d 9d 31 09 3d
       0.055752438 -0.029313998 0.047781248 0.03349458
000060 03 ef 1d bd d9 59 1d 3e 2e fe 16 bd bc c9 1a 3d
       -0.038558017 0.15366305 -0.0368635 0.037790045
000070 34 94 5a bd 09 56 84 3d 64 bd 8f 3d 32 1a 0c 3e
       -0.053363994 0.064617224 0.07018545 0.13681868
000080 21 f6 28 3d d0 ed de 3d 7c ab 39 3d 77 d8 2c 3d
       0.04125035 0.10885203 0.045329556 0.042198624
000090 b6 5b 47 3d 62 96 93 3e 20 2d 18 3e 06 bb 95 3e
       0.048671447 0.2882567 0.14860964 0.2924425
0000a0 8b e5 83 3d ae 10 28 bd 77 47 00 3d a7 05 16 bd
       0.06440266 -0.041031532 0.031318154 -0.036626484
0000b0 44 bf 3c bd bf 47 64 3d e5 50 5d 3d 4e 8b fe 3c
       -0.046080843 0.055732485 0.054032225 0.031072285
0000c0 e9 a1 42 3d 63 42 4b 3d 86 d6 89 3e 1b 3f b1 3e
       0.04751769 0.04962386 0.2692148 0.34618458
0000d0 be 15 25 3d 1a e4 e0 3d 12 16 35 3d 41 b2 7c 3d
       0.040303938 0.10981007 0.0442105 0.061693434
0000e0 bd b9 33 3d d0 a4 80 3d 54 8f 3f 3e ce bd 3c bd
       0.043878306 0.062814355 0.18707019 -0.04607945
0000f0 19 86 60 3d a4 df 31 3d b9 f2 4b 3d d2 13 48 3e
       0.054815385 0.04342617 0.049792025 0.19538811

r_bn2.bias f4 [64]
000000 69 9a e4 3e da f0 e1 3e a2 37 e4 3e b2 33 eb 3e
       0.44649056 0.44129068 0.44573694 0.45937878
000010 68 3e d0 3e 2d aa dc 3e bc 21 e4 3e 77 63 d4 3e
       0.40672612 0.43098584 0.44556987 0.41482136
000020 79 dc dd 3e 3e a0 e5 3e a9 5c e1 3e 95 4d d0 3e
       0.4333227 0.44848818 0.44016007 0.4068419
000030 8f 82 dd 3e d3 cc df 3e 1e 93 b8 3e 8d 3d db 3e
       0.4326367 0.43710956 0.36049742 0.42820397
000040 c4 73 e0 3e f9 bd e3 3e 9b b5 de 3e 7b d6 e9 3e
       0.43838322 0.44480875 0.4349793 0.45671448
000050 aa 95 de 3e 2c e7 dd 3e 39 6c df 3e 76 c3 dd 3e
       0.4347356 0.43340433 0.43637255 0.43313187
000060 3c 2b e0 3e bc ec d3 3e 77 b0 db 3e af ad e0 3e
       0.43782985 0.41391551 0.4290807 0.4388251
000070 32 c9 dd 3e 7c e9 e4 3e e4 50 df 3e 1d 67 d9 3e
       0.43317562 0.44709384 0.43616402 0.42461482
000080 2b 7c ea 3e e0 67 dd 3e ce 63 de 3e 52 c7 e1 3e
       0.45797858 0.43243313 0.4343552 0.44097382
000090 d2 d9 dd 3e d9 b9 b8 3e 1b 62 d5 3e a0 ca b5 3e
       0.43330246 0.3607929 0.4167641 0.35506153
0000a0 8b ae e4 3e 09 cc ea 3e 6f 29 e0 3e 8b 3e df 3e
       0.44664416 0.4585879 0.4378161 0.43602404
0000b0 f7 8c db 3e 0b 69 ea 3e be da e2 3e de c7 e0 3e
       0.42880985 0.45783266 0.44307512 0.43902487
0000c0 a3 eb e6 3e 85 85 e4 3e 8c 8c b9 3e 7e b7 a9 3e
       0.45101652 0.44633117 0.3624004 0.33147806
0000d0 80 d4 e8 3e fe 76 e1 3e 9c 72 dd 3e b4 04 e8 3e
       0.45474625 0.44036096 0.43251503 0.45316088
0000e0 00 6d e3 3e 15 e2 e6 3e 93 3b ca 3e 86 84 e3 3e
       0.44419098 0.45094362 0.39498577 0.44437045
0000f0 94 d9 da 3e 3a a7 e3 3e b9 cf dd 3e 4d cc cb 3e
       0.42744124 0.4446352 0.43322542 0.39804307

r_bn2.running_mean f4 [64]
000000 38 0a 11 3b 0a 38 a7 ba 1e 7d db ba 02 82 0c bb
       0.0022131335 -0.001275779 -0.0016745662 -0.0021439795
000010 9f 13 04 bd cd 7f 2e bb d7 58 ae bb e8 c3 e6 bc
       -0.032245275 -0.0026626468 -0.005320649 -0.028169587
000020 34 97 b6 ba ac 96 75 3b 3e 51 62 3a 45 47 01 bd
       -0.001393056 0.003747384 0.0008633322 -0.03156211
000030 58 54 6e 3b 8f 93 2a bb 68 f0 1f bd ea 46 4f 3b
       0.003636619 -0.0026027893 -0.03904763 0.0031627961
000040 2d 6c 4f 39 54 42 a2 ba 67 51 8d b9 54 8e ec ba
       0.00019781357 -0.0012379386 -0.00026954265 -0.0018047788
000050 98 e1 83 bb ab d6 18 3b 8a 0a 9d bb fb 12 a8 39
       -0.0040246956 0.0023321311 -0.004792516 0.000320576
000060 d4 f6 bf 3b 1a 56 d1 bc 10 76 a8 3b 28 bd 65 bb
       0.0058582816 -0.025553752 0.0051410273 -0.0035055373
000070 ad c0 03 bb 8a 43 fa b8 64 28 99 bb 9d 02 bb bc
       -0.0020103857 -0.00011933509 -0.0046740044 -0.022828395
000080 99 33 94 bb 77 09 a1 bc b4 89 5d 39 28 da 0b bb
       -0.0045227525 -0.019657834 0.00021127501 -0.0021339748
000090 e9 67 9f bb 7f d6 17 bd 9a a9 a7 bc 88 43 0b bd
       -0.004864682 -0.037069794 -0.020466615 -0.03399995
0000a0 fc ae b6 3a 3d 0b 2b 3b dc 88 3b bb 16 99 5d 3b
       0.0013937647 0.0026099228 -0.002861551 0.003381317
0000b0 66 8c 12 3b 81 63 e8 ba 3d 04 08 39 c2 88 34 bb
       0.0022361516 -0.001772985 0.0001297155 -0.0027547334
0000c0 69 96 1d bb f5 be 69 bb 8a 00 07 bd f3 0c 25 bd
       -0.002404595 -0.0035666798 -0.0329595 -0.040295552
0000d0 94 f1 2e bb c3 16 91 bc ea b4 9b bb 9c 33 f4 ba
       -0.0026694285 -0.017711049 -0.0047517912 -0.0018631103
0000e0 c0 8b 83 bb 18 84 62 bb 21 d5 fd bc f1 c4 1c 3b
       -0.004014462 -0.0034563597 -0.030985417 0.0023921097
0000f0 70 a5 04 bb 66 99 db bb 49 c2 62 bb 87 4e fb bc
       -0.002024021 -0.006701636 -0.0034600666 -0.030677093

r_bn2.running_var f4 [64]
000000 da 3b 7f 39 8e 2a e5 38 5a f5 9a 39 07 a5 57 39
       0.00024340992 0.00010927497 0.0002955597 0.00020565475
000010 af 15 51 3a 3f 6d 25 39 ca 1a 3f 39 38 a3 21 3a
       0.00079759484 0.00015776324 0.00018225159 0.0006165984
000020 72 42 0d 39 30 c0 10 39 99 7d 17 39 d6 63 43 3a
       0.0001347156 0.00013804506 0.00014447271 0.00074535364
000030 d3 c2 f8 38 ea 98 65 39 06 10 88 3a 91 a6 20 39
       0.0001186185 0.00021896107 0.0010380752 0.0001532084
000040 30 05 90 39 3c 94 58 39 24 c6 00 39 12 04 d2 38
       0.00027469685 0.00020654587 0.00012280844 0.000100143385
000050 d5 d1 9c 39 5e f3 08 39 dd 80 75 39 9e c5 e6 38
       0.00029910976 0.00013060632 0.00023413026 0.00011004064
000060 c5 d1 22 39 27 d1 20 3a c1 4c 2e 39 74 57 17 39
       0.00015527669 0.0006134682 0.00016622526 0.00014433061
000070 d6 92 4a 39 0b 9d 93 39 20 d8 a3 39 e2 5f 14 3a
       0.00019318922 0.0002815503 0.00031250808 0.00056600396
000080 8f 97 2c 39 9e fb da 39 f6 a7 26 39 16 41 44 39
       0.00016459658 0.0004176767 0.00015893564 0.00018716263
000090 70 1a 86 39 76 81 8b 3a dd 6f d6 39 a8 e4 7b 3a
       0.0002557817 0.0010643441 0.00040900605 0.00096089626
0000a0 c7 cb 8a 39 9c 63 2b 39 52 6e 20 39 c4 7b 28 39
       0.00026473237 0.00016344938 0.00015299887 0.00016067835
0000b0 04 9a 73 39 83 7e 79 39 2c 5e 9e 39 4a d8 d9 38
       0.00023231661 0.0002379362 0.00030206272 0.00010387653
0000c0 f9 72 46 39 76 f2 6f 39 c8 37 4b 3a 30 bf 98 3a
       0.00018925582 0.0002288314 0.00077521475 0.0011653658
0000d0 87 80 14 39 27 33 09 3a 71 f6 6d 39 49 62 85 39
       0.0001416226 0.00052337575 0.00022693888 0.00025440965
0000e0 e1 38 23 39 97 f6 74 39 92 20 3a 3a 43 ab 10 39
       0.0001556608 0.00023361515 0.000710019 0.0001379671
0000f0 33 5f 7a 39 05 35 64 39 8d 4d 37 39 18 c2 40 3a
       0.00023877322 0.00021763526 0.0001748113 0.0007353141

r_fc3.weight f4 [1, 64]
000000 69 06 c5 3e 20 97 c2 3e d3 81 bc 3e a6 b7 b8 3e
       0.38481453 0.38005924 0.36817798 0.36077613
000010 80 39 b7 3e 72 f0 c5 3e 31 1a b7 3e 4f f6 b7 3e
       0.35786057 0.38660008 0.3576217 0.35930106
000020 70 9e c2 3e 26 1d c7 3e ac df c1 3e d3 7f b5 3e
       0.38011503 0.38889426 0.3786596 0.35449085
000030 5c 16 c2 3e 25 05 c3 3e eb 89 be 3e 95 65 c2 3e
       0.37907684 0.38089862 0.37214598 0.37968126
000040 97 84 c2 3e 20 ae b8 3e 49 dc c3 3e 6e 8f b6 3e
       0.37991783 0.36070347 0.38254002 0.35656303
000050 d7 57 c0 3e 1d ba bd 3e 5f b1 c2 3e b4 73 c0 3e
       0.37567016 0.37056056 0.38025948 0.37588274
000060 65 53 c1 3e d1 89 b7 3e a9 25 c6 3e 74 29 c0 3e
       0.37758937 0.35847333 0.38700607 0.37531626
000070 b6 01 c5 3e 5a ce b9 3e 71 dd c0 3e aa 52 b9 3e
       0.38477868 0.36290246 0.37668946 0.3619588
000080 10 3c bc 3e 7d 07 b9 3e 05 1f c5 3e 87 10 be 3e
       0.36764574 0.36138526 0.3850023 0.37121984
000090 88 bd bf 3e 15 85 bc 3e a0 28 b3 3e 10 97 ba 3e
       0.37449288 0.36820284 0.34991932 0.36443377
0000a0 01 ac b7 3e 37 bc ba 3e 73 34 c1 3e a4 a8 c2 3e
       0.35873416 0.36471722 0.37735328 0.38019288
0000b0 bc 8b c4 3e a0 3a ba 3e 5c 23 b9 3e 8b 33 bf 3e
       0.3838786 0.36372852 0.3615979 0.37344012
0000c0 23 02 b8 3e d1 91 bf 3e e6 95 b7 3e 81 f5 bb 3e
       0.3593913 0.37415937 0.3585655 0.36710742
0000d0 7e 5a b7 3e 8d fe b8 3e 61 8b c0 3e 29 54 b7 3e
       0.35811228 0.36131707 0.37606338 0.35806397
0000e0 19 43 b9 3e 6b e4 ba 3e e2 7e bc 3e 63 ae b9 3e
       0.36184004 0.36502394 0.36815554 0.3626586
0000f0 f6 e2 c7 3e f1 b9 ba 3e 22 f3 bf 3e 17 5d af 3e
       0.39040345 0.36469987 0.37490183 0.3425071
