code/model/seed_929/QDANN_D_corn_2018.pth (torch, 32945 bytes, 14 tensors)

d_fc1.weight f4 [64, 32]
0	0x9ef50ec4	-2.5946491e-20
1	0xaf68351d	-2.1119147e-10
2	0xb19e6de8	-4.6109e-09
3	0x1190f564	2.2870428e-28
4	0xb40c2b10	-1.3054182e-07
5	0x10d9637c	8.574469e-29
6	0xa95bf154	-4.8837087e-14
7	0x2bd30ace	1.4995451e-12
8	0xa7f7010c	-6.8557407e-15
9	0x2a0569eb	1.184952e-13
10	0x2beaf22e	1.6693918e-12
11	0x199efef0	1.6439786e-23
12	0xa98fc857	-6.385229e-14
13	0xa6e65fe7	-1.598545e-15
14	0xab3a2755	-6.613506e-13
15	0x92291ad0	-5.3360046e-28
16	0x2ab70633	3.2511632e-13
17	0x2fdbc9a3	3.997914e-10
18	0x9f18f9b5	-3.2393805e-20
19	0xab902e36	-1.0244642e-12
20	0x2d2d66f3	9.856771e-12
21	0x118da70a	2.2348823e-28
22	0x9f192983	-3.2433348e-20
23	0xb5909a30	-1.077371e-06
24	0x191bfaba	8.063946e-24
25	0x993ee590	-9.8691296e-24
26	0xb2d631d4	-2.4935538e-08
27	0x22571fa9	2.9154694e-18
28	0x195306ed	1.0909843e-23
29	0x1d9feabb	4.2329655e-21
30	0xa002555e	-1.1039674e-19
31	0x16cc0cc1	3.2966026e-25
32	0x15178b8f	3.06043e-26
33	0x96f778ee	-3.998132e-25
34	0x9a15d0c5	-3.098112e-23
35	0xa44886cf	-4.3482274e-17
36	0x9d08b959	-1.8095273e-21
37	0x0022e6e2	3.205232e-39
38	0x9523922b	-3.3032894e-26
39	0x114b7a02	1.6051473e-28
40	0x8ea78112	-4.129297e-30
41	0x0d3df80b	5.8538692e-31
42	0x20a58955	2.8042966e-19
43	0x96d94fdc	-3.510864e-25
44	0x908aea88	-5.4792755e-29
45	0xa3e5adf4	-2.4901902e-17
46	0x93619522	-2.847252e-27
47	0x94aa8866	-1.7219413e-26
48	0x9c3b425f	-6.195889e-22
49	0x86a1649c	-6.07093e-35
50	0x801086e0	-1.517752e-39
51	0x2857b9c1	1.19751765e-14
52	0x1c09fd03	4.565651e-22
53	0x166a7138	1.8938095e-25
54	0x230f51f2	7.769398e-18
55	0x9fb442dc	-7.6343575e-20
56	0xa4b5edca	-7.889907e-17
57	0x8fa908c7	-1.6668068e-29
58	0x9c108aac	-4.782483e-22
59	0xa8c8b032	-2.2280873e-14
60	0x9d70f27c	-3.1889097e-21
61	0x9753b595	-6.8406966e-25
62	0x1fce0ac6	8.7262217e-20
63	0x95a43835	-6.632775e-26
64	0x196c0845	1.2202584e-23
65	0xa11c5c6c	-5.2977175e-19
66	0xa160045f	-7.5899937e-19
67	0x1dd5e240	5.6614568e-21
68	0x99ae3ea0	-1.8016472e-23
69	0x16850cf6	2.1495488e-25
70	0x9ff1b42d	-1.02365546e-19
71	0x20902589	2.4419388e-19
72	0x9b543d94	-1.7556126e-22
73	0x1d9d9738	4.171391e-21
74	0xa3f0609f	-2.6061773e-17
75	0x9ba1a351	-2.6740756e-22
76	0x23a9da60	1.8415502e-17
77	0x9fa6222a	-7.0360254e-20
78	0x9ceb54b9	-1.5572896e-21
79	0xa44ed8a3	-4.4852628e-17
80	0x12612a09	7.1049294e-28
81	0x9505cd42	-2.7021056e-26
82	0x94828bd2	-1.3181795e-26
83	0x13c8d4a5	5.069678e-27
84	0x1f267675	3.5249853e-20
85	0x2107aa86	4.5965465e-19
86	0x225fa025	3.0306915e-18
87	0x9e904138	-1.5273567e-20
88	0x9614826d	-1.19965e-25
89	0x9ef98fb8	-2.6423341e-20
90	0xa3bba9fc	-2.0346572e-17
91	0x9a2910f2	-3.496207e-23
92	0x9e226938	-8.597967e-21
93	0x96a578bc	-2.6733382e-25
94	0x97a9dba5	-1.0976815e-24
95	0x983ff772	-2.48111e-24
96	0x1de7e77f	6.1384552e-21
97	0x117c2793	1.989149e-28
98	0x91279ced	-1.3222334e-28
99	0x233d3453	1.0256791e-17
100	0x299c5571	6.9426134e-14
101	0xa99f2a33	-7.068339e-14
102	0x95dd35fd	-8.934637e-26
103	0xa7e7ab34	-6.4301e-15
104	0x2c9a2f2f	4.3821817e-12
105	0x166777ad	1.8697794e-25
106	0x9b351682	-1.4979242e-22
107	0x946d4e91	-1.1980937e-26
108	0x9c572b7d	-7.119374e-22
109	0x2084df8a	2.2509596e-19
110	0x260025b5	4.4460024e-16
111	0x9608f20c	-1.1062369e-25
112	0x151f4afd	3.216895e-26
113	0x27464326	2.7514421e-15
114	0x1d2a9568	2.2576554e-21
115	0x9feab106	-9.9395716e-20
116	0x9d489309	-2.6545795e-21
117	0x1691af78	2.353675e-25
118	0x9ad09b86	-8.6278045e-23
119	0x1458f902	1.0954321e-26
120	0x24adfeb7	7.5458294e-17
121	0x23058c97	7.2397155e-18
122	0x1bac9e12	2.8557164e-22
123	0x2403653a	2.849184e-17
124	0x8ff8d74f	-2.4537622e-29
125	0x9acc9357	-8.461046e-23
126	0x1947fe20	1.0339379e-23
127	0x9ab39df7	-7.428787e-23
128	0xa919aca3	-3.4122563e-14
129	0x25dfe929	3.884233e-16
130	0x2835317b	1.0058248e-14
131	0xad98f7ab	-1.7390386e-11
132	0xabebb569	-1.6748106e-12
133	0xa98517bb	-5.910503e-14
134	0xa80839a3	-7.5620145e-15
135	0x26f2940c	1.6832251e-15
136	0xb1b6aef2	-5.316786e-09
137	0x2bc32f5d	1.3868729e-12
138	0x2fb80dc0	3.3479175e-10
139	0x352c971e	6.42949e-07
140	0xaf24c9a9	-1.4987357e-10
141	0x2b98aba8	1.0847894e-12
142	0x2e00a9db	2.9254692e-11
143	0xb29c27e8	-1.8178937e-08
144	0xa678d2ee	-8.632815e-16
145	0xa99b71b0	-6.9031044e-14
146	0x3306cbec	3.1384772e-08
147	0xb356d3b2	-5.0018294e-08
148	0x2ba2a03a	1.1555264e-12
149	0x2de6541d	2.6185326e-11
150	0x29ac85ec	7.661566e-14
151	0xb4f30863	-4.526838e-07
152	0xa67ffeee	-8.881639e-16
153	0xae47d81b	-4.54393e-11
154	0xb629fad9	-2.5328975e-06
155	0xabd3f22d	-1.5059669e-12
156	0xa9017527	-2.8745367e-14
157	0xb3858709	-6.217858e-08
158	0x260038cd	4.44859e-16
159	0xafc794e6	-3.6303688e-10
160	0x25436eef	1.695114e-16
161	0xa6e09ef2	-1.5586205e-15
162	0x2790d3bb	4.0197588e-15
163	0xa93c918b	-4.1870624e-14
164	0xa6eb6730	-1.633437e-15
165	0x22f1cd80	6.5540762e-18
166	0xa5c17c8e	-3.3564565e-16
167	0x229aad2e	4.1925145e-18
168	0xa980c448	-5.718391e-14
169	0x28a95930	1.8801448e-14
170	0x2eaf7ea0	7.980572e-11
171	0xa7bd2c6f	-5.2506213e-15
172	0x259f288f	2.7609587e-16
173	0xa40a3b8d	-2.997442e-17
174	0xad19a31c	-8.733261e-12
175	0xa3b18a41	-1.9248931e-17
176	0xa470c7a7	-5.2210816e-17
177	0xaa90e878	-2.5740846e-13
178	0x2c21a55d	2.2971271e-12
179	0x24635d26	4.930168e-17
180	0x2762b1dd	3.146022e-15
181	0x1da1ab35	4.279337e-21
182	0x2b1782bb	5.38274e-13
183	0xa6255df5	-5.737321e-16
184	0xaab96f1c	-3.29397e-13
185	0xa62d65ad	-6.015923e-16
186	0x97160922	-4.847914e-25
187	0xa85e2bae	-1.2332947e-14
188	0xa86619af	-1.2773134e-14
189	0xaa36bf55	-1.6231229e-13
190	0x9db7d555	-4.8660277e-21
191	0xa69bf871	-1.0822626e-15
192	0x1ef6b56c	2.6121297e-20
193	0x9b7d374b	-2.0945536e-22
194	0xa6bc4930	-1.3064958e-15
195	0x21b9b748	1.2584602e-18
196	0x9e321dd5	-9.429411e-21
197	0xa369d62b	-1.2676307e-17
198	0x975a7f33	-7.0600147e-25
199	0x1dc96134	5.3304763e-21
200	0xa5035c66	-1.1393745e-16
201	0x9910a8dd	-7.478727e-24
202	0xa74fdc58	-2.884647e-15
203	0x201085cf	1.2241548e-19
204	0xa5814e1a	-2.2430857e-16
205	0xaabdaec6	-3.3694418e-13
206	0x258c8bc3	2.4380835e-16
207	0x92b4a2fc	-1.1399776e-27
208	0x163dbce9	1.5326908e-25
209	0x23c0eedd	2.0917844e-17
210	0x19eb24a2	2.4313226e-23
211	0x1cbf9e62	1.2680261e-21
212	0x19a27d28	1.6800958e-23
213	0x25c82e2f	3.4725765e-16
214	0x1bca4c23	3.34673e-22
215	0x2868025a	1.2879097e-14
216	0x9c28ccd3	-5.5851266e-22
217	0x98e7b3e7	-5.9893755e-24
218	0x25097afc	1.1924525e-16
219	0x239c5922	1.6951303e-17
220	0x963c24ce	-1.5198133e-25
221	0xa78536e6	-3.6974437e-15
222	0x98de1bff	-5.7413924e-24
223	0x9d82e79d	-3.4650196e-21
224	0xa30de3a7	-7.6918326e-18
225	0x2dac2388	1.9569915e-11
226	0xb285a3ae	-1.555767e-08
227	0x30ab92d5	1.248362e-09
228	0xb35362cd	-4.9217125e-08
229	0x27718fc0	3.3523396e-15
230	0x211b2e61	5.2577425e-19
231	0x209c9c7b	2.6530978e-19
232	0xb19721ae	-4.3985073e-09
233	0x9f0b4507	-2.9491493e-20
234	0xb46f3999	-2.2279563e-07
235	0xb389fe6f	-6.425841e-08
236	0xa5d3351d	-3.6638656e-16
237	0x23cd5c0c	2.2265128e-17
238	0xad90d4a5	-1.6465338e-11
239	0xada02d72	-1.8210076e-11
240	0x30c96d95	1.465582e-09
241	0x2cf752c5	7.0293515e-12
242	0x2e90fadc	6.5929234e-11
243	0x3400f1c4	1.2008883e-07
244	0xa118de59	-5.179388e-19
245	0x26bf7787	1.3285685e-15
246	0x23b15389	1.9225757e-17
247	0xb74fdc7e	-1.2389499e-05
248	0xafa30875	-2.9655536e-10
249	0xa8854729	-1.4796827e-14
250	0xb66a902d	-3.4952639e-06
251	0x207926d9	2.1103974e-19
252	0x202218ba	1.3730115e-19
253	0xaedf33a6	-1.01500405e-10
254	0xae0749cd	-3.0760994e-11
255	0xae9b31cc	-7.0574296e-11

d_fc1.bias f4 [64]
0	0x092dd709	2.0925227e-33
1	0x800002b7	-9.74e-43
2	0x80000e8a	-5.216e-42
3	0x000006ff	2.51e-42
4	0x010a5fec	2.5415418e-38
5	0x800000f4	-3.42e-43
6	0x0000012c	4.2e-43
7	0x175b5e8a	7.088204e-25
8	0x800000a9	-2.37e-43
9	0x00000e3f	5.11e-42
10	0x9876c36f	-3.1893424e-24
11	0xa90fe452	-3.1950415e-14
12	0x000000ad	2.42e-43
13	0x00000337	1.153e-42
14	0x000002e5	1.038e-42
15	0x8f33ce9a	-8.8651714e-30
16	0x000002cf	1.008e-42
17	0x8000011a	-3.95e-43
18	0x8000015b	-4.86e-43
19	0x80000001	-1e-45
20	0x00000092	2.05e-43
21	0x00000471	1.593e-42
22	0x9468be77	-1.1750569e-26
23	0x800002ec	-1.048e-42
24	0x9e21008f	-8.5233845e-21
25	0x23863d1d	1.4554192e-17
26	0x000001b9	6.18e-43
27	0x9aed59b2	-9.8165813e-23
28	0x8000003f	-8.8e-44
29	0x0dc7437e	1.228057e-30
30	0x00000133	4.3e-43
31	0x985eb9b9	-2.8786593e-24
32	0x8000004d	-1.08e-43
33	0x1f7b0cd0	5.3161916e-20
34	0x9372338e	-3.0570113e-27
35	0x00000087	1.89e-43
36	0x800002a7	-9.51e-43
37	0x99e577f1	-2.3726489e-23
38	0x8000002e	-6.4e-44
39	0x238b938e	1.5132902e-17
40	0xa0dcf5a6	-3.7432006e-19
41	0x800000c1	-2.7e-43
42	0x80000582	-1.976e-42
43	0x00000084	1.85e-43
44	0x9f2c3474	-3.6465805e-20
45	0x0000016d	5.11e-43
46	0x00000cd3	4.6e-42
47	0x800002a2	-9.44e-43
48	0x00000212	7.43e-43
49	0x800001e7	-6.82e-43
50	0x0000007b	1.72e-43
51	0x00000155	4.78e-43
52	0x0000025e	8.49e-43
53	0x0ea475c6	4.0542533e-30
54	0x00000dfe	5.02e-42
55	0x800001ba	-6.2e-43
56	0x8000019f	-5.82e-43
57	0x16a33e24	2.6373287e-25
58	0x00000d8d	4.861e-42
59	0x800000ba	-2.6e-43
60	0x0000021c	7.57e-43
61	0x00000152	4.74e-43
62	0x000000ee	3.34e-43
63	0x00000143	4.53e-43

d_bn1.weight f4 [64]
0	0x2f137730	1.3411916e-10
1	0x3243b433	1.1391466e-08
2	0x32503c5d	1.21209185e-08
3	0x31b62491	5.3010543e-09
4	0x3625b4ba	2.4692113e-06
5	0x35627e2a	8.4375154e-07
6	0x354f7c05	7.729398e-07
7	0x366e4649	3.5505675e-06
8	0x34e7530d	4.308753e-07
9	0x36be2b33	5.6674703e-06
10	0x3528f904	6.294724e-07
11	0x38af1ff8	8.350605e-05
12	0x34720d25	2.2542788e-07
13	0xb10c13e8	-2.0383997e-09
14	0x34722e8a	2.2554937e-07
15	0x30c4d81f	1.4322302e-09
16	0x30084599	4.9575416e-10
17	0x3322437f	3.777995e-08
18	0x33baddbc	8.701633e-08
19	0x329e98fb	1.8463188e-08
20	0x317378da	3.542985e-09
21	0x3143adbd	2.8474993e-09
22	0x340ebd0b	1.3293554e-07
23	0x351d5d66	5.862297e-07
24	0x3608de9e	2.039516e-06
25	0x394cf356	0.00019545606
26	0x30deef1e	1.6220587e-09
27	0x383a590d	4.442879e-05
28	0x35d89d6f	1.6139073e-06
29	0x3301bbae	3.0205847e-08
30	0x304c01ed	7.4217504e-10
31	0x320a3cf7	8.046519e-09
32	0x3241f5a8	1.1289934e-08
33	0x35f85b50	1.8504015e-06
34	0x3322ae04	3.787683e-08
35	0x328eec8c	1.6638545e-08
36	0x359ade33	1.1538563e-06
37	0x34e511b6	4.266746e-07
38	0x3464abf2	2.1296708e-07
39	0x396b56eb	0.00022443726
40	0x37af024e	2.0862699e-05
41	0x33994c77	7.1385266e-08
42	0x3a03b521	0.0005024244
43	0x3366915b	5.3683248e-08
44	0x3887d10f	6.476242e-05
45	0x32d0b8b6	2.4298384e-08
46	0x33fa4111	1.1653368e-07
47	0x34a8466c	3.1343677e-07
48	0x368cf3e8	4.2007196e-06
49	0x37f885d1	2.9626217e-05
50	0x32b8fd19	2.1535515e-08
51	0x333d6734	4.4098854e-08
52	0x318319f6	3.815553e-09
53	0x324f7f89	1.2077984e-08
54	0x3064d442	8.3247553e-10
55	0x32a5a0b3	1.9281606e-08
56	0x31f2ee20	7.0701986e-09
57	0x35cf1b3c	1.5430628e-06
58	0x35297bb8	6.313744e-07
59	0x359e96d3	1.1815813e-06
60	0x381c4f33	3.726706e-05
61	0x33ec38db	1.0999948e-07
62	0x3152d27f	3.0678675e-09
63	0x31e30324	6.6069266e-09

d_bn1.bias f4 [64]
0	0xa2b75635	-4.9693525e-18
1	0xafd29ba1	-3.8309358e-10
2	0x9e9ec6c1	-1.6811103e-20
3	0xa058ef1e	-1.8375029e-19
4	0xb014cd77	-5.413407e-10
5	0xae816461	-5.884072e-11
6	0xae5cccc3	-5.0204074e-11
7	0xb00a7bdc	-5.038012e-10
8	0xae823210	-5.9206084e-11
9	0xb160b1ac	-3.2697285e-09
10	0xaa9991f1	-2.7279527e-13
11	0x359b71f9	1.158157e-06
12	0xa8d3e3af	-2.3524448e-14
13	0xa7116c9a	-2.0181665e-15
14	0xaa02ea9e	-1.1627719e-13
15	0xa5b43dda	-3.1266935e-16
16	0xafb6491e	-3.315756e-10
17	0xaaa7cea3	-2.9808542e-13
18	0x9f982ba6	-6.4446714e-20
19	0x9e6f1631	-1.2657144e-20
20	0x9eb25373	-1.8880997e-20
21	0xa7148217	-2.0609648e-15
22	0xa82708ba	-9.2722545e-15
23	0xa6825270	-9.042907e-16
24	0xb1f4db0d	-7.126238e-09
25	0x31adc8c7	5.0577884e-09
26	0x9b680f49	-1.9195529e-22
27	0xb0deff43	-1.6225176e-09
28	0xa9534e1b	-4.6919157e-14
29	0x205684b1	1.8170409e-19
30	0x9e10f964	-7.674869e-21
31	0xb127b7f9	-2.4406275e-09
32	0xa3d90730	-2.3530231e-17
33	0x2e7eb3fa	5.7912765e-11
34	0xa58c7252	-2.4363595e-16
35	0xab838200	-9.344192e-13
36	0xafadcfc7	-3.161615e-10
37	0xae703e0c	-5.462479e-11
38	0xae46e05f	-4.521927e-11
39	0xb14370f9	-2.8440452e-09
40	0xb04edebd	-7.5258894e-10
41	0xac35a813	-2.5814947e-12
42	0xb39407e2	-6.893221e-08
43	0xa28b9df5	-3.784327e-18
44	0xb010d98f	-5.2696064e-10
45	0xa93c060e	-4.1749637e-14
46	0xa54be1ad	-1.7683905e-16
47	0xae79c79b	-5.679333e-11
48	0xb114e310	-2.1665905e-09
49	0xb2714261	-1.4043139e-08
50	0xa95416fb	-4.709339e-14
51	0xaaa69cb5	-2.959626e-13
52	0x9cf4ae29	-1.6191585e-21
53	0xa3e33a64	-2.4636119e-17
54	0x989bfc43	-4.032128e-24
55	0xac9a7995	-4.3904416e-12
56	0xaaed1346	-4.211303e-13
57	0xac8bf342	-3.9776247e-12
58	0xaf5ae43c	-1.990807e-10
59	0xa99c8f0e	-6.952608e-14
60	0xb258e32a	-1.2624506e-08
61	0xaa106c87	-1.2827422e-13
62	0xa82aee66	-9.48859e-15
63	0x9d872d43	-3.5781e-21

d_bn1.running_mean f4 [64]
0	0xb2233889	-9.500703e-09
1	0x20934304	2.4947116e-19
2	0x1f6b323b	4.9804735e-20
3	0xa6970241	-1.0478341e-15
4	0xb18bf5fc	-4.0733976e-09
5	0xaa00b3e6	-1.1431099e-13
6	0x278c988e	3.9023206e-15
7	0xb3ec5ea4	-1.10068214e-07
8	0x28ce21d3	2.2885263e-14
9	0x31c1a2c4	5.6355436e-09
10	0xaef210b1	-1.1007851e-10
11	0x363a5c25	2.7769795e-06
12	0xa6e941ff	-1.6185511e-15
13	0x2a7cece1	2.246428e-13
14	0x2607f9d6	4.7176125e-16
15	0xaec52536	-8.965133e-11
16	0xaec509ac	-8.960241e-11
17	0x2dac97f5	1.9621619e-11
18	0x227df604	3.4418133e-18
19	0x2171122c	8.1678026e-19
20	0x209fe4c4	2.7087032e-19
21	0x2d646ac0	1.2984003e-11
22	0x2c8c5c78	3.9893054e-12
23	0xa7f048cf	-6.669232e-15
24	0xb5ce6969	-1.5378874e-06
25	0xb17331fa	-3.5389562e-09
26	0x1f9bd6ec	6.600061e-20
27	0xb1230643	-2.3723181e-09
28	0x296db87e	5.2784593e-14
29	0xacdbbb06	-6.245118e-12
30	0x97ad4dd1	-1.1199507e-24
31	0x36e2086b	6.736305e-06
32	0xa56462e9	-1.980936e-16
33	0x32cc5b5d	2.3790273e-08
34	0xabbcb476	-1.3408291e-12
35	0xa7e6428b	-6.390997e-15
36	0xabe1ed92	-1.6053151e-12
37	0x31857a0f	3.884686e-09
38	0xa83c4ab2	-1.0452293e-14
39	0x31771dd3	3.5960184e-09
40	0x31224f0d	2.3619038e-09
41	0x29190933	3.3980804e-14
42	0xb15b78ba	-3.193732e-09
43	0xa114a5e4	-5.0363905e-19
44	0xafd06d5e	-3.791269e-10
45	0xa5e90199	-4.042014e-16
46	0x28f16ba9	2.6803065e-14
47	0x2d1cdecf	8.917047e-12
48	0x293be5cc	4.1721658e-14
49	0x2f0f0dd0	1.3010681e-10
50	0x9d14eae3	-1.970907e-21
51	0x277421d1	3.3880134e-15
52	0x185ee8d5	2.8810378e-24
53	0x2748f95e	2.7890758e-15
54	0xa09ffa3a	-2.7101234e-19
55	0x258d8a93	2.4553503e-16
56	0x2df75920	2.8120228e-11
57	0xb0d1c5e5	-1.5262996e-09
58	0x311a8de3	2.2490603e-09
59	0xa89e60b3	-1.758346e-14
60	0xad4a9be4	-1.1516985e-11
61	0xa9b21f9a	-7.91027e-14
62	0x9811fdb2	-1.8868894e-24
63	0xa3a703f5	-1.8107852e-17

d_bn1.running_var f4 [64]
0	0x27d9a588	6.040907e-15
1	0x07c750be	2.9989648e-34
2	0x023ea0c6	1.4005135e-37
3	0x1042a0fa	3.8383766e-29
4	0x269ddbee	1.0953675e-15
5	0x17532c24	6.823349e-25
6	0x12b218bc	1.1239477e-27
7	0x2b62ea6d	8.061666e-13
8	0x14351941	9.143145e-27
9	0x2713695d	2.0457466e-15
10	0x217c8338	8.555459e-19
11	0x300c4ff0	5.10453e-10
12	0x115c999c	1.7402274e-28
13	0x1880405f	3.3152223e-24
14	0x0f0c4002	6.9148604e-30
15	0x20e1640f	3.8182696e-19
16	0x201705c6	1.2792108e-19
17	0x1ef25672	2.56585e-20
18	0x088d4302	8.501882e-34
19	0x0684e1db	4.9984746e-35
20	0x04bd96f2	4.4572308e-36
21	0x1e55f456	1.1326654e-20
22	0x1c7c3bc3	8.3457046e-22
23	0x146f1bc8	1.2071895e-26
24	0x2ec6d773	9.042269e-11
25	0x265b275a	7.603422e-16
26	0x02dba3d8	3.22732e-37
27	0x254cabcc	1.7752387e-16
28	0x162409e7	1.3250939e-25
29	0x1d446b66	2.5995908e-21
30	0x00000004	6e-45
31	0x314a92a5	2.9478227e-09
32	0x0e5ead22	2.7446973e-30
33	0x291eca1e	3.5258356e-14
34	0x1b1078f6	1.1950485e-22
35	0x131a2e19	1.946026e-27
36	0x1b577546	1.7822276e-22
37	0x2636ba74	6.3396626e-16
38	0x140fe79d	7.265333e-27
39	0x2681a404	8.99563e-16
40	0x256ac998	2.0364567e-16
41	0x15d4cc58	8.5948516e-26
42	0x265a4573	7.5728065e-16
43	0x06b7fb26	6.920598e-35
44	0x232b7b45	9.296032e-18
45	0x0f3f5845	9.434027e-30
46	0x14eb55c8	2.376277e-26
47	0x1df0dfab	6.375874e-21
48	0x15b397d5	7.253707e-26
49	0x21a2b826	1.1026291e-18
50	0x00018347	1.38929e-40
51	0x116aab13	1.8512061e-28
52	0x00000036	7.6e-44
53	0x1768679b	7.509401e-25
54	0x0402b02c	1.536232e-36
55	0x0e86777d	3.3148613e-30
56	0x1f0ec68a	3.0233897e-20
57	0x25010802	1.119168e-16
58	0x2543920a	1.6963034e-16
59	0x14c2a58e	1.9654294e-26
60	0x1e2944ce	8.961014e-21
61	0x1700a8e7	4.1572215e-25
62	0x00000004	6e-45
63	0x0a47ee31	9.6263e-33

d_fc2.weight f4 [64, 64]
0	0x89830d3f	-3.154956e-33
1	0x071c23b6	1.174663e-34
2	0xae32c945	-4.0651277e-11
3	0xa15355d0	-7.1603153e-19
4	0xa12b1119	-5.795968e-19
5	0xa88dc26a	-1.5738458e-14
6	0x2a6a835a	2.0828947e-13
7	0x11ee6f2b	3.7618292e-28
8	0x8b6a8308	-4.5165338e-32
9	0xb18579ea	-3.8846695e-09
10	0xa6fe424e	-1.7642762e-15
11	0x2c7e98d2	3.6180403e-12
12	0x2c7f064a	3.624117e-12
13	0x851c2325	-7.34154e-36
14	0x8fa43190	-1.619074e-29
15	0x8f16232a	-7.402343e-30
16	0xa1a1cbf8	-1.0963774e-18
17	0x21745e94	8.279559e-19
18	0x9c9ec1e4	-1.0505682e-21
19	0x9bc79379	-3.301709e-22
20	0x9689bf52	-2.2254284e-25
21	0x95743e21	-4.932442e-26
22	0x12e2952d	1.429938e-27
23	0x2c5841a0	3.0731875e-12
24	0x21126ead	4.96132e-19
25	0x3913b549	0.00014086546
26	0x181f801c	2.0614947e-24
27	0x35064a40	5.002694e-07
28	0x20a4ac0f	2.789654e-19
29	0x1a0647bb	2.7768494e-23
30	0x000006d4	2.45e-42
31	0x9d224c53	-2.147998e-21
32	0x309d8250	1.146029e-09
33	0x26c4d0a6	1.3656786e-15
34	0x171936c9	4.9506115e-25
35	0x8f5a5c4d	-1.0766006e-29
36	0x27f5d5fc	6.8233163e-15
37	0x2d038132	7.475175e-12
38	0x95c74529	-8.0484575e-26
39	0xb5de8b66	-1.6580859e-06
40	0xb1965df5	-4.3762562e-09
41	0x37f73992	2.9471503e-05
42	0x36b74392	5.461691e-06
43	0x23a69477	1.8060633e-17
44	0xb2af5b98	-2.0414333e-08
45	0x000532d7	4.77415e-40
46	0x17cdb25e	1.3292841e-24
47	0x90c20199	-7.652197e-29
48	0x10889186	5.3866756e-29
49	0x2eba760c	8.47927e-11
50	0x800050e7	-2.9022e-41
51	0x1d7ed06b	3.372437e-21
52	0x098cfd76	3.3942128e-33
53	0x138d9fb1	3.5750872e-27
54	0x80000f02	-5.384e-42
55	0xa3b14618	-1.9220064e-17
56	0x333811ba	4.285696e-08
57	0x268737ef	9.382668e-16
58	0x9e029a1c	-6.914012e-21
59	0x330d313c	3.28739e-08
60	0xb2674745	-1.34621745e-08
61	0x195d4701	1.1439771e-23
62	0x8b5e4679	-4.2808662e-32
63	0x159f6938	6.4385594e-26
64	0x18bcec65	4.883556e-24
65	0x23b6a7ae	1.9803495e-17
66	0x1a3365f4	3.709869e-23
67	0x2544570c	1.7029783e-16
68	0xb2322fca	-1.037183e-08
69	0xafafc10f	-3.196949e-10
70	0x2c869f54	3.826198e-12
71	0xb2c9eae5	-2.3506297e-08
72	0x2350fdbd	1.1329434e-17
73	0xb0cc1c4e	-1.4850998e-09
74	0xb3d8879c	-1.0082951e-07
75	0xb53620dd	-6.7848106e-07
76	0x28e6f1c4	2.5639979e-14
77	0xa54e523a	-1.7895511e-16
78	0x2eae3564	7.922088e-11
79	0xb2048fe3	-7.716127e-09
80	0x1d63ff88	3.0175306e-21
81	0xae88e9b4	-6.226078e-11
82	0xa3547d71	-1.1519106e-17
83	0xaa163fed	-1.3344855e-13
84	0xaac59038	-3.5094302e-13
85	0xae7dd1f3	-5.7712012e-11
86	0xb3e82320	-1.0809731e-07
87	0x2a043f82	1.1745989e-13
88	0xb55dec94	-8.267318e-07
89	0xb7d02054	-2.4810586e-05
90	0xa4e45057	-9.901534e-17
91	0xb6cdae5e	-6.129775e-06
92	0xab45aa92	-7.0225173e-13
93	0xaa44f827	-1.7494392e-13
94	0xa21c3c15	-2.117375e-18
95	0x29891698	6.0879416e-14
96	0x247ccf56	5.481941e-17
97	0x3510a8d5	5.3889863e-07
98	0xab6362fa	-8.078396e-13
99	0x254c42c7	1.7716804e-16
100	0x3118c5ae	2.223128e-09
101	0xb6c617c2	-5.9036256e-06
102	0x2cc4640a	5.5817616e-12
103	0xb8906f00	-6.8871304e-05
104	0xb6145f63	-2.210924e-06
105	0xabf3957f	-1.7307682e-12
106	0xb904a10b	-0.00012648494
107	0xb2f29bb4	-2.8243313e-08
108	0x38a8f772	8.0569545e-05
109	0x2a43e94e	1.7400423e-13
110	0xb10c151c	-2.038468e-09
111	0x361852d8	2.2697986e-06
112	0x3331978d	4.134886e-08
113	0x3380cd61	5.997823e-08
114	0x22dc77b6	5.975787e-18
115	0xa51f5bb5	-1.3822123e-16
116	0xa0d2ec3d	-3.5731713e-19
117	0x2b075e55	4.8092547e-13
118	0xa3432a23	-1.0579894e-17
119	0x29a28824	7.217862e-14
120	0x2abc9a1a	3.3502438e-13
121	0x3312a096	3.4139326e-08
122	0xb2c7f213	-2.3276732e-08
123	0xb73188c5	-1.0581866e-05
124	0x2da2a168	1.8488946e-11
125	0xb7b05c4b	-2.1023812e-05
126	0xa25f9246	-3.0299572e-18
127	0x24515497	4.53913e-17
128	0x23698ad1	1.2660351e-17
129	0x94dbb161	-2.2183313e-26
130	0x9389c730	-3.4780076e-27
131	0x917f79f4	-2.0153533e-28
132	0x9d462a15	-2.6226838e-21
133	0x94d3e3fd	-2.1395481e-26
134	0x1522d3ba	3.2882662e-26
135	0x1c06fc76	4.466318e-22
136	0x97412af7	-6.2415893e-25
137	0x1cbb2c11	1.2386013e-21
138	0xa31409d1	-8.025175e-18
139	0x280eae69	7.920403e-15
140	0x10131e82	2.901414e-29
141	0x13a3abf4	4.1316544e-27
142	0x86d9756a	-8.179885e-35
143	0x23a2462b	1.7593792e-17
144	0x2544e24f	1.7076966e-16
145	0xa3e34a47	-2.4642847e-17
146	0x896130ad	-2.7106277e-33
147	0x9510f8f8	-2.927697e-26
148	0x1c9f2377	1.0530905e-21
149	0x11b970d1	2.9257382e-28
150	0xa55ff70b	-1.9425868e-16
151	0x911f7e5c	-1.2581826e-28
152	0xb43ea571	-1.7755316e-07
153	0xb236053c	-1.05949844e-08
154	0x823ac048	-1.3720304e-37
155	0xabeb3001	-1.6711078e-12
156	0xa8a191fd	-1.7937903e-14
157	0x05850a92	1.2511143e-35
158	0x800010e4	-6.059e-42
159	0x0f599ca6	1.07290954e-29
160	0x05afd186	1.6533888e-35
161	0x9a43d5e7	-4.0497844e-23
162	0x0d210e37	4.9629066e-31
163	0x1022e804	3.2127605e-29
164	0x161e7d05	1.2802588e-25
165	0xafc2d6d8	-3.544105e-10
166	0x9eae073e	-1.8425962e-20
167	0xb43d08a1	-1.7605136e-07
168	0x31ae2b94	5.0690208e-09
169	0x9e9f6aad	-1.68789e-20
170	0x34e1029d	4.1911417e-07
171	0x2970fcfd	5.3510138e-14
172	0xb534673c	-6.720545e-07
173	0x10bf519e	7.546197e-29
174	0x196dee9a	1.2300798e-23
175	0xa1210fe9	-5.456998e-19
176	0x9e0eaff9	-7.553808e-21
177	0x2e9f4283	7.242298e-11
178	0x98c34c59	-5.048341e-24
179	0x98fe70de	-6.5771428e-24
180	0x8cf4b089	-3.77004e-31
181	0x0150b280	3.8331634e-38
182	0x84732dac	-2.8585484e-36
183	0x91a7e109	-2.6486643e-28
184	0x80588f66	-8.132965e-39
185	0x1bb88f01	3.053266e-22
186	0x150a5ecc	2.794366e-26
187	0xb11d778a	-2.2914457e-09
188	0x2691a7b9	1.0106857e-15
189	0x30cc5275	1.4866389e-09
190	0x9e38ea3a	-9.789316e-21
191	0x0f6bef36	1.1632465e-29
192	0x2306be42	7.304443e-18
193	0x15304508	3.5597373e-26
194	0x1d5762ee	2.8506159e-21
195	0x9094e7db	-5.8732937e-29
196	0xa1a5017f	-1.1181231e-18
197	0x2169410f	7.9029575e-19
198	0x9da4bc8f	-4.3605404e-21
199	0xa1c13f2a	-1.3094908e-18
200	0xa1a9682a	-1.1479457e-18
201	0xab94968b	-1.0557817e-12
202	0x2897c108	1.6848082e-14
203	0xb2aefb37	-2.0370505e-08
204	0x21faf1ae	1.7004631e-18
205	0x1fcdc7cd	8.715142e-20
206	0x1b8c9b26	2.326132e-22
207	0x1d4cdca2	2.711324e-21
208	0xa7fe10a3	-7.05172e-15
209	0xa0cddeae	-3.4875708e-19
210	0x986c2efb	-3.0526004e-24
211	0x9e3bb459	-9.9369926e-21
212	0x0b7fb92d	4.9250524e-32
213	0xa0314d80	-1.5018126e-19
214	0x23542b2a	1.1501683e-17
215	0x21a8d906	1.1441568e-18
216	0xacde7bba	-6.323356e-12
217	0x309218b3	1.0629918e-09
218	0x92040ae3	-4.1665275e-28
219	0x2f9d0cd3	2.8567246e-10
220	0xaa80dc74	-2.2890338e-13
221	0x1b3a4526	1.5407902e-22
222	0x84314b3b	-2.0840794e-36
223	0x9fd9ee26	-9.229706e-20
224	0x14c3b0af	1.9759658e-26
225	0x2b5831bf	7.680765e-13
226	0x1bd4274f	3.509786e-22
227	0x2104106c	4.4745074e-19
228	0xa6fa6f4d	-1.7377403e-15
229	0xa188fd21	-9.282721e-19
230	0xa2066c5d	-1.8217753e-18
231	0x2e44bb46	4.4731573e-11
232	0xac49c54b	-2.8673338e-12
233	0xaad67020	-3.809184e-13
234	0x34714bb9	2.2472422e-07
235	0x1a5c1fdd	4.5520673e-23
236	0x2efd715f	1.1525247e-10
237	0x20ba985d	3.161045e-19
238	0x2138aa3f	6.2566944e-19
239	0x1f1d76b4	3.3344232e-20
240	0xada0b214	-1.8268977e-11
241	0x2f03cd09	1.1987224e-10
242	0x108c8a7e	5.5433644e-29
243	0x9c975140	-1.0013344e-21
244	0x803a591d	-5.358427e-39
245	0x9da07275	-4.2469993e-21
246	0x134d1787	2.5886238e-27
247	0x1a7047e3	4.9688906e-23
248	0x18575b64	2.783424e-24
249	0x9ed0ddb4	-2.2114551e-20
250	0xa884da84	-1.474971e-14
251	0x24b70223	7.936722e-17
252	0xad9efea4	-1.8075604e-11
253	0xaa2c5913	-1.5307573e-13
254	0x102cd6c9	3.4086483e-29
255	0x16241f9b	1.3257787e-25

d_fc2.bias f4 [64]
0	0x00000174	5.21e-43
1	0x00000165	5e-43
2	0x000001af	6.04e-43
3	0x00000345	1.173e-42
4	0x0000025b	8.45e-43
5	0x00000079	1.7e-43
6	0x800000d3	-2.96e-43
7	0x80000314	-1.104e-42
8	0x80000129	-4.16e-43
9	0x800000a5	-2.31e-43
10	0x00000025	5.2e-44
11	0x80000099	-2.14e-43
12	0x80000202	-7.2e-43
13	0x80000118	-3.92e-43
14	0x000000f6	3.45e-43
15	0x80000183	-5.42e-43
16	0x800002ee	-1.051e-42
17	0x00000025	5.2e-44
18	0x00000000	0.0
19	0xae87ef68	-6.181616e-11
20	0x80000225	-7.7e-43
21	0x2bbcf031	1.342487e-12
22	0x00000058	1.23e-43
23	0x800002e2	-1.034e-42
24	0x80000019	-3.5e-44
25	0x000000c0	2.69e-43
26	0x80000201	-7.19e-43
27	0x00000032	7e-44
28	0x00000301	1.078e-42
29	0x8000014e	-4.68e-43
30	0x80000153	-4.75e-43
31	0x8000002a	-5.9e-44
32	0xb26579e8	-1.3357273e-08
33	0x80000165	-5e-43
34	0x80000109	-3.71e-43
35	0x0000024a	8.21e-43
36	0x00000145	4.55e-43
37	0x00000057	1.22e-43
38	0x800000a0	-2.24e-43
39	0x8000000e	-2e-44
40	0x800003b2	-1.326e-42
41	0x00000187	5.48e-43
42	0x00000025	5.2e-44
43	0xaf7ec4ac	-2.3171037e-10
44	0x80000098	-2.13e-43
45	0x8000022a	-7.76e-43
46	0x00000333	1.148e-42
47	0x00000779	2.68e-42
48	0x000000ab	2.4e-43
49	0xb04627a3	-7.208831e-10
50	0x00000131	4.27e-43
51	0x8000016f	-5.14e-43
52	0x80000230	-7.85e-43
53	0x2fa9dfee	3.0900033e-10
54	0xb004464b	-4.812121e-10
55	0xad14e74f	-8.464187e-12
56	0xafc234da	-3.5325948e-10
57	0x80000124	-4.09e-43
58	0x800001b3	-6.1e-43
59	0x00000146	4.57e-43
60	0x80000289	-9.1e-43
61	0x00000064	1.4e-43
62	0x2fc14cf2	3.5161168e-10
63	0xaf4fa2b3	-1.8884343e-10

d_bn2.weight f4 [64]
0	0x394032dd	0.00018329495
1	0x3bcadbfe	0.006190776
2	0x3700e2a7	7.682166e-06
3	0x38b7975c	8.754313e-05
4	0x378e7042	1.6979993e-05
5	0x38b3692d	8.554976e-05
6	0x3833ed05	4.2897667e-05
7	0x3a74844f	0.0009327577
8	0x369eba6b	4.730469e-06
9	0x37041387	7.87236e-06
10	0x35e1ea9e	1.6832089e-06
11	0x38cdf20d	9.820247e-05
12	0x3a83fd97	0.0010070082
13	0x3629d072	2.5304294e-06
14	0x381de343	3.764337e-05
15	0x392c4995	0.0001643061
16	0x365351e4	3.1489117e-06
17	0x398e3d34	0.0002712995
18	0x3a2a12b9	0.0006487775
19	0x3c8eb087	0.01741816
20	0x37eb548f	2.8053559e-05
21	0x376349d8	1.3547447e-05
22	0x357b1b53	9.354455e-07
23	0x38ae2010	8.302939e-05
24	0x3a17d2f8	0.00057916297
25	0x3c128c7a	0.008944625
26	0x3b929ddb	0.0044743842
27	0x3a4e4124	0.0007867983
28	0x392b2259	0.00016320626
29	0x37c706cf	2.372582e-05
30	0x3b757bca	0.0037457817
31	0x3c04190c	0.008062612
32	0x3b7704e0	0.0037692115
33	0x361f5265	2.3740806e-06
34	0x3632ce5e	2.6644188e-06
35	0x3a5f33ac	0.00085144746
36	0x371417b8	8.82701e-06
37	0x36bc8489	5.6182657e-06
38	0x358c160c	1.0437229e-06
39	0x38c1e554	9.245673e-05
40	0x3bdb6cab	0.006696304
41	0x392e4ee8	0.00016623328
42	0x366025dd	3.340064e-06
43	0x39a2bc35	0.00031039273
44	0x37869f14	1.6048121e-05
45	0x36fbf33d	7.5086996e-06
46	0x3b604b73	0.0034224659
47	0x36c43408	5.8473124e-06
48	0x37e7042f	2.7539294e-05
49	0x3b95d97b	0.004573045
50	0x3a3b9525	0.0007155708
51	0x3a41bc47	0.0007390421
52	0x377f45d6	1.5215444e-05
53	0x3a146e05	0.0005662146
54	0x39ea2b39	0.0004466416
55	0x38967735	7.1747614e-05
56	0x3b1d09ed	0.0023962215
57	0x3bacd70c	0.005274659
58	0x39e07790	0.0004281369
59	0x37a3c2a7	1.9521756e-05
60	0x3b6c4426	0.0036051362
61	0x36208150	2.3917128e-06
62	0x3d04f5c5	0.032460947
63	0x3a145ccd	0.00056595803

d_bn2.bias f4 [64]
0	0xb5931e4f	-1.0961174e-06
1	0xbb29904c	-0.002587336
2	0xb6e6440e	-6.8624568e-06
3	0xb65fc804	-3.3346014e-06
4	0xb3059166	-3.1098715e-08
5	0xb84aeb79	-4.8379854e-05
6	0xb0d3636e	-1.538053e-09
7	0xb6a08e2d	-4.784923e-06
8	0xb2afe4da	-2.0476751e-08
9	0xb38eff41	-6.658821e-08
10	0xb008ec6b	-4.981248e-10
11	0xb19579fe	-4.3503396e-09
12	0xb7c610ef	-2.3611325e-05
13	0xb4410b9f	-1.7978753e-07
14	0xb1f905eb	-7.2475266e-09
15	0xb5527f97	-7.8416764e-07
16	0xb98b2d29	-0.00026545793
17	0xb6eb3874	-7.0101178e-06
18	0xb7392783	-1.1036059e-05
19	0x3b07d769	0.002072776
20	0xb4aec221	-3.2551273e-07
21	0x39c505d1	0.00037579102
22	0xb3098059	-3.201453e-08
23	0xb2d9d29e	-2.5357902e-08
24	0xb838553c	-4.39484e-05
25	0xb9db8061	-0.00041866585
26	0xb98bb1d4	-0.00026644638
27	0xb7e177f6	-2.6877951e-05
28	0xb59a2e6c	-1.1487405e-06
29	0xb37bbe36	-5.8613487e-08
30	0xb9903e05	-0.00027512028
31	0xb9491054	-0.00019174936
32	0x3c0b5b88	0.0085057095
33	0xb12029c5	-2.3306808e-09
34	0xaaeb0c8b	-4.175309e-13
35	0xb7e3dc37	-2.7163054e-05
36	0xb436f363	-1.7038614e-07
37	0xb5856e86	-9.941439e-07
38	0xb3d44038	-9.8837006e-08
39	0xb619ddea	-2.2927948e-06
40	0xb8e93565	-0.00011120251
41	0xb2b7e90a	-2.1409978e-08
42	0xb3b0d2dd	-8.2339945e-08
43	0x3aa18fa6	0.0012326136
44	0xb297c27f	-1.766716e-08
45	0xab8592e4	-9.490989e-13
46	0xb9a1c179	-0.0003085246
47	0xb74b612d	-1.2122368e-05
48	0xafd729e5	-3.913804e-10
49	0x3b032f2d	0.0020017133
50	0xb8863b39	-6.400649e-05
51	0xb5f45b50	-1.8205992e-06
52	0xb6d41c5f	-6.321395e-06
53	0x3b2823f3	0.0025656193
54	0x3b08dd70	0.002088394
55	0x39a8e3f8	0.00032213307
56	0x3a2ad2ba	0.0006516386
57	0xb9e9fee3	-0.0004463113
58	0xb7b0931e	-2.1049342e-05
59	0xb1987f73	-4.4382715e-09
60	0xba113b27	-0.00055401254
61	0xb108c38d	-1.9901762e-09
62	0x3a843ca0	0.0010088868
63	0x3ae6d0e7	0.0017609865

d_bn2.running_mean f4 [64]
0	0x2b4b097c	7.213325e-13
1	0xab814678	-9.18556e-13
2	0xa51248f1	-1.2688195e-16
3	0xa8d294c6	-2.3379204e-14
4	0x9d12c6e8	-1.9425771e-21
5	0x2703ea93	1.8307065e-15
6	0x9c10d16c	-4.7916275e-22
7	0x27464152	2.751343e-15
8	0xa14ddc8d	-6.97486e-19
9	0x15c0e054	7.790211e-26
10	0xa08918e4	-2.3225174e-19
11	0x21016cfb	4.3851135e-19
12	0xa661d64b	-7.835298e-16
13	0x9d36cce2	-2.4193421e-21
14	0x9f35b7e2	-3.8480345e-20
15	0xac6fdf6b	-3.4087965e-12
16	0x9b0f3fe8	-1.1849332e-22
17	0xa7579408	-2.9917492e-15
18	0x29e6ab53	1.0243772e-13
19	0xae83bf7b	-5.991204e-11
20	0xa2f53ad5	-6.6469674e-18
21	0x2bb68811	1.2969644e-12
22	0x9a2abdc3	-3.5308464e-23
23	0x20c2c19b	3.2992996e-19
24	0x23f6520e	2.6706125e-17
25	0x2973630b	5.4042745e-14
26	0x2a0cfadb	1.2521531e-13
27	0x29589285	4.808872e-14
28	0x2513573a	1.2779771e-16
29	0x209da723	2.6707436e-19
30	0xa5ab6533	-2.9732347e-16
31	0xacca307a	-5.7465673e-12
32	0xb243a508	-1.1388018e-08
33	0x9d0c9a25	-1.8608537e-21
34	0x997030f3	-1.24175944e-23
35	0x218a07a4	9.353266e-19
36	0x23d168a7	2.2704147e-17
37	0xa906599f	-2.983171e-14
38	0x2110cf9c	4.9063866e-19
39	0x22d88b98	5.869472e-18
40	0x277089f3	3.3381473e-15
41	0x212cfcf5	5.8610653e-19
42	0xa2d60df0	-5.8019573e-18
43	0xaf7f0bd6	-2.319632e-10
44	0x2018372e	1.2893158e-19
45	0x197262aa	1.2531032e-23
46	0x2cc2467e	5.521638e-12
47	0x23877484	1.4686076e-17
48	0xa301e4d3	-7.0415594e-18
49	0xafc8704b	-3.6459577e-10
50	0xa7a97b26	-4.704044e-15
51	0xa3799839	-1.35305514e-17
52	0xa603c0ef	-4.571123e-16
53	0x2f93e9b7	2.690521e-10
54	0xafebe597	-4.2909384e-10
55	0xad24e01a	-9.372081e-12
56	0xafbcc0b1	-3.4333916e-10
57	0xac292a98	-2.4039989e-12
58	0x22f54e57	6.649033e-18
59	0xa15d1af1	-7.491337e-19
60	0xaced5fb4	-6.7465703e-12
61	0xa4112323	-3.1471625e-17
62	0x2ec8ef1c	9.1374214e-11
63	0xaf671cfc	-2.1019625e-10

d_bn2.running_var f4 [64]
0	0x173a5500	6.0207126e-25
1	0x17931609	9.505215e-25
2	0x0c68ade4	1.7924958e-31
3	0x1282826c	8.236305e-28
4	0x000018dd	8.919e-42
5	0x0eee8079	5.8795244e-30
6	0x00000161	4.95e-43
7	0x1134aa38	1.4251949e-28
8	0x036c288e	6.940072e-37
9	0x00000004	6e-45
10	0x04508d91	2.4515287e-36
11	0x060e8d76	2.681116e-35
12	0x0d658cce	7.073556e-31
13	0x000a7e26	9.63608e-40
14	0x0011deec	1.641173e-39
15	0x19a8e664	1.7463847e-23
16	0x00000114	3.87e-43
17	0x1014622b	2.926348e-29
18	0x14853752	1.3451388e-26
19	0x17871ae4	8.730959e-25
20	0x0687db53	5.1103624e-35
21	0x09a77e44	4.0322527e-33
22	0x00000e09	5.035e-42
23	0x02ed0209	3.4825188e-37
24	0x08bd51f3	1.139429e-33
25	0x1372368a	3.0571584e-27
26	0x14ac2856	1.7383471e-26
27	0x138ad6ba	3.5047834e-27
28	0x0cafb4f5	2.7071929e-31
29	0x0252d8ab	1.5490544e-37
30	0x0be25c0a	8.719052e-32
31	0x1a707f55	4.9733695e-23
32	0x1f513895	4.4304275e-20
33	0x0000463b	2.5194e-41
34	0x00000005	7e-45
35	0x0427b548	1.9713996e-36
36	0x08678419	6.9669314e-34
37	0x129ffd68	1.009678e-27
38	0x0428ae4f	1.9828344e-36
39	0x07449c70	1.4791374e-34
40	0x106cc77c	4.669647e-29
41	0x02a0c71c	2.362417e-37
42	0x06565225	4.0309277e-35
43	0x08e15a02	1.3562856e-33
44	0x010ab279	2.5474645e-38
45	0x00000005	7e-45
46	0x1a6284ea	4.6843072e-23
47	0x085dd1f0	6.675155e-34
48	0x0954cbad	2.561434e-33
49	0x1014ffdf	2.938497e-29
50	0x10ff6261	1.0073134e-28
51	0x0a1a35f8	7.424981e-33
52	0x0ce610ee	3.54473e-31
53	0x1c07b836	4.490584e-22
54	0x129d5220	9.928338e-28
55	0x0f2af440	8.428688e-30
56	0x0e9b8706	3.8340473e-30
57	0x1932efe1	9.2508275e-24
58	0x06b7b032	6.9095845e-35
59	0x045bff89	2.5860662e-36
60	0x1aa3b282	6.7703615e-23
61	0x08bdae32	1.1415977e-33
62	0x13051861	1.679898e-27
63	0x0eefb5e6	5.909321e-30

d_fc3.weight f4 [2, 64]
0	0xbc160056	-0.0091553535
1	0xbb8c8be9	-0.0042891395
2	0x3af878ad	0.0018956863
3	0xbc2455fc	-0.010030266
4	0x3b1afbaa	0.0023648539
5	0xbb784d0d	-0.0037887723
6	0x3bfa565c	0.0076396894
7	0xbb9a5591	-0.0047099073
8	0xba97c26d	-0.0011578329
9	0xbb98d1a8	-0.004663665
10	0xba71fba1	-0.0009230916
11	0x3988fb3f	0.00026127134
12	0x3bafccdd	0.005364998
13	0x3b22aadb	0.0024821076
14	0x3b8912da	0.0041831555
15	0xbb82cf05	-0.003991964
16	0x3b1c600d	0.0023860962
17	0x3b462f44	0.0030240575
18	0xbc8a7529	-0.01690157
19	0xbcad34b3	-0.021143293
20	0xbbdde487	-0.0067716273
21	0xbb8ea042	-0.0043526003
22	0xba027204	-0.0004976096
23	0x3c5e95d2	0.013585525
24	0x3c98155c	0.018564872
25	0xbcbf43bb	-0.023347726
26	0xbc53792b	-0.012907307
27	0xbc6a5c42	-0.014304223
28	0x3bb2affb	0.0054531074
29	0xbb9b5a52	-0.0047409916
30	0xbb631da9	-0.003465513
31	0x3b124c14	0.0022323178
32	0x3c9ac448	0.018892422
33	0xbb05f6a3	-0.0020441196
34	0xba02b08d	-0.00049854146
35	0xbcbbaadd	-0.022908622
36	0xbbbface3	-0.005849467
37	0x3b508521	0.0031817632
38	0xbb28f188	-0.002577873
39	0xbbbdbef1	-0.0057905843
40	0x3ceeba5e	0.029141601
41	0xba4e4493	-0.0007868495
42	0xbb303ba2	-0.0026891013
43	0x3c36d990	0.011160269
44	0xbac8ae29	-0.0015310693
45	0x3b5d216c	0.0033741845
46	0x3c11793e	0.008879004
47	0x3b66af0e	0.0035199556
48	0xbb26d9b8	-0.002545936
49	0x3b53adac	0.0032299561
50	0x3c0979af	0.008390828
51	0xbb2ff4f1	-0.0026848877
52	0xba321749	-0.0006793631
53	0x3bff3331	0.007788085
54	0xba9bcf65	-0.001188737
55	0xb94869db	-0.0001911292
56	0xbac72fd2	-0.0015196747
57	0xbb06b895	-0.0020556797
58	0x3c1d6b41	0.009608091
59	0xb9ef61f2	-0.00045658607
60	0xbbb05bd8	-0.0053820424
61	0x3ab44138	0.0013752347
62	0x3c857c66	0.01629467
63	0x3c3aeb1a	0.011408592
64	0xbc00ab05	-0.007853274
65	0x3a8fa203	0.0010958317
66	0x3b86dbab	0.004115542
67	0xbaafc645	-0.0013410529
68	0xbb89c9e3	-0.004204975
69	0xbc1948ee	-0.009355767
70	0x3bc9e0ff	0.006160855
71	0xbc87fd12	-0.016600166
72	0x3ad9eb32	0.001662588
73	0xbb9ac9eb	-0.0047237775
74	0xbab65a4c	-0.0013912409
75	0x37b7e14c	2.1920212e-05
76	0x3b9545ec	0.0045554545
77	0x39b331a2	0.0003417852
78	0x3bee3469	0.0072694314
79	0x3932c540	0.00017048884
80	0x3a863465	0.0010239003
81	0xb9960619	-0.00028614773
82	0xbcd36144	-0.025803216
83	0xbcad8d07	-0.021185411
84	0xbc3d56a0	-0.011556298
85	0xbbc2c490	-0.005943842
86	0xb9da7749	-0.00041669075
87	0x3c5f2007	0.013618476
88	0x3c636b0d	0.013880503
89	0xbca50d36	-0.020147901
90	0xbc8552fe	-0.016274925
91	0xbb02e1a8	-0.0019970927
92	0x3b774271	0.003772881
93	0xbb9a89fd	-0.0047161565
94	0x3bbc69a6	0.005749899
95	0x3b4602b6	0.0030214018
96	0xb8e4729b	-0.00010893234
97	0xba96e645	-0.0011512717
98	0xb9e5a82f	-0.0004380359
99	0xbcc0b496	-0.02352361
100	0x3b0cb581	0.002147049
101	0x3b5e7784	0.0033945749
102	0xbb09fa69	-0.0021053797
103	0xbc2e3bcd	-0.010634375
104	0x3c874385	0.016511688
105	0x3a64d154	0.0008728702
106	0x39ada9eb	0.0003312373
107	0x3bb1c3c1	0.005424947
108	0x3b95bb99	0.0045694825
109	0x3b58d2b8	0.0033084583
110	0x3cb7bc53	0.022428667
111	0x3b06cada	0.0020567686
112	0xbb801d2f	-0.003909729
113	0xbbb92b24	-0.0056508947
114	0x3bcf2fe5	0.006322848
115	0xbb05feef	-0.0020446142
116	0xb870d9b9	-5.742323e-05
117	0xba7f0e01	-0.0009729565
118	0xbc1ab02a	-0.009441415
119	0xbac0db22	-0.0014713744
120	0xbb4ab08c	-0.0030927984
121	0x3b3aa62c	0.0028480394
122	0x3c2e0645	0.010621612
123	0x3a5ecd77	0.00084992446
124	0x3c2bfb10	0.01049687
125	0x3b0064d7	0.0019591355
126	0x3c820654	0.015872158
127	0x3bbf3101	0.005834699

d_fc3.bias f4 [2]
0	0x3e66b2f8	0.22529209
1	0xbe748c26	-0.23881587
