code/model/seed_929/QDANN_E_corn_2018.pth (torch, 81090 bytes, 30 tensors)

fc_1.weight f4 [64, 27]
-0.029510198 0.04582575 -0.050066613 0.03874401 0.02031847 -0.019044047 0.03184229 0.016742986
-0.015655719 -0.004560923 -0.017700186 -0.059058085 0.018311605 -0.03724409 -0.00035362612 -0.035705663
-0.01609528 0.0007855337 0.04072957 0.0071553723 0.031312246 0.0067488197 0.0008700858 0.057658587
0.008599178 -0.02175137 0.0058445893 -0.04034644 0.046774533 -0.03311015 0.009926939 0.018577002
-0.022010809 0.030095147 0.041461788 0.0055789673 -0.005910144 -0.017227909 -0.017132014 0.048553713
0.007391993 -0.013358984 -0.038402833 -0.015110912 0.0470782 -0.0077411328 -0.0473254 -0.013705346
0.005861989 0.016798107 0.026360502 0.014042799 0.00669497 -0.0022586784 1.02200666e-07 4.1941984e-08
2.4075615e-07 -1.0673246e-07 1.0819154e-07 -8.734367e-08 -5.5666053e-08 -4.3788384e-07 -1.1530565e-08 1.2858598e-07
-1.174073e-09 3.1257354e-08 3.0254887e-07 -4.8555336e-08 -1.8150192e-07 -4.5443386e-08 3.219817e-07 3.011034e-07
-6.6171374e-08 -3.975223e-08 -2.3365587e-09 -1.8757237e-06 -1.1945577e-05 -3.802036e-08 -3.1732015e-09 -4.1298356e-09
1.2430786e-08 -0.018204158 0.05881792 -0.061522443 0.024058212 0.022158468 -0.051661532 0.018371277
-0.085577734 -0.008347158 0.052081853 -0.016588295 -0.009702806 0.022791972 -0.034499474 0.042631947
0.042234913 0.05360652 0.025551928 -0.026477808 0.030907225 0.021102492 -0.008011284 0.08050051
0.0030162174 0.044627894 0.009144068 -0.036723506 -0.060178798 0.04918539 -0.035084628 0.017382951
0.06885507 -0.069921285 0.016233824 0.012403191 -0.030661386 -0.010643458 -0.026958037 -0.017028227
0.0023410001 -0.0353045 0.0062426436 0.019812632 -0.007324597 0.01693835 -0.007842839 -0.0008505199
0.021428686 0.015482721 0.029464114 -0.0069573624 0.017127603 0.008206995 -0.022519542 0.066717066
-0.014971209 0.020898152 0.056670416 -0.01070263 -0.088658944 -0.013199035 0.010090364 -0.03307859
0.03542853 -0.009978006 0.025934374 -0.02239785 0.0003311532 0.0008750334 -0.021195205 0.011689346
0.0075286957 -0.038953662 0.008642407 -0.0019475502 -0.020287842 -0.002016545 -0.039433032 -0.0064315107
0.02168908 -0.032610446 -0.025857788 0.021721609 -0.02625242 0.04547608 0.025049364 -0.0573033
0.001873226 -0.0009434845 -0.027325012 -0.019201428 -0.034800716 0.011894801 0.020270944 0.013258233
0.0043675397 0.009096391 -0.020076802 0.033455066 0.0007069304 -0.04452682 -0.02843399 -0.006613914
0.048178095 0.021216335 0.00030785854 0.010523301 0.059393898 -0.07587659 0.11706504 0.0066775875
0.0045215236 0.06844425 -0.08337493 0.048442524 0.05167004 0.016013812 0.032319747 -0.03286138
-0.0018010779 0.003094607 0.00040182984 0.024212325 0.031377103 -0.004550707 -0.042714898 -0.03687402
0.0037339393 -0.0027111173 -0.041966908 0.026651485 -0.04398053 0.0041339793 -0.02567265 0.017067308
0.014996321 -0.06391413 0.08096072 0.008005359 -0.050922997 0.01419134 -0.0070592016 0.02047012
-0.0058274674 -0.03293557 0.050744954 -0.010365447 0.031791005 0.011900788 0.04252106 0.043518707
0.05602092 0.022612074 0.030714523 0.01927276 -0.01517394 0.027992733 -0.00294989 -0.062542975
-0.04961693 -0.033961702 0.0073161144 -0.058123246 0.1083091 -0.046531454 -0.015313413 0.031569455
-0.042674214 0.028676735 -0.045909923 0.01440462 0.047187228 -0.010165083 -0.033244234 0.01358079
00000000: 5fbf f1bc c8b3 3b3d a612 4dbd 0ab2 1e3d
00000010: ec72 a63c 4302 9cbc 106d 023d 9628 893c
00000020: 6c40 80bc cc73 95bb fbff 90bc e4e6 71bd
00000030: 3802 963c 428d 18bd e566 b9b9 1a40 12bd
00000040: 40da 83bc 46ec 4d3a 0dd4 263d 9d77 ea3b
00000050: 4541 003d 3425 dd3b 7816 643a 692b 6c3d
00000060: 91e3 0c3c ee2f b2bc f883 bf3b 4f42 25bd
00000070: a796 3f3d 829e 07bd 9aa4 223c cc2e 983c
00000080: 0350 b4bc 198a f63c d6d3 293d c5cf b63b
00000090: e2a9 c1bb 8b21 8dbc 7058 8cbc 42e0 463d
000000a0: 8838 f23b a4df 5abc 4a4c 1dbd c293 77bc
000000b0: 12d5 403d 54a9 fdbb 47d8 41bd 638c 60bc
000000c0: ee15 c03b 2f9c 893c fbf1 d73c c513 663c
000000d0: 7b61 db3b 5606 14bb 6979 db33 b323 3433
000000e0: 4641 8134 ca34 e5b3 ee56 e833 b191 bbb3
000000f0: 7915 6fb3 4c16 ebb4 f617 46b2 7211 0a34
00000100: 055d a1b0 d33f 0633 006e a234 288b 50b3
00000110: dee2 42b4 882d 43b3 d4dc ac34 56a7 a134
00000120: 191a 8eb3 0abc 2ab3 2d91 20b1 60c1 fbb5
00000130: dd69 48b7 d44b 23b3 8d0f 5ab1 6be6 8db1
00000140: 2d8f 5532 e320 95bc 0feb 703d f5fe 7bbd
00000150: ba15 c53c ad85 b53c 0b9b 53bd 5c7f 963c
00000160: 6143 afbd 85c2 08bc c853 553d 2de4 87bc
00000170: 85f8 1ebc 3bb6 ba3c 524f 0dbd d69e 2e3d
00000180: 84fe 2c3d 8392 5b3d 4752 d13c fde7 d8bc
00000190: 2631 fd3c 22df ac3c c341 03bc 74dd a43d
000001a0: bbab 453b bdcb 363d 00d1 153c 636b 16bd
000001b0: 0b7e 76bd 9f76 493d e6b4 0fbd b166 8e3c
000001c0: e303 8d3d e432 8fbd ccfc 843c c136 4b3c
000001d0: 962d fbbc e661 2ebc 1ad7 dcbc c87e 8bbc
000001e0: 776b 193b 749b 10bd 178f cc3b 1a4e a23c
000001f0: 2c03 f0bb 4bc2 8a3c 407f 00bc 6df5 5eba
00000200: 368b af3c 3dab 7d3c ba5e f13c 96fa e3bb
00000210: 304f 8c3c a276 063c e77a b8bc f5a2 883d
00000220: cd49 75bc 9a32 ab3c 3d1f 683d 155a 2fbc
00000230: d292 b5bd c440 58bc 0e52 253c 6a7d 07bd
00000240: 821d 113d ca7a 23bc 5374 d43c b27b b7bc
00000250: a19e ad39 7f62 653a 91a1 adbc ac84 3f3c
00000260: 47b3 f63b e08d 1fbd e298 0d3c f144 ffba
00000270: b032 a6bc 0328 04bb 8884 21bd 6cbf d2bb
00000280: 4cad b13c 8892 05bd b6d3 d3bc 84f1 b13c
00000290: 510f d7bc 2045 3a3d 5334 cd3c ddb6 6abd
000002a0: 0987 f53a 2c54 77ba b4d8 dfbc 504c 9dbc
000002b0: 328b 0ebd 69e2 423c 400f a63c 0f39 593c
000002c0: 941d 8f3b 0709 153c 1b78 a4bc 2e08 093d
000002d0: 4c51 393a c161 36bd 66ee e8bc 88b9 d8bb
000002e0: 6556 453d e1cd ad3c 1368 a139 ec69 2c3c
000002f0: 0447 733d 3065 9bbd ccbf ef3d aacf da3b
00000300: 4a29 943b 802c 8c3d 7ac0 aabd ab6b 463d
00000310: f7a3 533d 662f 833c b661 043d a899 06bd
00000320: 2512 ecba e4ce 4a3b b0ac d239 ed58 c63c
00000330: 4785 003d 191e 95bb d1f5 2ebd 3609 17bd
00000340: 1bb5 743b 00ad 31bb 7ee5 2bbd 3754 da3c
00000350: ee24 34bd 5576 873b 734f d2bc bdd0 8b3c
00000360: 21b3 753c 69e5 82bd bcce a53d e928 033c
00000370: a294 50bd cb82 683c e050 e7bb f4b0 a73c
00000380: 57f4 bebb 73e7 06bd f1d9 4f3d d6d3 29bc
00000390: 4937 023d 86fb 423c 902a 2e3d ac40 323d
000003a0: 3176 653d f53c b93c 069d fb3c e8e1 9d3c
000003b0: 1e9c 78bc 0451 e53c f152 41bb 8816 80bd
000003c0: 1f3b 4bbd 6d1b 0bbd 04bc ef3b a412 6ebd
000003d0: 29d1 dd3d c497 3ebd 1ce5 7abc f94e 013d
000003e0: 28cb 2ebd 79eb ea3c 0b0c 3cbd 5b01 6c3c
000003f0: 6547 413d 738b 26bc 1b2b 08bd f681 5e3c

fc_1.bias f4 [64]
9.342773e-09 1.4745131e-08 -7.78e-43 -2.7911122e-08 -6.6928525e-09 2.385253e-08 -3.1474574e-08 2.5573168e-08
4.591074e-08 9.252646e-09 9.00508e-09 1.4243113e-08 -1.2921026e-08 1.265e-42 8.669153e-09 9.551474e-09
2.0589306e-08 -1.3948109e-08 3.3260918e-08 -1.145956e-08 1.4578389e-08 2.8966475e-08 -1.8419637e-08 2.3203492e-08
1.649311e-08 -1.46149866e-08 -3.12602e-08 1.472995e-08 -1.0483e-41 7.99098e-09 -2.1470813e-08 -9.436183e-10
2.6825209e-08 -1.7984142e-08 3.2288479e-09 1.9050193e-09 5.4357217e-09 8.659781e-09 -1.6124874e-08 1.9453884e-08
1.2221787e-08 -9.200852e-09 2.5572405e-08 5.8322054e-09 2.820169e-08 1.6577129e-08 2.3165404e-08 -1.5577337e-09
-1.977708e-08 1.8917201e-10 -1.6646254e-08 3.845081e-09 1.8682611e-11 -8.7231916e-10 -3.0136707e-08 -2.043199e-08
-4.5489004e-09 3.2500274e-12 -5.1051597e-08 5.3768403e-09 -2.7167399e-08 2.6411346e-08 -2.1895087e-08 -3.786277e-08
00000000: f381 2032 c651 7d32 2b02 0080 35c1 efb2
00000010: f4f6 e5b1 45e4 cc32 a92e 07b3 feab db32
00000020: 642f 4533 91f5 1e32 c3b4 1a32 e0b1 7432
00000030: 46fb 5db2 8703 0000 57ef 1432 d417 2432
00000040: 5ddc b032 6fa0 6fb2 c4da 0e33 aedf 44b2
00000050: 6f74 7a32 f4d1 f832 3639 9eb2 0551 c732
00000060: bcac 8d32 6415 7bb2 f442 06b3 010f 7d32
00000070: 391d 0080 b448 0932 d16e b8b2 9eb0 81b0
00000080: 426d e632 8c7b 9ab2 7ee2 5d31 74e9 0231
00000090: 1dc5 ba31 1fc6 1432 f982 8ab2 8b1b a732
000000a0: fdf7 5132 c611 1eb2 50aa db32 9f64 c831
000000b0: 2c40 f232 7e65 8e32 43fd c632 e217 d6b0
000000c0: 42e2 a9b2 30ff 4f2f 80fd 8eb2 b11d 8431
000000d0: 8055 a42d 01c8 6fb0 a96f 01b3 6c82 afb2
000000e0: 8d4c 9cb1 4ab3 642c d343 5bb3 30bf b831
000000f0: be5d e9b2 2adf e232 ce13 bcb2 8e9e 22b3

f_bn1.weight f4 [64]
0.087479144 0.08544617 2.413749e-05 0.09300589 0.07336927 0.08633211 0.06489031 0.100838356
0.091946304 0.10125525 0.120401196 0.07556216 0.07678912 0.0006239417 0.07986781 0.07424779
0.10843688 0.07986219 0.09408437 0.09880845 0.12420101 0.07502731 0.12690663 0.06616563
0.08290399 0.06963952 0.09219343 0.061977886 0.0018496793 0.05313354 0.07820509 0.09755177
0.10176578 0.09771038 0.07187126 0.059858024 0.075437844 0.06597863 0.060838703 0.10724064
0.07820907 0.05838835 0.059819784 0.12230181 0.09678614 0.06922741 0.06604151 0.08434999
0.13897146 0.057438433 0.07309466 0.07917021 0.07537362 0.048820868 0.1081495 0.03788459
0.06379382 0.0030931043 0.11721353 0.0933162 0.068317235 0.07882337 0.105443045 0.11370442
00000000: 4428 b33d 67fe ae3d dd7a ca37 df79 be3d
00000010: a142 963d e4ce b03d 36e5 843d 5784 ce3d
00000020: 584e bc3d ea5e cf3d e794 f63d 55c0 9a3d
00000030: 9d43 9d3d 0590 233a bc91 a33d 3a0f 983d
00000040: 2814 de3d ca8e a33d 4eaf c03d 165c ca3d
00000050: 195d fe3d eba7 993d d0f3 013e d981 873d
00000060: 91c9 a93d 2a9f 8e3d e9cf bc3d 86dc 7d3d
00000070: f070 f23a 8ea2 593d fd29 a03d 39c9 c73d
00000080: 946a d03d 611c c83d 3d31 933d b02d 753d
00000090: 287f 9a3d ce1f 873d 0132 793d fba0 db3d
000000a0: 142c a03d 9f28 6f3d 9705 753d 5f79 fa3d
000000b0: d037 c63d 1ac7 8d3d c540 873d b0bf ac3d
000000c0: 894e 0e3e 9044 6b3d a7b2 953d fe23 a23d
000000d0: 7c5d 9a3d 64f8 473d 7c7d dd3d df2c 1b3d
000000e0: 56a6 823d aeb5 4a3b a60d f03d 901c bf3d
000000f0: e8e9 8b3d 266e a13d 86f2 d73d dddd e83d

f_bn1.bias f4 [64]
-0.08024415 -0.10631104 -2.9218883e-05 -0.07006968 -0.056688707 -0.07047029 -0.030572612 -0.058979068
-0.039646093 -0.09149623 -0.12495834 -0.06872783 -0.007164994 -0.0060291747 -0.06499088 -0.050361246
-0.113106735 -0.10114755 -0.1222304 -0.035678748 -0.10579357 -0.05893513 -0.13991757 -0.0013341255
-0.1513235 -0.043280523 -0.045760423 0.0008524863 -0.0073485733 -0.029762994 -0.019682372 -0.07447105
-0.053828813 -0.035351925 -0.055656686 -0.0003145109 -0.049885772 -0.0120837875 -0.020337792 -0.07964329
-0.048773754 -0.08376363 -0.018928053 -0.06977241 -0.08705814 -0.0072677555 -0.017948316 -0.08471408
-0.11160596 0.00023188196 -0.06281688 -0.042858515 -0.06495401 0.0048458884 -0.084879145 -0.010940924
-0.023406263 -0.013205279 -0.12711987 -0.12895133 -0.1073087 -0.046130218 -0.1083251 -0.13698888
00000000: 0b57 a4bd 9ab9 d9bd 131b f5b7 b180 8fbd
00000010: 6b32 68bd ba52 90bd 6a73 fabc 0994 71bd
00000020: f163 22bd 6062 bbbd 28ea ffbd 2dc1 8cbd
00000030: 53c8 eabb 6290 c5bb f019 85bd 9847 4ebd
00000040: 81a4 e7bd 7226 cfbd ef53 fabd e123 12bd
00000050: 4daa d8bd f665 71bd 8d46 0fbe d3dd aeba
00000060: 8cf4 1abe eb46 31bd 486f 3bbd 6379 5f3a
00000070: 4dcc f0bb 86d1 f3bc ed3c a1bc 4784 98bd
00000080: 9a7b 5cbd 2ecd 10bd 44f8 63bd f0e4 a4b9
00000090: 0655 4cbd 14fb 45bc 719b a6bc 051c a3bd
000000a0: fdc6 47bd 448c abbd 010f 9bbc d6e4 8ebd
000000b0: 8a4b b2bd 5a26 eebb 5908 93bc 937e adbd
000000c0: aa91 e4bd 5725 7339 23a6 80bd 698c 2fbd
000000d0: 9c06 85bd 42ca 9e3b 1ed5 adbd 9041 33bc
000000e0: 7ebe bfbc f45a 58bc b62b 02be d10b 04be
000000f0: aac4 dbbd 0af3 3cbd 8dd9 ddbd d046 0cbe

f_bn1.running_mean f4 [64]
-0.10739981 -0.06701222 -4.397637e-06 -0.0019004402 -0.09397495 -0.013247107 -0.09044717 0.009369469
0.070218466 0.016866446 -0.10940803 0.14627841 0.11017225 0.0013424625 -0.111909315 0.11138991
-0.11664282 0.0060219243 0.16012026 0.06784021 0.1726544 -0.09303148 0.14137302 -0.045053832
0.022005187 -0.017779287 0.01981309 -0.069286436 0.0035481714 0.07996953 -0.08968379 -0.08565639
0.098837025 0.09367846 -0.047972932 0.06323481 0.023448378 -0.115510814 -0.082669035 -0.04421762
-0.04671118 0.02562755 0.093738064 -0.039262135 -0.009309785 -0.10230032 -0.0015521554 -0.0029668147
0.11319037 -0.030854559 -0.06405066 -0.0578727 -0.026008874 -0.08862756 0.15374403 -0.019686563
0.05072393 0.0037010573 0.15157484 -0.037898384 0.064857505 0.10985561 0.022792444 0.13070585
00000000: 6ef4 dbbd b43d 89bd 6a8f 93b6 3118 f9ba
00000010: f075 c0bd 650a 59bc 5e3c b9bd 6782 193c
00000020: b3ce 8f3d 802b 8a3c 5111 e0bd 02ca 153e
00000030: fda1 e13d 91f5 af3a b630 e5bd 6520 e43d
00000040: 6ee2 eebd 9053 c53b 91f6 233e cfef 8a3d
00000050: 51cc 303e 4a87 bebd 17c4 103e 5e8a 38bd
00000060: 3944 b43c dea5 91bc 104f a23c 0ce6 8dbd
00000070: 7088 683b 11c7 a33d 23ac b7bd 9e6c afbd
00000080: 116b ca3d 7eda bf3d 447f 44bd 4181 813d
00000090: d016 c03c ef90 ecbd 624e a9bd 891d 35bd
000000a0: 3954 3fbd def0 d13c bef9 bf3d 55d1 20bd
000000b0: 1288 18bc d582 d1bd b171 cbba e46e 42bb
000000c0: 5ad0 e73d b3c2 fcbc fe2c 83bd ed0b 6dbd
000000d0: 9010 d5bc 5e82 b5bd 136f 1d3e b745 a1bc
000000e0: e5c3 4f3d 708d 723b 6f36 1b3e 563b 1bbd
000000f0: 03d4 843d fafb e03d 38b7 ba3c c1d7 053e

f_bn1.running_var f4 [64]
0.035321735 0.035918374 1.780534e-10 0.0599043 0.04284321 0.020120533 0.020897875 0.075278774
0.039171822 0.07140542 0.054070543 0.068672866 0.07813015 1.6598467e-05 0.02980667 0.047215257
0.036803365 0.02865737 0.05820717 0.054283652 0.09070988 0.030267667 0.056193747 0.04879214
0.06867719 0.016302519 0.04787581 0.044697013 0.00010590513 0.021954294 0.036847897 0.06557621
0.08021508 0.06237734 0.033479106 0.0476728 0.023521803 0.035804708 0.029278278 0.060117252
0.029869333 0.033010446 0.04726728 0.035616785 0.045470778 0.035498053 0.041092888 0.025726717
0.07324608 0.073747896 0.015161453 0.038395498 0.025538022 0.0278805 0.07072139 0.014276512
0.060729373 0.000111605266 0.06431938 0.05466601 0.026096605 0.049310867 0.036304638 0.04677422
00000000: 86ad 103d 251f 133d 94c5 432f 365e 753d
00000010: 5d7c 2f3d d1d3 a43c 0532 ab3c c22b 9a3d
00000020: a272 203d 013d 923d 1379 5d3d 5ca4 8c3d
00000030: b302 a03d f03c 8b37 1e2d f43c c964 413d
00000040: 20bf 163d dcc2 ea3c a46a 6e3d 8958 5e3d
00000050: 1ac6 b93d e6f3 f73c 6a2b 663d 44da 473d
00000060: a0a6 8c3d dc8c 853c 6d19 443d 3714 373d
00000070: 6219 de38 7ed9 b33c d2ed 163d d24c 863d
00000080: ce47 a43d 627f 7f3d 6321 093d 8e44 433d
00000090: ccb0 c03c f5a7 123d 00d9 ef3c 823d 763d
000000a0: 88b0 f43c f635 073d 569b 413d e8e2 113d
000000b0: 913f 3a3d 6866 113d 0451 283d d6c0 d23c
000000c0: 0a02 963d 2309 973d be67 783c 9944 1d3d
000000d0: 1d35 d13c a565 e43c 60d6 903d 08e8 693c
000000e0: 5dbf 783d 9f0d ea38 e1b9 833d 77e9 5f3d
000000f0: 8cc8 d53c 31fa 493d 2cb4 143d 5396 3f3d

fc_2.weight f4 [64, 64]
-0.0075587495 -0.007382654 -6.034346e-11 -0.027255397 -0.0031251106 -0.028734492 -0.012751406 -0.022787454
-0.0008081657 0.0068056136 -0.0044231666 0.022161372 -0.018615268 3.3544353e-08 -0.0034299435 0.0017023366
-0.009189526 -0.005265461 0.024070103 0.0016205332 0.019847244 -0.00813776 0.03195068 -0.017377554
-0.012219549 -0.036090024 -0.0046659904 -0.018662196 -0.00013916167 0.022895759 -0.023921924 -0.00034836918
-0.014712959 0.009229731 -0.0006506418 0.023354275 -0.0018753704 -0.019038206 -0.01906659 -0.010636835
-0.0111083975 -0.008799654 -0.010353136 0.009713292 -0.0066017616 -0.021818403 -0.023216587 -0.0018940798
0.02472039 -0.02027789 -0.013233866 -0.010215832 -0.020033332 -0.019669658 0.03768317 -0.009746773
0.0015118744 -0.00018691621 0.021539878 -0.002718565 0.012646359 -0.0031125217 -0.024316771 0.020689888
-0.01143892 -0.012553152 -5.4593563e-10 -0.021121807 -0.0073366864 -0.010774592 -0.0119884545 -0.008177141
0.0048306803 -0.0050767097 -0.009645288 0.030495767 -0.006718084 1.4577233e-06 -0.0045632496 0.034806192
-0.010587466 -0.020368844 0.008535448 0.01676145 0.021248313 -0.008050288 0.005842365 -0.013314176
-0.008657565 -0.0069872104 -0.00068535603 -0.00903738 0.0005441153 0.007120451 -0.014724279 -0.0016476392
0.016085941 0.00069489016 -0.012465416 0.02577297 0.0011518537 -0.007115124 -0.010317735 -0.003538487
-0.001359977 -0.0030109365 0.013153254 -0.0010421623 0.0066356407 -0.015309604 -0.0072438973 0.0014988877
0.01902185 -0.005752848 -0.01177646 -0.024171637 0.0058484934 -0.012082638 0.00523789 -0.011618159
0.013584351 -0.00047087885 0.022357447 -0.002556284 -0.0029271212 0.025027337 0.0019894303 0.02253015
-0.0036121835 -0.00028746788 9.734992e-14 -0.029371588 -0.0040927827 -0.016503869 -0.0101917405 -0.027080549
0.02557522 -0.026248435 -0.006456834 0.006358007 -0.008499963 -3.1698082e-06 0.004705508 -0.0069859815
0.00038162593 -0.025473192 0.020217482 0.008212571 0.005095898 -0.00023980421 0.0132455705 -0.008079212
-0.010557832 -0.00852964 -0.0213078 -0.025864359 0.0007080713 0.016264137 -0.018742144 0.0037760565
0.022098945 0.010105075 -0.008620588 -0.025985979 -0.006838974 -0.011637258 -0.012646326 -0.016612725
-0.0065206275 -0.016371397 0.016326826 -0.025285196 -0.0071731796 -0.012617252 -0.018230623 -0.0056335717
0.010509527 -0.024732303 -0.020355001 -0.016851302 -0.013286485 -0.017575195 0.012355531 -0.013011432
0.018470794 -0.00014360576 0.02317572 0.0037520987 -0.012603272 0.018745407 0.00936127 0.025844788
0.0184335 0.011040094 8.681652e-11 0.0077326326 0.017497353 0.0059444276 -0.0020271796 0.0029929543
-0.008864782 -0.0015077824 0.021450253 -0.0063715754 -0.022683239 -6.4850457e-07 0.012954584 -0.020803014
0.012542819 0.0025481065 -0.0056273486 -0.014020973 -0.002842329 0.0131767485 0.0052428422 -0.00035654625
0.020264328 -0.0018337149 0.011231476 0.0076600467 -0.00018693216 0.011952208 -0.008674418 0.009960039
-0.0010521461 -0.017422901 0.0075177914 -0.012072983 -0.019826548 0.0062560234 0.0049640485 0.017688444
0.008994727 0.03107771 -0.000779263 -0.013404387 0.0063298885 -0.0096243005 -0.02560309 0.00035742964
-0.0031424365 0.00280346 0.020408206 0.017644918 -0.015405493 0.0052753766 -0.0069915387 -0.01108225
-0.010434036 0.00054951676 -0.007862978 0.018449299 0.025635995 -0.018160744 -0.028631907 -0.00866155
00000000: 63af f7bb 31ea f1bb 59b2 84ae b646 dfbc
00000010: a8ce 4cbb 9964 ebbc 46eb 50bc c1ac babc
00000020: 15db 53ba a001 df3b 36f0 90bb c48b b53c
00000030: 0c7f 98bc 6812 1033 e7c8 60bb f020 df3a
00000040: aa8f 16bc e389 acbb aa2e c53c 1268 d43a
00000050: b096 a23c 3d54 05bc b7de 023d 5f5b 8ebc
00000060: 8134 48bc 22d3 13bd 2ae5 98bb 76e1 98bc
00000070: edeb 11b9 e38f bb3c e9f7 c3bc 52a5 b6b9
00000080: 9f0e 71bc 4c38 173c d58f 2aba 7751 bf3c
00000090: fdce f5ba 03f6 9bbc 8a31 9cbc 1f46 2ebc
000000a0: ffff 35bc 6d2c 10bc 33a0 29bc 8024 1f3c
000000b0: 9753 d8bb 82bc b2bc b630 bebc c642 f8ba
000000c0: 6a82 ca3c d11d a6bc dbd2 58bc 4e60 27bc
000000d0: f11c a4bc 4322 a1bc ab59 1a3d eeb0 1fbc
000000e0: 162a c63a f0fe 43b9 6674 b03c f429 32bb
000000f0: ad32 4f3c 73fb 4bbb f733 c7bc d77d a93c
00000100: 4f6a 3bbc bcab 4dbc ce10 16b0 a407 adbc
00000110: 9668 f0bb ea87 30bc 396b 44bc 6af9 05bc
00000120: af4a 9e3b 875a a6bb 4507 1ebc 42d2 f93c
00000130: 6023 dcbb fea6 c335 5087 95bb f090 0e3d
00000140: 0d77 2dbc 90dc a6bc 44d8 0b3c 4f4f 893c
00000150: f110 ae3c 5be5 03bc 4f71 bf3b b423 5abc
00000160: 76d8 0dbc f8f4 e4bb 77a9 33ba 8511 14bc
00000170: f6a2 0e3a ac52 e93b 1a3e 71bc 99f5 d7ba
00000180: aac6 833c 4a29 363a bf3b 4cbc d621 d33c
00000190: ccf9 963a fc25 e9bb b80b 29bc f6e5 67bb
000001a0: 4141 b2ba 2253 45bb bf80 573c 2a99 88ba
000001b0: ca6f d93b 22d5 7abc 375e edbb 5376 c43a
000001c0: b6d3 9b3c 6382 bcbb 0ef2 40bc 9903 c6bc
000001d0: b8a4 bf3b 42f6 45bc 9ba2 ab3b 175a 3ebc
000001e0: e690 5e3c 4ae0 f6b9 f726 b73c 5487 27bb
000001f0: f2d4 3fbb 2106 cd3c 1a61 023b 2691 b83c
00000200: 62ba 6cbb 49b7 96b9 6836 db29 af9c f0bc
00000210: c01c 86bb 1f33 87bc 42fb 26bc 07d8 ddbc
00000220: 2083 d13c f506 d7bc d993 d3bb d456 d03b
00000230: 6e43 0bbc e4b8 54b6 a930 9a3b a9ea e4bb
00000240: f714 c839 28ad d0bc 229f a53c 058e 063c
00000250: 7efb a63b f473 7bb9 f303 593c ac5e 04bc
00000260: c2fa 2cbc e7bf 0bbc b28d aebc 7ee1 d3bc
00000270: dc9d 393a 5e3c 853c 2089 99bc b777 773b
00000280: d908 b53c c28f 253c 5e3d 0dbc 8ce0 d4bc
00000290: 7919 e0bb 33aa 3ebc 8932 4fbc 6917 88bc
000002a0: fdaa d5bb 4f1d 86bc d6bf 853c e622 cfbc
000002b0: fe0c ebbb 97b8 4ebc 6358 95bc d399 b8bb
000002c0: 2730 2c3c 669b cabc 88bf a6bc be0b 8abc
000002d0: 8faf 59bc dbf9 8fbc da6e 4a3c e72d 55bc
000002e0: 1050 973c e194 16b9 02db bd3c c5e5 753b
000002f0: f47d 4ebc f88f 993c 0360 193c 73b8 d33c
00000300: da01 973c 83e1 343c 5be9 be2e 0662 fd3b
00000310: 9c56 8f3c 79c9 c23b 6eda 04bb 7125 443b
00000320: 973d 11bc c8a0 c5ba 71b8 af3c a6c8 d0bb
00000330: 33d2 b9bc e514 2eb5 773f 543c 156b aabc
00000340: 6580 4d3c 22fe 263b 9f65 b8bb 39b8 65bc
00000350: 5e46 3abb 4ae3 573c 26cc ab3b d4ee bab9
00000360: 6001 a63c 4359 f0ba 3a04 383c 2101 fb3b
00000370: 3803 44b9 32d3 433c 251f 0ebc 6e2f 233c
00000380: 2ae8 89ba 79ba 8ebc ce57 f63b c3cd 45bc
00000390: 496b a2bc 54ff cc3b 75a9 a23b 5be7 903c
000003a0: 9f5e 133c af96 fe3c 7447 4cba 139e 5bbc
000003b0: f46a cf3b 3eaf 1dbc 92bd d1bc 6565 bb39
000003c0: 56f1 4dbb 41ba 373b 1c2f a73c 138c 903c
000003d0: 5267 7cbc 11dd ac3b 4719 e5bb 5392 35bc
000003e0: 85f3 2abc 720d 103a b8d3 00bc fc22 973c
000003f0: 9402 d23c d7c5 94bc 768d eabc 2ce9 0dbc

fc_2.bias f4 [64]
4.3699977e-08 -2.8615105e-07 3.1847316e-07 -4.144294e-07 -1.7828737e-07 -2.6048122e-07 1.656069e-08 3.9811604e-07
-3.2862692e-07 4.1915705e-08 9.999425e-09 6.563505e-08 5.5843476e-08 4.1573463e-07 -2.332e-42 2.506648e-07
-2.365451e-07 7.451985e-09 -8.750783e-08 2.152904e-08 1.238452e-07 -1.6834466e-07 -1.4217497e-07 -2.6680462e-07
-5.38987e-07 2.8639292e-07 2.2620905e-07 -2.727789e-07 4.0227593e-07 1.6347336e-08 -1.0548407e-07 3.3499688e-07
-2.1050067e-07 2.8073683e-07 -5.9461905e-07 -5.372094e-09 2.410004e-07 2.4774212e-07 -1.1224956e-07 9.3998004e-08
1.440834e-06 -5.209041e-07 -4.265833e-07 -5.081156e-07 5.7434608e-08 1.4951387e-07 1.4880196e-07 -1.1929748e-07
8.843388e-08 -2.8060703e-07 -1.6410456e-07 4.604799e-09 -1.8578788e-07 -4.691414e-08 1.1976709e-08 1.5063455e-07
-7.1837394e-07 -1.1237357e-08 6.028102e-07 4.0758252e-07 -2.1096683e-07 9.411541e-08 -3.5307852e-07 1.6309417e-07
00000000: a2b0 3b33 4da0 99b4 9efa aa34 be7e deb4
00000010: 426f 3fb4 44d8 8bb4 5841 8e32 a7bc d534
00000020: 246e b0b4 ce06 3433 f0c9 2b32 40f3 8c33
00000030: 8dd8 6f33 2232 df34 8006 0080 1c93 8634
00000040: 06fd 7db4 2d06 0032 f0eb bbb3 dcee b832
00000050: 4ffa 0434 3ac2 34b4 c2a8 18b4 593d 8fb4
00000060: e8ae 10b5 8bc1 9934 dfe3 7234 7272 92b4
00000070: 62f8 d734 2c6c 8c32 7b86 e2b3 9fd9 b334
00000080: fc05 62b4 2db8 9634 e99d 1fb5 7095 b8b1
00000090: d862 8134 6b01 8534 d90d f1b3 f3db c933
000000a0: ae62 c135 42d4 0bb5 2a05 e5b4 7065 08b5
000000b0: 05ae 7633 0f8a 2034 5fc6 1f34 3e18 00b4
000000c0: 0ae9 bd33 56a6 96b4 b834 30b4 3e38 9e31
000000d0: fc7c 47b4 a47e 49b3 20c2 4d32 1cbe 2134
000000e0: 48d6 40b5 6b0e 41b2 cdd0 2135 b7d1 da34
000000f0: 1f86 62b4 7e1c ca33 be8e bdb4 fc1e 2f34

f_bn2.weight f4 [64]
0.074896336 0.055211626 0.07712203 0.055143777 0.0702774 0.080027595 0.057876803 0.069442466
0.054338045 0.07326562 0.08306424 0.09479217 0.04371626 0.04904031 0.0006082948 0.07084942
0.08040939 0.027358599 0.07279568 0.073427506 0.06184569 0.062217448 0.07589539 0.06306189
0.066314794 0.07628975 0.06293194 0.07597505 0.056984488 0.13103044 0.05800131 0.064175
0.07767973 0.063816026 0.06766353 0.06892126 0.05415249 0.06351519 0.071204215 0.07591094
0.08269958 0.07797896 0.07027186 0.06589565 0.07740602 0.07139304 0.08823414 0.06116162
0.05061323 0.068353295 0.067704335 0.06434794 0.051723532 0.07561529 0.0618998 0.06929407
0.061551187 0.058623884 0.070509724 0.06535849 0.070252724 0.0899515 0.06293566 0.06489541
00000000: 4063 993d 9625 623d 28f2 9d3d 71de 613d
00000010: 99ed 8f3d 82e5 a33d 3a10 6d3d da37 8e3d
00000020: 9291 5e3d 490c 963d 961d aa3d 6622 c23d
00000030: d20f 333d 7ede 483d f975 1f3a 8019 913d
00000040: aead a43d 241f e03c e715 953d 2961 963d
00000050: e851 7d3d b9d7 7e3d 0b6f 9b3d 9826 813d
00000060: 0dd0 873d cd3d 9c3d 76e2 803d cf98 9b3d
00000070: 9168 693d d82c 063e c892 6d3d 2f6e 833d
00000080: 8d16 9f3d fab1 823d 2d93 8a3d 9726 8d3d
00000090: 00cf 5d3d 4014 823d 84d3 913d 3277 9b3d
000000a0: 665e a93d 6fb3 9f3d b1ea 8f3d 4cf4 863d
000000b0: 0c87 9e3d 8436 923d 1ab4 b43d 9b84 7a3d
000000c0: d14f 4f3d d0fc 8b3d 92a8 8a3d dac8 833d
000000d0: 0edc 533d 30dc 9a3d a58a 7d3d 0dea 8d3d
000000e0: 191d 7c3d 991f 703d 6767 903d acda 853d
000000f0: a9e0 8f3d 7e38 b83d 69e4 803d e2e7 843d

f_bn2.bias f4 [64]
-0.016160527 0.011477066 -0.01757243 -0.0010062183 -0.016402323 -0.020944072 -0.017864993 -0.011780142
0.0018141252 -0.009686457 -0.023413774 -0.03229704 -0.014225971 0.012460965 -0.00014304793 -0.0089232065
-0.016855543 -0.009970045 -0.011406569 -0.0152872335 -0.0026739654 -0.013225629 -0.012984557 -0.012325568
-0.006273245 -0.005984051 0.006524611 -0.021071382 -0.0014558131 -0.052772336 -0.0027166817 -0.006295526
-0.019463483 -0.01170768 -0.007925567 -0.021391848 -0.0024475167 0.0010829254 -0.015783671 -0.022494555
-0.01976277 -0.020043597 -0.009631396 -0.0064852657 -0.01696125 -0.023536336 -0.024045363 -0.0023913207
-0.006543989 -0.011130545 -0.005796245 -0.018873226 -0.009377107 -0.022150973 -0.016232332 -0.00031723586
0.0065464946 0.012184908 -0.009196281 -0.010255977 -0.020280547 -0.019388372 -0.004357815 -0.0054053157
00000000: 1563 84bc 4e0a 3c3c 0ff4 8fbc 15e3 83ba
00000010: 2a5e 86bc e792 abbc 9b59 92bc 7f01 41bc
00000020: f1c7 ed3a f2b3 1ebc 3ece bfbc e749 04bd
00000030: 0c14 69bc 1329 4c3c 23ff 15b9 a432 12bc
00000040: a314 8abc 6659 23bc 9ee2 3abc 4e77 7abc
00000050: b23d 2fbb 4fb0 58bc 2ebd 54bc 2ef1 49bc
00000060: cb8f cdbb dc15 c4bb 67cc d53b e49d acbc
00000070: fbd0 beba ce27 58bd 5b0a 32bb b34a cebb
00000080: e271 9fbc 92d1 3fbc 3dda 01bc f53d afbc
00000090: 8466 20bb f2f0 8d3a c24c 81bc 8046 b8bc
000000a0: 88e5 a1bc 7832 a4bc 01cd 1dbc 5a82 d4bb
000000b0: 52f2 8abc 46cf c0bc c8fa c4bc b4b7 1cbb
000000c0: f56e d6bb e45c 36bc 6dee bdbb 069c 9abc
000000d0: 70a2 19bc f575 b5bc abf9 84bc ad52 a6b9
000000e0: fa83 d63b 35a3 473c 00ac 16bc af08 28bc
000000f0: 6423 a6bc 5dd4 9ebc 00cc 8ebb 131f b1bb

f_bn2.running_mean f4 [64]
-0.0048711654 -0.00063073914 -0.004895297 -0.0012029157 -0.004677071 -0.00458925 0.0002311046 -0.0034966525
-0.0002586712 -0.0033446392 -0.004809832 -0.0052667847 -0.0013197775 0.0021683713 -7.238188e-06 -0.0013014061
-0.0022373055 0.0009671807 -0.0018205115 -0.003336156 -0.0024063925 -0.0021780003 -0.0023745005 -0.001774069
-0.0005401782 -0.002174749 -0.0016815197 -0.004215783 -0.002468724 -0.00038660347 -0.0002848355 -0.0013399419
-0.003896388 -0.002481987 -0.001565937 -0.0021131882 -0.00047751053 -0.000101282 -0.0018529546 -0.0041112667
-0.0049196957 -0.004438558 -0.0013218028 -0.0012751379 -0.0018985234 0.0010985525 -0.0047124275 -0.00036787183
-0.00056504726 -0.0018211523 -0.00093582127 -0.00081741734 -0.0009520001 -0.0038244424 -0.0011878166 0.0003630332
0.00023969282 0.0027163255 -0.0021152208 -0.0016522177 -0.0024961273 -0.0044830143 -0.0011427284 -0.0012586854
00000000: 4c9e 9fbb 3058 25ba ba68 a0bb 27ab 9dba
00000010: 1d42 99bb 6b61 96bb ab54 7239 1828 65bb
00000020: 439e 87b9 bc31 5bbb cc9b 9dbb fe94 acbb
00000030: 62fc acba 3c1b 0e3b 90df f2b6 f193 aaba
00000040: c29f 12bb 668a 7d3a 3b9e eeba 69a3 5abb
00000050: 91b4 1dbb c8bc 0ebb 829d 1bbb e187 e8ba
00000060: bf9a 0dba 3c86 0ebb 7066 dcba 8d24 8abb
00000070: 51ca 21bb 0ab1 cab9 f955 95b9 fda0 afba
00000080: 8b5a 7fbb d5a8 22bb 2040 cdba 6a7d 0abb
00000090: 615a fab9 5c67 d4b8 d7de f2ba ceb7 86bb
000000a0: 6635 a1bb 5371 91bb 5840 adba 8722 a7ba
000000b0: e0d7 f8ba 4efd 8f3a b56a 9abb ecde c0b9
000000c0: ae1f 14ba bbb3 eeba e751 75ba f347 56ba
000000d0: a58f 79ba 7fa3 7abb 83b0 9bba 7e55 be39
000000e0: 0d56 7b39 6104 323b 849f 0abb 3a8f d8ba
000000f0: 1196 23bb 40e6 92bb 9ac7 95ba 79fa a4ba

f_bn2.running_var f4 [64]
0.00016292484 0.00013325292 0.00015977953 8.187375e-05 0.00016275054 0.00014576036 3.936902e-05 0.00014492014
0.00010309453 0.00015701202 0.00015116876 0.00012507274 2.3430868e-05 0.00013011413 9.150649e-10 0.00013196506
0.0001601074 6.715873e-06 0.00011357364 0.00013764582 0.00012727614 9.275225e-05 0.00017470682 8.865854e-05
0.00013380265 0.00013776 0.00014642416 0.00016024012 0.00011966913 0.000260912 9.1774615e-05 0.00011515193
0.00017678183 0.000100148056 0.000121759374 0.000101745034 0.000100578865 0.00010305589 8.4928164e-05 0.00010764547
0.00018350265 0.00015438825 9.658058e-05 0.00013818502 0.00013013819 4.9993698e-05 0.0001951402 0.00012648317
9.7996985e-05 0.00010447367 0.00010680052 6.082998e-05 3.886275e-05 6.9538146e-05 5.9038965e-05 0.00017488615
0.00012950535 0.00016193895 0.00013240936 9.3656156e-05 6.6012835e-05 0.0002238324 6.67276e-05 0.000109414934
00000000: ced6 2a39 cfb9 0b39 7e8a 2739 a3b3 ab38
00000010: 04a8 2a39 40d7 1839 2a20 2538 b4f5 1739
00000020: 7434 d838 98a3 2439 0e83 1e39 f525 0339
00000030: 688d c437 3f6f 0839 f887 7b30 1a60 0a39
00000040: 81e2 2739 e958 e136 622e ee38 0555 1039
00000050: 6e75 0539 fc83 c238 8131 3739 31ee b938
00000060: 604d 0c39 ab73 1039 7089 1939 2106 2839
00000070: e0f6 fa38 04cb 8839 1f77 c038 b97d f138
00000080: 835e 3939 9406 d238 1159 ff38 f35f d538
00000090: deed d238 b61f d838 761b b238 b9bf e138
000000a0: 9e6a 4039 48e3 2139 4e8b ca38 c2e5 1039
000000b0: b475 0839 53b0 5138 8c9e 4c39 91a0 0439
000000c0: bb83 cd38 e018 db38 18fa df38 b223 7f38
000000d0: 8f00 2338 02d5 9138 9ba0 7738 a561 3739
000000e0: d4cb 0739 28ce 2939 5ed7 0a39 4469 c438
000000f0: 5f70 8a38 8db4 6a39 1cf0 8b38 b275 e538

fc_3.weight f4 [64, 64]
-0.0067531583 -0.008041983 -0.0053363037 0.016492698 -0.004770208 -0.0040834607 -0.00045253558 -0.0034391857
0.004855361 -0.00593473 -0.0048833815 0.0022262959 0.00039214734 0.0038932667 1.1656962e-05 0.016621716
0.014430218 0.0007255343 0.011704091 -0.009968836 -0.010922603 -0.0013324546 0.020303834 0.0041710697
0.01732333 -0.009213789 -0.0101947 0.0028390477 -0.0033106704 0.0010894319 0.013697424 0.017247438
-0.0068845646 -0.0035060183 0.013137218 -0.0004834789 0.010049014 -0.0056542954 0.01569218 0.00014032802
-0.0072944076 -0.006938739 0.008382505 0.018831735 0.015375023 -0.0039927126 -0.0069317273 0.012681998
-0.0054012574 0.009458698 0.0019951884 0.013449712 -0.0066633 -0.00022681915 0.0027598732 -0.004285683
0.004334739 0.010945496 0.012111139 0.014514637 0.007686732 -0.007000123 0.0004574454 0.0041060867
-0.0017629559 0.0001747233 0.020941755 -0.003970414 0.0074306917 0.015281003 0.015789283 -0.0018593568
-0.0057420307 0.017591031 0.013679567 0.009005054 0.004463347 -0.007225303 5.095954e-07 -0.008954565
-0.007900019 0.0074702916 0.0014234087 0.026807932 0.016755901 0.0073476643 -0.0072114742 -0.0021738752
-0.0070415437 0.015793512 0.018315502 0.0028509616 0.0022416865 0.0038208347 -0.0049851225 -0.008460315
0.016070355 0.016408972 -0.008651646 0.01945768 -0.003760756 0.011339185 -0.00097427715 0.00969189
-9.975815e-05 0.022014339 -0.006686057 -0.009111297 -0.005350203 0.016050367 0.015884599 -0.004258108
0.007904134 -0.006937107 -0.010337875 -0.0030798505 0.007313339 0.010449169 0.0033998706 -0.008952281
-0.010942344 -0.0037104504 -0.008369685 -0.013069059 -0.004294791 0.0042536166 -0.0069132447 -0.0034409838
0.012522188 0.0040484136 0.0071643703 -0.003641075 0.0073025534 -0.0009267243 0.012802799 0.014506249
-0.0047164895 0.011581756 0.021197194 0.02621814 0.0073883957 -0.016565392 6.162046e-08 -0.009206128
-0.0048437263 0.009166647 -0.0022785063 0.002688814 0.008483089 0.014200245 -0.004938139 -0.004416519
-0.007577426 0.007779805 -0.0033139482 0.00313168 0.004289248 -0.0018864397 -0.0032055133 -0.00758924
0.02108591 0.011190846 -0.00832198 0.009038978 -0.0037985996 0.0103311725 -0.0036636756 0.009378303
0.009909161 0.0066548474 -0.004825825 -0.0048655616 -0.000746995 0.02410026 0.011050205 -0.006795723
0.0061219037 -0.0061733606 -0.0029154017 -0.0032275573 0.017066337 0.023757804 0.00055791065 -0.012819588
-0.0070696175 -0.005575012 -0.006325147 -0.0032512324 0.00026824334 -0.0014984873 -0.0071496437 -0.006962843
-0.00046107394 -0.01158388 -0.0039767963 0.006778961 -0.0043759765 -0.004186176 -0.0012732331 -0.005372617
0.0014377715 -0.005865996 -0.002600064 -0.00032595376 -0.0010119975 0.009791771 3.3084946e-09 0.010845722
0.004580244 -0.00032838908 0.0055531915 -0.007276811 -0.0068501886 -0.0037785757 0.007255139 0.01086374
0.015842082 -0.0066403635 -0.0064633354 -0.001709284 -0.0083415285 0.011649482 0.002783073 0.007697483
-0.008121317 -0.0055545857 0.010409836 -0.0028539298 0.0022495387 -0.0027473804 0.0075936676 -0.0029406887
-0.007562379 -0.0065239104 0.009673044 0.013234147 0.0027576722 -0.0019568843 -0.00545612 0.01111444
-0.0038149166 0.006242785 0.011322517 0.012524691 -0.004070745 -0.0017567743 0.009412246 0.005854436
0.0024325438 0.006121155 0.012707918 0.0032401115 0.0077200555 -0.005442999 0.009621766 0.00673735
00000000: 9949 ddbb 85c2 03bc 29dc aebb b21b 873c
00000010: 684f 9cbb 8dce 85bb 4c42 edb9 f663 61bb
00000020: b819 9f3b 2078 c2bb c604 a0bb 0ce7 113b
00000030: 2099 cd39 2d26 7f3b 4592 4337 442a 883c
00000040: b96c 6c3c c831 3e3a 84c2 3f3c 5454 23bc
00000050: b8f4 32bc c2a5 aeba 3a54 a63c 78ad 883b
00000060: a8e9 8d3c 6ff5 16bc ac07 27bc 510f 3a3b
00000070: d5f7 58bb 45cb 8e3a 296b 603c 804a 8d3c
00000080: ea97 e1bb 3ac5 65bb 7c3d 573c 717b fdb9
00000090: 9fa4 243c ab47 b9bb e38c 803c 0425 1339
000000a0: ed05 efbb 5d5e e3bb c656 093c 0345 9a3c
000000b0: 85e7 7b3c 4dd5 82bb 8b23 e3bb 28c8 4f3c
000000c0: 08fd b0bb a8f8 1a3c b5c1 023b 2e5c 5c3c
000000d0: d057 dabb 4dd6 6db9 fdde 343b ea6e 8cbb
000000e0: 6d0a 8e3b bd54 333c cc6d 463c cdce 6d3c
000000f0: fbe0 fb3b 4a61 e5bb 48d5 ef39 5a8c 863b
00000100: fc12 e7ba ee35 3739 0b8e ab3c 3f1a 82bb
00000110: 297d f33b 2c5d 7a3c 8758 813c a9b5 f3ba
00000120: a527 bcbb 111b 903c 4320 603c ef89 133c
00000130: 4541 923b 3cc2 ecbb 21cb 0835 2bb6 12bc
00000140: 156f 01bc 59c9 f43b ac91 ba3a 4f9c db3c
00000150: ac43 893c adc4 f03b 3b4e ecbb 9377 0ebb
00000160: c0bc e6bb 6561 813c 640a 963c 33d7 3a3b
00000170: 42e9 123b f866 7a3b 3d5a a3bb 229d 0abc
00000180: faa5 833c 1c6c 863c a2bf 0dbc b665 9f3c
00000190: 0477 76bb fdc7 393c a266 7fba bcca 1e3c
000001a0: 4035 d1b8 6a57 b43c b616 dbbb 8d47 15bc
000001b0: c150 afbb 0f7c 833c 6b20 823c 9987 8bbb
000001c0: 5780 013c ac50 e3bb 3160 29bc 51d7 49bb
000001d0: bca4 ef3b fe32 2b3c 5dd0 5e3b 97ac 12bc
000001e0: 8447 33bc 072b 73bb 0121 09bc 9b1f 56bc
000001f0: 51bb 8cbb ec61 8b3b 8088 e2bb 2182 61bb
00000200: dd29 4d3c 8ea8 843b 18c3 ea3b 1a9f 6ebb
00000210: 424a ef3b 6aef 72ba d5c2 513c 9eab 6d3c
00000220: c88c 9abb 68c1 3d3c bda5 ad3c 6dc7 d63c
00000230: 5b1a f23b 25b4 87bc 3554 8433 4dd5 16bc
00000240: 1fb8 9ebb b42f 163c fe52 15bb d036 303b
00000250: a7fc 0a3c 25a8 683c 1dd0 a1bb 72b8 90bb
00000260: 0e4c f8bb bced fe3b d32e 59bb df3c 4d3b
00000270: d28c 8c3b 6a42 f7ba 9713 52bb 29af f8bb
00000280: 5cbc ac3c cf59 373c ea58 08bc 3918 143c
00000290: edf1 78bb 1444 293c 471a 70bb 74a7 193c
000002a0: 095a 223c e810 da3b f421 9ebb 4a6f 9fbb
000002b0: fcd1 43ba e96d c53c eb0b 353c a8ae debb
000002c0: 409a c83b e749 cabb 5310 3fbb 6d85 53bb
000002d0: b4ce 8b3c ba9f c23c c040 123a 4009 52bc
000002e0: 40a8 e7bb 97ae b6bb 2e43 cfbb a112 55bb
000002f0: 03a3 8c39 e468 c4ba 8f47 eabb 8f28 e4bb
00000300: 4cbc f1b9 50ca 3dbc c94f 82bb 0c22 de3b
00000310: 5a64 8fbb 312c 89bb 9de2 a6ba c70c b0bb
00000320: 9b73 bc3a 8a37 c0bb d665 2abb c6e4 aab9
00000330: 00a5 84ba aa6d 203c a75b 6331 41b2 313c
00000340: df15 963b a32b acb9 8cf7 b53b 5172 eebb
00000350: 8c77 e0bb fba1 77bb 84bc ed3b d4fd 313c
00000360: 41c7 813c 6897 d9bb 63ca d3bb 0e0a e0ba
00000370: e8aa 08bc 78dd 3e3c 3864 363b 2b3b fc3b
00000380: 460f 05bc 3e03 b6bb 048e 2a3c ff08 3bbb
00000390: ff6c 133b 650d 34bb 4dd4 f83b 92b8 40bb
000003a0: d5cd f7bb 87c6 d5bb b07b 1e3c 09d4 583c
000003b0: 10ba 343b 123f 00bb 40c9 b2bb 5719 363c
000003c0: ae03 7abb 4790 cc3b 1482 393c 5d34 4d3c
000003d0: e263 85bb 9043 e6ba d235 1a3c 92d6 bf3b
000003e0: 506b 1f3b f893 c83b df34 503c 0d58 543b
000003f0: 85f8 fc3b 2f5b b2bb 9da4 1d3c fdc4 dc3b

fc_3.bias f4 [64]
2.271978e-07 -8.079619e-08 3.308036e-07 -2.521852e-07 2.4534043e-07 4.2011922e-07 -1.3164681e-07 -1.7560753e-08
9.9158726e-08 1.9756996e-07 6.168435e-08 -3.0677995e-07 2.9640373e-07 -3.1530583e-09 6.8011286e-07 5.2236228e-08
3.5589075e-08 -3.163879e-07 7.034701e-08 -1.0191899e-07 4.4134546e-07 -2.0512896e-07 -1.383029e-07 -3.560354e-07
-4.1956083e-09 4.3368747e-08 3.555823e-07 7.10222e-08 -6.705832e-08 -1.6000405e-07 -1.8558339e-07 5.961305e-08
-3.3164586e-08 -1.6519887e-07 3.09998e-07 3.0681118e-08 3.1875482e-13 2.1913415e-08 1.5444849e-07 -3.3784846e-07
1.6225629e-08 2.3488624e-08 6.141932e-08 -8.034936e-08 -3.7161005e-08 1.1969024e-07 5.3811675e-07 2.981364e-07
4.460615e-08 1.3929191e-07 -4.8920175e-08 3.2599274e-07 -1.2346898e-07 5.4357605e-07 5.823574e-08 -3.457123e-08
1.432925e-18 2.1232545e-07 7.0891605e-07 1.5347834e-07 2.175326e-07 -9.6743705e-08 -1.5744341e-07 1.5241612e-07
00000000: a8f3 7334 2d82 adb3 4d99 b134 1264 87b4
00000010: 55b7 8334 bf8c e134 cd5a 0db4 81d8 96b2
00000020: 16f1 d433 9e23 5434 5477 8433 84b3 a4b4
00000030: 6b21 9f34 30ad 58b1 0091 3635 575a 6033
00000040: 9ada 1833 06dc a9b4 ae11 9733 8fde dab3
00000050: 0ff2 ec34 6b41 5cb4 6980 14b4 2225 bfb4
00000060: f628 90b1 7144 3a33 dce6 be34 de84 9833
00000070: b401 90b3 94cd 2bb4 c644 47b4 9f04 8033
00000080: d970 0eb3 8561 31b4 cd6d a634 3fc6 0333
00000090: 6971 b32a 1c3c bc32 7ad6 2534 8a61 b5b4
000000a0: 8960 8b32 08c4 c932 a1e5 8333 878c acb3
000000b0: f59a 1fb3 3484 0034 1a73 1035 8e0f a034
000000c0: fb94 3f33 4590 1534 4d1c 52b3 1a04 af34
000000d0: e592 04b4 43ea 1135 e01e 7a33 787b 14b3
000000e0: 6076 d321 93fb 6334 574c 3e35 cecb 2434
000000f0: e892 6934 6ac1 cfb3 b70d 29b4 d3a7 2334

f_bn3.weight f4 [64]
0.05627522 0.0754925 0.07041391 0.04673006 0.051605377 0.053440195 0.046368834 0.05243524
0.053214554 0.064698674 0.06625636 0.04977957 0.07316614 0.082162626 0.06085261 0.055973016
0.06063999 0.06937834 0.060828175 0.06912955 0.07590205 0.072995864 0.07885648 0.05796803
0.05883587 0.061274886 0.05658714 0.07955316 0.066174 0.050624754 0.045951188 0.055428296
0.063132904 0.04704109 0.057034895 0.07145378 0.00015986817 0.04714338 0.054371737 0.072769314
0.06414625 0.054513015 0.046117768 0.055278875 0.06833025 0.07200605 0.07200121 0.07362182
0.05290811 0.05583602 0.058998194 0.07569966 0.0650466 0.076168634 0.07391027 0.07909198
8.0290265e-06 0.045476668 0.067935444 0.06622716 0.053024117 0.063036725 0.07286363 0.059374157
00000000: d880 663d d09b 9a3d 2b35 903d 0568 3f3d
00000010: 2960 533d 1be4 5a3d 3fed 3d3d 56c6 563d
00000020: 81f7 593d bd80 843d 6ab1 873d aae5 4b3d
00000030: 21d8 953d e144 a83d 9640 793d f643 653d
00000040: a361 783d 3b16 8e3d f726 793d cb93 8d3d
00000050: 8972 9b3d db7e 953d 827f a13d e36f 6d3d
00000060: e2fd 703d 60fb 7a3d ebc7 673d c4ec a23d
00000070: 3c86 873d e75b 4f3d 5037 3c3d c808 633d
00000080: d34b 813d 28ae 403d 6c9d 693d 5c56 923d
00000090: 49a2 2739 6b19 413d e6b4 5e3d 1408 953d
000000a0: 1c5f 833d 0a49 5f3d fce5 3c3d 1a6c 623d
000000b0: bbf0 8b3d e877 933d 5f75 933d 09c7 963d
000000c0: 2db6 583d 4fb4 643d 17a8 713d 6c08 9b3d
000000d0: 2737 853d 4dfe 9b3d 455e 973d fafa a13d
000000e0: 68b4 0637 be45 3a3d bd21 8b3d 1ba2 873d
000000f0: d12f 593d 6619 813d 8739 953d 5132 733d

f_bn3.bias f4 [64]
0.014583372 0.016249308 0.015140429 0.012442644 0.013472249 0.016547082 0.010370033 0.014904765
0.009502221 0.016452076 0.00792064 0.015441465 0.012052899 0.013910283 0.015106384 0.015309083
0.013017503 0.023036513 0.010807693 0.013780493 0.020217413 0.014838738 0.018440872 0.012707542
0.016704349 0.009179023 0.012037829 0.011497729 0.016473718 0.014264811 0.013570372 0.014117437
0.01171101 0.014406854 0.014002978 0.017876476 6.483557e-06 0.014140414 0.00814722 0.011686053
0.013857846 0.014014896 0.014197633 0.01263898 0.015192513 0.0031886792 0.017046824 0.013956357
0.01459186 0.015932148 0.012831863 0.01943966 0.0146932965 0.0215335 0.012543819 0.013859617
-8.0804637e-07 0.010274442 0.019342784 0.018789243 0.014707797 0.01555128 0.014342528 0.017596213
00000000: 18ef 6e3c 451d 853c 900f 783c 3bdc 4b3c
00000010: b5ba 5c3c bf8d 873c 12e7 293c 1e33 743c
00000020: 34af 1b3c 81c6 863c 92c5 013c 33fe 7c3c
00000030: 8679 453c f5e7 633c c480 773c f3d2 7a3c
00000040: 5d47 553c 12b7 bc3c c012 313c 94c7 613c
00000050: fd9e a53c 2e1e 733c 5011 973c 4b33 503c
00000060: 8fd7 883c 9d63 163c 503a 453c f960 3c3c
00000070: e4f3 863c f4b6 693c 4456 5e3c d34c 673c
00000080: 89df 3f3c ba0a 6c3c bf6c 653c b071 923c
00000090: 558d d936 32ad 673c eb7b 053c dc76 3f3c
000000a0: 050c 633c bc9e 653c 309d 683c b913 4f3c
000000b0: 05ea 783c 29f9 503b c8a5 8b3c 34a9 643c
000000c0: b212 6f3c 2384 823c bc3c 523c ec3f 9f3c
000000d0: 27bc 703c 0667 b03c 9784 4d3c 7213 633c
000000e0: 86e8 58b5 2256 283c c274 9e3c e6eb 993c
000000f0: f9f8 703c ccca 7e3c ecfc 6a3c ef25 903c

f_bn3.running_mean f4 [64]
0.0027631016 0.0024710132 0.0016803633 0.0018454493 0.0026218418 0.0033210432 0.0017403801 0.0034341484
0.0015381967 0.0028124643 0.00048305246 0.003062521 0.003031761 0.0024794585 0.0019429361 0.0025983392
0.0017508744 0.0030376946 0.0012430444 0.0020067156 0.0022455633 0.0024370507 0.003051639 0.0021963916
0.0027375498 0.0012777866 0.0020056085 0.0016174812 0.0023783827 0.0022203538 0.0017539726 0.0017970827
0.0016644772 0.0022406336 0.0029698275 0.0023254082 7.0284655e-06 0.0026598577 0.00057939015 0.0016264555
0.0016852263 0.0029852204 0.0027848876 0.0011780101 0.002317517 0.000501431 0.0027464288 0.0013765356
0.0026876365 0.003327375 0.0026647064 0.0024720437 0.0027158852 0.003236139 0.002742301 0.0045290655
9.622865e-06 0.0017229038 0.0032761123 0.0028502524 0.0023530659 0.0025273946 0.0018628439 0.0030294124
00000000: 2715 353b b9f0 213b a33f dc3a 01e3 f13a
00000010: 35d3 2b3b dca5 593b 771d e43a 730f 613b
00000020: 519d c93a 5251 383b 3442 fd39 94b4 483b
00000030: 82b0 463b 697e 223b 1eaa fe3a e648 2a3b
00000040: 997d e53a 0f14 473b a6ed a23a 1a83 033b
00000050: 4d2a 133b edb6 1f3b 02fe 473b 56f1 0f3b
00000060: 7768 333b 677b a73a 8770 033b aa01 d43a
00000070: a4de 1b3b 5b83 113b 8ee5 e53a 178c eb3a
00000080: 962a da3a 98d7 123b 70a1 423b e065 183b
00000090: 0fd6 eb36 0251 2e3b 37e2 173a ca2e d53a
000000a0: d0e2 dc3a b0a3 433b a982 363b 7667 9a3a
000000b0: 7ce1 173b 7772 033a 6efd 333b df6c b43a
000000c0: 0f23 303b 1710 5a3b 5ba2 2e3b 0302 223b
000000d0: fefc 313b 6715 543b 2db8 333b 8e68 943b
000000e0: e471 2137 0fd3 e13a 0bb4 563b 4dcb 3a3b
000000f0: e535 1a3b a5a2 253b ab2a f43a 1b89 463b

f_bn3.running_var f4 [64]
0.00019555377 0.00022489244 0.00018523482 0.00013847774 0.00012527805 0.00014877175 9.964556e-05 0.00015938196
0.00011333319 0.00022918919 0.00013757421 0.00011994161 0.00019849803 0.00023164533 0.0001315009 0.00014961358
0.00016897681 0.00017236687 0.00012728393 0.00021892639 0.00017697076 0.00019953666 0.00024165232 0.00016001154
0.00014528209 0.00013500713 0.00015315374 0.00022036383 0.00017976401 0.00013052912 8.6275264e-05 0.00016756823
0.0001598568 0.0001132105 0.00014631823 0.00019382252 9.796299e-10 0.00012491895 0.000118881355 0.0001537789
0.00017620697 0.00013846083 0.00010165531 0.00010708372 0.00016560264 0.00015860789 0.00020621932 0.00024970717
0.00013164626 0.00014341743 0.00014920981 0.00018335033 0.00020398745 0.000249434 0.00016761871 0.00021898495
7.5463574e-10 9.721835e-05 0.00016004973 0.00016783283 0.00012372927 0.000180867 0.00023795864 0.00019219719
00000000: 910d 4d39 1bd1 6b39 983b 4239 5634 1139
00000010: 125d 0339 9dff 1b39 cdf8 d038 c51f 2739
00000020: 4bad ed38 8152 7039 cc41 1039 2989 fb38
00000030: e923 5039 d2e5 7239 81e3 0939 97e1 1c39
00000040: 5e2f 3139 61bd 3439 8577 0539 9b8f 6539
00000050: 3a91 3939 b73a 5139 0d64 7d39 c5c8 2739
00000060: dd56 1839 b390 0d39 e597 2039 7711 6739
00000070: 097f 3c39 a5de 0839 aeee b438 41b5 2f39
00000080: 3c9f 2739 6d6b ed38 006d 1939 d63c 4b39
00000090: aaa3 8630 adfc 0239 f14f f938 b63f 2139
000000a0: 33c4 3839 cc2f 1139 c72f d538 2292 e038
000000b0: 9fa5 2d39 fb4f 2639 943c 5839 21eb 8239
000000c0: 860a 0a39 5362 1639 3475 1c39 bb41 4039
000000d0: 77e5 5539 77c6 8239 cec2 2f39 539f 6539
000000e0: c56e 4f30 b4e1 cb38 06d3 2739 48fc 2f39
000000f0: 53bd 0139 1ea7 3d39 8984 7939 8a88 4939
