code/model/seed_970/QDANN_D_corn_2018.pth (torch, 33406 bytes, 14 tensors)

d_fc1.weight f4 [64, 32]
000000 b5 9c 67 2e 46 da 29 2a 41 bc ca a9 11 65 e4 a2
       5.2662503e-11 1.5085944e-13 -9.003259e-14 -6.190653e-18
000010 8d 2c a5 a7 01 04 5b 28 6f 33 9b a7 42 52 93 ac
       -4.5845e-15 1.215781e-14 -4.3076907e-15 -4.1871237e-12
000020 a8 23 c7 a8 ac a6 95 2c 69 9e a4 a6 2a d1 9c a6
       -2.2108902e-14 4.253339e-12 -1.1422723e-15 -1.0881369e-15
000030 12 52 89 2a 7e 3f ce a0 44 93 8c ab 98 5d f5 aa
       2.4393036e-13 -3.4939773e-19 -9.988473e-13 -4.3585686e-13
000040 87 de b2 aa 89 67 87 2b 64 8e 0f a6 76 df 0c 27
       -3.177356e-13 9.621064e-13 -4.9806067e-16 1.9550041e-15
000050 6f af 56 27 7f a0 50 a2 6f 78 49 a9 33 87 02 2b
       2.9793569e-15 -2.8274222e-18 -4.4735425e-14 4.6372904e-13
000060 c4 80 96 26 08 93 c4 24 5c 98 7b 27 bc 7d 7e aa
       1.0443243e-15 8.525053e-17 3.4915842e-15 -2.2603355e-13
000070 c2 70 5a 29 1c 29 1a 27 05 fb 66 a6 28 df bd a1
       4.8503526e-14 2.1394079e-15 -8.0137475e-16 -1.2866207e-18
000080 ce 8c ed 2b da 6e 05 ab 91 70 14 ad 52 6a 9d 29
       1.6878944e-12 -4.740493e-13 -8.437821e-12 6.990644e-14
000090 26 d9 34 aa 3b 0c 4b a9 15 2a 49 2d 54 c4 57 2c
       -1.606255e-13 -4.5085663e-14 1.1434871e-11 3.0662322e-12
0000a0 87 fa 78 27 8b 82 c9 ad cd bc 92 ab ea cf f0 2a
       3.4552725e-15 -2.2909027e-11 -1.0426327e-12 4.2776834e-13
0000b0 cd b2 d9 2a 37 1c da 29 ae b0 06 af be db a3 a8
       3.8671011e-13 9.686039e-14 -1.2249998e-10 -1.8191933e-14
0000c0 47 03 bb 2e 3d 88 cc aa ce a0 b5 25 ad 9d 32 2c
       8.5043576e-11 -3.6332214e-13 3.150746e-16 2.538285e-12
0000d0 b5 bc e4 a6 34 cf 17 a9 41 95 87 ab cd 63 75 ae
       -1.5871827e-15 -3.3708455e-14 -9.633753e-13 -5.579519e-11
0000e0 ac c2 ae 29 c4 98 46 a7 f2 7f a6 ab d9 f2 4f 2c
       7.7609224e-14 -2.7560834e-15 -1.1830521e-12 2.9551277e-12
0000f0 af c4 e8 29 41 3f bc 29 e8 85 e8 aa 9e 5b b9 ad
       1.0336989e-13 8.35985e-14 -4.1304395e-13 -2.1072751e-11
000100 74 32 d1 21 8d 3c 4c 9e 40 cb da 26 31 f7 ad 2d
       1.4175746e-18 -1.0812192e-20 1.518188e-15 1.9777598e-11
000110 5b d2 be 28 10 b6 08 ad 2f d0 b7 10 be 3f 29 a2
       2.1185465e-14 -7.771131e-12 7.250153e-29 -2.2937516e-18
000120 a2 da 98 2c 11 ba 64 22 64 b1 87 20 b9 61 a7 2b
       4.344373e-12 3.0998265e-18 2.2987277e-19 1.1893187e-12
000130 5f a2 85 17 5a 71 06 a6 26 be 25 22 07 81 c2 2f
       8.635912e-25 -4.664421e-16 2.2462334e-18 3.5380074e-10
000140 dc 75 12 23 d2 0a 3b 25 7c 34 fb 14 fe 82 9c 28
       7.9396336e-18 1.622333e-16 2.5365225e-26 1.7376288e-14
000150 27 0b cd 1c d1 24 0f ab 8b 39 bc 29 5d d0 b0 1f
       1.3568645e-21 -5.08549e-13 8.358859e-14 7.488361e-20
000160 c2 7c e9 25 ee 66 62 a1 ad 13 a3 18 df 56 b6 a3
       4.0503596e-16 -7.6708005e-19 4.215438e-24 -1.9769271e-17
000170 e9 a0 9d a0 24 11 14 17 ec 35 8a 2f a0 e5 af 23
       -2.6703316e-19 4.7843014e-25 2.5140368e-10 1.9070788e-17
000180 35 c0 b3 a7 d0 5c c6 20 c2 f2 e4 20 b8 bf 76 9d
       -4.989087e-15 3.3603923e-19 3.8785346e-19 -3.2656945e-21
000190 b8 90 1d 25 e0 13 fc 26 84 be 8a 9f 85 a3 06 2a
       1.3666612e-16 1.74914e-15 -5.8760455e-20 1.1958323e-13
0001a0 d3 e6 eb 18 0c 38 46 a7 68 81 24 20 64 92 99 20
       6.097915e-24 -2.7508403e-15 1.3934157e-19 2.6016081e-19
0001b0 6f 8a bd a0 cf 8b e4 9f de ba 53 9d d2 3b 32 28
       -3.2109453e-19 -9.679305e-20 -2.8022226e-21 9.893956e-15
0001c0 fe 17 5e 1f a0 84 06 aa f4 6b 4a 1c 5c 60 06 a9
       4.7030174e-20 -1.1947604e-13 6.697572e-22 -2.9837555e-14
0001d0 79 af a6 9c f5 e3 30 1e 4f 53 7c 9b c4 57 32 a3
       -1.1030317e-21 9.364503e-21 -2.087187e-22 -9.6679844e-18
0001e0 26 7e 53 a3 1c 93 a6 9c 97 94 48 28 40 40 68 2b
       -1.1465046e-17 -1.1022985e-21 1.11344505e-14 8.251212e-13
0001f0 8e cc 8f 21 b7 0b 6b ab 93 8b 5b a3 32 21 78 1d
       9.744202e-19 -8.350503e-13 -1.190157e-17 3.2839688e-21
000200 d0 9e 10 a3 4f 63 63 aa cc e6 9c 2a 0c 09 95 97
       -7.8398855e-18 -2.0196105e-13 2.7871314e-13 -9.631183e-25
000210 7b 15 da ae d4 03 ed 29 6a 59 e0 ab 87 78 fa 27
       -9.917308e-11 1.05255783e-13 -1.5940975e-12 6.9519615e-15
000220 6b 7a 06 a2 f5 a4 93 ac fc f9 4f 26 62 fd 83 30
       -1.8225194e-18 -4.196305e-12 7.2156344e-16 9.60352e-10
000230 56 41 d5 a3 e9 79 b8 16 b6 40 70 a9 40 f3 69 1f
       -2.3121177e-17 2.980374e-25 -5.3346833e-14 4.954088e-20
000240 bf b8 cd 2e ad c9 c3 b0 26 58 c9 2b a9 bc fc a1
       9.355138e-11 -1.4245437e-09 1.4306375e-12 -1.7126122e-18
000250 89 10 52 26 df e3 31 24 db d7 bb 1e 1f 37 c5 2f
       7.2880795e-16 3.857377e-17 1.9888671e-20 3.5873257e-10
000260 83 73 97 ac 08 44 64 ae 57 c0 06 1c f2 ba 49 20
       -4.3045025e-12 -5.1901622e-11 4.4585474e-22 1.7087217e-19
000270 97 ab 57 9b 0d 79 81 a8 ca a2 13 a9 b5 89 33 9f
       -1.7839827e-22 -1.4374374e-14 -3.2781754e-14 -3.8018633e-20
000280 d0 02 69 a8 5a 52 63 28 cd e6 82 a3 b5 9b 6a 17
       -1.2934708e-14 1.26188885e-14 -1.4192376e-17 7.580601e-25
000290 b1 0a 0d 30 fb 75 9c 2c 07 a5 7a 9a 6b f2 17 24
       5.1310695e-10 4.446885e-12 -5.1832096e-23 3.294824e-17
0002a0 3b 7f 3c a2 bb ed f4 a8 af 8c 92 2d 7f ce 5c a0
       -2.5546106e-18 -2.7192541e-14 1.6660754e-11 -1.8703049e-19
0002b0 1b 64 74 9e 36 89 51 a9 cb bb b6 a8 2f a9 97 2d
       -1.2937954e-20 -4.6526334e-14 -2.0287501e-14 1.7241845e-11
0002c0 8f 7a dc 27 d6 ec 15 9f 02 ef 25 16 58 c4 c1 a9
       6.1195145e-15 -3.1747883e-20 1.3404011e-25 -8.604982e-14
0002d0 b6 77 79 21 40 0a 94 21 cf c3 2b 22 7d 15 d7 1a
       8.452292e-19 1.0031583e-18 2.3278482e-18 8.895663e-23
0002e0 1e ee 5d 1f eb 66 0d 9c db b3 8b 9b 5f 4b de 21
       4.6995536e-20 -4.6786005e-22 -2.311185e-22 1.5063256e-18
0002f0 80 17 47 a5 36 3c 53 a7 8a 85 89 a3 7d db 2c 9c
       -1.7268461e-16 -2.9314773e-15 -1.4910126e-17 -5.719371e-22
000300 4e eb 66 1c 3e d7 1c a1 a7 89 bf 1f b4 dc 96 15
       7.640474e-22 -5.3139727e-19 8.111937e-20 6.0932726e-26
000310 47 47 6c 95 cb f1 4c a1 e7 3b 7b 21 b2 47 49 a0
       -4.7716048e-26 -6.94379e-19 8.512139e-19 -1.7049084e-19
000320 19 1d 3f 19 ac 67 6b 1b 11 33 c0 a3 e6 eb 54 1a
       9.880345e-24 1.9472243e-22 -2.083831e-17 4.403113e-23
000330 06 fa 13 1a da b5 4d 21 20 7f 8e 20 cc 91 be 9a
       3.0600855e-23 6.969738e-19 2.413986e-19 -7.8817706e-23
000340 38 99 b8 9f 8a f8 57 19 17 71 f8 0d 27 0c 4f 22
       -7.818051e-20 1.11654315e-23 1.5311405e-30 2.8060165e-18
000350 04 3a 9d 99 42 f3 2f 9a b5 a5 50 9c d5 00 b6 1d
       -1.6256852e-23 -3.6385654e-23 -6.90356e-22 4.817586e-21
000360 a4 6f 12 1c 14 c1 89 1b e8 da 09 9d fb 1e 8a 9d
       4.845164e-22 2.2789523e-22 -1.824497e-21 -3.656033e-21
000370 73 c0 2b 1f ca 48 7e 1a 0c f7 2f 1e 55 da 0d a8
       3.636985e-20 5.2584767e-23 9.315511e-21 -7.8744155e-15
000380 b2 cf aa ab 91 c5 90 2e 97 95 70 25 24 a6 32 a8
       -1.2136874e-12 6.583457e-11 2.0867365e-16 -9.917011e-15
000390 7d dd 95 98 5a 8c 10 20 0a 63 7d 2c 06 95 d0 2a
       -3.8739243e-24 1.2243713e-19 3.600844e-12 3.7051628e-13
0003a0 0b 07 87 a9 15 67 92 a7 9b c4 e3 22 91 6e 4d a0
       -5.996426e-14 -4.0634902e-15 6.1736637e-18 -1.7400759e-19
0003b0 68 9d 23 a6 fa 12 56 a5 a5 d2 de a5 33 57 94 2a
       -5.676531e-16 -1.8567971e-16 -3.86536e-16 2.6350588e-13
0003c0 2a 2c 4f 22 cc f9 15 a6 86 97 3e a7 9e c9 33 a0
       2.8077111e-18 -5.20333e-16 -2.6449938e-15 -1.5228599e-19
0003d0 c8 bd 11 a2 de e4 08 23 2a cc 91 28 59 30 53 aa
       -1.9751634e-18 7.421039e-18 1.6186776e-14 -1.8757339e-13
0003e0 f4 5c f3 9f 0d bb 74 ab b7 dc 12 1b 5b c5 c8 22
       -1.0306828e-19 -8.69458e-13 1.2148154e-22 5.4419067e-18
0003f0 3e c0 1b 27 c1 70 dc 98 33 33 8e a8 b3 f7 c9 ad
       2.1614786e-15 -5.698252e-24 -1.5787371e-14 -2.2961055e-11

d_fc1.bias f4 [64]
000000 4f 02 00 00 e1 01 00 80 8b 01 00 80 30 01 00 80
       8.28e-43 -6.74e-43 -5.54e-43 -4.26e-43
000010 38 06 00 80 b2 a3 7a 91 3e 01 00 00 52 00 00 00
       -2.231e-42 -1.9771965e-28 4.46e-43 1.15e-43
000020 c4 02 00 00 e4 00 00 00 27 01 00 00 59 01 00 80
       9.92e-43 3.2e-43 4.13e-43 -4.83e-43
000030 4f 7b 00 80 5d 02 00 80 ec 00 00 00 41 01 00 00
       -4.4235e-41 -8.48e-43 3.31e-43 4.5e-43
000040 09 02 00 80 3d 97 16 9b a6 01 00 80 ba 01 00 80
       -7.3e-43 -1.2456577e-22 -5.91e-43 -6.2e-43
000050 5a 01 00 00 25 01 00 80 e9 00 00 80 fa 00 00 80
       4.85e-43 -4.1e-43 -3.27e-43 -3.5e-43
000060 5e 06 00 00 c0 01 00 80 07 03 00 00 88 00 00 80
       2.284e-42 -6.28e-43 1.086e-42 -1.9e-43
000070 28 02 00 80 c9 02 00 00 a9 c1 19 03 0d 01 00 80
       -7.74e-43 9.99e-43 4.518497e-37 -3.77e-43
000080 47 4d 01 27 4a 00 00 00 43 01 00 80 5f 01 00 00
       1.7944238e-15 1.04e-43 -4.53e-43 4.92e-43
000090 30 01 00 00 d3 00 00 00 20 00 00 00 d3 00 00 80
       4.26e-43 2.96e-43 4.5e-44 -2.96e-43
0000a0 fd 01 00 00 c3 00 00 00 af 01 00 00 09 98 0a 0d
       7.13e-43 2.73e-43 6.04e-43 4.270754e-31
0000b0 66 00 00 80 1b 01 00 80 e7 d3 78 a0 e9 01 00 80
       -1.43e-43 -3.97e-43 -2.107653e-19 -6.85e-43
0000c0 85 01 00 80 40 1e 00 00 fd 02 00 00 4d 00 00 80
       -5.45e-43 1.0852e-41 1.072e-42 -1.08e-43
0000d0 4f 01 00 00 a9 01 00 00 0d 00 00 00 cd 00 00 80
       4.7e-43 5.96e-43 1.8e-44 -2.87e-43
0000e0 a2 1e 00 80 f3 04 00 00 8c 48 81 a2 38 00 00 00
       -1.0989e-41 1.775e-42 -3.504233e-18 7.8e-44
0000f0 3c 02 00 80 17 85 38 a3 14 03 00 00 44 00 00 00
       -8.02e-43 -1.0002843e-17 1.104e-42 9.5e-44

d_bn1.weight f4 [64]
000000 5d 26 24 37 10 64 5e 38 68 aa 66 b2 2b 9b 44 34
       9.784094e-06 5.3022115e-05 -1.3426508e-08 1.8310372e-07
000010 50 dd bf 33 f0 ea c8 32 0d 7f 37 33 49 2b e3 32
       8.934387e-08 2.3389902e-08 4.272356e-08 2.6445962e-08
000020 14 80 0f b3 ac ef ed 31 12 c7 1c 3b 82 8f ee 3a
       -3.341127e-08 6.9248554e-09 0.0023922366 0.0018200728
000030 39 19 54 b2 95 1f 10 31 5b db 86 33 8e 0f 13 34
       -1.2345759e-08 2.097271e-09 6.279762e-08 1.36961e-07
000040 ad 40 3b 34 5e 7e 1f 36 94 67 8e 37 59 36 5a 35
       1.7439261e-07 2.3766402e-06 1.6975951e-05 8.1290415e-07
000050 36 9c 8e 33 f4 06 45 36 7d 3a c6 35 ba 70 b1 3b
       6.640805e-08 2.9359335e-06 1.4769172e-06 0.0054150494
000060 47 eb 96 37 10 51 07 37 0e 46 67 ae e3 da fd b6
       1.7990953e-05 8.065501e-06 -5.258554e-11 -7.5654693e-06
000070 51 68 9f 30 30 e1 e1 b0 7b 92 44 35 4a bb 1f 35
       1.1598421e-09 -1.6434907e-09 7.3228847e-07 5.950466e-07
000080 db 6b 0b 3c 1c ec 12 34 68 3b ed 31 00 d2 3a 34
       0.0085096015 1.3683206e-07 6.9043615e-09 1.7398997e-07
000090 47 83 16 39 22 fe 76 31 22 6f 94 b3 ff d0 83 34
       0.0001435402 3.594217e-09 -6.912002e-08 2.4552716e-07
0000a0 ef ed 6d 35 5c 9d f3 31 1d bf 30 32 6a 12 1b 33
       8.863562e-07 7.0901205e-09 1.02880024e-08 3.6105497e-08
0000b0 fb 16 04 32 89 41 d4 aa 5d e3 23 37 1c c7 be 37
       7.688636e-09 -3.770424e-13 9.768494e-06 2.2742483e-05
0000c0 08 09 51 35 15 3a 3f 35 64 3c cc 36 25 33 79 32
       7.787171e-07 7.1237565e-07 6.086704e-06 1.45053365e-08
0000d0 81 4b 2b 37 6f 94 05 b2 57 66 d0 2a 20 63 3c af
       1.0209974e-05 -7.775369e-09 3.7019235e-13 -1.7133717e-10
0000e0 a3 47 8c 3b 84 62 fb ae 87 a1 12 b8 8f e7 c3 32
       0.0042810007 -1.14316584e-10 -3.4959547e-05 2.2806288e-08
0000f0 c6 41 0b 32 bb 35 29 37 f0 13 78 31 b7 0e 7c 38
       8.10582e-09 1.0085695e-05 3.6100083e-09 6.0095186e-05

d_bn1.bias f4 [64]
000000 79 93 0f b1 3c e3 4e b4 e1 1a 64 a7 68 c5 9a ac
       -2.0893067e-09 -1.9267912e-07 -3.1655927e-15 -4.3988597e-12
000010 49 69 6a a8 a1 bf 98 a6 6c 5c e0 aa 44 11 14 ab
       -1.30124395e-14 -1.059906e-15 -3.9854524e-13 -5.2604123e-13
000020 51 d9 0d a8 ca 8c 40 a8 62 75 19 ba ab ec 82 b6
       -7.874195e-15 -1.068867e-14 -0.0005853978 -3.9018537e-06
000030 ae 1a 91 a6 10 3b 48 a5 59 b5 a8 a8 2d db 85 ae
       -1.0068628e-15 -1.7367246e-16 -1.8730394e-14 -6.087073e-11
000040 2d eb fa a7 7e 74 1e ae 61 4a fa b2 e9 b8 b1 af
       -6.9643917e-15 -3.6028507e-11 -2.9137654e-08 -3.23275e-10
000050 d5 52 fa aa 01 af 61 ad 4d 6d 80 aa 48 4a d0 ba
       -4.4466397e-13 -1.2828628e-11 -2.281321e-13 -0.0015891278
000060 ef ae 3c ad 0f 85 96 b0 4b 89 ce a2 35 d2 b9 af
       -1.0725406e-11 -1.0951754e-09 -5.5981776e-18 -3.3800665e-10
000070 93 81 37 a0 ef 5b d6 a2 13 5a d8 ad a0 8b e3 ad
       -1.5543575e-19 -5.8102155e-18 -2.4596358e-11 -2.5868918e-11
000080 cf 2d 9e b9 90 0e db af ba b0 07 a5 69 b2 26 b0
       -0.00030170238 -3.9846215e-10 -1.1769261e-16 -6.0643984e-10
000090 0e a4 b1 b5 15 80 cb b0 aa c5 8b b1 85 10 0a ae
       -1.3235274e-06 -1.4806597e-09 -4.0679042e-09 -3.139224e-11
0000a0 4b a9 c9 af 7b f7 82 a7 6d 7e 03 a5 b5 61 47 a8
       -3.6681977e-10 -3.6350567e-15 -1.1405273e-16 -1.1067906e-14
0000b0 0b 45 93 a8 9e 2d 54 a3 a2 0d ac 32 34 d6 b1 b1
       -1.6350221e-14 -1.1502203e-17 2.0029635e-08 -5.17573e-09
0000c0 d4 02 91 b1 c1 61 fc ac c8 04 23 aa 1d 15 5f a8
       -4.220377e-09 -7.1731236e-12 -1.4478967e-13 -1.2383565e-14
0000d0 6b 4f 28 af 07 c1 63 af 8d 91 a9 96 df ef 47 9e
       -1.5307726e-10 -2.0714107e-10 -2.7395278e-25 -1.05845765e-20
0000e0 af da b9 b9 a0 ab 2f a3 95 cb 27 35 f4 47 54 a7
       -0.00035448882 -9.523112e-18 6.25086e-07 -2.9459916e-15
0000f0 33 5c e9 a7 c9 38 78 38 5f c6 64 a1 af a1 10 b4
       -6.4770454e-15 5.9180693e-05 -7.7511947e-19 -1.3469865e-07

d_bn1.running_mean f4 [64]
000000 b3 bf 2b a7 50 26 36 2b e4 9d 15 aa 49 24 2b 26
       -2.3834938e-15 6.471256e-13 -1.3288638e-13 5.937672e-16
000010 96 53 e6 ab cf 33 04 2c 5f 19 9f 21 a9 3e aa 28
       -1.6365683e-12 1.8787088e-12 1.0780975e-18 1.8900966e-14
000020 3b d1 4b aa f5 cf f3 a6 2e 73 39 34 fb 67 27 b0
       -1.8102613e-13 -1.6917879e-15 1.727137e-07 -6.090201e-10
000030 70 f0 1a a8 fe b2 4a a5 8f 20 40 27 d6 ec 9e a6
       -8.600854e-15 -1.7581352e-16 2.6663003e-15 -1.1027647e-15
000040 81 86 5e 23 4e b2 82 b0 9b 17 bf af 8e 0a 3f 2a
       1.20631264e-17 -9.509422e-10 -3.475947e-10 1.696787e-13
000050 19 b4 fc 2b ef eb ac aa 9f 4f 7b a7 fa e7 3f b3
       1.7955664e-12 -3.071705e-13 -3.487641e-15 -4.4681634e-08
000060 28 73 21 2c 12 c8 d1 af 0a 81 9f a8 a9 f7 cd ac
       2.29434e-12 -3.8159037e-10 -1.7708508e-14 -5.8539462e-12
000070 0d 7e b8 a5 9c c6 a5 a7 fc 6e 42 b0 dd 58 01 25
       -3.2004327e-16 -4.6012032e-15 -7.0734507e-10 1.1219074e-16
000080 a3 22 ff b4 4e 71 a7 27 63 9c b0 27 10 fb 1e a8
       -4.7522653e-07 4.6474656e-15 4.901937e-15 -8.825202e-15
000090 1b cd 89 af e8 70 7b 2a 03 76 84 b0 da 93 7e 24
       -2.506589e-10 2.233245e-13 -9.637805e-10 5.5202706e-17
0000a0 a0 5d f8 2e ea 21 d1 29 85 ef fe a7 17 d6 8b ac
       1.12943654e-10 9.2873476e-14 -7.075885e-15 -3.9743864e-12
0000b0 5b 7f 07 a4 71 c3 43 30 4f 75 0d 31 99 39 1f 2d
       -2.9381333e-17 7.1218326e-10 2.0584883e-09 9.050893e-12
0000c0 1b 0b 95 a6 ea b0 38 ae 92 51 17 aa da 3a b3 28
       -1.0341962e-15 -4.1993888e-11 -1.3439795e-13 1.9898515e-14
0000d0 17 81 88 2e fa 31 bf a3 72 2c 22 9b 2e d6 e3 a4
       6.207495e-11 -2.0729427e-17 -1.3414687e-22 -9.880839e-17
0000e0 01 fb 96 34 c6 62 ab 26 d5 2e 2d 2c bc f8 68 28
       2.8122307e-07 1.1892281e-15 2.4610776e-12 1.2932523e-14
0000f0 75 b8 24 a2 f1 f7 67 af ec c0 3e 24 44 7f 7b ab
       -2.2323795e-18 -2.1097414e-10 4.1363094e-17 -8.934973e-13

d_bn1.running_var f4 [64]
000000 3a ac ec 12 19 e5 b4 1a 1e b0 77 16 e0 78 57 10
       1.4936151e-27 7.481638e-23 2.0008074e-25 4.2494392e-29
000010 a1 17 5e 1c 0d c9 f8 1c 0d b5 94 06 c5 d5 08 15
       7.348418e-22 1.6463234e-21 5.593744e-35 2.7633616e-26
000020 76 bb 66 19 a3 df c8 11 11 b0 86 2c 6b 2a a1 23
       1.1928579e-23 3.1692263e-28 3.8280564e-12 1.747362e-17
000030 68 ce 15 14 0a 60 91 0e 6e a2 38 12 ff c8 32 11
       7.563284e-27 3.5837742e-30 5.8260373e-28 1.4103661e-28
000040 ff 27 cb 0a af 1c 30 24 ed 4c d0 22 ac bb 79 19
       1.9563234e-32 3.8188212e-17 5.645996e-18 1.2910898e-23
000050 8f 7c 11 1b 78 c8 11 18 5c a5 de 11 23 0a d7 29
       1.2034366e-22 1.8842022e-24 3.5127335e-28 9.5496765e-14
000060 f4 6a f2 1b ac ea a6 22 3c 2f f7 14 7d 6c 01 1f
       4.0104658e-22 4.524286e-18 2.4959257e-26 2.7406552e-20
000070 4a d7 78 0f 2d 19 5a 12 25 01 d5 24 ae a1 98 0d
       1.2268807e-29 6.8819702e-28 9.2375964e-17 9.406646e-31
000080 63 6e 90 2f b3 cb 90 12 e1 8c ad 12 77 31 d8 12
       2.6271882e-10 9.137893e-28 1.0952564e-27 1.364371e-27
000090 5d b3 03 24 d9 f2 11 18 a5 16 37 24 90 82 19 0c
       2.8558024e-17 1.8863417e-24 3.970098e-17 1.1825981e-31
0000a0 25 1b 14 22 f8 51 ad 17 6b 53 7e 12 83 f4 0b 1e
       2.007211e-18 1.1200555e-24 8.025109e-28 7.4091626e-21
0000b0 b5 77 b2 0b 21 d5 a0 24 85 80 0c 25 34 02 2b 1d
       6.874322e-32 6.9749993e-17 1.2186608e-16 2.26328e-21
0000c0 b5 2f 8e 15 a7 91 ac 1f 6f 88 83 18 eb 70 32 15
       5.742861e-26 7.3085795e-20 3.400047e-24 3.603589e-26
0000d0 67 db 69 21 4e 9e bf 0a e6 03 00 00 c5 0a 17 0d
       7.9233847e-19 1.8452179e-32 1.398e-42 4.654343e-31
0000e0 0b f8 32 2d 7f 06 c5 10 b3 68 89 1a b0 02 b2 13
       1.0173205e-11 7.771281e-29 5.683102e-23 4.4936167e-27
0000f0 48 45 63 09 ea 89 06 23 02 98 9a 0b 6d c5 c7 19
       2.7356707e-33 7.293359e-18 5.954736e-32 2.0655857e-23

d_fc2.weight f4 [64, 64]
000000 68 40 a3 ae 45 14 28 b4 be 4b c2 ab 75 15 dd a9
       -7.423823e-11 -1.5653593e-07 -1.3805552e-12 -9.818094e-14
000010 d7 16 88 26 da 81 1c 29 b1 11 1b aa 94 a3 2c a7
       9.443086e-16 3.4751587e-14 -1.3772903e-13 -2.395847e-15
000020 29 e6 25 19 08 5c 5a a3 cd 52 2b 2e e6 8d e3 30
       8.5767805e-24 -1.1837292e-17 3.895444e-11 1.6556754e-09
000030 d2 9e 04 a9 fc 41 9b 27 af 53 22 24 1d 71 16 a5
       -2.9447643e-14 4.3092683e-15 3.5199033e-17 -1.304875e-16
000040 9b 8d 08 a9 3d 2a d5 af 61 42 7d b3 10 e6 a4 2c
       -3.032089e-14 -3.8774486e-10 -5.8966524e-08 4.6867024e-12
000050 0a a0 05 a5 16 59 93 2d a5 9a 4e 2e 03 fc 3c 34
       -1.1590134e-16 1.6751527e-11 4.697633e-11 1.7600546e-07
000060 fe 37 54 33 62 37 53 af 6d 84 b6 1a 59 79 b1 b0
       4.941102e-08 -1.9210014e-10 7.548738e-23 -1.2912934e-09
000070 b6 8e 3d 16 a2 b7 89 a0 f2 2c f0 ab 56 2b 4c a5
       1.531233e-25 -2.333022e-19 -1.70655e-12 -1.7708862e-16
000080 9b 30 ae b8 5a 31 dc a4 a6 e8 02 a0 a2 2d 34 a8
       -8.30602e-05 -9.5493396e-17 -1.1088405e-19 -1.0001902e-14
000090 c1 d9 c1 b0 a2 2a 50 23 55 b1 43 a0 dd 64 12 a8
       -1.4104488e-09 1.12847304e-17 -1.6575817e-19 -8.126499e-15
0000a0 dc 04 1c ae 73 0a 53 9d 33 43 65 21 fe 01 b1 a6
       -3.547461e-11 -2.793102e-21 7.7677155e-19 -1.2282382e-15
0000b0 25 2f 6d 21 83 2f 5a 1d 5b 54 a4 34 62 b9 25 b0
       8.036112e-19 2.8876623e-21 3.0608757e-07 -6.0290095e-10
0000c0 4e 6b b7 2d db 44 1b af 8c d3 0b 31 04 48 b2 a3
       2.0852344e-11 -1.412163e-10 2.0347413e-09 -1.9329298e-17
0000d0 56 9c 2d 33 e0 0e b1 1d 4b 40 89 24 30 50 84 8a
       4.0421888e-08 4.686689e-21 5.9523196e-17 -1.2741301e-32
0000e0 95 2f 00 b5 b5 64 4b a0 4c 89 69 b0 70 2b 5b 96
       -4.7752957e-07 -1.722809e-19 -8.4960017e-10 -1.7704386e-25
0000f0 f0 bd 04 2b 0e af 84 b3 03 47 8e 1d 66 ef 3f b4
       4.715941e-13 -6.178571e-08 3.766051e-21 -1.7875354e-07
000100 61 7d 20 28 11 d2 a0 b0 8d 97 a9 a1 36 9e 78 0b
       8.908971e-15 -1.1701237e-09 -1.1492001e-18 4.7882087e-32
000110 37 af db 99 18 a6 39 22 1d c5 cb a2 38 e7 e6 a2
       -2.2714838e-23 2.5160105e-18 -5.523196e-18 -6.2586437e-18
000120 4e 3d 8a a0 e1 35 76 87 cb 8c ca ac 88 85 03 af
       -2.3418677e-19 -1.8522817e-34 -5.7568165e-12 -1.196182e-10
000130 ae e0 16 96 db a5 79 19 71 72 1e 2a 67 78 33 1e
       -1.21878e-25 1.29064925e-23 1.4072924e-13 9.50108e-21
000140 33 6c d5 1b 1e f9 98 ac ab 59 c1 b2 17 3b 3a 20
       3.5307816e-22 -4.3477574e-12 -2.2508933e-08 1.5774364e-19
000150 30 d5 b1 9a 37 da 0c a3 b8 57 0f ab 14 ba 80 af
       -7.354991e-23 -7.635624e-18 -5.092554e-13 -2.341528e-10
000160 04 a3 f1 22 6a 20 86 1c fa 34 35 30 79 7a bc 22
       6.549578e-18 8.875755e-22 6.59227e-10 5.1087175e-18
000170 35 6f 11 00 a3 83 8e 18 f2 c0 de ae 5b b5 da 8e
       1.601097e-39 3.683906e-24 -1.0129665e-10 -5.391579e-30
000180 18 42 a1 b4 d8 06 f0 1d 0e dd ad 25 e3 b4 94 9b
       -3.0036676e-07 6.3534547e-21 3.0160509e-16 -2.4601441e-22
000190 60 13 86 2b a2 39 83 1a d5 f3 24 2c e2 48 39 a6
       9.52665e-13 5.427344e-23 2.3441156e-12 -6.4283543e-16
0001a0 7a ed ee a4 af a0 6b 9f 47 b1 39 9a 78 de d4 2a
       -1.0361835e-16 -4.98961e-20 -3.8400307e-23 3.7813134e-13
0001b0 58 36 28 99 fe fb 2f 88 9a b3 80 2b 52 ce 0e a8
       -8.696371e-24 -5.2958362e-34 9.144796e-13 -7.927322e-15
0001c0 63 ef 5b 20 64 60 8e a7 11 3b 9f 28 23 29 55 9d
       1.8629228e-19 -3.9517424e-15 1.7678162e-14 -2.8211582e-21
0001d0 55 ac a1 a9 14 ac a0 9f 2b aa 11 28 ef 3e ef 8b
       -7.179731e-14 -6.8047315e-20 8.086016e-15 -9.2154143e-32
0001e0 0f 83 3a b5 ac 63 26 a1 ee 2b d0 ac eb 79 de 03
       -6.9481115e-07 -5.63749e-19 -5.9165927e-12 1.3075978e-36
0001f0 8f 27 4e 1e 02 f0 22 33 fa 68 69 a5 d4 50 a7 2b
       1.091373e-20 3.793685e-08 -2.0245096e-16 1.1888498e-12
000200 83 f6 d0 20 7a 34 56 a5 34 cd 54 19 ef c3 b6 9b
       3.5399698e-19 -1.8579321e-16 1.10015836e-23 -3.0235993e-22
000210 c5 fb 88 1e cc bc 2d 25 9e 21 f4 a3 3e fe 30 09
       1.450369e-20 1.5069325e-16 -2.646877e-17 2.1304773e-33
000220 fa 74 0c aa b9 f2 0c 20 78 25 8b 9a ff 6c c1 23
       -1.2475082e-13 1.1938771e-19 -5.7549587e-23 2.0971264e-17
000230 f9 45 37 18 37 ac 6c 87 d8 b3 44 ab b4 ad 94 24
       2.3687523e-24 -1.7805276e-34 -6.988277e-13 6.447903e-17
000240 ed 60 17 9c b9 dc 1e 25 35 25 f5 27 c3 80 31 02
       -5.0086983e-22 1.3779099e-16 6.80415e-15 1.3040859e-37
000250 c4 fa 8e a6 ea 17 28 a7 79 ef 99 1f b0 d3 cb 2e
       -9.9212e-16 -2.3327647e-15 6.5194195e-20 9.2689745e-11
000260 18 fd 3b 9d 67 08 9a a6 74 98 58 07 13 38 33 ac
       -2.488009e-21 -1.0688174e-15 1.6294836e-34 -2.5468557e-12
000270 02 7c b6 b0 71 47 91 2b a7 19 68 95 64 f9 00 80
       -1.3277488e-09 1.0322699e-12 -4.6872263e-26 -8.9464e-41
000280 d1 b9 1d b0 73 dc 55 9e af c0 03 89 e0 03 1a 0d
       -5.738033e-10 -1.1321714e-20 -1.585915e-33 4.745958e-31
000290 3a 5d 8c 2e 7c b0 ab 0b ab 8d cb a2 09 d0 04 0d
       6.383023e-11 6.613235e-32 -5.5173257e-18 4.0926054e-31
0002a0 a2 50 ff 97 6a a6 0c a9 8a 4d 03 80 f5 d5 89 13
       -1.6499343e-24 -3.1230586e-14 -3.03322e-40 3.479464e-27
0002b0 7a 1e 00 00 d8 fa 8c 21 48 0b 9d a8 60 df dc 2b
       1.0933e-41 9.553167e-19 -1.7435394e-14 1.5693939e-12
0002c0 b3 3a bb 24 c3 b6 c1 23 32 10 80 ac f7 0e 00 80
       8.119776e-17 2.1002505e-17 -3.639777e-12 -5.368e-42
0002d0 49 6e 44 b0 3c 98 8f 94 e0 d4 56 9f 7d 45 5e 01
       -7.146111e-10 -1.4499356e-26 -4.549235e-20 4.0824816e-38
0002e0 e8 1d 90 9c 97 e2 4c 92 5e 9d 7c 31 94 ea 99 09
       -9.536851e-22 -6.4650343e-28 3.676028e-09 3.7054006e-33
0002f0 03 db f0 94 65 cd 62 98 cd 56 1b 9d d1 ed 21 a8
       -2.4320192e-26 -2.9313513e-24 -2.0558954e-21 -8.9888636e-15
000300 83 a3 99 ab 0d 66 40 ae 45 ce 25 a9 b0 b6 08 1e
       -1.0916687e-12 -4.3746385e-11 -3.681627e-14 7.237559e-21
000310 3b ac 4c 23 97 e9 44 a5 0a 61 9d 21 cb 9f 43 26
       1.1095333e-17 -1.7079433e-16 1.066442e-18 6.7870775e-16
000320 f8 da b5 12 cb 13 d4 1e ed e9 b6 b3 af 8d 98 31
       1.1476686e-27 2.245456e-20 -8.517586e-08 4.43989e-09
000330 50 da 4b 9f ce ac d0 9d fa 1d 1c 2d c0 8f 16 9b
       -4.3167506e-20 -5.5235817e-21 8.8742295e-12 -1.2454157e-22
000340 22 80 35 ae 87 45 5d ad e7 15 c7 33 f4 f4 44 a6
       -4.126844e-11 -1.2577834e-11 9.2706436e-08 -6.8333134e-16
000350 fe 97 12 2b cf 61 cf 21 e7 49 2b aa 09 31 a4 b3
       5.208055e-13 1.4052755e-18 -1.5213491e-13 -7.6457646e-08
000360 ce cb b8 27 f7 86 47 2a e4 da cc 11 6b 3f bd 28
       5.1291225e-15 1.7721576e-13 3.2320427e-28 2.1010718e-14
000370 ce c0 41 8c 39 76 c0 9e 80 b1 09 a9 1f 01 4b 9b
       -1.4926199e-31 -2.0377686e-20 -3.0574068e-14 -1.6792129e-22
000380 cf 3c 24 b7 63 9b 3f ab dd ca a2 2c ac bc ca 2a
       -9.78932e-06 -6.8072474e-13 4.6268393e-12 3.6013326e-13
000390 99 f2 40 2f ed 1d e9 25 9b fe 83 2c 9d 2c 1b ac
       1.7548486e-10 4.0439335e-16 3.751511e-12 -2.205159e-12
0003a0 f1 d3 9e 2d 9d e3 0d 20 04 00 72 20 a2 55 c5 aa
       1.8056641e-11 1.2018475e-19 2.0498202e-19 -3.505365e-13
0003b0 e9 09 3b 23 97 fb ac 1b c0 d0 2d ae f4 15 0f ae
       1.0139389e-17 2.86176e-22 -3.9521053e-11 -3.2533934e-11
0003c0 09 92 a5 31 6a c9 84 25 34 e4 2a ab 46 e4 11 9f
       4.8187343e-09 2.3034833e-16 -6.071283e-13 -3.0893768e-20
0003d0 1a 45 61 30 38 c0 2e 27 d1 0d f9 1a cc 8b c8 a4
       8.195272e-10 2.4251553e-15 1.0300631e-22 -8.6973e-17
0003e0 0c a8 7f b6 32 4e 50 17 41 f4 4d 31 96 77 8e a0
       -3.8095777e-06 6.730712e-25 2.9970268e-09 -2.413487e-19
0003f0 fa b8 91 22 ff 2a b3 37 e9 74 a8 95 09 1c a2 ac
       3.949818e-18 2.1358484e-05 -6.803911e-26 -4.6074295e-12

d_fc2.bias f4 [64]
000000 18 99 9a ae 32 02 00 80 55 02 00 00 b5 00 00 80
       -7.030304e-11 -7.88e-43 8.37e-43 -2.54e-43
000010 c4 01 00 00 15 00 00 80 e5 02 00 00 50 03 00 00
       6.33e-43 -3e-44 1.038e-42 1.188e-42
000020 2f 01 00 00 52 00 00 00 9d 01 00 00 46 01 00 80
       4.25e-43 1.15e-43 5.79e-43 -4.57e-43
000030 17 02 00 00 c4 02 00 00 1c 01 00 00 02 5b 94 b1
       7.5e-43 9.92e-43 3.98e-43 -4.3177133e-09
000040 f6 01 00 00 20 02 00 80 c2 00 00 00 a4 00 00 00
       7.03e-43 -7.62e-43 2.72e-43 2.3e-43
000050 98 00 00 00 91 03 00 00 1d 02 00 00 31 fa 77 af
       2.13e-43 1.28e-42 7.58e-43 -2.2553405e-10
000060 90 cb 57 b1 ba d0 b3 b1 01 03 00 80 0f 03 00 00
       -3.140233e-09 -5.233315e-09 -1.078e-42 1.097e-42
000070 48 ef 29 b0 6c 02 00 00 d3 00 00 80 f4 00 00 80
       -6.182188e-10 8.69e-43 -2.96e-43 -3.42e-43
000080 d4 00 00 80 0d 01 00 80 4f 3c 86 b0 7c 00 00 00
       -2.97e-43 -3.77e-43 -9.766924e-10 1.74e-43
000090 0a 03 00 00 e5 01 00 00 34 e6 58 ae 13 02 00 00
       1.09e-42 6.8e-43 -4.9317175e-11 7.44e-43
0000a0 64 0d 00 00 e8 5f f3 b0 23 4a 4d b1 a8 03 00 00
       4.804e-42 -1.7707835e-09 -2.9873568e-09 1.312e-42
0000b0 e9 03 06 b2 bd 00 00 80 c3 00 00 00 d9 eb 5b b1
       -7.800716e-09 -2.65e-43 2.73e-43 -3.2002758e-09
0000c0 a3 02 00 00 1a 00 00 00 fd 00 00 80 41 07 00 80
       9.46e-43 3.6e-44 -3.55e-43 -2.602e-42
0000d0 ad 02 00 80 d2 01 00 00 22 0a 2d b3 ee 00 00 00
       -9.6e-43 6.53e-43 -4.0288917e-08 3.34e-43
0000e0 ab 00 00 00 64 69 c2 30 21 01 00 80 64 00 00 00
       2.4e-43 1.4145312e-09 -4.05e-43 1.4e-43
0000f0 c2 01 00 80 da bc 04 af 15 4d 1c 30 07 02 00 80
       -6.3e-43 -1.2072424e-10 5.686201e-10 -7.27e-43

d_bn2.weight f4 [64]
000000 05 4e 14 3a 42 6e d2 39 db 6f 0d 39 e0 de 2a 3a
       0.0005657378 0.0004013647 0.00013488477 0.00065181963
000010 d2 a2 8a 39 f6 5a 9b 3a b8 ff 1d 39 87 7f f0 38
       0.00026442722 0.001185267 0.0001506795 0.000114678456
000020 8b 40 9d 38 3a b2 05 38 05 ef c1 37 c8 81 3a 37
       7.4983654e-05 3.1875657e-05 2.3118695e-05 1.1116681e-05
000030 dc b1 7b 3b 44 4f 76 3c e0 1c 77 3a 18 e5 82 3c
       0.0038405573 0.015033547 0.0009426605 0.015978381
000040 0a 52 61 3a aa c6 d0 38 7d f1 87 39 06 a8 71 39
       0.00085952936 9.955217e-05 0.0002592913 0.00023046145
000050 dd a5 98 38 ca 48 66 3b b0 87 b8 37 7d 2f e8 3a
       7.278819e-05 0.00351386 2.1997694e-05 0.0017714348
000060 1b 64 ff 3a 74 31 01 3b bc 07 08 3a a1 7f 8b 38
       0.001948479 0.0019713314 0.0005189141 6.651809e-05
000070 87 02 96 3b 03 1a 38 39 18 0a b7 37 d8 eb b3 3a
       0.004577938 0.00017557298 2.182e-05 0.0013726903
000080 59 5e b0 39 ca fc 02 3c ea 0c 45 3c e3 1c 07 3a
       0.0003363963 0.00799484 0.012027005 0.0005154146
000090 20 62 12 39 a2 f5 b1 37 4d f9 f7 39 3f 32 50 3b
       0.000139602 2.1214426e-05 0.00047297255 0.003176823
0000a0 c0 75 00 39 fb e8 c5 3a 47 e4 75 3b f5 1c 36 3b
       0.00012250897 0.0015099341 0.0037520097 0.0027788256
0000b0 c7 86 bc 3b cd e0 a8 39 ed a1 a7 38 c3 c1 78 3a
       0.0057533714 0.00032210947 7.9933416e-05 0.0009489322
0000c0 28 2f 5e 38 54 66 b7 39 19 c1 aa 3b 1f ae a8 3b
       5.2972842e-05 0.0003498072 0.0052110073 0.00514771
0000d0 c3 63 cd 3a 46 e0 c5 37 57 75 04 3c 20 09 5a 39
       0.001566999 2.3588665e-05 0.008084617 0.000207935
0000e0 af 4c e0 38 17 db 2c 3a 3f 34 11 3a 21 02 5b 38
       0.00010695436 0.0006593926 0.00055390963 5.221565e-05
0000f0 60 d9 8a 38 73 e3 d0 38 9d e3 69 3c 33 82 06 3a
       6.620842e-05 9.9605786e-05 0.014275459 0.00051310955

d_bn2.bias f4 [64]
000000 59 48 47 3b 86 54 e1 b6 ed 44 30 b7 e1 cb c7 b8
       0.0030408113 -6.7153624e-06 -1.05064655e-05 -9.527035e-05
000010 29 23 d2 b6 23 a4 60 b9 ad a3 07 b7 2d ef 08 b8
       -6.262581e-06 -0.0002142345 -8.084736e-06 -3.2647677e-05
000020 ea 6b 72 b6 28 55 ea b3 b5 52 71 b3 d5 03 72 b2
       -3.6123624e-06 -1.0911964e-07 -5.6187407e-08 -1.4087125e-08
000030 4b b2 d5 b8 06 3d 05 bb 63 90 7e b9 4a af 10 3b
       -0.00010189841 -0.0020330562 -0.00024277116 0.0022077137
000040 0f 8b 6e b9 c0 5a 88 b6 22 79 d6 b8 09 ed 37 b5
       -0.00022749252 -4.0636805e-06 -0.00010226878 -6.8517744e-07
000050 70 6f 0e b6 57 8b 41 bb ef e7 37 b5 eb 4f c7 38
       -2.1224514e-06 -0.0029532516 -6.851032e-07 9.503945e-05
000060 d4 a5 91 3b f8 f0 ca 3b 20 5d 0e b9 bb 77 76 b4
       0.004444817 0.0061932765 -0.00013576867 -2.2954093e-07
000070 6c 9e 7d 3b de f1 05 b6 47 3a a3 b3 6f e2 f8 b9
       0.0038699163 -1.995933e-06 -7.6008796e-08 -0.00047470952
000080 5a 93 24 b6 32 2b bd b7 03 4f d9 3a 97 31 0c ba
       -2.4523674e-06 -2.255067e-05 0.0016579333 -0.00053479656
000090 5d 7b 05 b7 7c c4 98 b4 a9 f3 a1 39 c7 c3 7c ba
       -7.9561405e-06 -2.8455167e-07 0.00030889854 -0.000964221
0000a0 c2 a0 90 b8 3d 5a ff 3a af b1 40 3b 91 4d 14 bb
       -6.8963986e-05 0.0019481849 0.0029402783 -0.002262924
0000b0 79 28 c0 3b 66 18 20 b9 77 43 84 b8 a7 90 c4 3b
       0.0058641997 -0.00015267878 -6.306817e-05 0.005998689
0000c0 2d 95 ed b5 56 3b 9c b6 6e 44 b2 ba 8c 34 fd b9
       -1.7701292e-06 -4.65607e-06 -0.0013600716 -0.0004829507
0000d0 1a 39 4c b9 a4 4c 81 b5 ed 01 0c 3c 69 2b 28 b8
       -0.00019476228 -9.633554e-07 0.008545381 -4.009475e-05
0000e0 88 91 07 b8 9c 80 c9 3b 22 4e 11 b8 ee 9f 0d b6
       -3.2322045e-05 0.0061493646 -3.464346e-05 -2.1103729e-06
0000f0 ea 49 a3 b2 80 7a 08 3c 50 45 8f 38 69 b7 bc b5
       -1.900931e-08 0.0083299875 6.831682e-05 -1.4060471e-06

d_bn2.running_mean f4 [64]
000000 f1 73 f2 ae 9a fb 1b 2c b1 ec 26 27 0d ac ab 30
       -1.1025481e-10 2.2166492e-12 2.3165438e-15 1.2490787e-09
000010 43 87 b4 1f a5 64 67 a8 b6 0a 0b a4 09 16 b4 24
       7.645674e-20 -1.28449e-14 -3.0149893e-17 7.8099885e-17
000020 56 3a 6d a3 5f 30 c9 a6 38 d7 3d 22 59 88 0a 25
       -1.2860149e-17 -1.3960288e-15 2.5728212e-18 1.2015788e-16
000030 f8 d1 1a ac ec 83 2e 2f 57 6c 8d 29 71 de 79 b1
       -2.2001272e-12 1.5872076e-10 6.280452e-14 -3.6360712e-09
000040 24 12 a7 a1 38 0e 98 a3 36 08 17 a8 02 87 1b a5
       -1.1321162e-18 -1.6485895e-17 -8.383964e-15 -1.348985e-16
000050 72 12 ab a4 24 22 e8 a8 7c 0c 89 a1 f5 8b 67 af
       -7.4190676e-17 -2.577198e-14 -9.286786e-19 -2.105905e-10
000060 89 2e 48 b1 a3 06 a6 b1 b0 4c 46 a6 81 63 75 a0
       -2.9130283e-09 -4.8319904e-09 -6.879898e-16 -2.078523e-19
000070 8f 55 ca af 29 92 a5 a2 7f 99 ad 99 89 59 00 29
       -3.680438e-10 -4.4878093e-18 -1.7949777e-23 2.849937e-14
000080 b7 10 6d a4 29 ba 33 a6 6c fe 6b 30 3f dc 27 a9
       -5.140534e-17 -6.2355394e-16 8.5854057e-10 -3.7272482e-14
000090 08 2b 95 a5 eb 27 47 a1 04 e6 51 ae 17 c2 08 2e
       -2.587654e-16 -6.7476654e-19 -4.7725393e-11 3.1095206e-11
0000a0 5e 87 50 a9 c7 e7 ed b0 59 1f 44 b1 6e d7 62 2b
       -4.630269e-14 -1.7309895e-09 -2.8539573e-09 8.05903e-13
0000b0 68 af d4 b1 98 c6 69 26 d7 77 14 9f 27 70 46 b1
       -6.1899534e-09 8.110726e-16 -3.1439348e-20 -2.8876543e-09
0000c0 5b bf 52 19 48 35 4f a3 e9 1f 11 af 15 55 f4 ac
       1.08953895e-23 -1.1232775e-17 -1.319901e-10 -6.944343e-12
0000d0 0f fc 60 a8 04 26 2e a2 a1 e1 2c b3 c0 48 85 a2
       -1.2489154e-14 -2.3601523e-18 -4.025208e-08 -3.612675e-18
0000e0 e0 bf db 28 8b 33 cd 30 86 cd 1a a5 72 88 6a a6
       2.4397097e-14 1.4930363e-09 -1.3427005e-16 -8.1369977e-16
0000f0 b3 72 0c a0 98 65 be ae f9 e8 e9 2f 6e fb 59 a5
       -1.1896412e-19 -8.658246e-11 4.254799e-10 -1.8906937e-16

d_bn2.running_var f4 [64]
000000 42 c3 58 1e c7 d4 c8 18 91 3d ee 0e 74 41 ec 21
       1.1475323e-20 5.191364e-24 5.8730816e-30 1.6009307e-18
000010 0f 72 1d 08 a8 b9 20 18 06 fa 36 0c 62 05 80 10
       4.7379544e-34 2.0773248e-24 1.4096009e-31 5.049539e-29
000020 2f c9 47 0e b6 78 22 0e cd 57 0a 05 8e 3c 93 0a
       2.462551e-30 2.0026162e-30 6.504855e-36 1.4178363e-32
000030 4a 1c c0 18 75 4e 2c 1f f8 22 95 16 54 31 34 1b
       4.96594e-24 3.6487315e-20 2.4094317e-25 1.490519e-22
000040 b0 61 25 0a 11 eb a1 0e 8b d5 7b 17 76 42 ac 11
       7.962834e-33 3.9915925e-30 8.1372003e-25 2.7177775e-28
000050 ec 15 c9 09 f4 d0 fb 15 85 92 83 0a 1d ec d0 16
       4.8409605e-33 1.0170776e-25 1.2669956e-32 3.375322e-25
000060 0f d3 03 1a a3 e8 ce 1a 89 b7 17 14 d5 40 2e 04
       2.7260657e-23 8.557545e-23 7.659748e-27 2.0483371e-36
000070 c3 38 3d 1a 7d 09 c0 0c 54 00 00 00 d5 09 b5 17
       3.9130136e-23 2.9587994e-31 1.18e-43 1.1699333e-24
000080 c4 16 45 10 8e 92 db 13 ed de 80 1b ae 43 02 14
       3.8868938e-29 5.5427886e-27 2.1319886e-22 6.57667e-27
000090 78 66 94 12 74 a5 b9 06 a8 6e ab 13 96 50 96 1c
       9.365374e-28 6.9832377e-35 4.3275584e-27 9.946998e-22
0000a0 c1 6a 19 16 46 f9 5d 1a 9f 35 1c 1c ff 9f 88 1d
       1.2392927e-25 4.590309e-23 5.1685374e-22 3.6164332e-21
0000b0 34 d7 b5 1b 11 46 6c 0d e3 57 9a 05 a2 e0 52 1c
       3.008301e-22 7.2807454e-31 1.4514375e-35 6.9773503e-22
0000c0 04 00 00 00 f9 5e 16 0e f7 96 ba 1e cf b9 11 1b
       6e-45 1.8534655e-30 1.9755954e-20 1.2054157e-22
0000d0 94 e6 69 17 b7 d5 d8 0b c1 98 29 1f 49 e0 78 0c
       7.557739e-25 8.3521736e-32 3.5913497e-20 1.9172718e-31
0000e0 6c c7 28 19 6e e8 42 1b d7 3d e4 0a 33 74 5c 0d
       8.725669e-24 1.6122406e-22 2.1978863e-32 6.7932604e-31
0000f0 d9 2e 8a 07 5b 5e f7 12 d6 c9 2a 1d 80 90 26 12
       2.0791467e-34 1.5611152e-27 2.260366e-21 5.2558474e-28

d_fc3.weight f4 [2, 64]
000000 d6 51 ad 3c b3 ff 77 bb a0 c8 a2 bb cf 25 c8 3c
       0.021157186 -0.0037841618 -0.004967764 0.024432091
000010 67 30 8c 3c 23 b2 37 3c fa f1 5e 3c 7e d4 51 ba
       0.017112924 0.011211905 0.013607496 -0.0008004381
000020 6c 7b 6a 3c 5b ac c9 3b fb fa ce bb 9d 56 6e 3a
       0.014311653 0.0061545796 -0.0063165403 0.0009091886
000030 c9 ed 80 3b 26 9e 97 3b fb 9f 32 bc 8b 34 5b ba
       0.003934596 0.004627007 -0.0109024 -0.00083620165
000040 92 8f ce bb ac a0 2d 3c 86 a4 6e 3b 78 cf 9c bc
       -0.006303736 0.010597389 0.0036413982 -0.019141898
000050 8d 53 83 b9 ba e2 2d 3b 9a 62 8b 3b 7e 61 26 ba
       -0.00025048517 0.0026532845 0.0042536976 -0.0006346925
000060 0d 90 b4 3c 45 59 75 3c 08 19 ca bb 21 bf 2e bc
       0.022041345 0.014974897 -0.0061675347 -0.010665686
000070 8a c1 d3 bb 7c 9a b3 3b b3 56 90 ba e2 91 01 3c
       -0.0064622806 0.0054810625 -0.0011012167 0.007908316
000080 db 73 4e bc d1 08 ad 3c a3 80 09 3b e9 b8 92 bb
       -0.012600864 0.021122368 0.0020981214 -0.0044776094
000090 a3 f2 33 3b ff 6e 4b 3b 03 c2 cc bb cd 0b dd 3b
       0.0027457855 0.00310415 -0.006248714 0.0067457915
0000a0 b8 00 ee 3b 54 6c ed 3c a0 a9 67 bc 9b b2 a6 3c
       0.0072632693 0.028982319 -0.014139563 0.020348838
0000b0 88 16 6a 3c 79 a1 12 3c 4a 67 d2 3b 41 53 29 3c
       0.014287598 0.008949631 0.0064210044 0.010334791
0000c0 98 84 77 ba 2f 3c ad 3c 38 bb a0 3b 49 84 76 3b
       -0.000944206 0.021146862 0.0049051307 0.003761547
0000d0 c8 2f 1d 3b 68 7b 05 3c 32 48 e3 3a 86 d1 3a 39
       0.0023984779 0.008147098 0.0017340241 0.00017816396
0000e0 bc f5 7b 3c a5 24 03 3c d8 e8 82 bc 74 0a 21 bb
       0.015378412 0.008004342 -0.01598017 -0.002457288
0000f0 71 c2 51 bc 7d 05 6b 3c 30 4b 8d 3b f4 5c 13 bc
       -0.012802706 0.01434457 0.0043119416 -0.00899433
000100 c5 9b dd 3b db cd 80 bc a1 25 d6 ba 72 e7 29 3b
       0.006762954 -0.01572316 -0.0016338119 0.0025925306
000110 79 d4 c1 3c cc c3 8c 3c 8c 8e 3d 3c 5a ec 3a bc
       0.023660885 0.017183207 0.01156963 -0.01140889
000120 b1 65 20 3b c0 75 a8 ba 85 02 79 bb 0f 54 68 3b
       0.0024474675 -0.0012852475 -0.0037995887 0.0035450493
000130 9f 11 07 bb 64 47 4b 3b 90 ac bf bc 32 fc 1a bc
       -0.0020609868 0.0031017894 -0.023397714 -0.009459542
000140 1b ab 76 bb 03 b9 fc 3b f0 0c 5e bc e6 3c 7a bc
       -0.0037638608 0.007712485 -0.013552889 -0.015273308
000150 c8 fd 99 bb b4 4c b2 bb 28 57 41 3c f9 95 a7 ba
       -0.0046994425 -0.0054412726 0.011800565 -0.0012785784
000160 51 35 45 3c 05 74 12 3b 6f e4 72 bc 50 d8 0b bc
       0.012036637 0.0022346985 -0.014824971 -0.00853546
000170 84 6c 60 bc 06 79 18 3c bf 9c a3 ba 84 69 76 bb
       -0.013697747 0.009306198 -0.0012482627 -0.0037599513
000180 54 bd 19 bc bd 49 a7 3c db ac cd bb c5 0c a2 bc
       -0.009383518 0.020420903 -0.0062767095 -0.01978148
000190 88 65 3f bc f9 a4 c7 3a 81 0e 01 bc 17 dc f4 bb
       -0.011681922 0.0015231661 -0.007876993 -0.007472526
0001a0 91 3b 26 bc e4 9e 83 3c 20 cb b8 bc 07 af ce 3b
       -0.010146038 0.016066976 -0.022557795 0.006307486
0001b0 ba 1f d3 ba 3b ba ca 3b 8c d9 8c b9 f1 f6 2b bc
       -0.0016107478 0.006186751 -0.00026864966 -0.010495887
0001c0 17 1b 2f ba ea bf 99 3c fe 98 92 37 6d cb 60 bc
       -0.0006679757 0.01876827 1.7475799e-05 -0.0137203755
0001d0 59 38 29 3c 53 87 68 3b b3 72 b5 bc a8 5d 66 bb
       0.010328376 0.003548105 -0.02214942 -0.0035151038
0001e0 e4 1d a2 39 a7 8d 09 bc 9d 9c 83 bc f8 ba ed bb
       0.00030921318 -0.008395589 -0.01606589 -0.0072549544
0001f0 1f 7b 4d bc 05 01 eb bb ae cb a8 3b 49 5c 45 bc
       -0.012541561 -0.0071717524 0.0051512336 -0.012045928

d_fc3.bias f4 [2]
000000 f9 71 6b 3e 98 4f 6f be
       0.22992696 -0.23370206
