code/model/seed_970/QDANN_P_corn_2018.pth (torch, 35125 bytes, 17 tensors)

r_bn0.weight f4 [32]
0.001764611 0.0006323623 0.09540041 0.0009901016 0.13464433 0.0008540058 0.047707208 0.0013467302
0.053499185 0.0040345183 0.0009595948 0.039336383 1.7018676e-05 0.00043362193 0.087659225 0.001579249
0.005699337 0.006558777 0.000110963876 0.005872274 0.0043963627 0.0008687861 0.022298945 0.002275191
0.0005688565 0.0024947699 0.000493797 0.005580931 0.0011610106 0.0017879236 0.0057321033 0.001738102
00000000: 854a e73a 1ec5 253a 4a61 c33d 4cc6 813a
00000010: 34e0 093e 5cdf 5f3a a268 433d c484 b03a
00000020: f621 5b3d fe33 843b 518d 7b3a 301f 213d
00000030: 54c3 8e37 c057 e339 ae86 b33d cefe ce3a
00000040: 81c1 ba3b 02eb d63b 47b5 e838 346c c03b
00000050: 5d0f 903b 40bf 633a 47ac b63c 5f1b 153b
00000060: 501f 153a 4b7f 233b 2872 013a 3ee0 b63b
00000070: 0d2d 983a c358 ea3a 5ed4 bb3b 06d1 e33a

r_bn0.bias f4 [32]
2.8816811e-09 -6.837204e-10 -4.158766e-08 3.687401e-10 1.8234424e-07 -3.028248e-09 4.7193552e-08 -5.920395e-08
1.3854374e-08 6.316443e-09 -3.3055383e-09 7.869467e-08 1.2554697e-09 -1.8887217e-10 3.106558e-08 -4.818709e-09
-7.357271e-09 -4.3188115e-09 2.7810854e-11 3.91001e-09 -3.01975e-09 5.915151e-10 4.0062908e-08 7.979188e-09
1.0296607e-08 -1.0783285e-09 4.735038e-10 1.3224491e-08 -2.1616786e-09 -1.889259e-09 -3.2670564e-09 -2.4611615e-09
00000000: 1207 4631 8cf0 3bb0 1e9e 32b3 8eb7 ca2f
00000010: 67ca 4334 8119 50b1 dcb1 4a33 6e47 7eb3
00000020: 2e04 6e32 0508 d931 a527 63b1 dafe a833
00000030: ea8c ac30 caaa 4faf f76c 0533 d091 a5b1
00000040: 3dcb fcb1 ab64 94b1 7aa0 f42d d058 8631
00000050: 0184 4fb1 2d98 2230 a211 2c33 d714 0932
00000060: f5e4 3032 5034 94b0 de27 0230 ed31 6332
00000070: a78c 14b1 32d4 01b1 aa82 60b1 3621 29b1

r_bn0.running_mean f4 [32]
-0.00014772336 7.2393545e-05 -0.0035506263 -3.336851e-05 0.002986923 0.00016477113 0.0027810428 -0.0013304664
-0.0029558388 -0.00048680833 -3.000877e-05 -0.002460254 1.6229803e-06 2.3435123e-05 -0.0033952312 0.00023292474
0.00082401227 -0.0009253045 -3.9000133e-06 -0.00048330773 0.00020763504 6.606882e-05 0.0018843135 -0.00036861017
-0.00016721277 0.00024655485 5.2844996e-05 0.0004956999 -0.00015795347 -0.00019139677 -0.0007741779 -0.00012983562
00000000: 30e6 1ab9 fdd1 9738 a0b1 68bb 2af5 0bb8
00000010: 41c0 433b 6ac6 2c39 2842 363b 0b63 aeba
00000020: bfb6 41bb 4f3a ffb9 58bb fbb7 363c 21bb
00000030: 2ed5 d935 8b96 c437 8782 5ebb 423d 7439
00000040: 8702 583a 2290 72ba dcdc 82b6 7764 fdb9
00000050: 9bb8 5939 6d8e 8a38 12fb f63a 0542 c1b9
00000060: d655 2fb9 0844 8139 e2a5 5d38 dbf1 013a
00000070: 50a0 25b9 aeb1 48b9 33f2 4aba 7c24 08b9

r_bn0.running_var f4 [32]
2.441922e-06 1.3540344e-07 0.0037147028 6.203648e-08 0.006317961 9.4548835e-07 0.0011027148 3.380176e-05
0.0013520401 2.1802067e-05 1.2686742e-07 0.000814709 2.1112516e-09 1.45292285e-08 0.0034375666 5.1762167e-06
2.5209441e-05 3.650561e-05 1.5872916e-09 2.3718783e-05 7.0083806e-06 1.8651328e-07 0.00029137023 6.4873266e-06
3.4323796e-06 1.521292e-06 1.1530329e-07 3.4482706e-05 1.0027411e-06 2.4652354e-06 1.7266137e-05 9.161364e-07
00000000: e7df 2336 6a63 1134 5f72 733b ea38 8533
00000010: e606 cf3b 77cd 7d35 f888 903a 5dc6 0d38
00000020: f036 b13a 95e3 b637 0d39 0834 3292 553a
00000030: 8815 1131 399c 7932 cc48 613b 5daf ad36
00000040: dd78 d337 9a1d 1938 dc27 da30 b3f7 c637
00000050: 8829 eb36 6144 4834 0dc3 9839 b6ad d936
00000060: d557 6636 322f cc35 a79c f733 86a1 1038
00000070: ec95 8635 6c70 2536 bfd6 9037 6aec 7535

r_fc1.weight f4 [64, 32]
0.0001528359 -1.4961598e-05 0.012658688 1.0370772e-05 -0.019072525 -7.720137e-05 -0.007148896 -0.008626494
0.006283519 0.0010833156 -2.9022856e-05 0.004361409 2.2257082e-05 2.2147242e-06 0.015540132 0.00025213754
-0.001080859 0.0016249978 9.3905055e-06 0.00021422094 -0.0009975618 -7.819602e-05 -0.004841196 0.0003873612
9.7912445e-05 -0.0002863234 -9.732039e-05 -0.0011544497 0.0003838863 0.00045363017 0.0005292198 5.1418065e-05
-5.7638987e-05 -2.7394393e-05 -0.015654007 3.1217507e-05 0.024660429 -6.599315e-05 0.0049393233 -0.010983817
-0.0064517683 -0.00037399257 2.945702e-05 -0.004927198 2.5531938e-07 -1.1443031e-05 -0.014071276 0.0001240984
-0.0002533741 -8.11523e-05 3.6131614e-06 -1.47991905e-05 0.000245565 -3.3770866e-05 0.0014437373 0.00012577977
-0.00026061642 -0.00023264546 1.5339392e-05 0.0010157865 6.559539e-05 -6.220384e-05 0.0005461754 1.582667e-05
0.00016702854 -3.7825892e-05 0.014592494 4.268474e-05 -0.020791532 -0.00014579046 -0.006776823 8.328714e-05
0.0075617232 0.0005875319 0.000119185024 0.005824439 -8.670082e-06 -3.8760703e-05 0.012650373 -0.00023186185
-0.00095218624 0.001120488 9.127194e-06 0.00025670617 -0.00054136483 -0.0001316218 -0.0030528035 0.00031480877
-0.00024065319 -0.00028704898 2.9040546e-05 -0.0008176983 0.0001322747 0.00012348477 0.0006779351 0.00016648002
9.894641e-05 -3.171345e-05 0.012134762 1.5412801e-05 -0.019025657 -5.7012414e-05 -0.006008387 0.0020659664
0.0062607 0.00032496668 6.115011e-05 0.004456686 2.399524e-06 -9.470637e-06 0.01352087 -9.730259e-05
-0.00059766235 0.0007666327 2.7905417e-06 0.0004410654 -0.00033955596 -4.4260796e-05 -0.002471494 0.00019647008
-0.00021874731 -0.00015109353 -6.837426e-06 -0.000750771 8.653495e-05 0.00010711184 0.0004484682 4.5093286e-05
-0.00019871209 2.3117273e-05 -0.011881185 4.1183215e-05 0.023394255 6.8172785e-06 0.0042273826 -0.010922412
-0.005101561 -0.00041021957 1.3592643e-05 -0.002953584 -4.393385e-06 -1.7492188e-05 -0.012790395 0.00041939167
-0.0004217859 -3.3328146e-05 2.585427e-06 -0.0014881646 -6.295334e-05 1.0188056e-05 0.00019343564 -0.0002656808
-0.00066777866 -0.000825327 5.7943093e-05 0.00058828905 -2.0336365e-05 -0.00012471994 0.00070430303 0.00013229818
0.00027984733 -5.5492685e-05 0.01357225 3.5472596e-05 -0.01838088 -0.00014606248 -0.00664587 -0.0010414042
0.0073131756 0.00082585437 0.00011090013 0.0056744083 -2.9835003e-06 -1.891803e-05 0.013971285 -0.00028487388
-0.000998965 0.0013835423 4.1289027e-06 0.0007095734 -0.00022590437 -6.4947955e-05 -0.0035534322 0.0003777478
-2.4709094e-05 -8.913088e-05 -2.285482e-05 -0.00092506147 0.00016705028 0.00025830686 0.0007846705 0.00014731157
0.0013797984 -0.0009588797 0.007931215 9.653041e-05 -0.005097531 -0.0010149734 -0.0029038507 -0.020156512
0.0037119214 0.0023665705 -0.0011314127 0.00272474 0.0007149215 -2.5883899e-05 0.0021550653 -0.0035326742
-0.0011541169 0.0017079186 7.5960106e-06 0.0037487124 0.0011338134 -0.0003372685 -0.0016031078 0.002334725
0.004972013 0.0018186556 -0.0016845667 -0.0016489667 0.0007029031 0.0017157148 0.0009018803 0.000499426
0.0002565872 -3.1688025e-05 0.01197733 2.1053838e-05 -0.015527212 -4.7052577e-05 -0.0056819813 -0.003734721
0.0062035355 0.0006803897 0.000121139135 0.005230761 1.1131929e-05 -1.0413929e-05 0.011659502 -0.00014945243
-0.0010348724 0.0015423401 3.802235e-06 0.0006580852 -0.00038687352 -5.1818988e-05 -0.0049310015 0.0002198097
5.0176568e-05 -0.00034344778 -1.817974e-05 -0.0007624899 0.00045569544 0.00022773817 0.0008639208 0.000108907996
00000000: 9342 2039 9303 7bb7 6366 4f3c 20fe 2d37
00000010: fc3d 9cbc 2be7 a1b8 4941 eabb 2356 0dbc
00000020: fae5 cd3b 0afe 8d3a 1c76 f3b7 27ea 8e3b
00000030: b8b4 ba37 aca0 1436 0a9c 7e3c 5431 8439
00000040: 9cab 8dba e1fd d43a ea8b 1d37 7fa0 6039
00000050: 9fc0 82ba 2bfd a3b8 e5a2 9ebb bd16 cb39
00000060: 5856 cd38 ad1d 96b9 7d18 ccb8 e750 97ba
00000070: 5944 c939 36d5 ed39 57bb 0a3a baa9 5738
00000080: 64c1 71b8 03cd e5b7 d53c 80bc 8bef 0238
00000090: ab04 ca3c cd65 8ab8 0cda a13b 78f5 33bc
000000a0: 5b69 d3bb 6f14 c4b9 781a f737 5574 a1bb
000000b0: d412 8934 72fb 3fb7 368b 66bc 6920 0239
000000c0: 4cd7 84b9 4f30 aab8 a479 7236 0a4a 78b7
000000d0: 2dbf 8039 31a5 0db8 c93b bd3a c0e3 0339
000000e0: 58a3 88b9 4af2 73b9 18ad 8037 2424 853a
000000f0: 4290 8938 6f73 82b8 362d 0f3a 84c3 8437
00000100: 6224 2f39 3ea7 1eb8 5b15 6f3c 6408 3338
00000110: 0153 aabc 54df 18b9 1d10 debb 71aa ae38
00000120: 55c8 f73b 9904 1a3a f9f2 f938 f0da be3b
00000130: b875 11b7 fd92 22b8 8343 4f3c f11f 73b9
00000140: 239c 79ba 57dd 923a 0021 1937 8596 8639
00000150: 61ea 0dba f503 0ab9 8b11 48bb eb0c a539
00000160: d957 7cb9 107f 96b9 199c f337 ce5a 56ba
00000170: 38b3 0a39 b17b 0139 74b7 313a 2491 2e39
00000180: 7381 cf38 0f04 05b8 e1d0 463c bd4a 8137
00000190: b2db 9bbc 9d20 6fb8 01e2 c4bb 2a65 073b
000001a0: 8f26 cd3b 4a60 aa39 b73d 8038 6409 923b
000001b0: 8207 2136 14e4 1eb7 a486 5d3c ee0e ccb8
000001c0: 71ac 1cba d9f7 483a 2445 3b36 cc3e e739
000001d0: 6e06 b2b9 aba4 39b8 caf8 21bb 8903 4e39
000001e0: 895f 65b9 dc6e 1eb9 0b6d e5b6 64cf 44ba
000001f0: 197a b538 3ba1 e038 6220 eb39 8c22 3d38
00000200: 5f5d 50b9 f7eb c137 4da9 42bc 24bc 2c38
00000210: 4fa5 bf3c fabf e436 db85 8a3b ebf3 32bc
00000220: ff2a a7bb bd12 d7b9 f50b 6437 eb90 41bb
00000230: e46a 93b6 30bc 92b7 ce8e 51bc cce1 db39
00000240: 2523 ddb9 d3c9 0bb8 4c81 2d36 850e c3ba
00000250: d105 84b8 5eed 2a37 fcd4 4a39 134b 8bb9
00000260: de0d 2fba c25a 58ba ec07 7338 6937 1a3a
00000270: 0398 aab7 41c7 02b9 faa0 383a 86b9 0a39
00000280: 79b8 9239 d1c0 68b8 245e 5e3c 69c8 1438
00000290: 8093 96bc 5928 19b9 99c5 d9bb ba7f 88ba
000002a0: 5da3 ef3b 267e 583a 0e93 e838 63f0 b93b
000002b0: 2538 48b6 29b2 9eb7 d1e7 643c 205b 95b9
000002c0: b4ef 82ba fa57 b53a 018b 8a36 aa02 3a3a
000002d0: bee0 6cb9 ab34 88b8 b3e0 68bb 740c c639
000002e0: 6046 cfb7 c7eb bab8 5ab8 bfb7 d37f 72ba
000002f0: 382a 2f39 5c6d 8739 59b2 4d3a a677 1a39
00000300: 5ada b43a 545d 7bba edf1 013c 5f70 ca38
00000310: 3009 a7bb db08 85ba 884e 3ebb 451f a5bc
00000320: b543 733b 7718 1b3b e94b 94ba 8d91 323b
00000330: 9269 3b3a 4021 d9b7 ff3b 0d3b 7084 67bb
00000340: bd45 97ba 3ddc df3a 3ce1 fe36 f5ac 753b
00000350: 779c 943a 69d3 b0b9 5f1f d2ba 3002 193b
00000360: 45ec a23b f55f ee3a aecc dcba 2422 d8ba
00000370: 0743 383a d6e1 e03a 2a6c 6c3a e9eb 023a
00000380: 8d86 8639 c2e8 04b8 903c 443c c69c b037
00000390: d965 7ebc 525a 45b8 ea2f babb 39c2 74bb
000003a0: 0747 cb3b 2e5c 323a 140c fe38 ce66 ab3b
000003b0: 45c3 3a37 7cb7 2eb7 7f07 3f3c 55b6 1cb9
000003c0: 8ea4 87ba 5928 ca3a e629 7f36 5a83 2c3a
000003d0: 49d5 cab9 3758 59b8 3d94 a1bb b87c 6639
000003e0: ae74 5238 c810 b4b9 b280 98b7 d5e1 47ba
000003f0: 68ea ee39 00cd 6e39 be78 623a 8965 e438

r_fc1.bias f4 [64]
-2.7698732e-07 9.737511e-08 -5.311623e-07 8.031552e-07 9.91798e-08 -2.9155538e-07 1.129975e-06 5.1235736e-07
7.24e-43 -9.502521e-09 -3.266242e-07 8.418072e-07 4.873442e-09 3.2531406e-07 5.9973724e-09 -6.219844e-08
6.055909e-07 -8.032861e-07 2.1482137e-07 1.8133515e-07 4.066754e-08 8.259519e-09 -1.2e-43 1.9818437e-07
1.0762663e-07 7.442514e-08 -1.5601029e-07 3.088263e-09 4.6844985e-07 -1.0467035e-06 9.42e-43 -4.9462553e-08
-5.773168e-07 -2.3202986e-07 1.4416778e-08 1.1087133e-07 -2.7483003e-07 -1.868896e-07 -1.118861e-06 -2.2763537e-07
1.504329e-07 -9.791458e-09 -8.65e-43 2.094e-42 -4.828308e-07 3.120142e-07 5.6813377e-07 5.196285e-07
-1.676667e-07 -2.203e-42 -5.6042285e-08 3.77e-43 -4.0336073e-07 -3.0422882e-09 -4.5441507e-08 5.6440706e-07
-4.0354287e-08 -2.9150468e-07 -9.453648e-08 3.3647245e-09 -6.805669e-08 -6.636495e-08 1.7223742e-07 -1.3800604e-07
00000000: d9b4 94b4 881c d133 3295 0eb5 6898 5735
00000010: acfc d433 1187 9cb4 a5a9 9735 ee88 0935
00000020: 0502 0000 8840 23b2 e35a afb4 8df8 6135
00000030: 4073 a731 d3a6 ae34 7211 ce31 f491 85b3
00000040: e48f 2235 67a1 57b5 a6a9 6634 07b5 4234
00000050: 6faa 2e33 c0e5 0d32 5600 0080 81cc 5434
00000060: 5e20 e733 a7d3 9f33 c883 27b4 4c39 5431
00000070: 427f fb34 757c 8cb5 a002 0000 a770 54b3
00000080: e9f8 1ab5 e223 79b4 a9ad 7732 2918 ee33
00000090: 5a8c 93b4 d2ab 48b4 c52b 96b5 ef6b 74b4
000000a0: ae86 2134 4a37 28b2 6902 0080 d605 0000
000000b0: e19b 01b5 e882 a734 db81 1835 997c 0b35
000000c0: df07 34b4 2406 0080 25b3 70b3 0d01 0000
000000d0: 7a8d d8b4 8010 51b1 772b 43b3 c281 1735
000000e0: 0252 2db3 1980 9cb4 fb03 cbb3 dc38 6731
000000f0: 9026 92b3 8484 8eb3 43f0 3834 d02e 14b4

r_bn1.weight f4 [64]
0.087269925 0.09753342 0.07960067 0.068260945 0.09110866 0.07278566 0.28872064 0.06366418
0.011076268 0.079775184 0.06840259 0.057589963 0.06384742 0.08103453 0.020318659 0.07629543
0.09540613 0.08239256 0.0666121 0.10149154 0.06204631 0.07880196 0.00021256787 0.06260674
0.05694604 0.06598204 0.10431977 0.029091023 0.087242775 0.0744102 0.008749257 0.07891672
0.06988866 0.09832194 0.020473205 0.066272885 0.07263086 0.105820335 0.13285743 0.082124464
0.058672152 0.024372455 0.013485767 0.010779534 0.067489915 0.07639148 0.0718915 0.06333489
0.07611636 0.01162106 0.057092257 0.004490788 0.06385991 0.07723811 0.08493212 0.06501772
0.071902275 0.08088772 0.08731012 0.019148031 0.05103853 0.09332171 0.08052895 0.063228875
00000000: 93ba b23d 9abf c73d ad05 a33d 65cc 8b3d
00000010: 2d97 ba3d a610 953d 31d3 933e 5e62 823d
00000020: 3c79 353c 2c61 a33d a816 8c3d 74e3 6b3d
00000030: 70c2 823d 6ff5 a53d 5173 a63c c740 9c3d
00000040: 4a64 c33d 6ebd a83d ed6b 883d ccda cf3d
00000050: 4624 7e3d ec62 a13d c1e4 5e39 f637 803d
00000060: 4040 693d 9721 873d 9ba5 d53d 4c50 ee3c
00000070: 57ac b23d 6064 983d 0b59 0f3c 179f a13d
00000080: c921 8f3d 035d c93d 6cb7 a73c 14ba 873d
00000090: 7dbf 943d 55b8 d83d c70b 083e df30 a83d
000000a0: 3652 703d bea8 c73c 68f3 5c3c a49c 303c
000000b0: 2738 8a3d 2373 9c3d da3b 933d b9b5 813d
000000c0: e5e2 9b3d 4266 3e3c 92d9 693d 7627 933b
000000d0: fcc8 823d 042f 9e3d e4f0 ad3d 0328 853d
000000e0: 8041 933d 76a8 a53d a6cf b23d 55dc 9c3c
000000f0: c70d 513d 741f bf3d 5dec a43d 247e 813d

r_bn1.bias f4 [64]
0.024289554 0.02672736 0.027042076 0.02976003 0.024375644 0.034539677 0.034782615 0.03347536
-0.012793738 0.034106318 0.042668246 0.037838306 0.036093734 0.023195462 -0.012352469 0.028152699
0.024361452 0.031959835 0.037027024 0.020506356 0.03944865 0.020956917 -6.844768e-05 0.04504778
0.03947812 0.04161164 0.021283722 -0.019569485 0.025430687 0.03403246 -0.006393539 0.03081074
0.027067903 0.027507184 -0.012380041 0.03518213 0.038823634 0.022574186 0.02949288 0.023937017
0.040494453 -0.01577653 -0.011522323 -0.012189185 0.039580684 0.025753662 0.028417235 0.04063515
0.026101243 -0.015251077 0.038532913 -0.0019961123 0.036202386 0.025703877 0.018154409 0.0327731
0.0191846 0.02901674 0.021589428 -0.010693164 0.03836378 0.026155902 0.029136669 0.03893
00000000: e3fa c63c 56f3 da3c 5887 dd3c 4ecb f33c
00000010: 6eaf c73c 7a79 0d3d 3778 0e3d 761d 093d
00000020: d49c 51bc 11b3 0b3d e6c4 2e3d 57fc 1a3d
00000030: 06d7 133d 6904 be3c 0362 4abc 7da0 e63c
00000040: ab91 c73c 51e8 023d a6a9 173d f2fc a73c
00000050: e894 213d d7ad ab3c 928b 8fb8 0584 383d
00000060: cfb3 213d f870 2a3d 335b ae3c 2f50 a0bc
00000070: 0454 d03c 9f65 0b3d e480 d1bb ce66 fc3c
00000080: 82bd dd3c bf56 e13c a8d5 4abc 231b 103d
00000090: 8805 1f3d 80ed b83c 0d9b f13c 9017 c43c
000000a0: 83dd 253d c83d 81bc 20c8 3cbc 26b5 47bc
000000b0: 5b1f 223d 58f9 d23c 43cb e83c 0b71 263d
000000c0: 46d2 d53c a7df 79bc b0d4 1d3d 35d1 02bb
000000d0: f448 143d f090 d23c 8eb8 943c 163d 063d
000000e0: 0629 9d3c 84b4 ed3c 50dc b03c 6132 2fbc
000000f0: 5723 1d3d e744 d63c 06b0 ee3c 1075 1f3d

r_bn1.running_mean f4 [64]
-2.6600154e-07 2.0211371e-07 -4.870357e-07 7.2778903e-07 1.2017952e-07 -2.817519e-07 1.1762826e-06 5.855083e-07
-1.32502126e-11 5.219743e-08 -3.559236e-07 7.364946e-07 -4.604447e-09 3.174414e-07 4.5763495e-09 -1.0135639e-07
5.7750873e-07 -9.553494e-07 1.5036387e-07 1.32717695e-08 6.88236e-08 -3.9373184e-08 -1.3873494e-13 1.525935e-07
7.9009226e-08 1.12824374e-07 -6.716129e-08 1.4108887e-09 6.559048e-07 -1.0650093e-06 -1.5835444e-11 -4.7812307e-08
-6.616759e-07 -2.4002168e-07 1.0175029e-08 2.1670449e-08 -3.1134476e-07 -1.4144469e-07 -7.9069287e-07 -2.8468568e-07
1.0909784e-07 -1.4885182e-08 -2.4532624e-11 1.2727507e-10 -4.546618e-07 2.9011812e-07 5.795846e-07 5.791574e-07
-2.4051062e-07 1.4249014e-10 -7.888243e-08 -9.359299e-12 -3.5892316e-07 5.5032094e-09 -2.3949148e-08 5.563645e-07
1.9611292e-08 -4.2831851e-07 -1.3033011e-07 1.9395912e-09 -4.6683684e-08 -1.484716e-08 1.5944613e-07 -2.2201083e-07
00000000: f9ce 8eb4 9804 5934 d7bc 02b5 485d 4335
00000010: b20a 0134 b043 97b4 c3e0 9d35 d32b 1d35
00000020: a719 69ad ae2f 6033 c415 bfb4 86b3 4535
00000030: 2535 9eb1 d06c aa34 ff3d 9d31 44a9 d9b3
00000040: 1906 1b35 8e39 80b5 b573 2134 dc01 6432
00000050: 2dcc 9333 461b 29b3 a033 1caa 95d8 2334
00000060: c8ab a933 db49 f233 4f3a 90b3 3ce9 c130
00000070: 6f11 3035 71f1 8eb5 404a 8bad 305a 4db3
00000080: 069e 31b5 54dc 80b4 40ce 2e32 d225 ba32
00000090: e626 a7b4 05e0 17b4 0040 54b5 e7d6 98b4
000000a0: 2c49 ea33 b9b9 7fb2 8fca d7ad bff0 0b2f
000000b0: 3e18 f4b4 88c1 9b34 c094 1b35 6577 1b35
000000c0: 871f 81b4 69ab 1c2f 1366 a9b3 89a6 24ad
000000d0: 06b2 c0b4 be16 bd31 bcb8 cdb2 1459 1535
000000e0: b075 a832 a6f3 e5b4 def0 0bb4 a649 0531
000000f0: 4181 48b3 8012 7fb2 3834 2b34 df61 6eb4

r_bn1.running_var f4 [64]
3.7402708e-05 4.7229474e-05 4.0134135e-05 3.320473e-05 3.6185324e-05 3.618703e-05 4.457262e-06 2.6784728e-05
1.6762461e-10 3.5412962e-05 3.3005635e-05 2.7629185e-05 3.232861e-05 3.54642e-05 9.347777e-06 3.3324635e-05
3.3114928e-05 2.8296212e-05 3.0848096e-05 2.8356864e-05 2.8837765e-05 4.7136353e-05 6.74022e-17 2.634254e-05
3.0792206e-05 2.0650263e-05 4.060294e-05 1.3895695e-05 2.9065008e-05 3.123635e-05 2.413905e-09 3.4655266e-05
3.350886e-05 3.740117e-05 6.2012336e-06 2.8183806e-05 3.5911948e-05 2.8497236e-05 2.7306194e-05 3.1614905e-05
2.8433427e-05 1.04641595e-05 2.7461403e-11 7.3460904e-11 2.826997e-05 4.136922e-05 4.0108804e-05 3.548122e-05
4.443959e-05 1.2395407e-10 2.4365849e-05 2.7272376e-14 3.4062366e-05 3.9708255e-05 4.358174e-05 3.658479e-05
5.1944033e-05 3.137051e-05 4.849991e-05 7.642868e-06 2.617026e-05 3.9421226e-05 3.1193074e-05 2.893704e-05
00000000: dae0 1c38 4318 4638 b355 2838 4f45 0b38
00000010: b2c5 1738 87c7 1738 978f 9536 c4af e037
00000020: 224e 382f 6188 1438 886f 0a38 39c5 e737
00000030: 9598 0738 65bf 1438 66d4 1c37 0ec6 0b38
00000040: e2e4 0a38 a75d ed37 e462 0138 e7df ed37
00000050: a1e8 f137 46b4 4538 3c6b 9b24 2dfa dc37
00000060: e126 0138 1a3a ad37 134d 2a38 8e21 6937
00000070: a1d0 f337 c703 0338 dee1 2531 cf5a 1138
00000080: dd8b 0c38 33df 1c38 3114 d036 436c ec37
00000090: 29a0 1638 590d ef37 9b0f e537 3f9a 0438
000000a0: 5284 ee37 398f 2f37 958d f12d d08a a12e
000000b0: 4c25 ed37 dd83 2d38 803a 2838 abd1 1438
000000c0: a564 3a38 f849 082f 4365 cc37 d1a5 f528
000000d0: 30de 0e38 6a8c 2638 89cb 3638 9f72 1938
000000e0: 7bde 5938 d493 0338 626c 4b38 de39 0037
000000f0: 3588 db37 3858 2538 4fd5 0238 d2bd f237

r_fc2.weight f4 [64, 64]
-0.007642133 0.027395561 -0.000458395 -0.0033209466 0.0022768017 -0.0011991356 0.006842723 -0.0015363449
2.1438629e-08 -0.0047064293 -0.0028344176 -0.002276807 -0.0035132403 0.00755062 0.0025108014 -0.0107766455
0.022177324 0.006694414 0.004397001 -0.0027214875 -0.01072794 0.033055797 -8.7702435e-15 -0.0030615723
0.013350996 -0.0018497674 0.0046181255 0.0033099179 0.0001094397 0.0035959557 8.390559e-07 -1.1709279e-05
0.0023153347 0.019294979 0.0026872049 -0.0018746074 -0.009693683 0.020707749 0.007435409 -0.009353884
-0.0026366322 0.0033217084 5.5585327e-09 5.05022e-06 0.0021564728 -0.012725755 0.004646851 -0.007024593
-0.0086596785 3.873334e-06 -0.006521608 5.470951e-11 -0.0005978685 0.010362214 -0.011369624 -0.005957956
0.022504551 -0.0026964718 0.011677306 0.001891045 -0.0033058233 0.005814771 -0.0037769715 -0.0035620055
-0.0007643629 0.019485971 -0.0056333314 -0.0052065174 0.020559601 0.0031937668 0.008432899 -0.0021906218
-1.0431742e-06 -0.009483227 0.0013183531 -0.0074967328 0.0005446836 0.0066620405 0.003482032 -0.0041119196
0.023566658 -0.00059681304 0.01148877 0.0043695224 -0.001291467 0.020077761 -1.8324517e-09 0.0009672787
-0.010087708 -0.004216119 0.0011969191 0.005650907 -0.01340471 -0.006809527 6.27594e-05 -0.0053653424
-0.010958366 0.03398948 0.0028907566 -0.0044394247 -0.007579488 0.03711136 -0.003260341 -0.0004445654
-0.008649284 0.0032623545 9.925925e-06 0.00023510106 -0.011068762 -0.0021045224 -0.0027945836 -0.004682762
-0.0012798372 -0.00031909146 -0.0059309877 -4.379405e-08 -0.0003739895 -0.0015038048 0.0013123624 -0.0098406095
0.022724098 -0.0026631844 0.013846989 0.0034521027 0.0023147152 0.006773494 0.00028799032 0.00061671645
-0.0012537853 0.006095741 -0.0007220774 0.0026784856 0.014374537 -0.00016288646 0.007355328 -0.003861325
1.9987178e-07 -0.007464838 -0.00031681612 0.00016625613 -0.00050892547 0.013130502 0.0021046381 -0.004505484
0.0012921033 -0.0027228892 -0.002848087 -0.006472131 -0.010685624 0.014915201 -2.1365601e-15 -0.011853591
-0.0035137658 -0.005472846 -0.00027414277 0.0035885957 -0.0014036922 -0.008171629 2.1609001e-05 0.0025450902
-0.00967352 0.014144607 0.0020511427 -0.0073850476 0.00016912448 0.02529409 -0.004538768 -0.003148584
-0.0068449513 0.0030303553 4.168991e-08 3.156439e-05 -0.008410541 -0.0058679446 -0.009404417 -0.010960528
-0.010143682 8.9921945e-05 -0.002271378 -1.2013371e-08 -0.0011070631 -0.0013916583 -0.004558646 -0.008116544
0.009403384 -0.008672001 0.015775679 0.0019853308 -0.009391127 0.0020085848 -0.0016531064 -0.0013984336
-0.014993065 0.017135108 -0.010166395 -0.009984195 0.0022530186 -0.0058063297 0.016219297 -0.008420557
-0.00012600112 -0.011792533 -0.015142517 -0.0054461095 -0.01482869 0.006326952 0.0021660514 -0.009196011
0.010648703 -0.006465122 -0.009975842 0.015826304 -0.01102674 0.01250788 3.5346717e-09 -0.014256643
-0.006743897 -0.0036190404 -0.008439763 0.0028475951 -0.008753046 -0.00800072 -0.00052649574 -0.0078249145
-0.012721157 0.014304314 4.908074e-05 -0.011065375 -0.01408308 0.03059769 -0.01573177 -0.0054271747
-0.011631798 0.0021177656 -7.768948e-06 -0.0003711376 -0.0029482832 -0.008713759 -0.013040692 -0.010038772
-0.008949485 -0.0002542287 -0.003519797 9.136402e-06 0.0003431763 -0.0133595215 -0.009377392 -0.008435593
0.002216979 0.0076631038 0.0065080104 0.0015421539 0.00010740252 -0.011979998 -0.007216802 -0.009779303
00000000: dc6a fabb a86c e03c bc54 f0b9 3da4 59bb
00000010: 6536 153b 502c 9dba ec38 e03b 2e5f c9ba
00000020: 0b28 b832 6438 9abb a3c1 39bb 7c36 15bb
00000030: 643e 66bb 316b f73b 428c 243b 8790 30bc
00000040: 38ad b53c d15c db3b b814 903b fc5a 32bb
00000050: 3ec4 2fbc 8465 073d 9cfd 1da8 a9a4 48bb
00000060: 23be 5a3c e573 f2ba a553 973b 35eb 583b
00000070: fe82 e538 20aa 6b3b 7b3b 6135 f872 44b7
00000080: dfbc 173b 8110 9e3c d11b 303b 63b5 f5ba
00000090: 41d2 1ebc 4ca3 a93c bba4 f33b 0841 19bc
000000a0: 59cb 2cbb 05b1 593b 5ffd be31 0f75 a936
000000b0: 9c53 0d3b af7f 50bc 9d44 983b 8f2e e6bb
000000c0: 53e1 0dbc b0f7 8136 37b3 d5bb 6f9d 702e
000000d0: 47ba 1cba 47c6 293c a947 3abc f53a c3bb
000000e0: 775b b83c 4ab7 30bb 2c52 3f3c f1dc f73a
000000f0: 83a6 58bb d689 be3b 1187 77bb 8970 69bb
00000100: 875f 48ba 0ba1 9f3c cf97 b8bb 6f9b aabb
00000110: 9c6c a83c 844e 513b 242a 0a3c 8990 0fbb
00000120: 3103 8cb5 895f 1bbc 97cc ac3a 27a7 f5bb
00000130: 19c9 0e3a 3f4d da3b ce32 643b 48bd 86bb
00000140: dd0e c13c 7273 1cba 653b 3c3c 362e 8f3b
00000150: 7146 a9ba 1e7a a43c aad9 fbb0 fa90 7d3a
00000160: ea46 25bc 5f27 8abb f1e1 9c3a 3e2b b93b
00000170: 6e9f 5bbc 7422 dfbb b29d 8338 c1cf afbb
00000180: b88a 33bc 8e38 0b3d d972 3d3b 9878 91bb
00000190: 5b5d f8bb 1502 183d 72ab 55bb 8f14 e9b9
000001a0: bab5 0dbc 3acd 553b 8687 2637 7685 7639
000001b0: c159 35bc 07ec 09bb 5525 37bb db71 99bb
000001c0: 36c0 a7ba bb4b a7b9 bb58 c2bb 1118 3cb3
000001d0: 0514 c4b9 511b c5ba 9303 ac3a 823a 21bc
000001e0: e327 ba3c d288 2ebb 7bde 623c ac3c 623b
000001f0: 7ab2 173b 30f4 dd3b 68fd 9639 24ab 213a
00000200: 0e56 a4ba c8be c73b cb49 3dba 8889 2f3b
00000210: 2e83 6b3c 80cc 2ab9 f704 f13b 490e 7dbb
00000220: 569c 5634 9a9b f4bb 571a a6b9 0a55 2e39
00000230: 6969 05ba 5121 573c f8ed 093b bda2 93bb
00000240: cb5b a93a 8072 32bb f9a6 3abb 2b14 d4bb
00000250: c112 2fbc e35e 743c 94f4 19a7 9035 42bc
00000260: 3547 66bb 8f55 b3bb d2ba 8fb9 a52e 6b3b
00000270: 18fc b7ba 4ce2 05bc fa44 b537 87cb 263b
00000280: af7d 1ebc c8be 673c 776c 063b 45fe f1bb
00000290: 0257 3139 8d35 cf3c f2b9 94bb 7958 4ebb
000002a0: 9d4b e0bb ed98 463b 8a0e 3333 0164 0438
000002b0: 5ecc 09bc e347 c0bb fc14 1abc c993 33bc
000002c0: b031 26bc 7a94 bc38 66db 14bb 5d63 4eb2
000002d0: e01a 91ba 4e68 b6ba b260 95bb 41fb 04bc
000002e0: a710 1a3c 0215 0ebc ff3b 813c 531c 023b
000002f0: 3edd 19bc 76a2 033b 0cad d8ba a54b b7ba
00000300: 79a5 75bc ed5e 8c3c f490 26bc c094 23bc
00000310: 61a7 133b 0643 bebb 55de 843c 60f6 09bc
00000320: 2b1f 04b9 7835 41bc 5218 78bc 4775 b2bb
00000330: 09f4 72bc 5252 cf3b 50f4 0d3b deaa 16bc
00000340: e677 2e3c 60d9 d3bb b771 23bc 2aa6 813c
00000350: 80a9 34bc daed 4c3c 9ae6 7231 b294 69bc
00000360: e9fb dcbb 6c2d 6dbb ef46 0abc b89e 3a3b
00000370: f068 0fbc 7415 03bc 8804 0aba 1234 00bc
00000380: 666c 50bc a45c 6a3c 0bdc 4d38 8c4b 35bc
00000390: b8bc 66bc 02a8 fa3c eadf 80bc 71d6 b1bb
000003a0: 4c93 3ebc 36ca 0a3b 6157 02b7 3f95 c2b9
000003b0: fc37 41bb 27c4 0ebc a0a8 55bc a979 24bc
000003c0: dca0 12bc 004a 85b9 65ac 66bb 8c48 1937
000003d0: 58ec b339 e5e1 5abc a2a3 19bc 7135 0abc
000003e0: bc4a 113b c61a fb3b 2641 d53b 1922 ca3a
000003f0: 4a3d e138 c147 44bc ec7a ecbb 5f39 20bc

r_fc2.bias f4 [64]
7.4380826e-09 1.7437999e-07 -2.8228813e-08 -3.3107092e-08 -1.1907723e-07 -4.563156e-09 3.7460154e-08 3.027904e-08
-2.0905533e-08 -9.416706e-09 -5.5446e-08 9.25914e-08 4.10347e-08 8.300982e-08 9.173607e-09 4.654133e-09
1.17337756e-07 -4.9897366e-08 5.463579e-09 -7.154458e-08 -3.9652143e-08 4.3877854e-08 1.8506654e-09 1.5096951e-07
4.7027246e-08 3.418964e-08 1.8121189e-07 -7.1411115e-08 -1.3488339e-09 -1.215292e-07 -3.008893e-08 5.089966e-09
-1.8347431e-07 -2.7250213e-08 -1.4420222e-07 1.921568e-08 -1.2633936e-07 9.3053515e-08 4.1316547e-08 -3.4112102e-07
-3.6239346e-08 -8.725811e-08 -3.1342e-08 2.9303695e-08 8.053159e-08 1.339447e-07 1.1202593e-08 -3.396723e-08
2.618164e-07 -1.10279615e-07 8.009123e-08 -2.590515e-08 3.200726e-08 2.7939425e-08 -2.5201505e-08 -1.15914396e-07
-9.139711e-08 5.613968e-08 1.6767366e-08 1.6179432e-07 8.780691e-09 2.0523494e-08 6.5642034e-08 -1.1076093e-08
00000000: 1192 ff31 353d 3b34 d17b f2b2 a231 0eb3
00000010: 66b7 ffb3 f2c9 9cb1 e0e3 2033 280c 0233
00000020: c193 b3b2 1cc7 21b2 8623 6eb3 a9d6 c633
00000030: 213e 3033 2243 b233 f399 1d32 30ea 9f31
00000040: 1dfb fb33 bc4e 56b3 26ba bb31 0ca4 99b3
00000050: fe4d 2ab3 3674 3c33 805a fe30 2f1a 2234
00000060: 01fb 4933 e8d7 1233 2593 4234 ad5a 99b3
00000070: e061 b9b0 b17d 02b4 213b 01b3 d0e3 ae31
00000080: 0901 45b4 da13 eab2 01d6 1ab4 ba0f a532
00000090: e6a7 07b4 b6d4 c733 0674 3133 5123 b7b4
000000a0: 95a5 1bb3 a762 bbb3 e59c 06b3 82b7 fb32
000000b0: b6f0 ac33 70d2 0f34 8675 4032 5de3 11b3
000000c0: c68f 8c34 dcd2 ecb3 9ffe ab33 0786 deb2
000000d0: 5b78 0933 72ff ef32 b27a d8b2 9dec f8b3
000000e0: 1846 c4b3 3b1e 7133 d407 9032 afb9 2d34
000000f0: e3d9 1632 a44b b032 17f7 8c33 2c49 3eb2

r_bn2.weight f4 [64]
0.037623417 0.05323875 0.03670826 0.052104004 -0.042308774 -0.02512227 0.086519204 0.05861574
0.051010814 0.17650704 -0.04381357 0.056432463 0.03086345 0.051032677 0.07164908 0.05005811
0.09324983 0.0373796 0.0466188 0.038031925 0.056767598 -0.05380795 0.040791877 0.2491125
0.13028769 0.28310487 0.058923822 0.03990126 -0.028802086 0.032061577 0.0454041 -0.034702633
0.24435732 0.0388343 0.054541606 0.023599911 0.04026951 0.050307035 0.04188804 0.31012335
0.029226271 0.048411068 -0.031654257 0.04950584 -0.03860367 0.16232325 0.24409734 0.049396154
0.16161248 0.30289838 -0.04541757 0.058258414 0.2385564 -0.026405327 0.056326434 0.047977682
0.06126347 0.072642274 0.25009298 0.05181416 0.046789695 0.047240987 0.044279426 0.15458311
00000000: 031b 1a3d e010 5a3d 675b 163d 026b 553d
00000010: f74b 2dbd 38cd cdbc fb30 b13d 0f17 703d
00000020: b7f0 503d 43be 343e dc75 33bd ba25 673d
00000030: 59d5 fc3c a407 513d c1bc 923d bc09 4d3d
00000040: c4f9 be3d 5a1b 193d 5bf3 3e3d 5dc7 1b3d
00000050: 2485 683d ba65 5cbd 6215 273d 5917 7f3e
00000060: 236a 053e 1ff3 903e 1b5a 713d 816f 233d
00000070: 5af2 ebbc 0053 033d a6f9 393d 5924 0ebd
00000080: ce38 7a3e b710 1f3d 0567 5f3d 9a54 c13c
00000090: a4f1 243d c00e 4e3d cb92 2b3d 7dc8 9e3e
000000a0: ef6b ef3c af4a 463d e5a7 01bd a3c6 4a3d
000000b0: e21e 1ebd 1138 263e a7f4 793e 9f53 4a3d
000000c0: be7d 253e 7f15 9b3e c607 3abd 60a0 6e3d
000000d0: 2148 743e fc4f d8bc 8cb6 663d 3f84 443d
000000e0: 68ef 7a3d 79c5 943d 300c 803e 163b 543d
000000f0: 8da6 3f3d c47f 413d 585e 353d 094b 1e3e

r_bn2.bias f4 [64]
0.45019338 0.4422505 0.4385205 0.43692338 0.4491484 0.44220573 0.44328436 0.44251597
0.4414349 0.41776818 0.43738663 0.44566134 0.4339063 0.44340038 0.43638185 0.43554562
0.43245202 0.44041792 0.432116 0.43491992 0.4404944 0.43765324 0.44322774 0.38530385
0.4174628 0.3643086 0.4430454 0.43151507 0.43783343 0.43943655 0.45231926 0.43950528
0.38425168 0.44991776 0.44546843 0.44551402 0.4354233 0.4519858 0.44284615 0.3522467
0.4389031 0.42792338 0.440295 0.4495889 0.43764752 0.40502265 0.38599667 0.4497423
0.42140687 0.3478294 0.43837366 0.4438695 0.3882096 0.45418015 0.44985446 0.45520002
0.4298826 0.44193184 0.38022187 0.45940033 0.4513981 0.44442877 0.44019198 0.43998888
00000000: bf7f e63e a86e e23e c285 e03e 6cb4 df3e
00000010: c7f6 e53e ca68 e23e 2bf6 e23e 7491 e23e
00000020: c103 e23e b6e5 d53e 24f1 df3e b92d e43e
00000030: f728 de3e 6005 e33e 716d df3e d6ff de3e
00000040: 5a6a dd3e 757e e13e 4f3e dd3e d3ad de3e
00000050: 7b88 e13e 1614 e03e bfee e23e 8c46 c53e
00000060: afbd d53e a886 ba3e d9d6 e23e 8bef dc3e
00000070: b42b e03e d4fd e03e 6496 e73e d606 e13e
00000080: a3bc c43e 9f5b e63e 7014 e43e 6a1a e43e
00000090: ceef de3e af6a e73e bbbc e23e ae59 b43e
000000a0: e8b7 e03e c618 db3e 596e e13e 8430 e63e
000000b0: 5613 e03e 215f cf3e 5ba1 c53e 9f44 e63e
000000c0: a4c2 d73e b216 b23e 8372 e03e dd42 e33e
000000d0: 69c3 c63e 4d8a e83e 5353 e63e fa0f e93e
000000e0: 9219 dc3e e444 e23e 71ac c23e 8536 eb3e
000000f0: a71d e73e 2b8c e33e d860 e13e 3946 e13e

r_bn2.running_mean f4 [64]
0.003516141 0.0031037778 -0.003042054 -0.010070647 0.0077957283 0.003209683 -0.012938262 -0.003345922
0.0010534544 -0.025485238 0.0008394691 -0.0066848216 0.0006339426 -0.0005078389 -0.0033974836 -0.0005993718
-0.012034105 -0.0034894007 -0.0014800613 -0.0010047638 -0.0035378968 -0.0022425323 -0.0008581538 -0.03542743
-0.020246394 -0.037734192 0.0030311886 8.736431e-05 0.0060395976 -0.0020281784 0.0004882087 0.002885349
-0.033960886 0.00030067968 -0.0026203636 -0.0062230304 -0.0032337145 -0.0066841734 -0.0027064974 -0.038076658
-0.002470265 -0.0010915375 -0.00032255068 0.0015359675 0.004267019 -0.028694531 -0.03364346 -0.003069664
-0.022477454 -0.036175027 0.0028706167 -0.0031221402 -0.033311382 0.0027261854 -0.00065483985 -0.00039656914
-0.0024597563 -0.0053604483 -0.03482878 -0.0010912664 -0.0005674534 0.0017883502 -0.0015478253 -0.025570469
00000000: 0f6f 663b c068 4b3b 325d 47bb 5bff 24bc
00000010: 4f73 ff3b 8c59 523b 01fb 53bc 4247 5bbb
00000020: 1014 8a3a 6bc6 d0bc d10f 5c3a 590c dbbb
00000030: 2b2f 263a 7e20 05ba 51a8 5ebb 291f 1dba
00000040: b22a 45bc 6eae 64bb 9efe c1ba 47b2 83ba
00000050: 0fdc 67bb 73f7 12bb baf5 60ba 5a1c 11bd
00000060: c4db a5bc 2b8f 1abd e8a6 463b 5b37 b738
00000070: d1e7 c53b 30eb 04bb 43f6 ff39 2018 3d3b
00000080: 921a 0bbd 8ba4 9d39 68ba 2bbb 90ea cbbb
00000090: baec 53bb e906 dbbb 7e5f 31bb 45f6 1bbd
000000a0: 2be4 21bb ec11 8fba 051c a9b9 8452 c93a
000000b0: 5ad2 8b3b cb10 ebbc bacd 09bd 6a2c 49bb
000000c0: a322 b8bc 442c 14bd f520 3c3b d29c 4cbb
000000d0: 8471 08bd cda9 323b 8fa9 2bba 9cea cfb9
000000e0: dd33 21bb b3a6 afbb 9fa8 0ebd d308 8fba
000000f0: 27c1 14ba 1367 ea3a 66e0 caba 2979 d1bc

r_bn2.running_var f4 [64]
0.00016819373 0.00026647723 0.0001597712 0.00033302844 0.00028732518 9.689932e-05 0.00037022514 0.0002746923
0.00027916077 0.0005273507 0.00023275755 0.00031396525 0.000119635784 0.00025937546 0.0003197592 0.00026179297
0.0004438029 0.00016706706 0.00021107942 0.0001768207 0.00035010444 0.00018405831 0.00023803498 0.0009702863
0.0006169657 0.0010442812 0.00023679304 0.00018674423 0.0001487283 0.00014910896 0.00015290204 0.0001637204
0.0008564413 0.00017928674 0.0002636884 0.000104165774 0.00016900785 0.00022652245 0.00020576178 0.0010606385
0.00013995821 0.00026992394 0.0001176731 0.00017818807 0.00021844287 0.00068328786 0.0009614051 0.00022842886
0.0007042604 0.0010967723 0.00021489192 0.00025526868 0.00090624817 0.00010926484 0.0002855489 0.0001955451
0.00034151913 0.000430548 0.0008883303 0.00019864393 0.00025837595 0.00021635434 0.00016690513 0.0006254106
00000000: 295d 3039 f8b5 8b39 4188 2739 529a ae39
00000010: 22a4 9639 6d36 cb38 c71a c239 9404 9039
00000020: 535c 9239 e83d 0a3a 6110 7439 b49b a439
00000030: f9e4 fa38 c9fc 8739 5aa5 a739 4241 8939
00000040: 38ae e839 b92e 2f39 3355 5d39 f268 3939
00000050: 398e b739 c7ff 4039 0799 7939 d05a 7e3a
00000060: debb 213a 43e0 883a a64b 7839 c6d0 4339
00000070: f3f3 1b39 225a 1c39 5454 2039 5cac 2b39
00000080: cd82 603a ebfe 3b39 a83f 8a39 9373 da38
00000090: b337 3139 a886 6d39 c2c1 5739 1f05 8b3a
000000a0: bfc1 1239 9484 8d39 44c7 f638 ffd7 3a39
000000b0: d00d 6539 ac1e 333a ce06 7c3a 6886 6f39
000000c0: 1e9e 383a 92c1 8f3a 9c54 6139 95d5 8539
000000d0: 4991 6d3a 1d25 e538 b9b5 9539 3d0b 4d39
000000e0: ec0d b339 2dbb e139 d6de 683a 134b 5039
000000f0: a276 8739 2ddd 6239 4103 2f39 98f2 233a

r_fc3.weight f4 [1, 64]
0.37730807 0.3747138 0.37882036 0.36939976 0.36155313 0.36874598 0.36950183 0.35963538
0.39049023 0.355832 0.38166517 0.36549145 0.37073532 0.37199992 0.3721866 0.37918976
0.36487433 0.3704141 0.37310413 0.38292426 0.36325777 0.38063174 0.37870994 0.3699733
0.37852934 0.35891992 0.3701451 0.3782189 0.3780675 0.38231868 0.36070886 0.36098003
0.36206388 0.3736413 0.36641935 0.36207992 0.3778637 0.36526582 0.3770385 0.36192587
0.37273175 0.37344414 0.3745058 0.36592668 0.36357033 0.366893 0.36643463 0.35953256
0.366913 0.3619636 0.38619825 0.36662364 0.35431612 0.37748724 0.36460602 0.36396804
0.38196498 0.37320223 0.37055117 0.35423845 0.37042668 0.37557334 0.3794411 0.36268964
00000000: 862e c13e 7dda bf3e bef4 c13e f721 bd3e
00000010: 7e1d b93e 46cc bc3e 582f bd3e 2122 b83e
00000020: 56ee c73e 9d2f b63e 9e69 c33e b221 bb3e
00000030: 05d1 bd3e c676 be3e 3e8f be3e 2925 c23e
00000040: cfd0 ba3e eba6 bd3e 8107 bf3e a60e c43e
00000050: ecfc b93e 2ae2 c23e 45e6 c13e 246d bd3e
00000060: 99ce c13e 5ac4 b73e a983 bd3e e8a5 c13e
00000070: 1092 c13e 46bf c33e d5ae b83e 60d2 b83e
00000080: 7060 b93e ea4d bf3e 519b bb3e 8a62 b93e
00000090: 5a77 c13e 1f04 bb3e 310b c13e 594e b93e
000000a0: b2d6 be3e 1234 bf3e 39bf bf3e be5a bb3e
000000b0: e425 ba3e 66d9 bb3e 529d bb3e a714 b83e
000000c0: 05dc bb3e 4b53 b93e c7bb c53e 18b6 bb3e
000000d0: ec68 b53e 0246 c13e a4ad ba3e 055a ba3e
000000e0: ea90 c33e 5d14 bf3e e2b8 bd3e be5e b53e
000000f0: 91a8 bd3e 264b c03e 1b46 c23e 75b2 b93e
