code/model/seed_2/QDANN_D_corn_2018.pth (torch, 32945 bytes, 14 tensors)

d_fc1.weight f4 [64, 32]
00000000: a1fa 8a95 20da 93a7 79f1 6494 8e89 d099
00000010: 29de 5898 2500 c69e e3b2 c69a 5873 4d9d
00000020: 18e7 50a3 a29c 9320 7514 421c cf01 c72a
00000030: da4e cea0 2b51 640d 70ae b99e 5d1c d79d
00000040: 98b7 9ea4 02b1 2422 ee04 799e e553 2ca2
00000050: 64e1 8e94 31de 3f14 4858 0594 4efb 6025
00000060: 95fc 6111 8914 8e9a 8bca b09a 309a fa27
00000070: 79f5 988c 10ce 211b 439e ce95 0b6c d719
00000080: dbf3 622f 8e8f 84a2 5ff4 a32c f747 db2b
00000090: fd02 fa29 3705 93a8 6390 3b31 3add 5c1e
000000a0: 8817 8925 e52b 259f 500f 12ab 726e 1aaa
000000b0: 003a 55a5 d7f7 8ea7 07d3 882b 47f1 0da0
000000c0: 385e aea7 e7f3 77aa 92f8 d7a2 f71a c12d
000000d0: 532c dd30 2a37 85ad f4fd a527 7a37 6029
000000e0: c7e1 a8a9 2ab6 6623 62c4 1030 b932 1522
000000f0: 40da 929e b86c c4ac 4ac2 d729 ec88 23ae
00000100: ac80 cc9f b3f6 8396 26e2 0fb1 c350 3c1b
00000110: 0c97 8820 e2b7 4d9d 20db 90a3 97a1 8e17
00000120: dd26 9614 71b5 dcab ebdd faa8 d395 982a
00000130: 46c9 c321 3193 9e9c 03cd 609e 94b0 5fac
00000140: db1c 829c c3bf 3e9f 19ab 671a e0d0 8d9d
00000150: b0b1 a7a0 e71d 6127 81d0 109d 4825 91a6
00000160: 44af b392 d22a 84ac 06dc ceb2 6bf3 001f
00000170: 1c7d 9ba3 bbf7 1227 8384 ef9c b0b7 e719
00000180: 3db1 f0a7 5bf0 cc2c 080a 352c 57be 81ae
00000190: 4e44 eda4 7774 b12a f248 0527 15cd 1b22
000001a0: 1ced 0d2c 5d86 ac15 df43 1b2a 46d7 7121
000001b0: 50e3 da28 7181 451c 7a6d a02a 1eda 4b2a
000001c0: 34ad 6c2a 918e 9127 1179 4529 e40e 8226
000001d0: e09f 952b eca6 a72e 7464 acaa abf0 07a5
000001e0: f739 7428 8677 ec9d a414 8eaa 144e 7a9d
000001f0: a4e6 d8a4 d4a4 d015 d7a9 f8a4 21cc 65aa
00000200: d791 e6ad d76f ceac 7cac 61aa d431 9c2d
00000210: 4c30 54a5 859f 07b1 8dbb 03a9 9ecd 162b
00000220: 4484 6428 4f95 f527 4baf dfa9 7d81 ff28
00000230: 7cac d828 d6a5 cead 59eb 1e28 5f93 90b0
00000240: e46b fda8 c8df d1ad 4c2f a1af 2307 22a8
00000250: f0d1 55a7 30e5 18b0 c942 4ea6 1af8 2f28
00000260: d0ea fa27 194e d22e 9da8 0633 5fb1 832c
00000270: d9ab 79aa 7e9f 9325 4070 f3ab fb7e 632a
00000280: 274a d4a3 347e a0a5 62ce 99a8 3d52 db24
00000290: 8206 2624 fe2f a1a7 a147 2e21 44d1 8823
000002a0: 7bf1 7fa7 163b cba3 734e 16a4 6927 229f
000002b0: 292a 6ba2 278c d4a3 f872 58a4 0641 d1a8
000002c0: 3b18 d92b be99 b79f 8974 cda9 dec4 f920
000002d0: 566f 3221 506d de26 ff1e d6a1 886f 6fa1
000002e0: 6e3f 8626 29e9 0920 0d94 3624 f116 dea8
000002f0: 6646 b120 c65b 1b9f 7426 bd23 811a f19f
00000300: f690 b62d 7cd7 fb2a 2950 b3a9 c017 c0ad
00000310: 7b93 b599 25c5 832e 1870 a5a2 7e1f e2ac
00000320: 6ec8 eaaa 2efa 222b e57a 6130 3357 d01e
00000330: 6b16 9e27 150b 1829 15cd 33a9 fdcc 2928
00000340: 79f6 c32b e293 cf29 4cd8 ae31 d9e0 bca0
00000350: f95c 5daa 56ae 10b0 0e90 02a5 67b5 2bac
00000360: 1058 a42c 2fb3 0299 4d62 a1a7 5a4d b4a5
00000370: b70f 38ab 7e75 49ae 7658 5b2a 06e6 9129
00000380: 5f7c 9820 24a6 8222 faf5 aa23 155d 8023
00000390: bb7a 1ba9 5933 87a6 ccd2 4b1a c991 ae90
000003a0: 3852 10a0 5186 05a0 5279 5ca3 39d2 699a
000003b0: 56c9 85a6 b285 b426 abe8 3920 34fc f31e
000003c0: baba 202c 23d8 5d96 0077 911e 117e 9b1e
000003d0: 8e08 b2ac 4757 0b9b ebfe f717 0dc8 00a1
000003e0: e09a 8b97 52f1 851c fa69 00ab bf86 d9ae
000003f0: 1a65 ee22 c3f1 0ead 104a 2e29 c3d0 b6a8
-5.613318e-26 -4.1037188e-15 -1.15586804e-26 -2.1562254e-23 -2.8029508e-24 -2.0964125e-20 -8.217989e-23 -2.7191155e-21
-1.1324639e-17 2.500642e-19 6.4215656e-22 3.5350756e-13 -3.4949937e-19 7.0355627e-31 -1.9659783e-20 -5.6939353e-21
-6.88326e-17 2.2319852e-18 -1.318297e-20 -2.335476e-18 -1.4427237e-26 9.686855e-27 -6.7321944e-27 1.9514048e-16
1.7827203e-28 -5.8763e-23 -7.311912e-23 6.955611e-15 -2.3567047e-31 1.338419e-22 -8.345243e-26 2.2274117e-23
2.0641215e-10 -3.5930666e-18 4.6598693e-12 1.558086e-12 1.11027486e-13 -1.632254e-14 2.7294156e-09 1.1692452e-20
2.3781657e-16 -3.4976418e-20 -5.189087e-13 -1.3716266e-13 -1.8494456e-16 -3.9681626e-15 9.721953e-13 -1.2022997e-19
-4.8396854e-15 -2.2022628e-13 -5.853905e-18 2.1953534e-11 1.6092464e-09 -1.5144847e-11 4.6072036e-15 4.978611e-14
-7.499865e-14 1.25069e-17 5.266597e-10 2.0220118e-18 -1.5548617e-20 -5.5827253e-12 9.581622e-14 -3.718352e-11
-8.661023e-20 -2.131988e-25 -2.093779e-09 1.5577091e-22 2.313925e-19 -2.722659e-21 -1.5705314e-17 9.217326e-25
1.5161458e-26 -1.56823e-12 -2.7851817e-14 2.7104585e-13 1.3266991e-18 -1.0493611e-21 -1.1900857e-20 -3.1788227e-12
-8.610137e-22 -4.0392687e-20 4.7907892e-23 -3.753836e-21 -2.8408484e-19 3.1241233e-15 -1.9166035e-21 -1.0071501e-15
-1.1339694e-27 -3.7564197e-12 -2.4081611e-08 2.7306405e-20 -1.685812e-17 2.0395865e-15 -1.5849947e-21 2.3959031e-23
-6.6805544e-15 5.8247135e-12 2.5727215e-12 -5.900052e-11 -1.0289808e-16 3.152233e-13 1.8497002e-15 2.1114987e-18
2.0168927e-12 6.9682235e-26 1.3790313e-13 8.193889e-19 2.4301443e-14 6.534913e-22 2.8497674e-13 1.8105697e-13
2.1021103e-13 4.0400155e-15 4.3847796e-14 9.024598e-16 1.0631461e-12 7.623932e-11 -3.062304e-13 -1.1790925e-16
1.355729e-14 -6.2592264e-21 -2.523859e-13 -3.312759e-21 -9.406579e-17 8.4270584e-26 -1.07840575e-16 -2.0410107e-13
-2.6212739e-11 -5.867289e-12 -2.0043857e-13 1.7757275e-11 -1.8404432e-16 -1.9735762e-09 -2.9250518e-14 5.3576056e-13
1.2685223e-14 6.816304e-15 -9.933598e-14 2.8366844e-14 2.405562e-14 -2.3493135e-11 8.821795e-15 -1.0519264e-09
-2.8135433e-14 -2.3859928e-11 -2.9319336e-10 -8.994354e-15 -2.9673495e-15 -5.5622973e-10 -7.156112e-16 9.76825e-15
6.9643523e-15 9.563567e-11 3.135266e-08 3.742936e-12 -2.2175264e-13 2.560851e-16 -1.7297344e-12 2.0205705e-13
-2.301649e-17 -2.7841094e-16 -1.7075917e-14 9.511543e-17 3.6001024e-17 -4.473851e-15 5.9048293e-19 1.4833777e-17
-3.5519266e-15 -2.2034328e-17 -3.2592514e-17 -3.4337434e-20 -3.1870758e-18 -2.3044443e-17 -4.6934916e-17 -2.323186e-14
1.5425503e-12 -7.775786e-20 -9.1240444e-14 4.2312517e-19 6.04561e-19 1.5433974e-15 -1.4509409e-18 -8.112396e-19
9.31531e-16 1.1681498e-19 3.9590363e-17 -2.46569e-14 3.0031552e-19 -3.289844e-20 2.0507707e-17 -1.0211132e-19
2.075538e-11 4.473608e-13 -7.9631024e-14 -2.183842e-11 -1.8774528e-23 5.99221e-11 -4.4842023e-18 -6.4268027e-12
-4.1705826e-13 5.7901156e-13 8.2029167e-10 2.2058921e-20 4.3878115e-15 3.3760392e-14 -3.9923865e-14 9.425834e-15
1.3923993e-12 9.2183e-14 5.0886566e-09 -3.199723e-19 -1.9661e-13 -5.263464e-10 -1.132451e-16 -2.440126e-12
4.6709372e-12 -6.757028e-24 -4.4793055e-15 -3.1277438e-16 -6.539174e-13 -4.5806463e-11 1.9481798e-13 6.479196e-14
2.5832103e-19 3.541248e-18 1.8535612e-17 1.391721e-17 -3.4523365e-14 -9.381425e-16 4.2149696e-23 -6.8855516e-29
-1.2224478e-19 -1.130998e-19 -1.19519145e-17 -4.8353087e-23 -9.283301e-16 1.2526247e-15 1.5747093e-19 2.5832935e-20
2.2841022e-12 -1.7920439e-25 1.540169e-20 1.6463403e-20 -5.060014e-12 -1.1526011e-22 1.6026351e-24 -4.363285e-19
-9.02176e-25 8.863582e-22 -4.5621807e-13 -9.891953e-11 6.4617075e-18 -8.125447e-12 3.87e-14 -2.0296595e-14

d_fc1.bias f4 [64]
00000000: 1200 0000 2502 0080 2802 0080 fd02 0080
00000010: c185 4f23 4703 0080 5403 0080 bc00 0080
00000020: ad00 0080 0c61 8b1c eb00 0000 5b3b bea5
00000030: 2f00 0000 f606 0000 6105 0000 4601 0080
00000040: cb02 0080 6903 0000 b900 0080 9001 0000
00000050: 5202 0000 f400 0080 e601 0080 1d02 0080
00000060: 7700 0080 a500 0080 7201 0080 843b 0000
00000070: 7001 0080 1402 0000 4000 0000 7502 0000
00000080: e506 0080 1d07 0080 eb01 0000 d991 5694
00000090: a395 2f0f 3407 0080 d93a 0000 441c 1ba6
000000a0: 9d00 0000 9700 0000 0703 0000 8a07 0080
000000b0: 4d00 0080 f679 0080 ee00 0000 d202 0080
000000c0: c984 aa28 fc00 0000 1e02 0080 8802 0080
000000d0: 2203 0080 7b1e 0080 5f01 0080 3100 0000
000000e0: 3704 0000 5701 0000 a600 0080 c500 0000
000000f0: 3002 0000 8200 0080 1600 0000 5302 0080
2.5e-44 -7.7e-43 -7.74e-43 -1.072e-42 1.1249816e-17 -1.176e-42 -1.194e-42 -2.63e-43
-2.42e-43 9.223334e-22 3.3e-43 -3.2999967e-16 6.6e-44 2.497e-42 1.93e-42 -4.57e-43
-1.002e-42 1.223e-42 -2.59e-43 5.6e-43 8.32e-43 -3.42e-43 -6.81e-43 -7.58e-43
-1.67e-43 -2.31e-43 -5.18e-43 2.135e-41 -5.16e-43 7.45e-43 9e-44 8.81e-43
-2.473e-42 -2.552e-42 6.88e-43 -1.0833002e-26 8.656985e-30 -2.584e-42 2.111e-41 -5.3814735e-16
2.2e-43 2.12e-43 1.086e-42 -2.705e-42 -1.08e-43 -4.3751e-41 3.34e-43 -1.012e-42
1.8931378e-14 3.53e-43 -7.6e-43 -9.08e-43 -1.124e-42 -1.0934e-41 -4.92e-43 6.9e-44
1.512e-42 4.8e-43 -2.33e-43 2.76e-43 7.85e-43 -1.82e-43 3.1e-44 -8.34e-43

d_bn1.weight f4 [64]
00000000: c195 c02f 197f 9e34 8819 f430 62fe 7d35
00000010: 6ef6 aa37 71e1 1734 1f9a 9a35 8505 c634
00000020: 6a3f 5832 607d 3d34 1e72 2e34 1715 b738
00000030: 8ab7 8c32 0bbc bf34 94e0 5d38 c6a2 513a
00000040: d764 3235 9524 13b5 23b2 6130 b123 c534
00000050: 3dc3 8033 adda 94b0 ab09 2433 7587 9739
00000060: 80c3 a833 4f0c 0e35 4dbe 8536 afbb 4faf
00000070: c3ba 8432 cb51 5c37 8144 d62a ff63 1b36
00000080: 0e78 fc35 346f 3b30 488d 01af 45ba 1735
00000090: 3518 7531 fed7 ab38 d46a 1438 95f2 b538
000000a0: 736c 8035 c1cf ab34 8504 f033 af92 0d39
000000b0: de14 0e35 d79d db35 79a2 3f34 c6d5 cd33
000000c0: 6ad9 b1b9 aab8 28b4 b791 8730 94b0 acb1
000000d0: 491c e437 b2f8 fcb1 9a75 bc2a a488 2e36
000000e0: 7ea6 8a30 e0f0 fc31 8fe3 e12e 4463 2737
000000f0: 2829 1033 d36d 2832 0ecd 8733 a40c 0a32
3.5031003e-10 2.952227e-07 1.7760593e-09 9.462002e-07 2.0380332e-05 1.4144986e-07 1.1518749e-06 3.688439e-07
1.25872734e-08 1.7647608e-07 1.6246528e-07 8.730048e-05 1.6381609e-08 3.5713342e-07 5.289966e-05 0.00079969724
6.645691e-07 -5.4815e-07 8.210767e-10 3.6720078e-07 5.995978e-08 -1.0830569e-09 3.819302e-08 0.00028901888
7.858671e-08 5.2917034e-07 3.985863e-06 -1.8893219e-10 1.5451752e-08 1.3132066e-05 3.806157e-13 2.3155005e-06
1.8810404e-06 6.8188233e-10 -1.1782675e-10 5.652294e-07 3.5665952e-09 8.194147e-05 3.538544e-05 8.675937e-05
9.568306e-07 3.2002393e-07 1.1176693e-07 0.00013501452 5.292949e-07 1.6362709e-06 1.7847368e-07 9.5849416e-08
-0.00033922057 -1.57134e-07 9.863957e-10 -5.0259334e-09 2.719289e-05 -7.3624387e-09 3.347711e-13 2.6007556e-06
1.0088141e-09 7.3615496e-09 1.0272238e-10 9.977088e-06 3.3565044e-08 9.803858e-09 6.3237266e-08 8.035531e-09

d_bn1.bias f4 [64]
00000000: 3b58 199e 9f90 9daf 07af 24a9 f203 19b1
00000010: c0aa b836 d889 36ab 5942 74af bf69 50ad
00000020: f66a 28a2 1a17 b130 19ed c1a9 16cf 2c36
00000030: b6a6 8bab 087e dba7 7060 16b3 6c9c 60b7
00000040: 7b6b 27b0 eff6 1baf 133f 52a3 3ba9 a7b1
00000050: a5ab 8ca9 8643 d9a7 1cb1 a4a6 e2b6 8bb6
00000060: 4741 91ab 2ce9 2fa9 f565 78af 166c c1a8
00000070: 2aaf 4ca4 cba8 70b0 4cb3 a3a6 940d 8ca9
00000080: a5c8 14ab 62ac 32a1 3fa5 9cab c3f0 35a9
00000090: be38 e2a5 867b 64b3 c7c9 13b1 d135 a834
000000a0: d5b8 99ae 524d b8ab f3e4 21a9 6dca 5eb5
000000b0: 3e19 b7af 5e7b 5baa 94d3 83ad 897e 81a8
000000c0: d970 1c39 2f6c bfa5 eb91 13a6 e4c2 34ac
000000d0: 1d7b 41b0 2e7e 97a5 f3b4 e99a 731d d8ac
000000e0: 4450 bda1 f4e0 47a4 fbeb 9d9a 4b82 fcaf
000000f0: 6cdc d0aa 1cbc 8fa5 bfaa 90a8 dc4a 86a9
-8.117998e-21 -2.8660893e-10 -3.6567127e-14 -2.2266673e-09 5.5035052e-06 -6.4850686e-13 -2.2215242e-10 -1.18469115e-11
-2.282487e-18 1.2885011e-09 -8.6120516e-14 2.5750537e-06 -9.922816e-13 -6.0921354e-15 -3.5012306e-08 -1.338786e-05
-6.0906985e-10 -1.4184896e-10 -1.1397479e-17 -4.879579e-09 -6.2470245e-14 -6.030281e-15 -1.1427792e-15 -4.163813e-06
-1.0320988e-12 -3.906005e-14 -2.2591691e-10 -2.147418e-14 -4.438382e-17 -8.755136e-10 -1.1358996e-15 -6.2196044e-14
-5.285861e-13 -6.0536893e-19 -1.1130332e-12 -4.03989e-14 -3.92432e-16 -5.319773e-08 -2.1506013e-09 3.1331595e-07
-6.990467e-11 -1.3095447e-12 -3.5947763e-14 -8.2996013e-07 -3.3305442e-10 -1.9493909e-13 -1.4986935e-11 -1.4376753e-14
0.00014919358 -3.3206526e-16 -5.1198626e-16 -2.5687725e-12 -7.0387945e-10 -2.6279827e-16 -9.665888e-23 -6.1423588e-12
-1.2828384e-18 -4.334179e-17 -6.5314925e-23 -4.5931112e-10 -3.710117e-13 -2.4934014e-16 -1.6061261e-14 -5.9637814e-14

d_bn1.running_mean f4 [64]
00000000: 9ac0 86a3 907b 902a 763b 1aad fc59 a4aa
00000010: 2427 3aae b492 5aa6 679f ee2c b0b3 baa7
00000020: 4851 d2a5 ba26 022a 5fc5 c12a af85 8331
00000030: e927 c329 d3ec 772a 79ee bfb1 ed22 5eb4
00000040: e8a2 ad2b 27d5 f9ab e4d9 9fa7 281f 3aae
00000050: 8274 9aac 422e 58ac 0899 0d27 01ae c733
00000060: f22f 042c accb 402a 93d3 e0a9 dad4 59ac
00000070: b5f1 c8a7 9724 692e 63cf 8628 f757 c229
00000080: ce2b 0fad 0a73 0da6 1bdf c4a9 c4a2 11ac
00000090: cdfe af2c ba44 2730 fcec 3cb1 f894 d1b0
000000a0: 29e4 0c2e 7553 a6ab 299e ef29 cfab 80b2
000000b0: 7d3a 12ab 7231 2fac 9091 7fa9 c4b2 4eac
000000c0: dca5 9835 d0be 8f27 042a f626 5d57 05a9
000000d0: d4d8 bcae 117a 8f2b 24ed 5ca7 0ede aea7
000000e0: f21e 34a4 31ca 0ca6 a7ad b89d 5620 232d
000000f0: 6513 8328 1c9d 362a a188 f022 f566 4620
-1.4609879e-17 2.5665277e-13 -8.7670895e-12 -2.9194691e-13 -4.2326267e-11 -7.5832763e-16 6.782064e-12 -5.182019e-15
-3.648427e-16 1.1559755e-13 3.442064e-13 3.8278e-09 8.666663e-14 2.2020172e-13 -5.585943e-09 -2.0688067e-07
1.2337605e-12 -1.7751676e-12 -4.4367603e-15 -4.2319176e-11 -4.3898782e-12 -3.0721124e-12 1.965064e-15 9.298311e-08
1.8784943e-12 1.7123689e-13 -9.9843006e-14 -3.0955711e-12 -5.577321e-15 5.3010565e-11 1.4966928e-14 8.63059e-14
-8.1383355e-12 -4.907511e-16 -8.742851e-14 -2.0696092e-12 5.0020877e-12 6.085191e-10 -2.749231e-09 -1.5249091e-09
3.203496e-11 -1.1818173e-12 1.06411685e-13 -1.497929e-08 -5.195079e-13 -2.4896443e-12 -5.674763e-14 -2.9373596e-12
1.1373154e-06 3.9897352e-15 1.7081067e-15 -2.9607708e-14 -8.5877666e-11 1.0194641e-12 -3.0659687e-15 -4.8535454e-15
-3.905749e-17 -4.884628e-16 -4.8883947e-21 9.272657e-12 1.4552333e-14 1.6219356e-13 6.519679e-18 1.6805318e-19

d_bn1.running_var f4 [64]
00000000: 3269 070b 0b2b c218 ece9 e21d 7ac8 8217
00000010: 4393 2e1f 6696 560f 9aee 761c 55c2 2f12
00000020: be09 a00e 5f6c 0518 9621 b717 c94e 0325
00000030: 1dfd df17 efe3 2d17 91b4 8326 7cad b22b
00000040: be4f 711a 392e dd1a 6485 1612 5bf3 631f
00000050: 5b16 101d 5ba3 d41a 733e a40f a249 a52a
00000060: b16e d419 e228 b716 0840 c316 bee0 2c1b
00000070: 8e8c c412 a487 041f 5224 9913 1901 d315
00000080: 281a b01c a18b 4a0e 8ba3 8916 216a ff1b
00000090: 7770 5c1c a397 c222 daab 7d25 6b20 9f24
000000a0: 7c16 321e bc87 231b 2b07 8717 adb0 eb27
000000b0: 2087 e118 b36e 381c 7d27 5815 05de 381b
000000c0: 45e4 252e 040e 1312 3aa4 4011 7cf3 e414
000000d0: 7c8f 4221 bc3f 131a 5914 a311 3d33 ea13
000000e0: f611 190b dcdd c80e 0f40 3a00 bc72 841d
000000f0: 7c88 c013 7dcc 0518 2050 110a 615d 5708
2.6079194e-32 5.0191287e-24 6.006357e-21 8.4516605e-25 3.6967745e-20 1.057998e-29 8.170296e-22 5.5459796e-28
3.9452427e-30 1.724456e-24 1.1834576e-24 1.1389132e-16 1.4474932e-24 5.6187007e-25 9.138894e-16 1.2695812e-12
4.9902047e-23 9.1478134e-23 4.749607e-28 4.827042e-20 1.9069799e-21 8.794506e-23 1.6195703e-29 2.936098e-13
2.1964994e-23 2.9591045e-25 3.1544359e-25 1.4300125e-22 1.2403988e-27 2.8064287e-20 3.8658445e-27 8.5223953e-26
1.1653464e-21 2.4965651e-30 2.2236754e-25 4.2254795e-22 7.293725e-22 5.2744357e-18 2.2002478e-16 6.9010176e-17
9.427891e-21 1.3526902e-22 8.72598e-25 6.5417155e-15 5.829758e-24 6.102357e-22 4.3652003e-26 1.5291862e-22
3.77194e-11 4.6402297e-28 1.5196736e-28 2.3118154e-26 6.5919657e-19 3.0450372e-23 2.5729406e-28 5.912043e-27
2.948024e-32 4.951745e-30 5.349439e-39 3.505874e-21 4.8602198e-27 1.7293087e-24 6.996566e-33 6.4808975e-34

d_fc2.weight f4 [64, 64]
00000000: 10d3 6b25 d4cc 2329 8ba3 44ab c6a4 21ac
00000010: 8092 1232 5748 c52b d07b 862d a8a9 4d24
00000020: 4471 839b 0aab fa2d 68d2 b4aa 1ace 1234
00000030: fc29 d527 ab5e 07ac f258 df30 1368 da34
00000040: 4fa6 b92d eb3b 4fa7 5358 2f22 5742 6633
00000050: d2d0 47a5 77fe cb98 40fc df27 6ebd 9db4
00000060: d49e 9baa b067 f830 dece 86ad 92f6 6e29
00000070: e914 99a7 28a1 b631 cdb7 062a a92b 6928
00000080: 34ce 9cac a24e 21a4 bd63 b5a7 ea92 842a
00000090: 54ea 8429 4b77 e4af a06d 31b1 aed5 f232
000000a0: d985 5b30 28a5 46ae 51fe 6a22 d6c9 1bb2
000000b0: ae13 ffa1 e340 a129 7490 4fac f78d a426
000000c0: c1a4 33b6 c693 9c29 ea0c e3a4 c281 b428
000000d0: 1ac9 892d 71df 1325 1c25 329c c533 8d2f
000000e0: af2e 479e e9bc cbab c268 36af e8fb 6a9c
000000f0: e726 40ad efcb e024 3ea1 8c28 c0f5 0ba4
00000100: 134e 0380 4828 999a d7de dd90 b045 719d
00000110: 5ad7 ae28 ac0f 0526 4532 9ea1 fe8b 1f99
00000120: 82f9 3390 e44c b316 f384 ae0f 5043 8aaa
00000130: 1681 831b 00e9 821e 4421 9329 e0e1 a1ad
00000140: cf7f 53a6 3514 0380 39b0 d98e d498 e023
00000150: b0cd 2423 0a5d 6c02 64b0 2b0b c4c4 14b1
00000160: c498 2e24 20c0 039d fb7e 831b bc8c 839a
00000170: a392 569b 0c4a 54ab 6ffb e310 9c80 3fa3
00000180: c268 8b26 3356 740f 7eff df9a f0c5 c021
00000190: 81df d297 cdce 632b 93b6 dda1 ea2a afa5
000001a0: f99c ab26 6ac5 621e 957b 1796 c857 4023
000001b0: bc36 549d 2364 0198 84bd 629d b835 8125
000001c0: 7e68 9ba4 a1e2 fa25 791e 0080 b17c 0000
000001d0: c6d3 b9a5 12cd e79a df0c 841f 6eef 971e
000001e0: 9a77 6f0c 80c0 220a 6880 169a 2a31 4b97
000001f0: 0ec1 a19d 3ddf 7980 ce0c 6797 d6c1 a416
00000200: 8f1f c1a3 34c2 e19e 150c 2024 aac5 b21d
00000210: 48b3 022b fd21 3c22 951c 5021 1a11 d390
00000220: 3157 e701 25d4 0697 d39a 039a 4b42 882a
00000230: 2149 8a9a 36da 1aa1 6d75 112a 3379 ebac
00000240: 2470 1fa0 8121 3f1a 5bf1 9184 350a faa6
00000250: f84d c19e ef1e 8d8d 121a 9f96 9041 112d
00000260: 83b6 eea2 4501 81b0 1e33 c029 2736 b89e
00000270: b112 099d 892f 2e28 6239 9c8f 9397 cf28
00000280: 430b 4f26 5fe5 991f 598b 2e87 428b 0e18
00000290: fd20 230d 48e6 86a9 3358 1ea2 180e 9429
000002a0: b2be 0894 57e4 4994 500c 1ea6 d287 b728
000002b0: 5d32 a298 7809 5f22 1852 911c c1b4 2422
000002c0: 6805 d4a2 1948 e894 65d6 2aa6 18b0 b8a5
000002d0: aa26 38a6 0f4f b193 293c 8e1d b8d4 7624
000002e0: 264d 1c19 d22a cd1f b2c7 1f9b 8509 9a11
000002f0: f81c a49b 369f 7790 19fd 749b 06b5 7490
00000300: c378 3507 c9e1 d0a1 9bf9 2f18 f942 a393
00000310: 0a2d 8825 a5dd fb1f 2046 b1a2 01a6 571b
00000320: 7a7c 0080 8cee 9e9d 13ca 1c98 bc30 b0a6
00000330: 0f47 831e 1a8c d625 7efe 17a9 03c0 8ead
00000340: fe44 0ba6 272b 258a d12b 7e04 3801 812a
00000350: b1ca 559e 9177 0c8a 2d1c 9a9c 38c9 78ab
00000360: 2e12 521e 5d2f 049c 4213 88a5 e86a 5a20
00000370: d3f6 0a8f 832d 29aa 39aa 0506 a9bf 6ea3
00000380: 73b2 4225 dc47 afa1 2dc6 4929 daa3 ce15
00000390: 0f57 a09a 6cd7 b6a6 354d cf25 b3b8 e42c
000003a0: 01c3 89a7 ca65 8725 94e3 0786 8e2a 20a9
000003b0: 6402 0e8f 3887 cd18 9725 4f25 4be4 02a5
000003c0: 2946 84a9 a239 55a3 8e4e a10d a5d2 ab93
000003d0: f602 10a4 d730 339d f628 1812 0282 0ea5
000003e0: c5f5 bc1c 1ebf 511b 7ea6 5920 57eb 4e98
000003f0: af1c 22a2 3a97 9c98 f930 5894 aeac 5292
2.0454512e-16 3.637093e-14 -6.986015e-13 -2.2970944e-12 8.531629e-09 1.401777e-12 1.528902e-11 4.4595994e-17
-2.1745328e-22 2.8497666e-11 -3.2120422e-13 1.3672289e-07 5.9164896e-15 -1.9237205e-12 1.6250665e-09 4.0681388e-07
2.110592e-11 -2.8759502e-15 2.376368e-18 5.3611384e-08 -1.733125e-16 -5.2731214e-24 6.2168424e-15 -2.9381357e-07
-2.764374e-13 1.8073845e-09 -1.5325904e-11 5.306048e-14 -4.24887e-15 5.3152185e-09 1.196536e-13 1.29435655e-14
-4.45668e-12 -3.4977915e-17 -5.034573e-15 2.3549852e-13 5.902627e-14 -4.155772e-10 -2.5819205e-09 2.8269678e-08
7.9861945e-10 -4.5166676e-11 3.1847548e-18 -9.06808e-09 -1.7284681e-18 7.161092e-14 -2.9496657e-12 1.1418266e-15
-2.6768978e-06 6.953426e-14 -9.8467435e-17 2.0040288e-14 1.5664404e-11 1.2825922e-16 -5.894322e-22 2.5684535e-10
-1.0544626e-20 -1.4476451e-12 -1.6590021e-10 -7.7749687e-22 -1.09225745e-11 9.748999e-17 1.561305e-14 -3.034898e-17
-3.03514e-40 -6.3344395e-23 -8.751247e-29 -3.1932112e-21 1.9411274e-14 4.6164884e-16 -1.0719803e-18 -8.2483785e-24
-3.549374e-29 2.8967535e-25 1.7208935e-29 -2.4560432e-13 2.1755552e-22 1.3860652e-20 6.533882e-14 -1.840389e-11
-7.3378544e-16 -2.82755e-40 -5.3664326e-30 2.4350854e-17 8.934014e-18 1.7365243e-37 3.3066104e-32 -2.1648683e-09
3.7859633e-17 -1.7437032e-21 2.175419e-22 -5.44077e-23 -1.7749046e-22 -7.542029e-13 8.992311e-29 -1.0381365e-17
9.673457e-16 1.204673e-29 -9.264341e-23 1.306282e-18 -1.3627352e-24 8.0933594e-13 -1.502387e-18 -3.038674e-16
1.1908056e-15 1.2005165e-20 -1.2236678e-25 1.0426929e-17 -2.8086263e-21 -1.6723415e-24 -3.0008828e-21 2.2414334e-16
-6.739755e-17 4.3521657e-16 -1.0932e-41 4.4731e-41 -3.2235888e-16 -9.587067e-23 5.592547e-20 1.6086773e-20
1.8447882e-31 7.8362215e-33 -3.1123e-23 -6.565489e-25 -4.281596e-21 -1.1192178e-38 -7.4656287e-25 2.6617957e-25
-2.0938468e-17 -2.3903122e-20 3.4704703e-17 4.7320588e-21 4.643408e-13 2.5496744e-18 7.051097e-19 -8.3251175e-29
8.498111e-38 -4.35655e-25 -2.721523e-23 2.4204453e-13 -5.719361e-23 -5.246603e-19 1.2919327e-13 -6.6925575e-12
-1.3504928e-19 3.952494e-23 -3.4310986e-36 -1.7350001e-15 -2.0466917e-20 -8.697243e-31 -2.5704288e-25 8.2568535e-12
-6.470327e-18 -9.386346e-10 8.53538e-14 -1.9504155e-20 -1.8141462e-21 9.669248e-15 -1.540489e-29 2.3047351e-14
7.1832814e-16 6.517748e-20 -1.3131256e-34 1.8423377e-24 5.026796e-31 -5.990743e-14 -2.1459685e-18 6.574965e-14
-6.903853e-27 -1.0192939e-26 -5.483395e-16 2.0375984e-14 -4.1926872e-24 3.0227148e-18 9.616516e-22 2.2321835e-18
-5.746844e-18 -2.3454451e-26 -5.9271157e-16 -3.2038238e-16 -6.3890223e-16 -4.475904e-27 3.764929e-21 5.3522927e-17
8.080591e-24 8.689172e-20 -1.3216697e-22 2.4302783e-28 -2.7150245e-22 -4.8834813e-29 -2.0264987e-22 -4.825997e-29
1.3652415e-34 -1.4154393e-18 2.2744238e-24 -4.1213025e-27 2.362276e-16 1.06669315e-19 -4.8050194e-18 1.7838022e-22
-4.4654e-41 -4.2068903e-21 -2.0264549e-24 -1.2225663e-15 1.3899554e-20 3.721802e-16 -3.3749472e-14 -1.6228801e-11
-4.8318814e-16 -7.952577e-33 2.9877676e-36 2.291585e-13 -1.1318042e-20 -6.763243e-33 -1.0198148e-21 -8.8386546e-13
1.1121067e-20 -4.373635e-22 -2.360529e-16 1.850069e-19 -6.851462e-30 -1.5026005e-13 2.513958e-35 -1.29425915e-17
1.6887279e-16 -1.1877482e-18 4.4802856e-14 8.346125e-26 -6.63151e-23 -1.2687177e-15 3.5961093e-16 6.5006555e-12
-3.8236562e-15 2.3487742e-16 -2.5557876e-35 -3.5564047e-14 -7.001601e-30 5.3127794e-24 1.7967124e-16 -1.1353051e-16
-5.8741484e-14 -1.1558957e-17 9.941302e-31 -4.337418e-27 -3.122753e-17 -2.3715702e-21 4.801323e-28 -1.2360585e-16
1.2504326e-21 1.7349828e-22 1.8435703e-19 -2.6743692e-24 -2.1970279e-18 -4.0477755e-24 -1.0914871e-26 -6.647716e-28

d_fc2.bias f4 [64]
00000000: e3cf 09b3 5b00 0000 2402 0080 6701 0000
00000010: 3de8 b2b0 4a00 0000 4900 0000 d432 0ab3
00000020: d100 0000 c112 16b1 d400 0080 50c2 b9b1
00000030: 6a00 0080 2302 0080 83b6 6eaf a802 0000
00000040: 4f00 0000 6701 0080 3f01 0000 4300 0080
00000050: f8dc 022f bb06 0080 4600 0000 8900 0080
00000060: 6b00 0080 c802 0080 c700 0000 8a01 0080
00000070: 2f00 0080 2301 0080 b100 0000 3102 0000
00000080: 7656 2db3 a700 0080 b587 51b0 d601 0080
00000090: bb00 0080 6201 0000 4603 0000 8900 0080
000000a0: 4a48 31af 5101 0000 1e01 0080 d200 0000
000000b0: 3b01 0080 3701 0080 7e03 0000 ca01 0080
000000c0: 9e00 0080 0268 adaf 9d03 0080 0a01 0080
000000d0: e102 0000 e091 5530 0d84 7db0 0901 0000
000000e0: 9e79 1cb2 8b02 0080 b100 0000 5400 0080
000000f0: 5402 0080 8900 0080 9001 0000 bf00 0080
-3.208687e-08 1.28e-43 -7.68e-43 5.03e-43 -1.3017211e-09 1.04e-43 1.02e-43 -3.2176857e-08
2.93e-43 -2.1838533e-09 -2.97e-43 -5.4062994e-09 -1.49e-43 -7.67e-43 -2.1710815e-10 9.53e-43
1.11e-43 -5.03e-43 4.47e-43 -9.4e-44 1.1901935e-10 -2.414e-42 9.8e-44 -1.92e-43
-1.5e-43 -9.98e-43 2.79e-43 -5.52e-43 -6.6e-44 -4.08e-43 2.48e-43 7.86e-43
-4.0358337e-08 -2.34e-43 -7.622661e-10 -6.59e-43 -2.62e-43 4.96e-43 1.174e-42 -1.92e-43
-1.6123738e-10 4.72e-43 -4.01e-43 2.94e-43 -4.41e-43 -4.36e-43 1.253e-42 -6.42e-43
-2.21e-43 -3.154242e-10 -1.296e-42 -3.73e-43 1.033e-42 7.769625e-10 -9.222852e-10 3.71e-43
-9.108048e-09 -9.12e-43 2.48e-43 -1.18e-43 -8.35e-43 -1.92e-43 5.6e-43 -2.68e-43

d_bn2.weight f4 [64]
00000000: 2e9d 1b3c 1d53 323a 25fc 1139 a209 6a38
00000010: 173a a23b 997f b739 ab5a 643a e336 023c
00000020: 7b3a e03a 7551 8b3b 8650 ba3a 9c7d 483c
00000030: 52fd 9638 a79a 013b 89be 3c39 046c 7f38
00000040: 0a3c 3b39 5d39 ed39 db5d 2d3b b916 b439
00000050: ff57 543b 2730 5b38 fe9a 5938 f217 173c
00000060: b8a0 0438 0731 7e3b 8123 013a 1d98 0339
00000070: 12a2 8638 46a4 7138 5247 a43c 2030 1138
00000080: 9bfe ac3c 7c37 2f38 da25 8c3b c0fb bb3a
00000090: 03d4 c038 f4a1 2f39 ef4a 7a3a 912e 7d38
000000a0: 4ad7 073b 43c7 5c38 e6e6 7e3a 4f95 4238
000000b0: 27ec 5a38 3e87 c537 27fb 773a 6aab 1a3a
000000c0: f68d fd39 0430 073b 9b11 6138 bcf7 0d38
000000d0: 03b4 883a d5e1 ac3c b560 2d3a fd42 e33b
000000e0: d07e 0e3c 3e9b 2539 5cd4 bf3a 0f26 fc37
000000f0: ae2a 9338 606b be38 e276 9238 fd2e 223b
0.009497924 0.0006802546 0.00013922209 5.579892e-05 0.0049507725 0.00034999548 0.00087110203 0.007947656
0.0017107272 0.004251654 0.0014214672 0.012236979 7.199742e-05 0.0019776018 0.00018000057 6.0897335e-05
0.00017856076 0.00045246902 0.0026453647 0.00034349205 0.0032401083 5.2258514e-05 5.188118e-05 0.009222018
3.1620933e-05 0.0038786547 0.000492625 0.000125498 6.419806e-05 5.761187e-05 0.02005354 3.4615514e-05
0.0211175 4.1774925e-05 0.004276973 0.0014341995 9.194764e-05 0.00016749633 0.0009547909 6.036327e-05
0.0020727688 5.2637664e-05 0.00097237376 4.639226e-05 5.2195184e-05 2.3547207e-05 0.0009459727 0.00059001765
0.0004836169 0.0020627985 5.3660577e-05 3.384774e-05 0.0010429624 0.021103779 0.0006613837 0.006935476
0.008697227 0.00015793458 0.0014635432 3.0058463e-05 7.017456e-05 9.079906e-05 6.983966e-05 0.0024747245

d_bn2.bias f4 [64]
00000000: fde0 d63b 0a08 4ab8 854d 38b5 0471 eeb3
00000010: 0072 f23a 8a0b 4cb7 8321 d2b9 d1b0 f23b
00000020: ea2e 13b9 69f1 5f3b 11c0 9fb8 3497 ed39
00000030: 5b18 34b2 5dd0 04ba 6d62 413b 3113 00b5
00000040: 92d8 10b7 389d 9db8 b311 29ba 4d5a e0b6
00000050: c414 1039 86ac 7db6 4db1 12b5 c0d3 a3b9
00000060: 16e5 89b0 1fa7 31b9 4d46 74b7 cadd fbb4
00000070: 047a 29b7 0c69 ccb4 a316 8cba 88a5 d5b5
00000080: 374a 2a3b e367 61b5 b637 903a f246 9eb8
00000090: 2aa5 c3b5 0303 46b7 00b9 9eb8 869e cdb5
000000a0: 6b31 b539 be8f 8cb5 d9fb 61b9 4a52 5db6
000000b0: f594 b5b7 643e d2b3 0a2e d3b7 5717 48b7
000000c0: e229 4ab7 ffb0 033b 9b7e cab3 4f27 b6b3
000000d0: 5ab3 1ab7 404c cd39 6d6c a03b df97 0dba
000000e0: ecd5 ba3b 8ca2 51b6 5902 64b8 addc 66b1
000000f0: 7660 83b5 3e9a b2b5 1af4 c2b3 c7cc 81b9
0.0065575824 -4.816804e-05 -6.865815e-07 -1.1103296e-07 0.0018497109 -1.2162034e-05 -0.0004007929 0.007406332
-0.0001403649 0.0034170991 -7.617486e-05 0.00045316818 -1.0482917e-08 -0.0005066449 0.002950813 -4.7711643e-07
-8.633493e-06 -7.515628e-05 -0.0006449476 -6.6862326e-06 0.00013740646 -3.780036e-06 -5.4647245e-07 -0.0003124755
-1.0033172e-09 -0.00016942293 -1.45599015e-05 -4.6913766e-07 -1.0101594e-05 -3.8074393e-07 -0.0010687899 -1.5917913e-06
0.0025984177 -8.3970207e-07 0.0011002931 -7.547242e-05 -1.4576701e-06 -1.1802421e-05 -7.568486e-05 -1.5319827e-06
0.0003455983 -1.0472647e-06 -0.00021551493 -3.2979465e-06 -2.1646245e-05 -9.790236e-08 -2.5174599e-05 -1.1926363e-05
-1.204989e-05 0.0020094512 -9.4293874e-08 -8.4821856e-08 -9.220874e-06 0.00039157458 0.004895738 -0.00054013537
0.005701771 -3.1238042e-06 -5.4361622e-05 -3.3594845e-09 -9.788334e-07 -1.3306924e-06 -9.078231e-08 -0.00024757368

d_bn2.running_mean f4 [64]
00000000: 8847 06b3 147b 19a1 8d00 6f22 6607 f6a2
00000010: 7c8f bbb0 bb31 ca20 be87 b2aa 17f7 0bb3
00000020: c5d5 24ac 294f 0db1 4ce4 51a3 dbd1 bdb1
00000030: 4096 8118 41bd 072b 157b 4eaf a862 da25
00000040: f163 cf99 630d ffa1 461b 772d 1abc 8219
00000050: fdc6 1d2f 646e 20ab 26a6 d29f 8688 052f
00000060: 1cd1 e1a5 8ce0 5eab 2d48 1d20 51a6 fc1c
00000070: 7da0 0d9d f643 129e ebf2 1b2f 9b61 49a7
00000080: 032e 3eb3 1aed 75a5 9b8f 4cb0 2abe 552f
00000090: ff6a b8a1 07a6 a49d f88e 7b2d 9644 fb1c
000000a0: 90e5 2eaf da1a 7024 52ff 4023 e61f b19c
000000b0: d1af 561f a003 4c1e ae33 de2d d87e 0d26
000000c0: c3a0 939a 1699 7aaf 447b 06aa 2c15 6323
000000d0: 5671 d324 a7ed 0030 c320 80b0 36e3 1f31
000000e0: 6b51 19b2 e2c6 f028 8c5a bd1b fe14 98a4
000000f0: 3747 5619 195a e520 afb4 2795 685f 9f2c
-3.1264364e-08 -5.200131e-19 3.2390831e-18 -6.6686267e-18 -1.3646821e-09 3.425304e-19 -3.1713342e-13 -3.2588186e-08
-2.3424468e-12 -2.0563198e-09 -1.13782564e-17 -5.5244818e-09 3.3497432e-24 4.8224277e-13 -1.8779318e-10 3.7883824e-16
-2.1443664e-23 -1.7283016e-18 1.404638e-11 1.3517659e-23 1.4349762e-10 -5.6996617e-13 -8.921333e-20 1.2144782e-10
-3.9172976e-16 -7.9181865e-13 1.3322298e-19 1.6718953e-21 -1.8744165e-21 -7.74323e-21 1.418347e-10 -2.7947266e-15
-4.427967e-08 -2.1330696e-16 -7.4418843e-10 1.9439797e-10 -1.2496647e-18 -4.3582107e-21 1.4299444e-11 1.6627516e-21
-1.5906765e-10 5.206445e-17 1.0462407e-17 -1.1721123e-21 4.5461695e-20 1.080042e-20 2.5261428e-11 4.909111e-16
-6.10575e-23 -2.2791755e-10 -1.1944357e-13 1.2310178e-17 9.169866e-17 4.6903853e-10 -9.322537e-10 2.32667e-09
-8.924284e-09 2.6731604e-14 3.1325942e-22 -6.5955054e-17 1.10779224e-23 3.885373e-19 -3.3867916e-26 4.529644e-12

d_bn2.running_var f4 [64]
00000000: f236 3e20 7a2f 0c03 ca19 1405 577b d806
00000010: b5cb df1b fab1 d804 ba3d fc15 b3a3 2120
00000020: 73c4 db18 4461 c91d 062f b206 ec42 071d
00000030: 0400 0000 3898 9116 4002 0c15 56ff b70b
00000040: 0400 0000 2641 8404 3dd7 701b 0400 0000
00000050: 0b99 9519 dd43 cb16 8ff8 5600 3e94 8c1e
00000060: 2347 490c f691 5017 1ec9 c700 9207 0000
00000070: 380a 0000 b5a1 0000 743e d21e c186 210f
00000080: b855 0d23 acda 1e0b b372 b91a 9739 341f
00000090: 4136 2104 004f 0000 9efb 791b 0704 0000
000000a0: 5919 9017 4d31 5609 54dc ad06 1409 0000
000000b0: dd9c 1600 d797 0100 ede6 411c 5ce6 190c
000000c0: 0400 0000 ec9b f61b 20d5 8e14 9b31 3f07
000000d0: 737f 250a 8cd5 691f 2e46 2f1d 3596 ca22
000000e0: 27a6 d81c 44de 6512 3802 0000 f366 b009
000000f0: 0400 0000 ca22 5702 0400 0000 a235 d719
1.6111806e-19 4.1196803e-37 6.963663e-36 8.14314e-35 3.7023898e-22 5.09448e-36 1.01879377e-25 1.3691394e-19
5.6808536e-24 5.3304827e-21 6.7025253e-35 1.79017e-21 6e-45 2.3522077e-25 2.827455e-26 7.087322e-32
6e-45 3.109288e-36 1.9921882e-22 6e-45 1.5468052e-23 3.2839247e-25 7.987019e-39 1.4884388e-20
1.5505884e-31 6.7392653e-25 1.8347411e-38 2.716e-42 3.666e-42 5.801e-41 2.2260445e-20 7.9638655e-30
7.661777e-18 3.0594204e-32 7.6699513e-23 3.816412e-20 1.8950371e-36 2.834e-41 2.0678099e-22 1.445e-42
9.312181e-25 2.5782494e-33 6.539911e-35 3.257e-42 2.076653e-39 1.46305e-40 6.415681e-22 1.1856013e-31
6e-45 4.0798048e-22 1.4422399e-26 1.4383821e-34 7.9684316e-33 4.951631e-20 2.319734e-21 5.4911248e-18
1.433663e-21 7.2533622e-28 7.96e-43 4.246727e-33 6e-45 1.5805689e-37 6e-45 2.2252141e-23

d_fc3.weight f4 [2, 64]
00000000: 0651 663c ca0d 5b3c 61d6 673b d57e 60bc
00000010: 103c 3c3c 81b7 68bc 8e1c 1a3b 0e34 6c3c
00000020: e9f5 b6ba 124c a63c 7fe7 803b 5356 a83b
00000030: 4dc5 7bbb 8db3 39bc 6ad3 b33c 03a7 12b9
00000040: 6522 f93b b2cd 813b bc14 98ba ff5a 6ebb
00000050: fcca 26bc e2cc fdba 018c 9b3b 1541 643b
00000060: 065c 1e3b 11c2 ac3a 1b76 243c 2b71 16bc
00000070: 0cff 343b a54b 0ebc a297 b4ba 4b12 8bbb
00000080: 2007 7e3b a13e f2bb d4f1 b5bb 5965 d7bb
00000090: 71f3 fe39 b041 10bb 10dc c23c d107 4eba
000000a0: a306 bfbc 623a 693a 072f 4d3c 5f2b 3ebc
000000b0: 0eed 6db8 0686 88bb 5dad 003b 3fe9 7a3c
000000c0: 953b a4bc 28a5 203c 3603 96bb f2fd 273c
000000d0: 4eed 833b 3f08 2abb 1cb0 a03c 5f69 5abb
000000e0: 32be a03c 327e 23bb 7084 213b d509 0dbc
000000f0: 8ab5 d03b 1cf8 34bb b515 ffbb 6624 b93c
00000100: f553 1dbc 1e00 8d3c 0f59 e73b d8a7 2ebc
00000110: cdd7 f03b 4824 2bbc 3ac9 1ebc fb9b 81ba
00000120: 9c52 6dbc 1cb9 443c ef30 843b 0867 663b
00000130: 3774 82bb 8f2e 0f3b 95b0 443c e87e af3b
00000140: ca32 0a3c 0820 953b 84bd 4f3c 1a1a 6ebb
00000150: cf67 18bc d348 b4bb 2338 4b3c dabc 143c
00000160: fbb0 183b d53b 87ba dbd3 2e3c c0e9 15bc
00000170: 792e d13b 8132 dabb 804f 69bc 3199 fbbb
00000180: 627f 31bc 35a0 5cbc 375b dfbb 9698 e83b
00000190: 3215 ea3b 445e fd39 98c0 393c c55a 9c3b
000001a0: db1c c4bc 704d cebb ce55 8b3c 49ae eabb
000001b0: b324 d03a a84b b5bb 8e81 a2bb ca4b 263c
000001c0: 6fec 8dbc d8fa 753b c248 183b a019 f23b
000001d0: ee87 ad3b 4c30 3abb c5a3 7d3b 993a d3bc
000001e0: c46c 243c c0cf b6bb 27d3 103b 06c1 0fbc
000001f0: b416 e73b a668 173b 381b 02bc 0fd6 ad3b
0.014057403 0.013369987 0.0035375583 -0.013702114 0.011488929 -0.014203907 0.0023515555 0.014416708
-0.0013958785 0.020299945 0.0039338465 0.005137244 -0.003841716 -0.011334312 0.021951396 -0.00013985862
0.007602977 0.0039612884 -0.0011602859 -0.0036370156 -0.010180231 -0.0019363428 0.0047469144 0.003482883
0.0024163737 0.0013180395 0.010037924 -0.009182255 0.002761784 -0.008685027 -0.00137781 -0.004244124
0.003876157 -0.00739272 -0.00555251 -0.006573361 0.00048628033 -0.002201181 0.023786575 -0.0007859441
-0.023318594 0.00088969443 0.012523419 -0.01160702 -5.6725978e-05 -0.0041663675 0.0019634583 0.015314399
-0.020047942 0.009805001 -0.0045780195 0.010253416 0.0040260917 -0.0025944856 0.019615225 -0.0033326966
0.019621942 -0.0024947044 0.002464559 -0.008608301 0.0063692974 -0.0027613705 -0.00778457 0.022600364
-0.009602536 0.01721197 0.007060177 -0.010660134 0.007349944 -0.010445662 -0.009691531 -0.0009888405
-0.014485028 0.012007024 0.0040341537 0.0035156626 -0.003981139 0.002184782 0.012004991 0.0053557046
0.008434961 0.0045509376 0.012679461 -0.0036331476 -0.009302094 -0.0055018454 0.012403521 0.009078229
0.0023298848 -0.0010317514 0.0106706275 -0.009149969 0.006383714 -0.0066588526 -0.014240146 -0.007678174
-0.010833593 -0.013465931 -0.0068162936 0.007098268 0.00714364 0.00048326154 0.011337422 0.0047715628
-0.02393954 -0.0062958524 0.017008688 -0.0071618897 0.0015880078 -0.0055327006 -0.004959292 0.010149905
-0.017324654 0.0037533548 0.0023236726 0.0073883086 0.005295745 -0.0028410135 0.003870235 -0.025784777
0.010035697 -0.005578965 0.0022098513 -0.008774048 0.007052267 0.0023103147 -0.00794106 0.005305059

d_fc3.bias f4 [2]
00000000: 0075 953e 3266 30be
0.29190826 -0.17226484
